reports/training_DEAM_VA_gain_shift_gain_lowpass_highpass_bandpass_pitch_shift_2026-01-11_17-18-51/training_DEAM_VA_gain_shift_gain_lowpass_highpass_bandpass_pitch_shift_2026-01-11_17-18-51.pth (torch, 156572 bytes, 10 tensors)

weight_ih_l0 f4 [192, 32]
-0.08560117 0.04932025 0.007946486 -0.085176975 -0.034510702 -0.10646291 -0.0788809 -0.061445523
-0.058616433 0.077707306 -0.0017772352 -0.043161757 0.032545604 -0.010106499 0.15574011 0.05780263
-0.04394652 -0.04431172 0.046036687 -0.05153956 -0.004535591 0.087944925 -0.050022967 -0.047851108
0.050167207 0.026908003 0.1558749 -0.09437569 -0.07593624 0.02081347 -0.11150387 -0.021400614
0.0011081075 0.10206577 0.12471319 -0.061549205 -0.026901638 0.10057971 -0.1181509 -0.012887638
-0.06281813 -0.077968255 -0.10312604 -0.009161443 -0.10334454 -0.085712455 0.030558884 -0.016666349
0.02518378 -0.2574531 -0.11286755 0.109808594 0.12126814 -0.14428027 -0.042729415 -0.06427914
0.05392216 0.08665141 0.09703217 0.049382813 0.023854783 -0.06331973 -0.020121716 0.08110134
0.10352315 0.02153475 -0.058181845 0.028278721 0.0019499611 -0.011729715 0.010902357 -0.13103722
0.045390822 0.10662052 -0.114970244 -0.2085617 0.074274965 -0.027190726 -0.19936295 0.0018065531
-0.21735203 -0.09901729 0.03133195 -0.0129752355 -0.086548105 0.08725172 -0.022187795 0.015702067
0.06308988 -0.0087363785 -0.074283406 0.121095 -0.03473941 0.110438384 0.12602557 -0.11598031
0.11567804 -0.029786278 -0.0016595718 0.0751288 -0.16473182 0.009105092 0.09206491 -0.07314472
-0.05194766 -0.105653346 0.047612686 0.00993818 0.09894775 0.19780739 -0.008480979 -0.11881604
0.098492816 -0.15720192 0.07631882 0.081854165 0.048889503 0.14770499 0.11167705 0.03338441
0.0020832014 -0.0743444 -0.037571933 -0.0032117905 0.11033599 -0.032135 0.1057703 0.027040508
0.012928641 0.048137844 0.0144448215 0.014474247 0.12238599 -0.04274059 -0.09035079 -0.037692398
-0.15205143 0.077754095 0.07434672 0.0811686 -0.14916642 0.026544673 0.025512833 -0.10262094
-0.08356514 0.008039405 -0.11887249 -0.13035464 0.15471753 -0.015652435 0.024358945 -0.010346231
-0.02221643 0.0013221165 0.18016404 0.11548638 0.2303161 0.08424242 0.024681937 0.15826367
0.093927816 -0.055258203 0.16223657 0.024739673 0.054030657 0.00023288978 0.15198399 0.09569937
0.034238927 0.01200701 0.08714535 0.10978927 -0.025838535 -0.03596876 -0.007478737 -0.10164565
-0.1041854 -0.015266807 -0.0736574 -0.15028831 0.14287058 0.045300733 0.105767585 0.18375492
0.13497601 0.030494131 0.11060229 -0.020838587 0.23567002 0.072775245 0.059602395 0.086332686
-0.1436758 -0.014173219 0.055627428 0.08669887 -0.051085204 -0.12540494 -0.10715852 0.10962612
-0.100714676 0.055962514 0.061197877 0.026675778 -0.005442934 -0.023825197 -0.0196867 0.042629637
0.11162188 -0.15036264 -0.09577387 -0.011786352 0.15059356 0.1587915 0.11288147 -0.07956407
0.12725252 -0.052304182 0.08678143 -0.1562895 -0.028416118 0.1114182 -0.0067403037 0.11659585
0.005743154 -0.0033716708 -0.035423674 -0.008849639 -0.10277736 0.027501406 -0.00679812 0.03620534
-0.069328435 0.04595928 0.17362249 0.07948683 0.11645807 -0.10070402 0.049932603 0.019938985
0.041912213 0.030737573 -0.17620383 -0.015101016 0.08521465 0.20915554 0.11142298 0.17043932
0.13890198 0.35031438 0.27143317 0.18051437 0.11061422 0.19328311 0.24882616 0.10078705
00000000: ab4f afbd 0804 4a3d fa31 023c 4471 aebd
00000010: 185b 0dbd 3a09 dabd 4f8c a1bd 4dae 7bbd
00000020: c917 70bd 0225 9f3d 1ef2 e8ba 62ca 30bd
00000030: 8a4e 053d bb95 25bc 567a 1f3e 73c2 6c3d
00000040: 4401 34bd 3580 35bd f790 3c3d 251b 53bd
00000050: 4c9f 94bb 781c b43d e2e4 4cbd 86ff 43bd
00000060: 217c 4d3d 2c6e dc3c ab9d 1f3e 0b48 c1bd
00000070: 7684 9bbd 0381 aa3c 245c e4bd 5750 afbc
00000080: eb3d 913a dc07 d13d a169 ff3d 051b 7cbd
00000090: d360 dcbc bcfc cd3d 19f9 f1bd ac26 53bc
000000a0: cba6 80bd d2ad 9fbd bf33 d3bd e119 16bc
000000b0: 4da6 d3bd 038a afbd a056 fa3c de87 88bc
000000c0: 374e ce3c e5d0 83be 1a27 e7bd 54e3 e03d
000000d0: 6e5b f83d 35be 13be 0a05 2fbd c8a4 83bd
000000e0: 7cdd 5c3d 4b76 b13d cdb8 c63d a245 4a3d
000000f0: 1b6b c33c c6ad 81bd 4cd6 a4bc 7618 a63d
00000100: f203 d43d a569 b03c 1650 6ebd c7a8 e73c
00000110: d695 ff3a fe2d 40bc cd9f 323c 9f2e 06be
00000120: baeb 393d dc5b da3d 8575 ebbd 3391 55be
00000130: 791d 983d 16bf debc cd25 4cbe ddc9 ec3a
00000140: 8891 5ebe 94c9 cabd ee55 003d 1596 54bc
00000150: 2240 b1bd 08b1 b23d 2ec3 b5bc 9fa1 803c
00000160: 4435 813d 0723 0fbc e621 98bd a800 f83d
00000170: e94a 0ebd 852d e23d d90c 013e 1687 edbd
00000180: 9ce8 ec3d 5a02 f4bc fd85 d9ba 21dd 993d
00000190: 75af 28be 862d 153c 878c bc3d e6cc 95bd
000001a0: 12c7 54bd c860 d8bd 8505 433d c0d3 223c
000001b0: 1ea5 ca3d 058e 4a3e cef3 0abc d355 f3bd
000001c0: 9ab6 c93d 8af9 20be 0b4d 9c3d 28a3 a73d
000001d0: 5c40 483d fa3f 173e f0b6 e43d 17be 083d
000001e0: 5286 083b e041 98bd 07e5 19bd e77c 52bb
000001f0: d6f7 e13d fd9f 03bd 199e d83d 0e84 dd3c
00000200: a7d2 533c 302c 453d f9a9 6c3c 6425 6d3c
00000210: 82a5 fa3d c210 2fbd d609 b9bd 5863 1abd
00000220: 5fb3 1bbe 8a3d 9f3d 1843 983d b93b a63d
00000230: 15bf 18be 3774 d93c 4a00 d13c ed2a d2bd
00000240: 3324 abbd b5b7 033c 6c73 f3bd b07b 05be
00000250: 466e 1e3e 8939 80bc 698c c73c 3d83 29bc
00000260: 3bff b5bc de4a ad3a ec7c 383e 2084 ec3d
00000270: fcd7 6b3e 4a87 ac3d c631 ca3c df0f 223e
00000280: 3a5d c03d 6d56 62bd 5821 263e dbaa ca3c
00000290: 404f 5d3d e033 7439 b1a1 1b3e 08fe c33d
000002a0: 1e3e 0c3d 0db9 443c 4379 b23d 32d9 e03d
000002b0: 56ab d3bc fa53 13bd 3110 f5bb 982b d0bd
000002c0: 285f d5bd a121 7abc b1d9 96bd 2ee5 19be
000002d0: aa4c 123e 438d 393d ad9c d83d 402a 3c3e
000002e0: 2737 0a3e d4ce f93c 7483 e23d afb5 aabc
000002f0: 7b53 713e 300b 953d a421 743d 31cf b03d
00000300: c01f 13be ca36 68bc 96d9 633d 2d8f b13d
00000310: b83e 51bd 276a 00be ed75 dbbd a983 e03d
00000320: 7f43 cebd f338 653d a0aa 7a3d 2987 da3c
00000330: a45a b2bb 0f2d c3bc 0146 a1bc 6a9c 2e3d
00000340: 039a e43d aaf8 19be 1725 c4bd 8b1b 41bc
00000350: 3335 1a3e 3d9a 223e 662e e73d 7df2 a2bd
00000360: 7c4e 023e e93c 56bd 76ba b13d 5b0a 20be
00000370: ebc8 e8bc 3a2f e43d c4dd dcbb cec9 ee3d
00000380: 1131 bc3b 40f7 5cbb 6a18 11bd 14fe 10bc
00000390: f07c d2bd a14a e13c c4c2 debb 0d4c 143d
000003a0: 11fc 8dbd cc3f 3c3d 18ca 313e fec9 a23d
000003b0: 9281 ee3d e93d cebd 2186 4c3d 1557 a33c
000003c0: 24ac 2b3d 5dcd fb3c c76e 34be 406a 77bc
000003d0: 0585 ae3d df2c 563e bb31 e43d a587 2e3e
000003e0: 523c 0e3e 685c b33e 4af9 8a3e c2d8 383e
000003f0: b589 e23d 02ec 453e 49cc 7e3e 7169 ce3d

weight_hh_l0 f4 [192, 64]
-0.24170266 -0.050499823 -0.04333472 0.06863339 0.0888902 0.09281624 0.022982832 -0.038840514
-0.015306586 0.18521854 -0.017811729 -0.16742639 0.018008063 0.06580593 -0.06259126 -0.029365487
-0.09862507 0.13336845 0.0507633 -0.06931263 0.0048454655 -0.03636667 0.020118937 -0.10097154
0.023893228 -0.16095807 -0.027678102 0.05665974 0.010757165 -0.07288079 -0.0020427783 -0.008206058
0.031620074 -0.061634287 -0.113782234 -0.075298846 0.09463175 -0.009858319 0.017981254 0.04445508
0.030038634 -0.03263975 0.14770567 -0.11950504 -0.0015836998 0.0039521563 -0.0070126415 0.08112814
0.17843093 0.08646357 0.040555116 -0.0022886004 0.047523204 0.072243296 -0.015301716 0.08193766
0.31738678 -0.030385401 -0.0026209236 -0.041724753 -0.027713314 0.14949805 0.02523896 -0.074558355
-0.050652523 -0.07753718 -0.056744505 -0.11322862 -0.024887722 -0.057962265 -0.00982107 -0.038492244
-0.0633426 -0.122624286 -0.1593958 -0.0740065 0.08585446 -0.071809456 0.105271526 -0.16525412
0.14356056 0.0028375988 0.08805419 0.02276005 -0.009686007 0.029932862 0.10336506 -0.13665266
-0.16151477 0.06041433 -0.102376334 -0.12792954 0.0816283 0.11436567 0.068424076 0.052545104
-0.11713307 0.17696485 0.11040215 -0.12591797 0.099928945 -0.07923728 -0.06454258 0.04951662
-0.042823322 0.04453931 0.05275286 0.1371343 -0.0017232397 -0.11010429 0.117767334 0.09427808
0.05058334 -0.1403345 0.155401 0.13078578 0.13105835 0.048210885 0.08190794 -0.061098915
-0.10502168 0.051484123 0.06882682 -0.08370719 -0.012247415 0.0060210293 -0.050888956 -0.10912314
0.14850138 0.104233 -0.043432716 -0.07468127 -0.06052512 -0.011615834 -0.17800224 0.009321206
-0.015223241 -0.06302685 -0.03364227 -0.054676425 -0.16618781 -0.07295449 0.006430312 0.06286169
0.12205844 -0.0019468126 0.021363936 -0.07781651 -0.06739687 0.14742197 -0.17472069 0.025427662
0.19763286 0.112463236 0.023173084 -0.062613375 -0.1580613 -0.062366582 -0.04670313 -0.14663401
0.05058994 0.041257203 -0.0038697384 0.040442612 -0.017285237 -0.062762395 0.14847322 0.105402574
-0.12242577 0.0017616729 0.14638188 -0.02185344 -0.05298825 -0.015233256 -0.04783491 -0.011284403
0.04288555 -0.11245909 0.00886792 -0.18931459 0.025897054 -0.10002595 -0.03991548 -0.112061255
0.07617124 -0.15807174 0.04392479 0.04537632 0.04925993 0.0621604 0.089908175 -0.056602024
0.030187223 -0.23724952 0.071631595 -0.075260565 0.068479806 -0.11039271 0.02559487 0.0021981287
0.059903473 -0.044412546 0.028016211 -0.0051601655 -0.07317898 -0.04696114 0.04488132 0.07239222
-0.053715475 -0.11236309 0.072980635 0.028515011 0.016272321 -0.05155628 0.007982536 -0.18554223
-0.04593565 0.1268249 0.06094308 0.029971704 0.10090929 0.103141524 -0.12759975 -0.034532826
-0.11597476 0.026426911 0.03428265 0.10009432 -0.07265274 -0.17537881 0.048659984 -0.076679446
0.116001345 0.07214008 0.040983047 0.012349335 -0.05278482 -0.097496144 -0.10527104 -0.05910616
-0.09633803 -0.057447046 -0.001115393 0.05913227 0.13756302 -0.008657722 0.089604795 -0.053014003
-0.18016373 -0.07682934 -0.10041852 0.03538131 0.14906633 -0.06499817 0.083676316 0.13582309
00000000: e780 77be e7d8 4ebd bf7f 31bd aa8f 8c3d
00000010: 110c b63d 7116 be3d 7e46 bc3c 3b17 1fbd
00000020: 7ac8 7abc eea9 3d3e e7e9 91bc d371 2bbe
00000030: a585 933c 42c5 863d d92f 80bd e48f f0bc
00000040: f1fb c9bd bd91 083e 2eed 4f3d c8f3 8dbd
00000050: b6c6 9e3b 38f5 14bd 78d0 a43c 2bca cebd
00000060: bbbb c33c 31d2 24be 30bd e2bc 0b14 683d
00000070: d23e 303c 8642 95bd 22e0 05bb b472 06bc
00000080: 0d84 013d 3c74 7cbd a906 e9bd 4836 9abd
00000090: 4ace c13d c984 21bc 6c4d 933c 8816 363d
000000a0: 9513 f63c 42b1 05bd 2840 173e 0fbf f4bd
000000b0: 2694 cfba 1781 813b 4dca e5bb 8326 a63d
000000c0: 99b6 363e d013 b13d 1f1d 263d 58fc 15bb
000000d0: b1a7 423d 4bf4 933d 0cb4 7abc efce a73d
000000e0: 8580 a23e ceea f8bc cdc3 2bbb 93e7 2abd
000000f0: 0807 e3bc 0416 193e efc1 ce3c 0db2 98bd
00000100: 0579 4fbd d0cb 9ebd ed6c 68bd 68e4 e7bd
00000110: 56e1 cbbc d769 6dbd 8ee8 20bc 0baa 1dbd
00000120: c4b9 81bd 7122 fbbd a738 23be b890 97bd
00000130: 77d4 af3d d610 93bd 9998 d73d 6038 29be
00000140: 8a01 133e 02f7 393b c155 b43d 4973 ba3c
00000150: 0fb2 1ebc c335 f53c 10b1 d33d adee 0bbe
00000160: 2164 25be 0475 773d afaa d1bd f6ff 02be
00000170: bd2c a73d 8c38 ea3d ec21 8c3d 8939 573d
00000180: 77e3 efbd 4636 353e 861a e23d a4f0 00be
00000190: 8ca7 cc3d 2847 a2bd e62e 84bd f0d1 4a3d
000001a0: 8267 2fbd da6e 363d 6213 583d ef6c 0c3e
000001b0: 54de e1ba 5c7e e1bd 0030 f13d de14 c13d
000001c0: 7a30 4f3d d9b3 0fbe 7121 1f3e b5ec 053e
000001d0: 2934 063e c778 453d 5abf a73d db42 7abd
000001e0: 9b15 d7bd 04e1 523d 13f5 8c3d ad6e abbd
000001f0: 62a9 48bc 0e4c c53b f070 50bd f47b dfbd
00000200: bf10 183e 1c78 d53d 81e6 31bd 7ef2 98bd
00000210: 30e9 77bd 5750 3ebc 3846 36be f9b7 183c
00000220: e76a 79bc 3914 81bd 7acc 09bd 63f4 5fbd
00000230: 232d 2abe 2a69 95bd 5eb5 d23b a1bd 803d
00000240: c7f9 f93d 312c ffba 6c03 af3c 435e 9fbd
00000250: 5f07 8abd c9f5 163e fbe9 32be ac4d d03c
00000260: 4560 4a3e 2053 e63d 7bd5 bd3c 713b 80bd
00000270: d2da 21be 1a74 7fbd c84b 3fbd 3a27 16be
00000280: 6637 4f3d 50fd 283d 709b 7dbb 27a7 253d
00000290: c599 8dbc 9289 80bd 5d09 183e 4edd d73d
000002a0: 5dba fabd efe7 e63a 22e5 153e fc05 b3bc
000002b0: 350a 59bd e894 79bc 8aee 43bd 37e2 38bc
000002c0: c2a8 2f3d f450 e6bd c14a 113c afdb 41be
000002d0: 0f26 d43c 68da ccbd 6a7e 23bd 5f80 e5bd
000002e0: abff 9b3d 8fdd 21be 7bea 333d 85dc 393d
000002f0: c8c4 493d e79b 7e3d c721 b83d 86d7 67bd
00000300: 324b f73c 8af1 72be 96b3 923d 3622 9abd
00000310: 243f 8c3d 9315 e2bd 55ac d13c 7b0e 103b
00000320: 585d 753d eee9 35bd 4182 e53c 9b16 a9bb
00000330: dcde 95bd 535a 40bd 7ad5 373d 5f42 943d
00000340: c204 5cbd 9f1e e6bd df76 953d 5098 e93c
00000350: 884d 853c ae2c 53bd 2fc9 023c c8fe 3dbe
00000360: 0527 3cbd 63de 013e 739f 793d 3887 f53c
00000370: 88a9 ce3d dd3b d33d 82a9 02be 4b72 0dbd
00000380: 2d84 edbd 407d d83c f76b 0c3d 40fe cc3d
00000390: f6ca 94bd 8196 33be b14f 473d 1d0a 9dbd
000003a0: 1d92 ed3d 2ebe 933d d7dd 273d dd54 4a3c
000003b0: e534 58bd 0fac c7bd 5898 d7bd 4d19 72bd
000003c0: e04c c5bd 984d 6bbd 6132 92ba ae34 723d
000003d0: 52dd 0c3e 1ed9 0dbc b882 b73d 3625 59bd
000003e0: d77c 38be b358 9dbd 3aa8 cdbd feeb 103d
000003f0: d8a4 183e c31d 85bd 7d5e ab3d 3515 0b3e

bias_ih_l0 f4 [192]
0.01719383 -0.002373872 -0.01879234 0.168953 -0.058124293 -0.020082813 -0.040456075 -0.002340726
0.029427836 0.1597461 -0.11965371 -0.113381505 0.046582345 -0.028599123 0.051203143 -0.05840806
0.006306286 0.015536183 0.02272486 -0.04627747 -0.0058787432 0.14374332 0.10309349 -0.013241024
-0.06191634 -0.07325944 0.10280823 0.081942305 0.07914169 0.03317968 -0.10074533 0.070438065
0.10205345 0.13320671 0.11948374 -0.00034830935 0.14596246 -0.05126074 -0.0553188 0.026573293
0.14940098 -0.007700498 0.10911039 0.04745657 -0.056636542 0.009555416 0.022342829 -0.02366571
0.13424236 0.11196275 0.06839494 -0.04772129 -0.03396684 0.00315637 -0.014239051 0.11382995
-0.01394105 -0.10602499 -0.057769585 -0.025743086 0.11313733 0.06447841 0.12445147 -0.03661407
0.05325798 -0.06582395 0.03860682 0.15798208 0.14920554 0.10325777 -0.09431555 0.16073391
-0.027240178 -0.018339379 -0.089702785 0.050655074 0.21399811 -0.047163315 -0.017601041 -0.09712235
0.068599395 -0.010682607 -0.036036648 0.13546197 -0.099734336 -0.0953174 -0.0011210003 -0.064244375
-0.015366655 0.04541543 -0.04781243 -0.047717754 0.085055426 -0.11083773 -0.11383668 -0.02108634
-0.05124864 -0.00974224 -0.09776196 0.061441638 -0.05728789 -0.055077355 0.122958496 -0.032790847
0.110671796 -0.040326703 0.008696545 -0.08520362 0.025621198 0.016167318 -0.050719228 0.047403887
0.11304823 -0.052288745 -0.10737568 -0.091721736 0.14491774 0.1350277 0.10324857 0.10791248
0.04824039 -0.014347641 -0.09117035 -0.0047507077 -0.07493561 -0.049869277 0.12944937 0.10929377
-0.11774463 -0.16670772 0.028550167 0.03878862 -0.085129686 -0.19160278 0.05565087 0.031809993
-0.06809719 0.045589622 -0.07040467 0.013247258 -0.0072225444 0.0833768 -0.03894945 0.069014154
0.056477297 0.067609414 -0.005919165 -0.10309853 -0.04554617 0.025814286 -0.085764006 -0.05515975
-0.04808631 -0.15679152 -0.0031911442 -0.08415957 -0.12875757 0.0050966535 -0.020851461 -0.05243673
0.007939778 0.11249594 -0.07856235 -0.08038362 0.11481833 0.103845395 -0.019691538 -0.028168226
-0.07114833 0.08544735 0.14482866 -0.08883465 -0.0519043 0.0069832946 0.0050504804 0.0282807
0.05194272 -0.02441148 -0.089000866 -0.11358268 0.000226851 -0.005868053 -0.04107195 0.032289397
-0.120073564 -0.0870985 0.044917595 -0.037551284 -0.089394204 0.03961346 -0.080296025 0.10437499
00000000: 13da 8c3c f792 1bbb 65f2 99bc 0402 2d3e
00000010: bd13 6ebd b684 a4bc 45b5 25bd de66 19bb
00000020: a512 f13c 7b94 233e 010d f5bd 9034 e8bd
00000030: 21cd 3e3d b548 eabc 63ba 513d 4a3d 6fbd
00000040: f6a4 ce3b 798b 7e3c 7c29 ba3c 728d 3dbd
00000050: 79a2 c0bb 7331 133e ae22 d33d e1f0 58bc
00000060: fd9b 7dbd 0c09 96bd 1f8d d23d 5ed1 a73d
00000070: 0a15 a23d 6be7 073d 9153 cebd d541 903d
00000080: 6601 d13d 5767 083e e4b3 f43d 4a9d b6b9
00000090: 2f77 153e c8f6 51bd f795 62bd 3cb0 d93c
000000a0: 92fc 183e 7654 fcbb 4575 df3d d261 423d
000000b0: b8fb 67bd 528e 1c3c 4f08 b73c 97de c1bc
000000c0: d476 093e ba4c e53d a512 8c3d 6677 43bd
000000d0: d020 0bbd 1adb 4e3b e94a 69bc ad1f e93d
000000e0: 0069 64bc a123 d9bd cd9f 6cbd 2ae3 d2bc
000000f0: 8bb4 e73d 420d 843d 6ae0 fe3d a3f8 15bd
00000100: 0a25 5a3d b5ce 86bd 2f22 1e3d 0ec6 213e
00000110: 56c9 183e cf78 d33d 8328 c1bd 6e97 243e
00000120: cb26 dfbc 773c 96bc 18b6 b7bd b27b 4f3d
00000130: 5222 5b3e 522e 41bd 0f30 90bc 15e8 c6bd
00000140: d77d 8c3d 1a06 2fbc 2a9b 13bd 8bb6 0a3e
00000150: 8441 ccbd c535 c3bd 87ee 92ba 8e92 83bd
00000160: 6cc4 7bbc 8805 3a3d f7d6 43bd b173 43bd
00000170: 8a31 ae3d e4fe e2bd 3523 e9bd 43bd acbc
00000180: 18ea 51bd eb9d 1fbc 6c37 c8bd 3aaa 7b3d
00000190: b5a6 6abd cb98 61bd aad1 fb3d b24f 06bd
000001a0: e5a7 e23d 9d2d 25bd f47b 0e3c 3c7f aebd
000001b0: 8ce3 d13c 5371 843c f7be 4fbd 942a 423d
000001c0: d585 e73d b92c 56bd c8e7 dbbd 9bd8 bbbd
000001d0: 5165 143e b444 0a3e fc73 d33d 3801 dd3d
000001e0: b797 453d 5e12 6bbc 85b7 babd d3ab 9bbb
000001f0: d777 99bd ba43 4cbd 608e 043e 69d5 df3d
00000200: 1924 f1bd 6eb5 2abe 0ae2 e93c d1e0 1e3d
00000210: 7958 aebd 8533 44be 2bf2 633d 324b 023d
00000220: 8a76 8bbd 2fbc 3a3d 5330 90bd 070b 593c
00000230: 18ab ecbb 75c1 aa3d 7589 1fbd 4b57 8d3d
00000240: bd54 673d ce76 8a3d 8ef5 c1bb 5225 d3bd
00000250: 9f8e 3abd 7b78 d33c 0aa5 afbd 31ef 61bd
00000260: 27f6 44bd f58d 20be 8422 51bb da5b acbd
00000270: 06d9 03be d401 a73b afd0 aabc e6c7 56bd
00000280: d815 023c 4564 e63d 4ce5 a0bd 2ba0 a4bd
00000290: df25 eb3d e5ac d43d 2650 a1bc 0dc1 e6bc
000002a0: 37b6 91bd 05ff ae3d f74d 143e f1ee b5bd
000002b0: 9a99 54bd 1fd4 e43b 807e a53b edac e73c
000002c0: e4c1 543d 96fa c7bc 1646 b6bd 099e e8bd
000002d0: dade 6d39 cc48 c0bb 103b 28bd e341 043d
000002e0: 21e9 f5bd b360 b2bd 83fb 373d 60cf 19bd
000002f0: 4f14 b7bd b941 223d 3e72 a4bd 8ec2 d53d

bias_hh_l0 f4 [192]
-0.103460416 -0.11669724 -0.048016977 0.14438736 -0.0523607 0.1754418 0.02374332 -0.016321544
0.17345542 0.14831378 -0.097675465 0.07761642 0.070161164 0.036675174 0.12436492 0.04083204
0.09016615 0.23013233 0.15108013 -0.05291463 0.14738865 -0.023662282 0.03800652 0.033547215
-0.066395886 -0.06333484 -0.0062551084 0.06413416 0.03862409 0.091423 0.07957679 -0.12519719
0.15675199 0.1358111 0.02047177 0.06367828 0.10187412 0.08414998 0.0698577 -0.05013532
0.16430284 0.056784462 0.06463716 0.17057297 -0.121131815 0.030642066 0.15778406 -0.0070061963
0.0115137 -0.016947076 0.12215611 0.08816251 0.035292123 -0.09858207 0.03320656 -0.010376489
-0.1011958 -0.009788304 0.05881567 0.009462988 0.05945443 -0.013744922 0.09319428 0.05856
0.02659154 0.026311783 0.17129035 0.044768207 0.007132562 -0.09172433 -0.02702948 0.016797522
-0.0074912976 0.124740705 -0.06858339 0.05065911 0.15979625 0.136742 0.044921417 0.10145844
0.053703554 -0.07317647 0.06547344 0.042269256 -0.13706832 0.038580716 -0.044029586 -0.030579513
-0.0015802889 0.08502583 -0.039384734 -0.050454494 0.115154035 -0.010830701 -0.061787378 -0.037197046
0.055199374 -0.07444514 0.13391274 0.13127968 -0.09977204 0.046914868 0.14302276 -0.039178986
0.1121963 0.016691793 -0.10945478 -0.073400505 0.2114525 0.030519804 0.014629928 0.026057288
0.011780404 -0.056957424 -0.07246836 0.04143394 0.11538688 0.107191876 0.11489778 0.048639756
-0.0034678676 0.09018091 0.068600684 0.12747748 -0.0117840115 -0.026558222 0.13327491 -0.06999089
-0.15896301 -0.19739445 -0.06792466 -0.2114912 -0.08199531 0.049586702 0.029325731 -0.07599508
0.116901375 0.02351522 -0.0559071 0.004064262 -0.14155884 0.0153125245 -0.015119794 -0.17483568
-0.15998961 -0.047835138 -0.031888623 -0.11439103 -0.047090475 -0.1417276 0.030116111 -0.05715743
0.039760575 -0.0017714165 0.09086851 0.056802057 0.2728369 0.08727705 -0.104827814 -0.08016553
-0.16024834 0.08446157 -0.039241564 -0.1119463 0.16911137 0.15220922 0.053497612 -0.025379268
0.11814668 -0.11988149 0.040956892 0.16115779 -0.005613554 0.2146314 -0.07268442 -0.15019116
-0.13568884 -0.061362967 0.081873626 0.10492901 -0.14865169 0.07226277 -0.11821652 -0.11810972
-0.020467112 -0.11883082 0.056184627 -0.032824177 0.033663932 0.03165943 -0.12736183 -0.044675283
00000000: 0ee3 d3bd f6fe eebd 73ad 44bd 48da 133e
00000010: 2c78 56bd 04a7 333e 5a81 c23c c2b4 85bc
00000020: 4c9e 313e 91df 173e 130a c8bd 5cf5 9e3d
00000030: a8b0 8f3d b538 163d 09b3 fe3d 7f3f 273d
00000040: 08a9 b83d cfa7 6b3e c0b4 1a3e 03bd 58bd
00000050: 0ded 163e 67d7 c1bc baac 1b3d ce68 093d
00000060: 91fa 87bd b2b5 81bd a7f7 ccbb c558 833d
00000070: 4b34 1e3d fb3b bb3d 28f9 a23d b133 00be
00000080: 9883 203e 1112 0b3e 6ab4 a73c c269 823d
00000090: 61a3 d03d d356 ac3d 8e11 8f3d b15a 4dbd
000000a0: 013f 283e d396 683d 7d60 843d aeaa 2e3e
000000b0: f513 f8bd 1205 fb3c 2592 213e 3c94 e5bb
000000c0: f5a3 3c3c 98d4 8abc fc2c fa3d 8c8e b43d
000000d0: 798e 103d 65e5 c9bd 9a03 083d 2602 2abc
000000e0: be3f cfbd 1f5f 20bc b3e8 703d a60a 1b3c
000000f0: 7d86 733d 6232 61bc a5dc be3d 9cdc 6f3d
00000100: 80d6 d93c cf8b d73c bd66 2f3e de5e 373d
00000110: 44b8 e93b f7d9 bbbd ee6c ddbc f59a 893c
00000120: 8f79 f5bb 0e78 ff3d 7375 8cbd ed7f 4f3d
00000130: a1a1 233e 1806 0c3e 85ff 373d 71c9 cf3d
00000140: 42f8 5b3d 8cdd 95bd f016 863d 8722 2d3d
00000150: a35b 0cbe d006 1e3d 5e58 34bd e381 fabc
00000160: b221 cfba 0622 ae3d e351 21bd 5fa9 4ebd
00000170: e1d5 eb3d 4173 31bc c314 7dbd ee5b 18bd
00000180: bd18 623d b276 98bd 6c20 093e 2e6e 063e
00000190: 4955 ccbd ce29 403d 8f74 123e 257a 20bd
000001a0: 2cc7 e53d 3abd 883c d429 e0bd 0153 96bd
000001b0: 0187 583e ab04 fa3c 5eb2 6f3c 1876 d53c
000001c0: 9802 413c 304c 69bd 4b6a 94bd a3b6 293d
000001d0: f54f ec3d 6a87 db3d 874f eb3d 7b3a 473d
000001e0: 2a45 63bb c5b0 b83d 847e 8c3d 7589 023e
000001f0: ba11 41bc a190 d9bc 3879 083e 6257 8fbd
00000200: 33c7 22be c521 4abe 161c 8bbd 2691 58be
00000210: 28ed a7bd 6d1b 4b3d 843c f03c 4fa3 9bbd
00000220: fd69 ef3d fea2 c03c d8fe 64bd 802d 853b
00000230: cdf4 10be 62e1 7a3c 03b9 77bc 2008 33be
00000240: 51d4 23be c7ee 43bd a59d 02bd d845 eabd
00000250: f1e1 40bd 0a21 11be 10b6 f63c e91d 6abd
00000260: fcdb 223d e02e e8ba 4519 ba3d 46a9 683d
00000270: 47b1 8b3e 4fbe b23d f7af d6bd d32d a4bd
00000280: 2418 24be 30fa ac3d c3bb 20bd 1a44 e5bd
00000290: 882b 2d3e bcdc 1b3e 5020 5b3d 2fe8 cfbc
000002a0: e3f6 f13d 6d84 f5bd 6ac2 273d 8c06 253e
000002b0: e7f1 b7bb 55c8 5b3e 92db 94bd b6cb 19be
000002c0: 04f2 0abe bc57 7bbd 5cad a73d 05e5 d63d
000002d0: 2638 18be 81fe 933d 811b f2bd 82e3 f1bd
000002e0: a5aa a7bc 935d f3bd da21 663d a572 06bd
000002f0: 31e3 093d 52ad 013d 246b 02be 6efd 36bd

weight_ih_l0_reverse f4 [192, 32]
0.033309445 0.023476461 0.00031992918 -0.006907942 0.030705098 -0.090096824 -0.0048002834 -0.034567766
0.10144491 -0.0011015416 0.14037366 -0.20527545 0.016636731 0.06237815 -0.0905994 -0.07073589
-0.13168171 0.12999742 0.059761386 0.060868036 0.142726 0.0050434647 0.037923776 0.08739636
0.07811812 -0.110144205 -0.002916672 0.003977007 -0.021889227 0.09245608 0.025811609 0.10666695
-0.046354562 -0.022493927 -0.011014867 -0.118752964 0.058596972 -0.0972966 0.084065676 0.15975894
-0.017052751 -0.065254815 -0.15048078 -0.11839763 0.0533156 -0.11153312 0.09757264 0.11503476
-0.049701698 0.049727354 0.025289843 -0.027279655 0.17076151 0.05700869 0.05635411 0.18245694
0.049884196 -0.020323044 -0.07402421 -0.01696825 -0.02776871 0.16942082 0.10282368 -0.049419302
-0.067436874 0.09934076 -0.10205298 -0.08843143 0.059677534 -0.012661075 -0.020248467 -0.15260023
-0.1611463 -0.027379362 0.08411224 -0.0028969 0.05195466 -0.1165203 -0.018191189 0.032418527
-0.049398754 0.1093864 -0.012460529 0.017569587 0.1104361 0.04509003 -0.028732346 0.1154477
-0.044056788 -0.06465682 0.028234204 -0.040027976 0.024136942 -0.062498923 0.13230799 0.19019397
0.017514663 -0.050000355 0.050861362 -0.006560347 -0.023507731 0.20186388 0.1737112 0.07516017
0.05659678 0.10906699 -0.11423736 0.07009114 -0.09652614 0.05794241 -0.0726804 0.020621536
-0.008637872 0.12960427 -0.038051035 0.09079817 0.09142527 -0.038310647 0.020472566 -0.01387798
-0.06032062 0.04401621 0.14739707 0.17600106 0.11061384 0.088193215 0.08902781 0.03276755
0.020945396 0.089170285 -0.040685512 -0.08950007 0.023409942 -0.091330454 -0.12204972 -0.07301179
0.030865459 0.024139205 0.06441304 0.17268428 0.10106968 0.12497709 0.146063 0.056775168
0.032578263 -0.04980453 -0.052418247 -0.13682231 -0.02330086 0.06939745 0.10258395 0.052488126
0.05888071 0.11898559 -0.020207897 0.046458974 0.0018708981 -0.09383886 0.047236897 0.053841513
-0.08308496 0.06638667 0.08213512 0.07003056 -0.058466006 0.09616125 0.030693296 -0.04281413
-0.100611016 0.0631564 -0.030007016 0.025556834 0.016878583 -0.024244374 0.02102713 -0.13695163
0.061946668 -0.07336526 0.04611244 0.0008520319 0.02155916 -0.032705266 0.0869096 0.090775825
0.026178302 0.028141567 -0.021335749 0.02655471 -0.016510427 -0.08198854 0.021203712 0.0026092413
0.05625684 -0.06658792 -0.0020360216 0.15199079 -0.14202999 -0.04294428 0.03718083 -0.08908865
-0.040940616 0.10762643 0.13056013 0.012889895 0.11914296 -0.0549567 -0.02620805 -0.002259643
0.09262617 -0.09257912 0.06438433 -0.11000744 0.008634548 0.10377098 0.036648955 0.036645398
-0.06244853 -0.061379887 -0.027679063 0.04058494 -0.14168346 -0.03882526 0.06855264 0.06655333
0.027993502 -0.0061977007 0.023352804 0.10781991 -0.009136731 -0.06798877 -0.01947631 -0.11808214
-0.011939929 0.15582184 -0.045888413 0.15185757 -0.024802906 0.16038567 -0.05317992 -0.03675382
-0.054306407 -0.040499873 -0.093049794 0.03339405 0.007186046 0.068746254 0.010205861 -0.093481615
-0.055651333 0.06992428 -0.07743228 0.059248 -0.08023091 0.12051652 0.11719671 -0.07838062
00000000: 7c6f 083d b551 c03c 2bbc a739 045c e2bb
00000010: 4289 fb3c af84 b8bd b24b 9dbb ee96 0dbd
00000020: 59c2 cf3d 9a61 90ba 1dbe 0f3e ba33 52be
00000030: c149 883c 3b80 7f3d 2e8c b9bd fadd 90bd
00000040: 92d7 06be 0b1e 053e 5bc8 743d c350 793d
00000050: c426 123e a643 a53b f655 1b3d ddfc b23d
00000060: 65fc 9f3d 4993 e1bd a325 3fbb 8e51 823b
00000070: 0951 b3bc 9d59 bd3d de72 d33c 3474 da3d
00000080: 48de 3dbd 2f45 b8bc b377 34bc c134 f3bd
00000090: 6103 703d 7143 c7bd a02a ac3d d997 233e
000000a0: 36b2 8bbc 51a4 85bd a217 1abe 757a f2bd
000000b0: 7561 5a3d 7a6b e4bd 2ad4 c73d 5897 eb3d
000000c0: 0294 4bbd e9ae 4b3d a52c cf3c 9579 dfbc
000000d0: 1bdc 2e3e f281 693d 91d3 663d fed5 3a3e
000000e0: 5f53 4c3d 837c a6bc 019a 97bd 0001 8bbc
000000f0: 357b e3bc a77c 2d3e 3995 d23d e56b 4abd
00000100: 581c 8abd 2b73 cb3d 2701 d1bd 8a1b b5bd
00000110: 6e70 743d 6670 4fbc 1de0 a5bc 3c43 1cbe
00000120: 8903 25be af4a e0bc 0a43 ac3d ebd9 3dbb
00000130: 69ce 543d 32a2 eebd b005 95bc 4ac9 043d
00000140: 5956 4abd fa05 e03d 3f27 4cbc 18ee 8f3c
00000150: 522c e23d 53b0 383d 1960 ebbc d86f ec3d
00000160: e474 34bd cb6a 84bd 6b4b e73c 60f4 23bd
00000170: d6ba c53c dffe 7fbd bf7b 073e 35c2 423e
00000180: e97a 8f3c 2ccd 4cbd 0154 503d 2ef8 d6bb
00000190: 4993 c0bc 68b5 4e3e 59e1 313e 93ed 993d
000001a0: 06d2 673d 845e df3d 47f5 e9bd f28b 8f3d
000001b0: 7faf c5bd 0555 6d3d 76d9 94bd 7fee a83c
000001c0: dc85 0dbc fbb6 043e 67db 1bbd 64f4 b93d
000001d0: 2c3d bb3d a0eb 1cbd 15b6 a73c 7860 63bc
000001e0: c112 77bd 574a 343d 42ef 163e 9f39 343e
000001f0: 8289 e23d a59e b43d 3654 b63d 4437 063d
00000200: ae95 ab3c e99e b63d daa5 26bd d04b b7bd
00000210: 35c6 bf3c 760b bbbd 34f5 f9bd 3587 95bd
00000220: 8fd9 fc3c 95bf c53c fcea 833d 26d4 303e
00000230: 9ffd ce3d fdf3 ff3d 8a91 153e 148d 683d
00000240: c970 053d d6ff 4bbd 84b4 56bd 261b 0cbe
00000250: 72e1 bebc 4020 8e3d 8917 d23d cafd 563d
00000260: e62c 713d b8ae f33d 088b a5bc c44b 3e3d
00000270: ec38 f53a 972e c0bd 7a7b 413d eb88 5c3d
00000280: 7328 aabd bcf5 873d 7536 a83d 2f6c 8f3d
00000290: 0d7a 6fbd 30f0 c43d 8270 fb3c df5d 2fbd
000002a0: 260d cebd 2558 813d 46d1 f5bc 915c d13c
000002b0: f444 8a3c 239c c6bc 1641 ac3c 0c3d 0cbe
000002c0: cabb 7d3d 8740 96bd 66e0 3c3d e55a 5f3a
000002d0: d69c b03c f5f5 05bd a9fd b13d ade8 b93d
000002e0: e173 d63c 2589 e63c 4fc8 aebc 4389 d93c
000002f0: e040 87bc 9ce9 a7bd 68b3 ad3c ceff 2a3b
00000300: 926d 663d 3f5f 88bd c66e 05bb 79a3 1b3e
00000310: 4f70 11be 57e6 2fbd ed4a 183d 1c74 b6bd
00000320: 59b1 27bd 3f6b dc3d 8eb1 053e 2330 533c
00000330: 3901 f43d 471a 61bd 44b2 d6bc 8516 14bb
00000340: cab2 bd3d 1f9a bdbd eedb 833d 954b e1bd
00000350: eb77 0d3c e185 d43d 371d 163d 7c19 163d
00000360: 08ca 7fbd 7a69 7bbd 34bf e2bc 653c 263d
00000370: 7815 11be 3c07 1fbd 5465 8c3d 1d4d 883d
00000380: a152 e53c 1516 cbbb 614e bf3c afd0 dc3d
00000390: 3ab2 15bc b23d 8bbd c88c 9fbc 0dd5 f1bd
000003a0: b19f 43bc c38f 1f3e 7df5 3bbd 8d80 1b3e
000003b0: 772f cbbc 243c 243e 30d3 59bd 2c8b 16bd
000003c0: 6570 5ebd 32e3 25bd e490 bebd 33c8 083d
000003d0: ec78 eb3b d6ca 8c3d 7c36 273c 4a73 bfbd
000003e0: a7f2 63bd 7634 8f3d d194 9ebd 08ae 723d
000003f0: 1a50 a4bd 5ed1 f63d d404 f03d 0586 a0bd

weight_hh_l0_reverse f4 [192, 64]
0.024994515 0.06587776 0.12554881 -0.10998262 0.13678257 -0.110638745 0.030125882 -0.0065139565
0.0839379 0.12586157 -0.0797737 -0.07421441 -0.026424114 -0.12066274 -0.13852552 0.021445498
0.114367455 0.06757776 -0.14774239 0.013433418 0.15200573 0.05426723 -0.05379009 0.15790139
0.06649912 -0.043673184 0.062474474 -0.07741069 -0.0917084 -0.12827195 -0.14311843 0.033167116
-0.16337942 0.092004456 0.0018479718 0.04500466 -0.049273673 -0.12528886 -0.11936535 -0.10234976
0.11714886 0.1707109 -0.058019552 0.018057365 -0.18359984 0.1341975 -0.077902526 0.103942156
-0.11100693 0.1990216 -0.04692091 -0.10098495 0.0069130636 0.011604335 0.04926955 -0.112432055
-0.032383893 -0.049683157 0.031622745 -0.054191623 0.10515874 0.022339929 -0.12380683 0.08142674
-0.14526452 -0.19011448 0.028746394 -0.014453994 0.06769567 0.022790154 -0.055372015 0.097999245
-0.089223064 -0.090791784 0.025655024 0.01518383 0.2044064 -0.04664729 -0.14018531 -0.23607802
0.06819163 -0.042036835 -0.1395693 0.046293847 -0.09254865 -0.022962559 0.049389474 0.10311548
0.13315992 0.13278678 0.08379576 0.02025285 -0.071453765 0.08739011 0.06354115 0.25069973
0.09035646 -0.2551427 -0.09034171 -0.077737994 -0.039714523 0.025854915 -0.115598656 -0.22761437
-0.0043893843 -0.07393846 -0.024332806 0.032590177 0.013643569 0.04143524 -0.16867879 0.23141935
0.045394916 0.067136124 -0.16138205 -0.02711259 -0.041020166 -0.13674232 0.03276643 -0.15569387
0.013890318 -0.13712956 0.05991443 -0.031261735 -0.12092943 0.023840558 -0.008730953 -0.00605257
0.12190515 -0.041622378 0.036141012 0.06288132 0.10005383 -0.0654661 -0.16102515 0.050238162
0.100563705 0.04651953 0.15156686 -0.11873914 -0.117374666 -0.07363383 -0.10712572 0.07845928
-0.0044038743 -0.09145449 -0.07488327 -0.030821493 0.049584385 -0.041023515 -0.003957392 0.04530032
0.058740996 -0.0948682 -0.11841273 -0.148401 -0.052817196 0.07498042 0.0037368818 0.013742236
-0.073768355 0.0003109616 0.1828367 -0.120218724 0.08428426 -0.15725832 0.0693713 -0.034589957
0.20246947 0.055489395 -0.10622104 0.25887325 0.061617643 0.057903647 -0.039242946 0.11416083
-0.11108915 0.10527502 0.093003534 -0.08389583 -0.122570895 -0.116765775 0.10448138 0.004554388
-0.022101996 -0.09370392 0.07970154 0.10755038 -0.05946731 0.08320411 0.114064544 0.03430662
-0.108116895 -0.06686247 0.18727516 -0.060408913 -0.03394514 0.13439992 -0.010193256 -0.034341827
0.022177475 -0.03262317 0.19596358 0.09297212 0.065771885 0.02459316 0.13633119 0.2157005
0.20302738 0.026949845 -0.14199618 -0.034055762 0.14336465 -0.03337336 0.08103518 0.06543709
-0.01963326 0.056200787 -0.12725064 -0.3042436 0.13198735 -0.008401151 0.09571905 0.016973883
0.17586868 0.060942713 0.05756568 0.16115926 0.03151139 0.14436561 0.096577264 0.0858523
0.02596765 0.11767014 0.043401536 0.056322552 -0.037864447 -0.14697418 0.087779246 0.07053424
-0.22203071 0.059380226 -0.04677739 0.110392444 0.07033166 -0.0041440413 0.034476023 -0.15278558
-0.081868574 -0.053525373 -0.1293625 -0.18324184 0.1648683 0.0475808 -0.014763539 0.030257272
00000000: 4cc1 cc3c ebea 863d de8f 003e 913e e1bd
00000010: bb10 0c3e 9196 e2bd 8eca f63c 0773 d5bb
00000020: a2e7 ab3d dbe1 003e 6560 a3bd b9fd 97bd
00000030: 6277 d8bc 071e f7bd a2d9 0dbe 78ae af3c
00000040: 7c39 ea3d 3566 8a3d c849 17be d717 5c3c
00000050: 64a7 1b3e 5147 5e3d ff52 5cbd e7b0 213e
00000060: b130 883d a7e2 32bd 3ce5 7f3d 7f89 9ebd
00000070: 9dd1 bbbd b959 03be a38d 12be 3eda 073d
00000080: ef4c 27be d56c bc3d a537 f23a ce56 383d
00000090: 31d3 49bd b94b 00be d275 f4bd c09c d1bd
000000a0: beeb ef3d d7ce 2e3e e9a5 6dbd 0aed 933c
000000b0: 9901 3cbe 126b 093e 5c8b 9fbd a0df d43d
000000c0: 9a57 e3bd 51cc 4b3e 2430 40bd 33d1 cebd
000000d0: fb86 e23b 1c20 3e3c dece 493d c742 e6bd
000000e0: f9a4 04bd 9180 4bbd da86 013d 09f8 5dbd
000000f0: 775d d73d 3a02 b73c 6f8e fdbd 10c3 a63d
00000100: 39c0 14be 5fad 42be 8f7d eb3c 72d0 6cbc
00000110: 07a4 8a3d 6bb2 ba3c c4cd 62bd d4b3 c83d
00000120: 95ba b6bd 0bf1 b9bd 7c2a d23c 99c5 783c
00000130: e94f 513e 3b11 3fbd bd8c 0fbe 70be 71be
00000140: 0ea8 8b3d d12e 2cbd 41eb 0ebe 9e9e 3d3d
00000150: 268a bdbd fa1b bcbc 9e4c 4a3d 352e d33d
00000160: 135b 083e 42f9 073e 1d9d ab3d 4ee9 a53c
00000170: 5a56 92bd 96f9 b23d dd21 823d b75b 803e
00000180: cf0c b93d 10a2 82be 1305 b9bd 1935 9fbd
00000190: b2ab 22bd b0cd d33c fdbe ecbd be13 69be
000001a0: d3d4 8fbb 0c6d 97bd 9855 c7bc 477d 053d
000001b0: 4789 5f3c 00b8 293d 22ba 2cbe 32f9 6c3e
000001c0: 05f0 393d aa7e 893d 5641 25be 391b debc
000001d0: c304 28bd 2e06 0cbe 1836 063d 376e 1fbe
000001e0: 3794 633c b16b 0cbe d568 753d 4e0c 00bd
000001f0: d9a9 f7bd 464d c33c 450c 0fbc a354 c6bb
00000200: 68a9 f93d 3a7c 2abd 9908 143d ecc7 803d
00000210: 06e9 cc3d 1713 86bd c7e3 24be 88c6 4d3d
00000220: 58f4 cd3d 438b 3e3d 5834 1b3e 822d f3bd
00000230: 2162 f0bd 55cd 96bd bb64 dbbd 42af a03d
00000240: 604e 90bb 7e4c bbbd 665c 99bd 5b7d fcbc
00000250: ff18 4b3d 4608 28bd 03ad 81bb d48c 393d
00000260: 669a 703d 424a c2bd 6082 f2bd 6ff6 17be
00000270: d856 58bd 568f 993d 79e6 743b 1e27 613c
00000280: dd13 97bd 8f08 a339 8b39 3b3e 3c35 f6bd
00000290: 3a9d ac3d 5308 21be 8a12 8e3d 33ae 0dbd
000002a0: 2854 4f3e d948 633d 6b8a d9bd 098b 843e
000002b0: c862 7c3d 602c 6d3d 36bd 20bd 27cd e93d
000002c0: b582 e3bd 6e9a d73d a378 be3d 94d1 abbd
000002d0: 7306 fbbd e522 efbd 55fa d53d fa3c 953b
000002e0: 3f0f b5bc d7e7 bfbd 903a a33d 6043 dc3d
000002f0: fe93 73bd eb66 aa3d ac9a e93d 1985 0c3d
00000300: 646c ddbd 31ef 88bd 0fc5 3f3e 566f 77bd
00000310: 0f0a 0bbd 22a0 093e 9d01 27bc 04aa 0cbd
00000320: 89ad b53c e09f 05bd adaa 483e 2b68 be3d
00000330: 69b3 863d 9877 c93c 679a 0b3e 98e0 5c3e
00000340: 69e6 4f3e ecc5 dc3c 7267 11be 0e7e 0bbd
00000350: 2fce 123e 81b2 08bd c6f5 a53d e203 863d
00000360: eed5 a0bc cc32 663d fe4d 02be d1c5 9bbe
00000370: b127 073e fba4 09bc 5908 c43d d00c 8b3c
00000380: eb16 343e 119f 793d fec9 6b3d ef06 253e
00000390: 1612 013d 94d4 133e 4dca c53d 55d3 af3d
000003a0: 1cba d43c 0bfd f03d cfc5 313d 7ab2 663d
000003b0: c017 1bbd 6680 16be 9bc5 b33d 4174 903d
000003c0: 055c 63be ae38 733d a699 3fbd 6f15 e23d
000003d0: 0c0a 903d bdca 87bb bb36 0d3d d373 1cbe
000003e0: b6aa a7bd 6c3d 5bbd 9a77 04be c0a3 3bbe
000003f0: 3cd3 283e 16e4 423d c5e2 71bc 19de f73c

bias_ih_l0_reverse f4 [192]
0.08658314 0.12947163 0.09553565 -0.04934515 0.08174226 -0.016812941 -0.08147434 -0.085002035
0.028935893 -0.048365314 -0.073331386 -0.08527082 -0.09570086 0.096284814 -0.09696475 0.02746781
-0.08619773 -0.041835114 -0.032390576 0.10891357 0.09249319 0.113580756 0.013319477 0.014818964
0.1599569 0.20380251 0.19885652 -0.10590755 -0.03284237 -0.013031518 -0.011522265 0.010523047
0.047825184 0.0014131978 -0.026207574 0.11098362 0.048310623 -0.028932467 -0.0026971991 -0.07499928
0.01182934 0.054362103 0.011708542 0.12472445 -0.056391675 0.080828264 0.020180367 0.023565471
0.0450209 0.07661227 0.0010948551 0.023363436 -0.005414172 0.054276038 0.053852558 0.034417644
-0.065939955 -0.039980475 -0.01920935 -0.020630924 0.015946336 0.106159605 -0.0673136 0.116053894
-0.10399828 0.057890292 -0.04764184 -0.046487555 0.13325271 0.029290276 0.065297976 -0.091551796
0.033475485 -0.0064779823 0.12900719 0.025348566 0.022329943 0.12804893 0.10546761 0.013004507
0.12335549 0.13898866 -0.10599218 -0.010978119 0.07918315 -0.03074789 -0.05742014 -0.08204732
0.04890876 0.130997 0.15367147 0.049648724 0.044033602 -0.03357095 -0.12415564 0.062238123
-0.028721472 0.1053493 -0.032441042 -0.04331213 -0.038016632 0.1488835 -0.043393083 -0.02223417
-0.12294987 0.10974729 0.05142717 0.13386102 -0.029068802 0.00922622 0.16620599 0.099382415
0.03513034 0.0888467 0.0070848954 0.07296249 0.022675235 0.11827621 -0.040179983 0.005027701
0.09388819 0.11224004 -0.0757236 -0.043095555 0.040441778 -0.05130185 0.15121537 -0.059247978
-0.057694446 0.025384566 0.0041079093 -0.085935175 0.0059606945 0.15576239 -0.11422773 -0.044873074
0.039343882 0.017832996 0.007915341 0.083242886 0.0028093471 0.015235494 0.11798724 -0.08679995
0.07815609 -0.02414421 0.039120596 0.123453766 0.027611475 0.014347906 0.06704455 0.14035371
-0.11940514 -0.019049255 0.055485215 0.013855632 -0.027438015 0.10356792 0.108230636 0.084795475
0.039897554 0.13551117 0.036919225 0.11669321 -0.06353763 -0.017781598 0.018414216 -0.10625183
-0.026054926 -0.05288134 0.05470503 -0.07098658 0.12426751 -0.10686588 -0.0039716456 0.12989824
-0.027824383 0.07420052 0.024057852 0.06400976 -0.0007057893 -0.10549558 0.14606336 0.04090816
0.011241879 0.009210072 0.05955912 -0.04394879 -0.123537876 0.11222551 0.10000546 0.06997916
00000000: 8052 b13d 3694 043e 32a8 c33d 241e 4abd
00000010: 7c68 a73d 4bbb 89bc 05dc a6bd 8c15 aebd
00000020: f70a ed3c b51a 46bd c42e 96bd 78a2 aebd
00000030: d0fe c3bd f930 c53d 7495 c6bd 2c04 e13c
00000040: 6f88 b0bd 4c5b 2bbd fbab 04bd 140e df3d
00000050: 126d bd3d 079d e83d f039 5a3c 3dcb 723c
00000060: becb 233e 9bb1 503e 0ba1 4b3e 0fe6 d8bd
00000070: b985 06bd 2682 55bc e2c7 3cbc dc68 2c3c
00000080: 57e4 433d 0d3b b93a 44b1 d6bc 614b e33d
00000090: 5ce1 453d c803 edbc 7ec3 30bb 3999 99bd
000000a0: d9cf 413c ccaa 5e3d 2fd5 3f3c 886f ff3d
000000b0: f5fa 66bd 4a89 a53d 4c51 a53c 600c c13c
000000c0: d667 383d e5e6 9c3d 3e81 8f3a ad64 bf3c
000000d0: 5e69 b1bb 8d50 5e3d 8094 5c3d 84f9 0c3d
000000e0: 870b 87bd 91c2 23bd ed5c 9dbc 2f02 a9bc
000000f0: e4a1 823c 356a d93d b6db 89bd aaad ed3d
00000100: 0dfd d4bd 5f1e 6d3d 1724 43bd bc69 3ebd
00000110: 6673 083e 29f2 ef3c f2ba 853d 827f bbbd
00000120: 971d 093d 4145 d4bb 761a 043e cca7 cf3c
00000130: 49ed b63c 421f 033e 67ff d73d db10 553c
00000140: cea1 fc3d 0b53 0e3e 6e12 d9bd 92dd 33bc
00000150: c62a a23d 00e3 fbbc 6131 6bbd 6d08 a8bd
00000160: 8d54 483d 1424 063e 0e5c 1d3e 765c 4b3d
00000170: 945c 343d b181 09bd 5045 febd 67ed 7e3d
00000180: 4b49 ebbc 60c1 d73d e6e0 04bd 0f68 31bd
00000190: 54b7 1bbd eb74 183e f2bc 31bd 6f24 b6bc
000001a0: 24cd fbbd 30c3 e03d 4ca5 523d dd12 093e
000001b0: b221 eebc 9229 173c e731 2a3e 0289 cb3d
000001c0: d5e4 0f3d 42f5 b53d 6928 e83b 5c6d 953d
000001d0: 6ac1 b93c cc3a f23d c493 24bd 6abf a43b
000001e0: 7448 c03d 1bde e53d fa14 9bbd f784 30bd
000001f0: 47a6 253d e321 52bd 34d8 1a3e 02ae 72bd
00000200: 0351 6cbd 4bf3 cf3c a49b 863b c8fe afbd
00000210: ee51 c33b 2d80 1f3e 3af0 e9bd d4cc 37bd
00000220: 0d27 213d 8116 923c 59af 013c 3f7b aa3d
00000230: 061d 383b 4b9e 793c 4ba3 f13d 2cc4 b1bd
00000240: 4d10 a03d 14ca c5bc eb3c 203d 54d5 fc3d
00000250: 7631 e23c 7b13 6b3c a74e 893d e2b8 0f3e
00000260: af8a f4bd 2f0d 9cbc 7744 633d bc02 633c
00000270: b0c5 e0bc 6b1b d43d 06a8 dd3d 40a9 ad3d
00000280: 9e6b 233d 71c3 0a3e 9d38 173d dafc ee3d
00000290: 0420 82bd b7aa 91bc 69d9 963c 8f9a d9bd
000002a0: 2471 d5bc 1b9a 58bd 6212 603d 6961 91bd
000002b0: f77f fe3d 80dc dabd 9424 82bb 0b04 053e
000002c0: f6ef e3bc 71f6 973d f914 c53c 8d17 833d
000002d0: b804 39ba 110e d8bd a291 153e 518f 273d
000002e0: dc2f 383c d8e5 163c 44f4 733d a503 34bd
000002f0: 6d01 fdbd 7dd6 e53d aacf cc3d 3c51 8f3d

bias_hh_l0_reverse f4 [192]
0.13372824 -0.06252666 0.09799332 -0.063146904 -0.058487497 -0.0051299725 -0.10447339 -0.11055975
0.06701673 0.08914252 -0.08259909 -0.08183602 -0.09865011 0.13857767 0.048000365 -0.046104074
0.09263175 0.065917216 -0.054245144 0.004900103 0.14379257 0.13457912 -0.076083146 -0.12262236
0.056381468 0.07696576 0.15535112 0.072838284 0.066891484 0.09005595 0.081471734 0.091156915
0.08035165 0.09237849 0.030489348 0.16040963 -0.05999058 0.006657124 -0.084394746 0.10246978
-0.024533838 -0.041733235 -0.010901575 0.08256251 0.09754446 0.036383267 -0.03562764 0.17141116
0.014710545 -0.0823129 -0.113629274 -0.0052314345 -0.0028770757 0.100490615 0.13008702 0.0828206
0.099811375 0.0881061 0.03070341 -0.08108515 -0.1150172 -0.0484916 -0.019958822 0.103353634
-0.061677985 -0.11153911 0.041339673 0.0312045 0.019574601 0.0753824 0.02073671 -0.025115978
0.10872431 0.01839042 0.030967318 -0.039858926 -0.04979717 -0.11479818 -0.034329906 -0.08329026
0.15269054 0.1480961 0.0409032 -0.16713934 -0.00694552 -0.05440972 0.083220705 0.019896833
0.119844586 0.040202208 0.13944711 0.01057228 0.11484569 -0.047398757 0.12166252 0.19531459
-0.18508524 -0.024705237 -0.091962315 0.10970158 0.14655784 0.13674259 0.0399408 -0.0808427
0.04280766 0.015302058 0.04338929 -0.05530167 -0.099155776 0.04053693 0.020988472 0.025627116
0.016862588 0.15842234 -0.10860944 -0.096457444 0.057562184 0.04650177 -0.053278062 0.13980591
0.084293775 0.0230999 -0.12955002 -0.07946344 0.05650443 0.013332905 0.068599194 0.058142368
-0.0447159 -0.20651183 -0.11915808 -0.17237207 -0.021684686 0.04718073 0.21342832 0.032832526
0.10670653 -0.089162126 -0.051909927 0.1257565 0.20199162 -0.061493747 0.15399185 -0.00646501
0.117167875 0.11164588 -0.15720537 0.12164169 0.14830297 -0.11568119 -0.13309105 -0.059651453
-0.08464143 0.034048084 0.09191057 0.1180348 -0.118979976 0.13567823 0.06794544 0.13077784
0.11683092 -0.1694903 0.009970062 0.018086165 0.19156039 -0.031262007 -0.04385396 -0.22270222
-0.1202909 0.060432453 0.04323206 0.26075405 -0.056461178 0.022791257 -0.13510236 -0.026564742
-0.16139835 0.12139303 -0.17984666 0.09315 -0.08613071 0.008306591 0.26135603 -0.15666766
-0.052357137 -0.03222152 -0.14127317 -0.03568406 0.0035878539 0.10457755 0.043158352 0.15751714
00000000: 0ef0 083e fa0d 80bd b9b0 c83d 2a53 81bd
00000010: 9690 6fbd 5419 a8bb 25f6 d5bd 266d e2bd
00000020: 1140 893d 5b90 b63d b629 a9bd a599 a7bd
00000030: 1209 cabd 4ee7 0d3e 089c 443d a0d7 3cbd
00000040: b7b5 bd3d 9bff 863d 2830 5ebd 0b91 a03b
00000050: 5c3e 133e 1ccf 093e 7bd1 9bbd 6f21 fbbd
00000060: 41f0 663d 39a0 9d3d 5d14 1f3e 3d2c 953d
00000070: 67fe 883d 416f b83d a7da a63d 7ab0 ba3d
00000080: 688f a43d ef30 bd3d ccc4 f93c 6c42 243e
00000090: afb8 75bd 0124 da3b 27d7 acbd addb d13d
000000a0: 30fb c8bc 78f0 2abd 859c 32bc 8916 a93d
000000b0: 64c5 c73d 9f06 153d 4aee 11bd 6886 2f3e
000000c0: 7f04 713c aa93 a8bd 77b6 e8bd 746c abbb
000000d0: 528d 3cbb 06ce cd3d 8835 053e d99d a93d
000000e0: e869 cc3d f970 b43d b885 fb3c f90f a6bd
000000f0: 238e ebbd 219f 46bd af80 a3bc 12ab d33d
00000100: 0ea2 7cbd 9e6e e4bd ca53 293d 94a0 ff3c
00000110: ea5a a03c 1662 9a3d 08e0 a93c 06c0 cdbc
00000120: daaa de3d 82a7 963c 2caf fd3c 1d43 23bd
00000130: 1ef8 4bbd 4f1b ebbd 849d 0cbd 1594 aabd
00000140: e95a 1c3e 81a6 173e 1d8a 273d 9326 2bbe
00000150: 3f97 e3bb badc 5ebd 9e6f aa3d affe a23c
00000160: 1471 f53d 12ab 243d 39cb 0e3e 5b37 2d3c
00000170: 3834 eb3d 3325 42bd 332a f93d 8c00 483e
00000180: fc86 3dbe a362 cabc bd56 bcbd 39ab e03d
00000190: 4213 163e 4006 0c3e f798 233d dc90 a5bd
000001a0: 1657 2f3d 7cb5 7a3c f8b8 313d 0184 62bd
000001b0: 2f12 cbbd 0d0a 263d 04f0 ab3c f5ef d13c
000001c0: 6923 8a3c 7739 223e a06e debd 7b8b c5bd
000001d0: 53c6 6b3d a478 3e3d 193a 5abd 4829 0f3e
000001e0: 37a2 ac3d 003c bd3c c3a8 04be babd a2bd
000001f0: 3071 673d 4272 5a3c bc7d 8c3d b126 6e3d
00000200: 0528 37bd d677 53be 2709 f4bd 4e82 30be
00000210: 15a4 b1bc 9540 413d f48c 5a3e 667b 063d
00000220: f488 da3d a29a b6bd 819f 54bd 50c6 003e
00000230: e4d6 4e3e dee0 7bbd 0ab0 1d3e 6fd8 d3bb
00000240: b6f5 ef3d 98a6 e43d 72fa 20be 471f f93d
00000250: bcdc 173e 42ea ecbd 0549 08be 1555 74bd
00000260: 7c58 adbd 0176 0b3d 9c3b bc3d 3bbc f13d
00000270: c6ab f3bd 3cef 0a3e fb26 8b3d a0ea 053e
00000280: 0d45 ef3d dd8e 2dbe 7959 233c 7029 943c
00000290: 6828 443e 970c 00bd 36a0 33bd 0d0c 64be
000002a0: 135b f6bd 0588 773d 1a14 313d 8e81 853e
000002b0: d643 67bd bbb4 ba3c 4658 0abe 4d9e d9bc
000002c0: 9c45 25be e99c f83d b929 38be 6dc5 be3d
000002d0: 4c65 b0bd 5e18 083c 75d0 853e 7d6d 20be
000002e0: 7074 56bd b6fa 03bd eaa9 10be 7329 12bd
000002f0: 3322 6b3b c12c d63d d0c6 303d 2c4c 213e
