reports/training_DEAM_VA_2026-01-04_13-25-57/training_DEAM_VA_2026-01-04_13-25-57.pth (torch, 504732 bytes, 10 tensors)

weight_ih_l0 f4 [384, 32]
00000000: b432 96bd 54ac 953d 858c f4bc fda6 c2bd
00000010: 898c 183d b499 8dbd b13c b1bc 0e01 113d
00000020: a81b 03bd 584e 733d 45b7 593d cb0a c1bc
00000030: ab14 82bd 6696 103d cad9 f0bc bc57 0e3e
00000040: 0908 8d3d a707 d5bd 7f49 16bd e744 f4bd
00000050: f82f f739 d4ec e1bb 7dc5 023d 4029 1dbe
00000060: 8fa8 00bd 5dad 77bd 29a2 87bc 5cd4 333c
00000070: 61cd 32bd 5319 ac3b 5869 0ebe 81ef 81bd
00000080: 8ac6 8fbc 447e 03bd f2e5 85bc 4384 9cbd
00000090: faf8 253d b7ab 35bd 6883 5f3d fb93 bc3d
000000a0: a872 b7bc 06af 0cbe 9d1c a43d 331a bebc
000000b0: 66f2 23bd 7e05 cabd 2c72 093d ab4c 9bbd
000000c0: a9dc e03b 2b8c 9fbc ed8d 99bc 4ed8 7f3d
000000d0: d487 1a3c c7ad 013d e9e5 56bd 03c5 f0bb
000000e0: f03c 4b3d ccdf 86bd f829 cebd 04ed 73bd
000000f0: 4453 40bc 3b18 09bd b6de e8bd 9a7a c1bd
00000100: 52ff a9bc 99de 033e 9a32 96bd 59e9 f93c
00000110: 145c b7bc 638f 5d3c 6a2e 093d 5508 093d
00000120: 8d7c b0bd 1696 fa3c ba30 513c ca0b 133d
00000130: c911 41bd c7bc ab3d 74dd 273d f1a4 e53c
00000140: 8188 06bd 56f3 013d 8b3f e3bc 7159 6e3b
00000150: b065 4a3d 8afd 633d 1a44 c2bb 598c 263d
00000160: 0c0f d53d 2c37 2fbd 313c 373d c3e6 4a3d
00000170: 8cd6 c43c 27fd 2abd 06e8 2bbb 750e 203d
00000180: 75e9 13bc c0d1 dfba 7906 203b bbad 0fbc
00000190: cc16 0fbb 6d02 00be 147c d5bd f0b4 2ebd
000001a0: 0cfe 8a3d aa18 a93d f4d7 b63d 4078 8abd
000001b0: f71a 053d 99c5 8cbd 6497 ec3d 1066 1cbd
000001c0: 04bd ba3c 5016 ad3d 19b1 9f3d 4f9e 5abc
000001d0: b6bf 8a3d 5ff3 8ebd 137c 65bb ad5d 363d
000001e0: 76cd f0bc b59c 883d 2873 b43d 5de3 56bd
000001f0: 0a91 f63c 10fa 4ebd 292d a43c be83 07ba
00000200: 735a 9cbd 6023 89bd ccf3 2c3d 0e7e c33d
00000210: 413d 18bd 2ea1 c83d f427 8fba b6eb c7bd
00000220: 9fff d6bc dc63 963d 005f f3bd 18d4 b5bd
00000230: 64c7 44bd 9af7 583d 30b9 ea3c ac1a 6abd
00000240: 447f 073c e238 0abd 8c59 5dbb c4dd 5b3d
00000250: 5c20 453e 41c3 bd3d b2f8 113e c96b 833d
00000260: d970 5c3e c285 a73d a77f 4ebc ed6a 133d
00000270: e9e5 343e 59fd b33d f8a3 463e b7dc 473d
00000280: 4f49 4e3d 9127 dcbc 7e32 0ebd a9e0 55be
00000290: 429d 0dbe 5f0e ddbd ff7b 8d3d f528 8dbd
000002a0: b058 96bd 4798 c33d 0c1d 973b ba62 e93c
000002b0: 8593 c9bd 9c0c d53c 60d7 9439 a2dd 79bc
000002c0: 491a d23d 3521 f93d 624d 913d 4da7 16be
000002d0: c7a4 62bd a368 8bbd f97d 7abd 90c2 593c
000002e0: eac1 563d 364c eabc f6c5 9ebd 70b0 03bd
000002f0: 9a8f f8bc fb0f 9bbd 239e 8fbd ca20 11be
00000300: f5f4 aabc 0a1a d8bc 0020 c83d 8e16 153d
00000310: c1f2 ddbd 26a3 00be dc05 01bd d25f bbbd
00000320: b4f2 fb3c 1bae d1bd 39d0 d43d c4b0 1cbc
00000330: 5b10 7b3b c669 883d d907 983d cf46 fdba
00000340: 47cc c43c d80a 48bd 7817 963d d6b4 c43d
00000350: 24aa 273c 88b3 c6bd f37b 323d de01 99bd
00000360: b59f 61bd 99f1 87bd 34a7 26bd c4b0 a83c
00000370: 8305 d0bd 3ae7 b4bc e0a7 3a3b 0d17 7fbc
00000380: 0cb2 513d cc56 a1bd fe83 a73d bd9b 193d
00000390: a265 f9bd 26ff 4a3d edf4 8e3c e60d 4a3e
000003a0: 4e74 613d 843a bd3d 8b93 ee3c e66f 65bd
000003b0: 576e 0c3d aaec 36bd d3d8 ac3d cc40 21bc
000003c0: 5596 16bb dd39 4b3d fae0 92bd b391 973d
000003d0: 292b 2fbd b2de ebbd a62c 573d 1b7c 153b
000003e0: e380 77bc b848 b6bd 4c22 72bd 4992 58bd
000003f0: 208a 5fbd 48de 4dbd 5dbe dbbc 08f7 d2bd
-0.073338896 0.073082596 -0.029852161 -0.09504507 0.0372434 -0.06914082 -0.021635385 0.035401396
-0.032008797 0.059400886 0.053153295 -0.023564717 -0.06351598 0.03529968 -0.029400725 0.13900656
0.06886298 -0.1040185 -0.036691185 -0.119272046 0.0004714725 -0.006894687 0.03192662 -0.15347767
-0.03141075 -0.060468066 -0.016556816 0.010975923 -0.043652896 0.0052520423 -0.13907373 -0.0634451
-0.017550725 -0.03210284 -0.016344998 -0.076424144 0.040520646 -0.044353213 0.05456868 0.092079125
-0.02239354 -0.13738641 0.0801327 -0.023205852 -0.04002609 -0.09864329 0.03355615 -0.07582983
0.0068622422 -0.019476017 -0.018744433 0.062462144 0.009431798 0.031659868 -0.052465353 -0.0073477044
0.04961866 -0.065856546 -0.10066599 -0.059552208 -0.011738602 -0.033470374 -0.11370604 -0.094472125
-0.020751629 0.12877883 -0.0733387 0.030506777 -0.022382773 0.013522956 0.03349153 0.03345521
-0.08617506 0.030589145 0.012767965 0.035899915 -0.047136102 0.08385616 0.04098268 0.028032752
-0.032845024 0.031726204 -0.02774026 0.003636923 0.049413383 0.055661716 -0.0059285285 0.04066119
0.104032606 -0.042777225 0.044735137 0.049536478 0.024028085 -0.04174533 -0.0026230826 0.039076287
-0.009027828 -0.001707606 0.002441792 -0.008769448 -0.0021833656 -0.12500925 -0.10424057 -0.042653024
0.06786737 0.082566574 0.089279085 -0.06761217 0.03249642 -0.06873626 0.11552313 -0.038183272
0.022795208 0.084515214 0.077974506 -0.013343408 0.06774847 -0.06980013 -0.003501658 0.04452293
-0.029394846 0.066705145 0.08811027 -0.052462924 0.030098457 -0.050531447 0.020041065 -0.00051694724
-0.07634439 -0.066962 0.04222469 0.095455274 -0.03716779 0.097963676 -0.0010921941 -0.09761755
-0.026244937 0.073432654 -0.11883354 -0.08878344 -0.048041716 0.052970506 0.028652757 -0.057154343
0.008270089 -0.033745654 -0.0033775298 0.05367829 0.19250625 0.09265757 0.14255026 0.06417043
0.21527423 0.08179809 -0.012603677 0.035990644 0.17665829 0.087885566 0.19398487 0.048794474
0.05036288 -0.026874335 -0.03471612 -0.20886482 -0.1382952 -0.10793757 0.06908416 -0.068925776
-0.073411345 0.09550529 0.004611617 0.02848946 -0.0984259 0.02600699 0.00028389227 -0.015250595
0.1025892 0.12164537 0.07094838 -0.14712258 -0.055332925 -0.06807067 -0.061155293 0.013291016
0.052431025 -0.028600793 -0.07752602 -0.032150686 -0.030341912 -0.075714074 -0.07012584 -0.14172664
-0.020868758 -0.026379604 0.097717285 0.036398463 -0.10837317 -0.12562236 -0.03149973 -0.09149136
0.030755378 -0.10238286 0.10391278 -0.009563629 0.003830931 0.066608 0.07423372 -0.0019323471
0.024023188 -0.048838466 0.07328695 0.09604804 0.010233436 -0.097022116 0.04357524 -0.07471059
-0.05508395 -0.06637878 -0.0406868 0.0205921 -0.10157301 -0.022082914 0.002848141 -0.015569461
0.05119519 -0.07877883 0.081794724 0.03750204 -0.12177588 0.049559735 0.017450774 0.19731864
0.055042557 0.092396766 0.029123088 -0.056014918 0.034284916 -0.044659294 0.084397934 -0.009842109
-0.0022977788 0.04961573 -0.07171817 0.07400837 -0.04276577 -0.11517085 0.052532814 0.0022809568
-0.015106413 -0.08900589 -0.05911474 -0.052873883 -0.054575086 -0.050260812 -0.02682417 -0.10301024

weight_hh_l0 f4 [384, 128]
00000000: e4b8 433c 3ce0 943d 2187 cbbd 14bd 79bd
00000010: 1012 0ebd f4de 73be 6a87 583c afb2 afbc
00000020: 69b7 99bd 28b5 fbbc 34ee 353d 50fa eabd
00000030: 8a37 df3b f3af 013d 58fb 8bbd 60a8 b1bd
00000040: 03b0 fd3c 57b7 c3bd 3f34 f4bc bb61 893b
00000050: 791e 3a3d 7f43 3bbd 4f1e 8a3d 51ce c83d
00000060: add0 8c3c 7647 a9bd c4f3 c23c cd3c 683d
00000070: cc48 d43d 00f5 63bc fc2e c6bc 8dd6 24bc
00000080: b3e1 223e 9b38 84bc 7342 753c d1df 9abc
00000090: eba6 d73c 6189 9dbc 698a d43b e7c2 32be
000000a0: 825d 9c3c 9078 e43d e098 04bd 8d73 a13c
000000b0: bb5a 9bbd 5df1 cebd 3867 27be 8cb6 b1bc
000000c0: 193e 1b3e 7d67 9f3d 5b13 013c c66e 383c
000000d0: 13b7 0c3e a879 d8bd dec6 88bc 6481 08bc
000000e0: b151 aebd b0ce 93bb 6d52 4dbb 7d81 47bd
000000f0: 96fb 56bd 0fc4 073e 32f7 cf3d 830a 0a3e
00000100: 67b5 58bc 72f9 0d3d b57c c5bd 5709 093d
00000110: da9a 65bd 97d6 85bc 6d69 363d 4317 a1bd
00000120: c430 d93c ed1a 52bb a44b 3c3c 62cc 813d
00000130: ca5e d23c 2bad 063e 91c5 2fbd 3ab2 60bd
00000140: b62d 463d 04ad 8fbd aba5 1e3d 1e3d 0e3e
00000150: b9cf f43d 81a5 55be 0c46 2c3c 1161 b93d
00000160: 82e7 9f3c 7255 dabd b03b 073e b6c5 b73d
00000170: 4f08 01bd 0fc8 c13d 6ddb 77bd 4696 e43a
00000180: a4d6 973d b19b 1dbd 5778 54bd be99 fd3d
00000190: 28e1 b2bd f2d5 5fbd a405 153e 288d de3d
000001a0: 9fd1 f63c 84ed c1bd 06f9 e2ba 0d06 55bd
000001b0: 5dd7 3e3d ea64 d83c 67d7 e7bd 1d73 c0bd
000001c0: 80d8 21be 76a7 3b3e f172 963d 7c0e b03b
000001d0: 1300 bebd 7807 a43d d023 45bc efcb 94bd
000001e0: 8ad1 c4bc b8ff 913d eb9b c6bb 0948 4fbd
000001f0: dfd6 a53a 9dd3 893c 58bd 51bc b889 e43d
00000200: 3dff 54bd 66d7 05bc e6f8 78bd 22aa 713d
00000210: e21a aa3c 5af5 8cbd a934 48bd 74bd 6cbd
00000220: db47 d23d 302e a0bd d82e 7bbc e919 2f3d
00000230: d005 9ebd 51d4 0b3e 3e78 33bc 33df 143d
00000240: c5c2 6fbc c0f1 c83c 2363 bdbd a4f2 99bd
00000250: fc9b a6bd e7f0 833d 6145 af3c d272 d73d
00000260: b44d a53d 3d55 98bd a133 85bd 32ff f8bd
00000270: 4156 83bd 2cf2 e9bd 15e3 6e3c b9e6 38bd
00000280: d266 38bd ee76 3fbc 9327 5f3b 7a86 ce3d
00000290: dc94 e3bd 0e1a a33d 8a72 233d ba4e 463d
000002a0: a997 5cbd dc2b 2bbd fc45 86bd d90b 01bd
000002b0: 86a7 02bc b89c 883d 331d 0abc ddf9 e53d
000002c0: e07b 713d e9d3 873d cf44 dcbc 2ae3 26bb
000002d0: aa39 573d 949d 5ebd 4a49 9fbc 384c 0ebd
000002e0: a3a1 80bd bd21 343b c6e9 7ebd 2f6e b9bd
000002f0: e4c2 073d e3d0 2f3c 015d 173d e3a5 69bd
00000300: 7101 13bc 9159 66bd 18c1 4ebd f78a 37bb
00000310: d076 84bd a731 733d 80a6 b73d 69eb 763c
00000320: c1e8 b13d 5887 c7bd 8f4b b93d e532 b8ba
00000330: 176f 2f3d 8c81 08be 3973 bc3d b950 c63d
00000340: 1db9 a3ba 744c 8c3d 85fd 2dbd f714 d33a
00000350: 5812 b6bd 898d fe3c 6086 cf3d 9e0c 863b
00000360: c02e 5a3d 9f7b 95bd 736e 9dbd 3962 bfbd
00000370: 9940 cdbc 74cb 103d 69fc 1bbd 0472 0abe
00000380: cd6d dfbb a743 e6bc 62bb 30bd 6bb6 363d
00000390: 1e0d 023d ee6d 553c 89cd b5bc db26 aabd
000003a0: 3276 11bd aedd a0bd 66d9 b73d 8675 983c
000003b0: 6640 f7bd 042e 40bd a865 30bd e729 5a3d
000003c0: 4616 ab3b e229 6e3c 9ea7 58bc 9898 da3c
000003d0: fd8d 9b3c a314 4fbd 0513 363d b700 a63c
000003e0: 6331 dc3c 5cd8 093d 2e72 8c3d 3d27 8ebd
000003f0: de7b 01be 1db5 483d 4b61 c4bc 8697 393b
0.011945937 0.07269332 -0.09937883 -0.060971335 -0.034685194 -0.23815519 0.013215879 -0.021447508
-0.07505686 -0.03072603 0.04441662 -0.114735246 0.0068120407 0.03166194 -0.068350494 -0.08674693
0.030967718 -0.09556454 -0.02981007 0.0041925586 0.045439217 -0.045718666 0.06744062 0.09804977
0.017189348 -0.08265583 0.023797877 0.05669861 0.103654474 -0.013913393 -0.024192326 -0.0100609185
0.1590641 -0.016140273 0.014969456 -0.018905552 0.02632471 -0.019230546 0.0064862263 -0.17457162
0.019087557 0.11155808 -0.032372355 0.01970842 -0.07585665 -0.1010463 -0.16347969 -0.02169349
0.15160407 0.07783411 0.00787815 0.011256879 0.13741712 -0.10570079 -0.01669639 -0.00833163
-0.08511675 -0.004510723 -0.0031329647 -0.048707474 -0.052486025 0.13258384 0.10154571 0.13480572
-0.013226843 0.034661718 -0.096429266 0.033456173 -0.05605588 -0.016337676 0.044534136 -0.07865765
0.026512511 -0.0032059506 0.0114926435 0.06337811 0.025679965 0.13151996 -0.042913023 -0.05485747
0.048383437 -0.07015422 0.038732212 0.13890502 0.119536825 -0.20863916 0.010514747 0.09051717
0.019519571 -0.10660829 0.13206363 0.08973257 -0.031502064 0.09461986 -0.060511995 0.0017439805
0.07413986 -0.038478557 -0.051872578 0.123828396 -0.087343514 -0.054647394 0.14552933 0.10866767
0.030129252 -0.09469131 -0.0017316646 -0.052007724 0.046592105 0.026415307 -0.113203816 -0.09396956
-0.15805244 0.183256 0.07346142 0.0053728204 -0.09277358 0.08009237 -0.012032464 -0.0726546
-0.024025697 0.071288526 -0.0060610673 -0.050605807 0.0012652538 0.016824538 -0.012801491 0.1115908
-0.052001227 -0.008169031 -0.060784243 0.059000142 0.020764772 -0.068827346 -0.048878346 -0.057797864
0.102676116 -0.078213096 -0.015330993 0.04274932 -0.077159524 0.13655211 -0.010953961 0.03634567
-0.014633839 0.024529338 -0.092474245 -0.07516983 -0.081352204 0.06442433 0.021395387 0.10519947
0.08071461 -0.07438133 -0.06503988 -0.1215805 -0.06412936 -0.11423144 0.014580508 -0.04514191
-0.045019932 -0.01168607 0.0034050688 0.10084243 -0.11112377 0.07963954 0.039904155 0.048414923
-0.053855572 -0.041789874 -0.06556317 -0.03150544 -0.007974511 0.06670517 -0.008429813 0.11229298
0.058956027 0.066322155 -0.02688828 -0.002546499 0.052545227 -0.054349497 -0.019444127 -0.034740657
-0.0628083 0.002748593 -0.062234662 -0.09054219 0.033144847 0.010730955 0.03695393 -0.057042968
-0.008972512 -0.05623776 -0.050477117 -0.0028006413 -0.06467974 0.059373524 0.08967304 0.015070775
0.086869724 -0.09742612 0.09047615 -0.0014053254 0.042830553 -0.13330668 0.092016645 0.096833654
-0.0012491081 0.0685052 -0.042478103 0.001610427 -0.088902175 0.031073349 0.10133052 0.0040908596
0.05326724 -0.072989695 -0.07687082 -0.09344906 -0.025055217 0.035350278 -0.038082514 -0.13520056
-0.006818509 -0.028108431 -0.043147452 0.04460756 0.03175079 0.013026698 -0.022192733 -0.08308192
-0.03551311 -0.07854782 0.08977012 0.018610727 -0.1207283 -0.046918884 -0.043065697 0.053262617
0.005221161 0.014536353 -0.013223557 0.02668409 0.018988604 -0.05055679 0.044451732 0.020264013
0.026879018 0.033653602 0.068577155 -0.06941078 -0.12644908 0.049000848 -0.023972174 0.0028319075

bias_ih_l0 f4 [384]
00000000: 6ad2 243c 163e e7bd de6a 753d a3cb 8ebd
00000010: bc24 963d f259 7abd 5ef7 2abd e834 58bc
00000020: d591 573d 0a37 7fbc a299 aabc 3532 b43d
00000030: 6154 8dbd 6694 b838 403e 42bd f1c8 88bd
00000040: 097d 64bd bc64 f4bd 5d57 60bd 15d6 1ebc
00000050: e9f7 17bd b299 a63c b353 abbc cea3 603d
00000060: 893a 70bc b7e9 173c 41c5 c0bd b7dc 5cbb
00000070: 8ef9 ef3d 03a9 103e d2cd f5bc 31ac 7e3d
00000080: 1048 773d d8e2 1f3d 874a 1ebd daa2 29bd
00000090: c648 f03d 7be6 4fbd 946d de3d f7f8 83bc
000000a0: 4f91 2abc aff7 b1bd 3ab0 53bd 6767 0abd
000000b0: 8b00 2e3d 8e7e c53d 0b2b 3abb 214a 563d
000000c0: 8786 95bd f920 393d 8b55 213b e447 923d
000000d0: d313 843c 3207 b2bd dd27 d4bc 03d9 8d3c
000000e0: 40e5 dabc acc3 ba3d 1211 2c3d 93c2 153d
000000f0: 4191 5fbd 81d1 203e a082 a43b 30ed 5a3d
00000100: a3e6 863d 840d a3bd 1749 8a3c 1acc 86bd
00000110: 92f4 d4bd 6d7b d93c bb0f 173e 06b0 1f3d
00000120: 5072 b6bd c5dd 573d fccd 0f3d f1de e8bc
00000130: d15d 853c 6890 b6bc dd89 843d 37ef 8e3d
00000140: 7127 0fbd 1d20 1bbd 6f90 52bd ff93 0b3c
00000150: 9457 a73d f441 2cba 7f73 9bbd 6559 013e
00000160: 7b7f 773b e4c3 323d 27c7 d13d 5b5e 79bc
00000170: b741 44bd d92f 713d 5ebd 61bc 8482 e13d
00000180: 8d0a ccbd 300b 4c3d 2f3e 2ebd 086d af3b
00000190: 1746 82bd 59d2 9abd 3a32 813d c81d c0bd
000001a0: b2b5 843d 2392 80bd 1805 5e3d 5a62 b03c
000001b0: 3b73 813d 1e72 8ebc 8404 2b3c 7e32 47bc
000001c0: 549b 863d cc12 bc3c b7b3 50bd 4838 ed3d
000001d0: 4ee2 a7bc df0e dc3c 202e 7d3d a33a 81bd
000001e0: 0443 d73d 7079 1ebd 0cc8 16bd fae5 aa3d
000001f0: c1e4 273d 1af6 fe3d 7a64 57bd 7bc8 883d
00000200: 99c9 853c 3c82 22bd 2958 8e3d 76cd f53c
00000210: 2618 c33d 44f9 d63d 31c3 e73d aab3 e2bd
00000220: 9eb8 923c ea5d 4d3d a72b 94bd a808 8c3b
00000230: edf3 2f3d 7d86 193c 1a7b ebbd eb32 65bd
00000240: 8dd5 183e eee3 fb3d b2f1 713d 6f24 aa3d
00000250: ac14 c3bc db02 e6bc 0485 65bd 2c01 c03d
00000260: f674 d03d ec2e 92bd 9e87 123c d689 373e
00000270: 9aec 893d 3580 dc3c 2a66 4a3d 78dc 06bd
00000280: 2a40 5c3c aea3 07bd d8f1 9ebc 1a1a c53c
00000290: 4c04 6bbd dde1 463d b106 173d dba4 203e
000002a0: 843b cebc 0b4c 54bd 5d7b b53d 70ff 233d
000002b0: 0a62 30bc fd20 80bd f207 bbbd 16b8 aebc
000002c0: 63bf 0a3e 3ddd b53d 0d14 fabb b45f b2bc
000002d0: 686a 6e3d 9d7f 103d 81ae c63c d94e 813d
000002e0: 1057 0c3e 3880 833d b187 0b3e 11db 84bd
000002f0: e710 91bd 728b c23d 8bf9 15be a03c b43d
00000300: c60c 83bc 195b 863d 6390 1b3e 2f99 813b
00000310: 4261 19bd cf98 913d 2245 82bd c9ae 47bd
00000320: d9a4 953d 9d9a 93bd 17f5 a63d 7e5d ac3c
00000330: 9ac5 a83b d4c5 1dbc f7e1 b33d 5e3a 0abd
00000340: 2152 353d 4f59 e8bb 2f2a f23d 2992 f1bc
00000350: ccfc 383c ac0a 843d 8b7d 5fbc fb34 d33d
00000360: d44f 11bd 2bf9 19bd b4b4 813d e085 de3d
00000370: 359e 5d3d 248b e43c 4f51 c83d b07b 8dbd
00000380: fe7f f139 9feb 9f3d 81c7 b73d be6d 003e
00000390: 459a ed3d 192a 3a3d 0b6b d43d 278d 873d
000003a0: e90a 16bc 9cac 843d dfbd b8bc ee45 9fbc
000003b0: b030 e5bd e4fa 84bc 9123 d73d a08f c6bc
000003c0: 7cb2 863d 4572 a6bc b612 183e 7181 fcbd
000003d0: 53df 0fbd 2147 963d 8ab1 bd3d 9e9d 5cbc
000003e0: 772c 98bc 972e 28bb 7c41 d13d 6959 013c
000003f0: e7c3 063d 28f3 443e 6bf8 b73b c21b 0b3e
0.010059932 -0.11291139 0.05991637 -0.06972434 0.07331225 -0.061120935 -0.041739814 -0.013196208
0.05262931 -0.015577087 -0.020825211 0.08798639 -0.069008596 8.801445e-05 -0.047422647 -0.066789515
-0.055783305 -0.11933276 -0.054770816 -0.009694596 -0.03710166 0.02033696 -0.020913934 0.054843716
-0.014662393 0.009272031 -0.09412623 -0.0033700892 0.11717521 0.14126973 -0.03000537 0.062175933
0.06037146 0.039034694 -0.038645294 -0.041415073 0.117326304 -0.050756913 0.10860744 -0.016109927
-0.010410621 -0.0868982 -0.051681735 -0.03379002 0.042480987 0.09643279 -0.0028407003 0.05231679
-0.0730105 0.04519746 0.0024617638 0.07142618 0.016122734 -0.08692779 -0.025897915 0.017315393
-0.026720643 0.09119353 0.042008467 0.036562514 -0.054581884 0.1570492 0.0050204545 0.053448856
0.06586959 -0.07961562 0.016880555 -0.06581898 -0.103982106 0.026548112 0.14752094 0.03898623
-0.08908522 0.05270173 0.03510855 -0.02842662 0.016280087 -0.022285655 0.06471608 0.0697922
-0.034949724 -0.037872422 -0.051407274 0.008519172 0.08171001 -0.0006571107 -0.075903885 0.12631758
0.0037765193 0.043643847 0.102430634 -0.01522025 -0.047914233 0.05888352 -0.013778059 0.11011222
-0.0996295 0.049815357 -0.04253977 0.0053535737 -0.06361025 -0.07559652 0.06308408 -0.0938068
0.06479968 -0.06277873 0.054204077 0.021531273 0.063208066 -0.0173884 0.010438088 -0.012158034
0.06572595 0.022958182 -0.05095264 0.115830004 -0.020493653 0.02686256 0.061811566 -0.06310012
0.10510829 -0.03869003 -0.036811873 0.08344646 0.04098964 0.12449284 -0.052586056 0.066788636
0.01633148 -0.039674982 0.06950409 0.030005198 0.0952609 0.104967624 0.11316527 -0.110694245
0.017910298 0.05013839 -0.072348885 0.004273493 0.042957235 0.009370443 -0.11498089 -0.055956762
0.14925213 0.122993335 0.05906839 0.083077304 -0.023813568 -0.028077533 -0.056035057 0.093752235
0.101785585 -0.07137856 0.0089434665 0.17923674 0.06734581 0.026916603 0.049413837 -0.0329251
0.013443032 -0.03311508 -0.01940243 0.024060298 -0.057377145 0.048555244 0.036871616 0.15687887
-0.025174864 -0.051830333 0.0886142 0.040038526 -0.010765562 -0.06256292 -0.09132375 -0.021328013
0.1354957 0.088800885 -0.007631785 -0.02177415 0.058206946 0.03527795 0.024253132 0.06313867
0.13705087 0.0642094 0.13625981 -0.06487096 -0.07083302 0.09499253 -0.14645974 0.08800626
-0.015997302 0.06560344 0.15191798 0.0039550285 -0.037446268 0.07109224 -0.06360842 -0.048750672
0.07306833 -0.072072245 0.08152216 0.021040674 0.005150509 -0.009629685 0.08783334 -0.03374707
0.044267777 -0.0070907245 0.11824452 -0.02948864 0.01129074 0.06447348 -0.013640772 0.103128396
-0.03547652 -0.03759114 0.063332945 0.108653784 0.054105956 0.027898379 0.097811334 -0.06908357
0.00046062464 0.07808613 0.08973599 0.12541863 0.1160169 0.045450304 0.10371979 0.066187195
-0.009157875 0.06478235 -0.022551475 -0.019442525 -0.11190927 -0.016232915 0.10504831 -0.024238408
0.06577012 -0.02031816 0.14850888 -0.123293765 -0.035125088 0.073377855 0.092623785 -0.013465313
-0.01857589 -0.0025662535 0.10217568 0.007894852 0.03290167 0.19233382 0.0056143305 0.13584808

bias_hh_l0 f4 [384]
00000000: b770 a2bd 6907 8f3c ebbb 123e ce3f d9bc
00000010: 634b 223d 01cf cdbd 8170 85bd 6102 9abc
00000020: 6bf8 92bd 65ef f6bd 051c d63c d83f 503d
00000030: afeb efbd dc7f a73c 9432 ddbd 070c f03c
00000040: 2b22 fcbc 7455 cabd d407 c7bd b513 933d
00000050: 53c5 c8bd feb2 303e 4a53 51bc bc1d d73c
00000060: beb6 573c 2477 153d 5010 d5bd 03a9 0bbd
00000070: dca5 8e3c b888 b73d 588b 8dbd da87 b43d
00000080: a88b 883c 4d50 173d 0215 e33c f0a9 a23d
00000090: 8f05 5f3d 7291 053d d725 8abc 5b07 0d3d
000000a0: ca46 393d b994 373d b8fb b0bc 7c10 983d
000000b0: 72da 6c3d 9781 bd3d 01cb 383d f5a8 28bd
000000c0: 2c5b 113d 70e6 70bd 1ce7 e13c 8273 df3c
000000d0: 809c 7cbd 1e62 e43c 7c92 40bd ba67 b1bb
000000e0: a700 bdbc 8740 da3d 83e3 333d f8de 063d
000000f0: 167e 57bd a39e 1e3e 06a0 d73d 6efa 11bd
00000100: c486 963d 0f86 fdbd 8223 333c bc30 aebd
00000110: 23eb cfbc b3db c2bc f943 1f3e e76b 163d
00000120: 358a 89bd b931 9b3d 1691 3ebd f009 22bd
00000130: b518 b83d b1d0 a43d 5f70 993c 0765 dcbb
00000140: 64ad a63c 034f be3d 5508 35bd d806 32bd
00000150: 3fa0 d43d eb69 6abd f717 3d3d fd73 5b3d
00000160: cb15 dbbd 031e 893d 7647 7f3d d6da ddbc
00000170: 0115 50bd 6324 463c 7312 9ebd 9dc9 793d
00000180: bc0f 653d 3f27 123d dcbc c1bd 040a 68bd
00000190: 9512 913b 8477 9fbb 57d7 833d 4b29 4ebd
000001a0: a3bf 013e 5f8d 6cbd 9d41 a8bc 0727 293c
000001b0: 2a26 a339 f7d5 cf3d d8b8 103c bde4 743d
000001c0: 1e0b 1e3d 43d0 ac3d 5eed c63b 5fc3 4a3d
000001d0: 1542 b5bd 0609 b1bc 25cf c6bc 67fa 7d3d
000001e0: 4270 e13c e1ca 01bc bd9f a3bd 1cbb d23c
000001f0: 3e2d f6ba aae3 9a3d 5061 ed3c c345 fd3d
00000200: aaf5 f63d 9bff f93d 748a 99bd ed23 593d
00000210: a979 8dbd 4884 c9bc 9cd7 acbb 8589 59bd
00000220: 616a 253d df6f 9a3c 441d b0bb 51c4 ab3d
00000230: 1ee8 ac3d bd95 8abc 7092 e7bd d062 8ebc
00000240: 542c 4d3e b9cc b93d 9da3 5ebd d4fb 453e
00000250: eab5 34bd 0d36 afbc 89e3 a03c 67cb a93d
00000260: dc5f 923d 8e3a 59bd 4695 ea3c 3b34 143e
00000270: 7ff8 573d 82a9 c53d 5340 e03d ca7e 60bc
00000280: a103 053e 81ec 333d aadd eb3d 89b1 03be
00000290: 1b30 bebd 1897 8bbb 45a8 b03d 6ceb c63d
000002a0: aafa 45bc 9709 0cbd 6a45 e13d 3667 a3bd
000002b0: 66ae a1bd 8ad5 08bd 4897 afbd bcaf 913b
000002c0: eba9 273e 6ca4 0c3e 93de 9ebd d7f5 c6bd
000002d0: 270a 32bd 8a96 753c 902f d43a 25d9 8ebd
000002e0: bd62 9d3d 59ec 813d 4991 363d 4d11 84bd
000002f0: 2fc4 e8bd 72b8 3ebc 5657 0bbe 02e2 b93d
00000300: b761 293c 5bfc a33d 099d 843d 4891 e2bd
00000310: ef74 0dbc ccff a63d e24f a63d e180 9ebd
00000320: de56 433d 21c1 1d3d 857d 9ebc 29a5 753d
00000330: 13fe 4fbd 0bce 4b3c 985f 893d 2a61 953d
00000340: 1212 a2bd 3fdd 53bc ba60 223c 4b72 12bc
00000350: cfde 403d 5ee1 e63d 0b5c eabd 1816 433d
00000360: 494e 093d 7b22 d53d 4e82 7cbc 11fd 8d3d
00000370: 2b7d d43d a1a6 cc3d 0c8b c43c 37b6 8f3d
00000380: 609e 0abd 4ce3 933d 4fed 49bc 1acd 623d
00000390: 7574 ae3d 83fe 07bd d393 993d 23a4 263d
000003a0: b3c3 063e ba12 683d 67ac d2bd c0a6 cebd
000003b0: fe57 bebd eb2f 82bd c49b 0e3e 308d 113d
000003c0: ae33 a83d e402 393d 6fe1 1f3e 28c5 d1bd
000003d0: 1298 2f3d e85e 7c3c 9821 febc 0959 e1bc
000003e0: 9269 67bd 52b5 443d a9e8 cebc 23a6 2bbd
000003f0: 8adb 5e3d d54d 453e a374 983d b783 2dbc
-0.07931655 0.017459588 0.14329498 -0.026519682 0.039622676 -0.100492485 -0.06515599 -0.018799962
-0.07176288 -0.1205738 0.026136408 0.050842136 -0.11714875 0.02044671 -0.10800663 0.02930261
-0.030778011 -0.0987958 -0.0971829 0.07181493 -0.098032616 0.1725578 -0.012776205 0.026259296
0.013166128 0.036490574 -0.10403502 -0.03409673 0.017413072 0.08961624 -0.06911343 0.08814974
0.016668156 0.036941815 0.027719978 0.07942569 0.05444866 0.03260941 -0.016863747 0.034430843
0.045233525 0.044819567 -0.021604404 0.07425019 0.057825513 0.09253233 0.045115475 -0.041176755
0.03548734 -0.058813512 0.027576022 0.027276758 -0.061672688 0.027878817 -0.0470147 -0.0054139765
-0.0230716 0.10656839 0.043918144 0.032927483 -0.05261048 0.15490203 0.10528569 -0.03563922
0.07349923 -0.12379085 0.010933759 -0.08505389 -0.025380677 -0.023786401 0.15553273 0.036723997
-0.06715814 0.07577843 -0.046525083 -0.03956026 0.089890875 0.08047617 0.01873034 -0.0067259106
0.020346351 0.09292414 -0.0441974 -0.043463558 0.10382127 -0.057229917 0.046165433 0.053577412
-0.10697516 0.066951774 0.06232401 -0.027081888 -0.05080128 0.012093636 -0.07718363 0.06098329
0.05592321 0.03568196 -0.0945985 -0.056650177 0.004427264 -0.0048665423 0.06437557 -0.05033235
0.1267076 -0.05775201 -0.0205391 0.010324246 0.00031118217 0.101482324 0.008833133 0.059788454
0.03858482 0.0843816 0.006070777 0.049502727 -0.08850495 -0.021610748 -0.024268696 0.06200638
0.027519349 -0.007921905 -0.07989452 0.025723986 -0.0018781794 0.07562955 0.028977066 0.123668216
0.120585755 0.12206956 -0.07497111 0.053012777 -0.069079705 -0.02459921 -0.005274726 -0.053109664
0.040384654 0.018852172 -0.0053745825 0.08387054 0.0844271 -0.016917104 -0.113072276 -0.017381102
0.20036441 0.09072251 -0.054355253 0.19334346 -0.0441188 -0.021388078 0.019639747 0.08290749
0.0714719 -0.053034358 0.028635632 0.1447305 0.05272722 0.09651472 0.10949769 -0.013702104
0.12989666 0.04392672 0.115168884 -0.12860693 -0.09286519 -0.004259955 0.08625845 0.09712872
-0.012083689 -0.034188833 0.10999568 -0.0797867 -0.07894592 -0.03340677 -0.085737765 0.004445998
0.16373412 0.13734597 -0.077572964 -0.09714859 -0.043466713 0.014989505 0.0016188491 -0.06975011
0.076848485 0.06343908 0.04457215 -0.06448612 -0.11365544 -0.011640655 -0.13607535 0.09076311
0.010338238 0.08007117 0.064752646 -0.110628664 -0.008633836 0.08154258 0.08120705 -0.077394255
0.047690265 0.03851426 -0.019346962 0.059971962 -0.050779413 0.012439261 0.06707686 0.07293923
-0.07913603 -0.012931167 0.009910757 -0.008938382 0.047087487 0.11273454 -0.11443337 0.047628492
0.033521924 0.10406967 -0.015411926 0.06933034 0.103754364 0.099927194 0.023992084 0.070171766
-0.033842444 0.07221088 -0.012324645 0.05537138 0.08518306 -0.033201706 0.07498898 0.040683877
0.13160591 0.056658484 -0.102867894 -0.10090399 -0.09294127 -0.06356796 0.13926607 0.035535038
0.08212982 0.045168772 0.1561334 -0.10242683 0.042869635 0.015403487 -0.031021878 -0.027508276
-0.056497164 0.048024483 -0.025257425 -0.041906487 0.054408588 0.19267972 0.07444122 -0.010590485

weight_ih_l0_reverse f4 [384, 32]
00000000: e37f cebd e114 acbd 2db3 8b3c ba23 adbd
00000010: 630f 09bd b487 053d 2926 9a3d 7300 a4bc
00000020: a01f 1a3d 3c72 5f3c 9f93 933d 8b7a 1abd
00000030: b418 0d3d 78ce 213e 0685 f23d d116 413d
00000040: 90ea c53c 90bd 013d d840 cd3c 8a76 efbc
00000050: a785 223c d0c8 dc3d 2b14 6abc 8199 8e3c
00000060: 235c 5b3d 7acf 043e a862 05bd b528 013e
00000070: 7be1 7dbc 11df 1b3d dd0b 1a3d d1a4 a43d
00000080: 82a3 e9bc 1da2 743d 0207 e73d 599a 483b
00000090: ba32 97bd 8871 c0bb 7a24 573d 4d7f 52bd
000000a0: 50a7 ae3d 6455 873c 2d62 80bd 213a eabd
000000b0: cde1 b2bd c0b6 033d f2ce 16bd e00e c2bd
000000c0: ed03 2dbd 16f2 453d e4e5 65bd cb52 0c3d
000000d0: 1c6d 5fbd 2635 883d 07a0 debc 5d93 b6bd
000000e0: 16d5 1b3d 7c5f 8c3c 5a7c 80bd 5e23 a23d
000000f0: 0aaf 103d ba4f b63d 506b 293c 8001 2dbd
00000100: 8a6a be3b 056c 143e d958 79bd a327 42bc
00000110: 99f3 bfbd 8c1b a2bc a671 cbbc a2a1 a03c
00000120: 719e f13a 1caa 8a3c e131 9abd a160 78bd
00000130: 3549 9e3d 3d7f dcbc 0b5c b8bd e187 8dbd
00000140: 20fb 3ebe 3f7d d43c 1626 113e c967 f43c
00000150: c25e 953d d873 193e 86d1 76bc 8722 9c3c
00000160: 0620 21b9 f69a f23d e14b a63d 42cf 87bc
00000170: 6aeb e13d 7853 c43d dc77 283e a89a 103e
00000180: 0483 dbbc 35a1 f1bd 2f09 9b3d 5874 c0bc
00000190: d478 b5bd eb8b 493d e7c8 983d 7187 b0ba
000001a0: 9180 883d b438 b73c d554 1dbc 2e49 413d
000001b0: df65 90bd 1c3c cc3c 7652 083d ff05 a9bd
000001c0: 9184 06be 5dee af3d 4356 af3d afde a2bd
000001d0: 0298 133c b245 21bd 23b4 c53d 8c2a 98bc
000001e0: cfd3 42bd f065 ac3b 2db4 a2bd 6da3 21bc
000001f0: 61a0 98bb b2f7 b83d 7c72 c5bd 4122 c739
00000200: d391 1dbe ec04 c0bc 107e 09be 4812 77bd
00000210: c491 02be ebb5 483d 725b d6bd cb77 abbd
00000220: b2a3 13bd e8d7 9c3d b80b bb3d b84d 5d3d
00000230: 7da8 54bc 69c8 153d aff4 953c b4cf 02be
00000240: d01c d43c cd0a 91bd 826c 983d c538 c93d
00000250: 0287 ab3c e1c0 2c3d 2b5e 91bd 7705 97bb
00000260: b40a 7c3d 03df 30bc 7a4f cc3d 66d9 cf3c
00000270: e4d8 203d 144f 8c3c 9427 983d 880d 66bc
00000280: 8dea bb3d 53e2 fe3c 772d 8f3c 14b5 be3d
00000290: a1d4 45bd d119 d33d f2a7 a63c 8fde 0f3c
000002a0: 0162 0cbd 4c6a 203e 53f1 a33d ad8f 203c
000002b0: 1bbc a9bc 0f8a bebd 940e 773a 9334 41bd
000002c0: 18c7 ef3d 3ce7 d03d d043 babd 63d3 85bd
000002d0: d152 11bd 0454 433d 7644 0c3e e6bc 203d
000002e0: 333a 4dbc 8eca f6bc e519 17bd 6193 76bd
000002f0: 33f7 af3d 9583 8b3d 76f3 4bbc 4cc1 803d
00000300: 58c2 33bd 8281 38bd de78 7abd 4a57 d13d
00000310: 01e2 1d3d daf0 8bbd 037e 5bbd ab39 7dbc
00000320: afea f63b 9ce2 3f3e c55a d7bc b3c8 febd
00000330: 03c7 82bb d68b 083e 657e 363e 0dc6 443e
00000340: 9eed e23d b6b6 543d 7ac5 1a3b fdff c73d
00000350: db91 f3bd 7d53 12be 454b aebd 3eb7 10be
00000360: 2fa8 02be aafe 34be 3074 b4bd 048d dbbd
00000370: 1b53 47be 2a0d 01be 2f9a bbbd 1c91 edbc
00000380: 4f72 1e3e a2b2 af3c 5567 833d 3268 1f3e
00000390: 88cd c13d 0b44 a13d 63fc a8bc c13d 7d3c
000003a0: fcbe 00be d0d7 79bb 6f59 efbc d727 03be
000003b0: 4d41 85bd 44a0 aa3d bbf3 d2bc 57af 953c
000003c0: 31df 403d 61ce 0dbd c906 c13c 1655 d8bd
000003d0: af40 883d e827 443d ecaa 8f3d e781 3fbc
000003e0: 285d 093d 565b 0d3a 6e85 863d 1472 4fbd
000003f0: 74c9 acbd 7c87 963d ca33 02bd 4fe2 56bd
-0.10082986 -0.0840242 0.017053211 -0.0845408 -0.03346194 0.03260012 0.0752681 -0.020019745
0.037627816 0.013638075 0.07205891 -0.037714522 0.034447387 0.15801418 0.118417785 0.0471409
0.0241597 0.03167492 0.025055334 -0.029231329 0.0099195605 0.107804894 -0.014287035 0.01740718
0.053554665 0.12969771 -0.03256479 0.12613185 -0.015495653 0.03805453 0.03760897 0.08039249
-0.02852035 0.059724916 0.112806335 0.0030609576 -0.07382722 -0.005872909 0.05252502 -0.051390935
0.08528006 0.01652021 -0.062687255 -0.114368685 -0.08734474 0.032156706 -0.036818452 -0.094754934
-0.042240072 0.048326574 -0.056127444 0.034258645 -0.054547414 0.06650762 -0.027175916 -0.08914826
0.03804501 0.017135374 -0.06273718 0.07916902 0.03532318 0.089019254 0.010340527 -0.04223776
0.0058110403 0.14494331 -0.060875747 -0.01185027 -0.093726344 -0.019788526 -0.024834465 0.019608323
0.001843406 0.016926818 -0.07529045 -0.060639028 0.07728807 -0.02691614 -0.09001931 -0.069106825
-0.18650484 0.025938628 0.14174685 0.029834645 0.07293464 0.14985597 -0.015064603 0.019059433
-0.00015366086 0.11845963 0.081199415 -0.01657832 0.1103123 0.09586233 0.16451973 0.14121497
-0.026795872 -0.11798326 0.07570111 -0.023492977 -0.08860937 0.0492057 0.07460194 -0.0013468099
0.06665147 0.022365905 -0.009602745 0.04718893 -0.0705068 0.024931006 0.033281766 -0.08253097
-0.13136508 0.08590386 0.08561375 -0.0795263 0.009008409 -0.039373107 0.09653499 -0.018574975
-0.047565278 0.0052611753 -0.07944522 -0.009865624 -0.0046577905 0.09031619 -0.09640977 0.0003798176
-0.15387659 -0.023439847 -0.13426995 -0.06032017 -0.12750918 0.049001615 -0.104666606 -0.08372458
-0.036044784 0.07658368 0.091330945 0.054029197 -0.012979624 0.03656808 0.01830515 -0.12774545
0.025892645 -0.07082138 0.07442571 0.09825281 0.0209384 0.04217613 -0.07098039 -0.0046088058
0.061533645 -0.010795358 0.099760965 0.025372218 0.039269343 0.017127551 0.07429424 -0.014041312
0.091755964 0.03111378 0.017477734 0.09311882 -0.04829848 0.103076585 0.020343754 0.008781089
-0.03427315 0.15665549 0.08005013 0.00979988 -0.020719578 -0.09303676 0.00094244746 -0.04716928
0.11707896 0.102003545 -0.090949655 -0.065344594 -0.03547937 0.047687545 0.13697991 0.039242648
-0.012526083 -0.030125882 -0.03688993 -0.060199145 0.085920714 0.06812207 -0.012448182 0.062868685
-0.043886513 -0.045045383 -0.061150424 0.10221727 0.038545612 -0.06833048 -0.05358697 -0.015455644
0.0075353007 0.18738788 -0.0262884 -0.12440624 -0.003991009 0.13334593 0.17821653 0.19216175
0.11080478 0.05193206 0.002361624 0.09765623 -0.11893054 -0.14289661 -0.0851045 -0.14132401
-0.1275947 -0.17675272 -0.088112235 -0.10720256 -0.19465296 -0.12602678 -0.091602676 -0.028999858
0.15473293 0.021447483 0.064161934 0.15567091 0.0946303 0.07874306 -0.02062816 0.015456618
-0.12572855 -0.003812302 -0.02921745 -0.12808166 -0.06506596 0.083313495 -0.025750985 0.018272085
0.047087852 -0.034620646 0.023562806 -0.10563104 0.066529624 0.04788962 0.07015023 -0.011688686
0.033536106 0.0005392333 0.065684184 -0.050645903 -0.08436862 0.0735006 -0.03178767 -0.05246192

weight_hh_l0_reverse f4 [384, 128]
00000000: e9f5 a1bb 0751 32bd ff68 cabd 2b39 5ebd
00000010: af2f c03d 960f 8a3d 4c57 81bc 5e79 f5bc
00000020: dda6 36bc 1ed3 dfbd 9be0 cf3c 8408 6e3d
00000030: 7700 6a3d 1ad6 463d c4c9 9f3d a439 f43d
00000040: 3363 9c3d decf 4ebd bccf a13c c98e 83bd
00000050: 8b08 733d 1e4d a43d c05e 8d3d 6944 8dbc
00000060: f69d b93d 366a 40bd e942 b6bc 9cc8 7d3d
00000070: 732a 98bd 3418 d53d 97dd 2abd d825 9d3d
00000080: 41e2 293d bf5b 14bd 88c2 20bd 315a 1a3e
00000090: 0e6b 9a3d 54ec 76bb 6fcf a73d d1e7 c43c
000000a0: 05a7 a6bd a168 c53c 3896 debc 81a8 f6bd
000000b0: ccdb 893b 1c95 99bd 0f99 28bc b15c 9e3d
000000c0: 7a2e 4f3d dc9e 2a3d 8149 23bc feed ecbd
000000d0: 6b62 9dbd 1164 01bd 06e3 a0bd c5fe 5bbd
000000e0: a62d 1c3d 59aa ae3d 206a 17bd 67f5 8c3d
000000f0: 5232 afbc 4096 aabd d03b b0bd 51b2 2f3d
00000100: 0e9b 953d 2925 9d3d a809 36bd 09bd 98bd
00000110: 7def 7e3d 88be 4b3d cf56 853d 5ebc 0e3e
00000120: 23a5 0f3d 0c9d 43bc 0ace 953b 8bd6 92bb
00000130: 7522 b23d 535f 653c 1ffc 3cbd 5f01 aebd
00000140: 6935 c5bb 9f2e 5c3d f55e 13bd 8ff1 81bd
00000150: 5781 69bc 2e22 a03d 496f bdbd d2c6 c43b
00000160: a8d7 7f3d 21b8 41bd 7551 4abd 3b96 16bd
00000170: 90c3 6c3d 71d5 9c3a 09e6 edbb 0ce4 27bd
00000180: fc52 cc3d 92a2 aa3d 4abb 55bb db67 023e
00000190: 18c1 e2ba 844d 73bd 625c 8dbd 62cb 5dbd
000001a0: aedd febc f0e7 173e bf1b 183d 18cf 8a3d
000001b0: 4436 cf3d 9338 35bd b218 38bd 8636 8bbc
000001c0: 9ae2 563d b3ca d0bd f487 9b3c a775 123c
000001d0: ad2e 4ebc bba6 903d 2615 11bd fb03 383d
000001e0: 235f dfbc 4352 b03d c59e da3d 56e7 69bc
000001f0: 2053 88bd 6cb8 89bd d9f1 26bc f0fe a0bd
00000200: a957 8cbd c940 f5bd 6653 67bd 2cdb 8dbd
00000210: aae0 93bd e2b3 9f3d f85c 093e 80c2 24be
00000220: 9b87 03be 1cc4 72bd db50 21bd 63d4 a93c
00000230: ac86 b7bd 7270 f13c 1029 8f3d 1233 a9bc
00000240: 1ad3 d13a fcb0 55bc c2f3 77bc f38f 83bd
00000250: 8759 aabc fd11 81bd 44a3 88bd d3f5 85bd
00000260: efd6 acbc 8784 12bd ba58 d9bd 85c1 c03d
00000270: fca0 b53d 44d5 a8bc 1025 8fbc ff0c 3fbd
00000280: 935b 303d 892c 213b 07ad f83d 9fee 253d
00000290: dd94 80bd 3ed6 c939 79ac 8abd 7630 93bc
000002a0: 2048 bebd 14a9 6ebd ea01 0abd 8ec7 2dbe
000002b0: cb1d 823d 2c60 c6ba 8c7f 733d 8a5a 433c
000002c0: 9f76 d43d db9b 88bd 4c4e 54bc e88a 593d
000002d0: 552f 8ebd c8dc 343d 5e26 ddbc 18a4 6bbb
000002e0: 93a7 333d 658e 183d e340 103d ceb4 99bd
000002f0: 0b26 debd 11c5 1c3d 07a3 3cbc e602 ebbc
00000300: f99b a9bc 42e3 713d 0823 8bbd 9792 903c
00000310: 7ff8 06bd 5414 4abc b1b7 cd3d 7953 213d
00000320: 2b99 adbd a8e7 a33d 40bd b73c bf1d 723d
00000330: 7055 0fbe 3ae6 a8bc 925f 0d3d 1956 3b3d
00000340: 2862 96bc 8af1 243d 392a 323d 6510 87bd
00000350: f413 fcbc 9ccc 22bd e3d9 343d bbcf f8bc
00000360: 6679 8dba 0508 9dbd 6d7f 76bd 6250 66bd
00000370: 9587 2c3d 0ec7 10bd f120 063c 4ff6 debd
00000380: 23aa 2c3c 62de 0dbd be96 383c ad58 1a3d
00000390: 07d3 0ebd 53cd c9bd 5ed8 3cbc 3344 9d3d
000003a0: 8009 5fbd d915 713d 1b87 e1bc 6039 543b
000003b0: 6d85 a1bc 9748 9dbd 968f a5bb 112a 3c3d
000003c0: d930 c6bc e94b c33d ec34 483c 5b3f 1f3d
000003d0: a1c0 af3b 1f71 6d3d ce3b 2e3d 55c7 0d3d
000003e0: ba7a 49bd 68c5 cdbd 8655 c83c 05e4 8a3d
000003f0: f540 dabd 5d7c 67bb 83a6 d73c 995b ba3c
-0.004942645 -0.043534305 -0.09883308 -0.05425374 0.09384095 0.06741254 -0.015788697 -0.029965099
-0.011148182 -0.10928939 0.025375655 0.05811359 0.05712935 0.048544027 0.078021556 0.119250566
0.07636108 -0.050491206 0.019752376 -0.064237185 0.05933432 0.080225214 0.06902838 -0.017244535
0.09063332 -0.04697629 -0.022248702 0.061958894 -0.074299715 0.10405007 -0.04171523 0.07673234
0.04147554 -0.03622031 -0.03924802 0.15073468 0.0753995 -0.0037677484 0.08193862 0.02403632
-0.08137325 0.024097743 -0.02717124 -0.12043858 0.00420711 -0.074991435 -0.010290398 0.07732523
0.050581433 0.041655406 -0.009966255 -0.11568831 -0.07684787 -0.03158957 -0.07855801 -0.053709764
0.03812947 0.08528585 -0.036966443 0.06882744 -0.0213863 -0.08329439 -0.08605158 0.042894665
0.07304965 0.07673103 -0.044442803 -0.074579306 0.062240113 0.04974225 0.06510698 0.13939044
0.035069596 -0.011939298 0.004571681 -0.004481142 0.086979784 0.013999778 -0.04613888 -0.08496355
-0.00601833 0.0537554 -0.03597923 -0.06344902 -0.014252028 0.07819019 -0.092497416 0.0060051465
0.062461525 -0.04729474 -0.04939409 -0.036764365 0.05780369 0.0011965466 -0.0072600883 -0.040988967
0.099767655 0.08331789 -0.0032612854 0.1273493 -0.0017299978 -0.059400097 -0.06902386 -0.05414904
-0.031111564 0.14834571 0.037135836 0.06777781 0.10117772 -0.044243407 -0.044945426 -0.016993772
0.052462198 -0.10194912 0.018985726 0.008939183 -0.012584371 0.07063051 -0.03542056 0.04492567
-0.027267044 0.0860944 0.10674814 -0.014276346 -0.0665648 -0.06724629 -0.010189497 -0.078611255
-0.06852657 -0.119752474 -0.05647602 -0.06926569 -0.07220586 0.07797982 0.13414371 -0.16089821
-0.12844698 -0.059269056 -0.03938375 0.020731157 -0.089612335 0.029472563 0.06990254 -0.020654235
0.0016008348 -0.013042685 -0.0151338 -0.064239405 -0.020794643 -0.06302259 -0.066717654 -0.06541028
-0.021098582 -0.03577092 -0.106126264 0.09411911 0.08868596 -0.020609505 -0.017473727 -0.046643253
0.043056082 0.0024593195 0.12142377 0.04051077 -0.062783934 0.0003849733 -0.06771178 -0.017967444
-0.092911005 -0.058266714 -0.03369323 -0.16970655 0.06353339 -0.0015134863 0.05944781 0.011923442
0.10374188 -0.06670352 -0.012958121 0.053110987 -0.069426216 0.044155866 -0.026995834 -0.0035955962
0.043860983 0.037245173 0.03521813 -0.07505189 -0.108471 0.038273875 -0.011513478 -0.028687906
-0.020704256 0.05905462 -0.06793791 0.017648024 -0.032951828 -0.012333948 0.10044802 0.039386246
-0.0847648 0.08003169 0.022429109 0.0591104 -0.13997436 -0.020617593 0.03451497 0.045736406
-0.018357351 0.040269412 0.043497298 -0.06594924 -0.030771233 -0.039745912 0.044153105 -0.030372491
-0.0010793626 -0.07667545 -0.060180116 -0.056229003 0.04212149 -0.035346083 0.008186565 -0.108868234
0.010538611 -0.03463591 0.0112664085 0.037682224 -0.03486922 -0.098536156 -0.011526195 0.076790236
-0.05445242 0.058858726 -0.027530244 0.003238283 -0.019716943 -0.07679861 -0.005052517 0.045938555
-0.024193214 0.09535963 0.012219649 0.03887878 0.0053635393 0.05796921 0.042537503 0.034613926
-0.049189307 -0.10047418 0.024454843 0.067817725 -0.10656921 -0.003532193 0.026324516 0.022748755

bias_ih_l0_reverse f4 [384]
00000000: b61b efba fc09 b3bd e1d7 5abc c786 7e3d
00000010: 4001 0d3d 0552 393d 8311 b5bd c9d3 a43d
00000020: 9d72 2e3d 3bcf 6ebc 3b9d 833d d50d 4d3d
00000030: 64af eabb 6bca c13c b013 203d a245 6f3d
00000040: 6ffd 023e b151 25bd 9211 633d 115f 8e3d
00000050: a468 333e 0808 93bd 706b 0ebd d6f8 fb3c
00000060: 28f0 f53c 83ff 943d c3a5 ddbb 8427 a83d
00000070: 9430 543d 35f5 64bc 957a fc3c 4db4 6cbc
00000080: ee8d a43c d54e a43d 5514 c73d 2060 66bd
00000090: 0dcc 963d 7d7f b13c 8324 7a3c aaeb b73c
000000a0: e793 6f3d 7f5b 783d 2c62 2e3d 4b92 01bd
000000b0: 0cf7 633a ae97 14bd c8cf edbb 09d3 26bd
000000c0: 4fde bf3d 8520 83bd fb7e 82bd 94e2 213d
000000d0: e3ee bcbb 6ddf 9ebc 0a56 86bd e955 b53d
000000e0: da98 e73c 2098 e3bb fd48 c2bd 40fe 673d
000000f0: 221c 693d d211 f2bd a7ec 8d3d 174e 073e
00000100: af52 a6bd fe2b f43d 7b88 fe3c 6089 6d3d
00000110: 0828 2abd 2fde 943d 4ad3 c1bb d2e0 c93d
00000120: f5f7 a3bd 49a3 d7bd 7744 bcbb 6953 ff3d
00000130: 1581 683d a5dd aebc 6754 bd3d 50db 1dbd
00000140: 7626 013e 7ba3 293e 90ae 65bc 82fd 1a3d
00000150: d076 6c3c dc65 24bb 736a 23bc fb21 04bd
00000160: fee9 25bd 60ed e13d 9a70 babd 4a6a 9bbd
00000170: c43b b63c 6c48 51bc 6924 113e d223 87bc
00000180: 0fca 713d 1cb0 d4bc e4ea d63d 7f76 363c
00000190: 2aee c7bd af94 a93d 9cd0 a83c f091 153d
000001a0: 080c ca3c b49c 4b3d 0542 bcbc 2b66 5cbd
000001b0: e973 95bd 597f 4f3c 4494 1cbc a094 9c3c
000001c0: 5c0e 133b fc12 c0bc 7d88 2dbd 0a36 8dbd
000001d0: 01be 273d 945e 193d 7602 42bc e752 25bd
000001e0: 1f73 163d 58df df3d f4d9 943d c665 bc3c
000001f0: 0d13 653d 7f0d cebd c903 f63c 183e c83d
00000200: 596f ba3c ce92 e1bb 3413 203d ede4 3ebd
00000210: a1df 82bd f00e 743c 5bd9 67bd 3bc5 a23d
00000220: 3fae 5ebc f303 58bd bc0b 67bc b894 c13c
00000230: 211e 5b3d f6d5 ea3d b732 1a3e 38fd 3c3d
00000240: b8b8 a13d da61 743d f229 853d 6f62 b43d
00000250: 9920 b0bd 3383 5ebd 83ac 003e f0e4 d13c
00000260: 4493 af3d dbc1 aebc 9c19 893c ff98 213e
00000270: 6d9a 713d c3d7 39bd c0f3 93bd 61d5 453e
00000280: 2b16 29bd d246 473b a864 153e 7062 813d
00000290: fe0f d23d aec2 2bbd b97a ddbd dff3 0e3d
000002a0: dfd8 113e 5f01 d03d 6f11 193d b7d2 813d
000002b0: ef49 d5bc faaa a4bc 4a98 833d 0274 f13d
000002c0: e170 bf3d 08d0 ea3d ea52 bd3d 21f3 a73d
000002d0: b142 e63a 31a4 833d e912 48bc 3f65 9ebc
000002e0: a08f b83d 8787 b83d 8e91 0e3d d81a 1cbd
000002f0: c102 8e3b 28bf ce3c 0ad8 0d3e dd02 bc3c
00000300: a419 e93d 0a3d ac3d 5429 813c ec68 5d3d
00000310: 89c9 693d 0cf1 c73c 6430 49bb 2557 95bd
00000320: 87b8 023d 56b3 62bd 51f5 ef3d 5290 0fbd
00000330: 5316 9bbd 5aab 1d3e 0957 e5bd 23fe cdbc
00000340: 8d59 9cbc 4e13 a4bd 05e2 e7bb a452 1c3d
00000350: d997 003e b788 87bd 97c9 b6bd 94e5 2e3d
00000360: a10d c9bc de9d d33d 5a62 ba3d 9411 983d
00000370: b65a b7bc 8214 1e3c a40f 333d 03b4 ee3d
00000380: de95 7c3d 0593 9cbd 00d9 923c 026b 19ba
00000390: d914 12bd 5d0e 34bd 4d80 d2bd b783 e33d
000003a0: 106d f73c 4c34 823d 5af7 cebc b264 6c3d
000003b0: 2dc8 84bc 82b5 723d 5e10 b43d b63e 833d
000003c0: 9aae 633d 747e 2ebd 239e b13d 53c4 333c
000003d0: ae55 03bd 1846 143e 74b4 b7bd 678b 93bd
000003e0: 5c0a 28bc ffad 753d 0766 c2bc db23 423d
000003f0: 383a 98bd 1ff6 943d 92c9 9c3d b4f1 f53b
-0.0018242511 -0.08742139 -0.013357134 0.062140252 0.03442502 0.045244236 -0.08841231 0.08048207
0.042589772 -0.014575775 0.06426474 0.05006202 -0.0071620215 0.02365609 0.039081275 0.058416016
0.1279199 -0.04036111 0.05543668 0.06951726 0.17520386 -0.07179266 -0.03477043 0.030758303
0.030021742 0.072752975 -0.006764145 0.08210662 0.05180414 -0.013974478 0.03082017 -0.014447284
0.020087209 0.080228485 0.09720675 -0.056244016 0.07363138 0.021667236 0.015267494 0.02245124
0.05849066 0.060634132 0.042574093 -0.031633656 0.00086961756 -0.036277466 -0.0072574355 -0.040728603
0.09368574 -0.06402687 -0.06371876 0.039522722 -0.005765782 -0.019393647 -0.065593794 0.08854277
0.028271127 -0.006945625 -0.09486578 0.056638956 0.056911595 -0.11819805 0.069299035 0.13213383
-0.081212394 0.11922453 0.031070938 0.05799234 -0.041542083 0.07268941 -0.00591508 0.09857334
-0.080062784 -0.10529191 -0.0057454663 0.12467081 0.056763727 -0.021345923 0.09244614 -0.03853923
0.12612328 0.16566269 -0.01401867 0.03783942 0.014432624 -0.0025085127 -0.00997411 -0.03225897
-0.040506355 0.11031604 -0.09103508 -0.075886324 0.022245295 -0.012773614 0.14174046 -0.016496573
0.05903059 -0.025962882 0.104940206 0.01113665 -0.09762223 0.08280312 0.020607285 0.03651613
0.02466394 0.04970999 -0.0229807 -0.053808372 -0.07297499 0.012664639 -0.009556834 0.019113839
0.0022438979 -0.023446552 -0.042366493 -0.06895073 0.040952686 0.037443712 -0.011841407 -0.040362265
0.03673088 0.10931271 0.07268134 0.022997748 0.05592637 -0.10061168 0.030031102 0.097774684
0.022758173 -0.0068839556 0.039080814 -0.04660504 -0.0639031 0.0148961395 -0.05660377 0.07947775
-0.013591348 -0.05273814 -0.014101919 0.023630485 0.05349553 0.11466591 0.15058409 0.046139926
0.078965604 0.05966363 0.06502141 0.08807837 -0.085999675 -0.05432434 0.12565808 0.025621861
0.085730106 -0.021332672 0.016735844 0.1578102 0.058985163 -0.045371782 -0.07224226 0.19319679
-0.041280907 0.0030407202 0.14589179 0.063176036 0.102569565 -0.041933708 -0.10814423 0.034900542
0.14242886 0.101565115 0.03737014 0.06339019 -0.02603623 -0.02010106 0.06425531 0.11789705
0.09347702 0.1146546 0.0924433 0.0820067 0.0017567483 0.064278014 -0.01221154 -0.019335387
0.09011769 0.09010225 0.03480678 -0.038111538 0.0043338244 0.025237635 0.13851944 0.022950584
0.11381844 0.0841008 0.015766777 0.05405514 0.057076965 0.024406932 -0.003069901 -0.07292012
0.03191426 -0.05534681 0.11716712 -0.035049744 -0.075726174 0.15397397 -0.11198241 -0.025145596
-0.01908567 -0.080114946 -0.007076504 0.03816475 0.12557925 -0.06617873 -0.08925169 0.04269941
-0.024542632 0.10332845 0.0910079 0.07425228 -0.022382122 0.009648444 0.043716088 0.11655428
0.061666362 -0.07645229 0.01792574 -0.0005852432 -0.035664413 -0.04395901 -0.10278378 0.11109107
0.030203372 0.06357631 -0.02526443 0.057713218 -0.016208733 0.05925513 0.08792184 0.064084455
0.055586435 -0.042601064 0.0867274 0.0109721 -0.032064132 0.14479864 -0.089699656 -0.07204323
-0.010256376 0.05998039 -0.023730291 0.047397476 -0.07432979 0.072735064 0.07655634 0.00750562
