reports/training_DEAM_VA_shift_gain_2026-01-04_14-11-24/model.pth (torch, 504732 bytes, 10 tensors)

weight_ih_l0 f4 [384, 32]
-0.0818029 0.014966217 -0.07445607 0.054810982 -0.017595528 -0.072017275 0.007993498 0.083965175
0.025943682 -0.029373288 -0.112212725 -0.013295494 -0.06781232 -0.074816756 0.022601636 -0.010392631
-0.03695256 0.020384569 -0.018735401 -0.09347426 0.114568286 0.10577847 -0.04786296 0.111369066
0.090787634 0.11565183 0.08924202 -0.041950874 0.13853607 0.076944746 0.0070252246 0.07280041
-0.03399481 0.06507539 0.08989788 -0.09494377 0.017805142 -0.057848543 0.0026551145 0.07355821
0.043211397 0.043461382 -0.07385542 -0.038536835 0.04700665 0.20891285 -0.012040629 0.039433047
-0.10258923 -0.02135644 -0.01511376 0.08834439 0.11750821 0.069731615 -0.031315837 0.119996734
0.0052104094 0.030486453 0.02596434 -0.030605534 0.07259271 0.04990558 0.06433459 0.08310859
0.120461844 -0.038953725 -0.06925232 -0.013806909 0.058631465 -0.0071930876 0.044696204 0.09247877
-0.11526455 -0.07613641 -0.0261563 0.13207097 -0.14883323 0.07068133 -0.08464755 -0.036411583
0.031860676 0.027644364 -0.075027995 -0.06773685 -0.05509891 0.010487992 -0.042496927 0.09717526
0.042205114 -0.036538247 0.06664045 -0.0591605 -0.004647194 -0.08372112 0.09366602 -0.021104183
-0.035198703 -0.060354583 -0.019968757 0.026975341 0.073925145 -0.06720307 0.105779506 -0.084263414
-0.03971008 0.093177535 0.053442482 0.05838373 0.045489904 0.0053404327 -0.038603477 -0.07021559
0.008791031 -0.06264015 -0.038991693 0.111373425 0.19416086 0.110911876 0.109869875 0.07892232
0.16846934 0.16264975 -0.0032310851 0.12426315 0.043383073 0.17532012 0.1046504 0.09380909
0.040583275 0.036763497 -0.051510625 -0.05545665 0.09681414 -0.07710301 -0.029699685 -0.05162197
-0.04916059 -0.096382745 0.030309351 0.01709539 0.043045394 0.10897414 0.13166873 0.060829517
0.032711625 0.012937432 -0.04065319 0.023241654 -0.10283614 -0.13413593 -0.07034599 -0.095964134
-0.15283889 -0.0851619 0.02626777 -0.14047387 -0.011467922 -0.021329558 -0.041157592 -0.11831404
0.10786766 0.037620142 -0.054945566 -0.023066916 -0.07358891 -0.026106251 -0.0025371015 0.009012525
0.067849904 -0.06657788 -0.0074677262 0.02712098 0.068535 -0.018675724 0.048886098 0.02047472
-0.01174468 -0.0075563113 -0.10202822 0.1039685 -0.038842496 0.016472014 -0.033920504 -0.024479639
0.03999383 0.06252741 -0.0985219 0.044850834 0.005108603 -0.02389353 0.0053924103 -0.025515182
0.11473633 0.014202171 0.05273773 -0.07425747 -0.04688395 0.064471774 -0.023090973 -0.012265114
0.03255039 -0.0026354685 -0.01204798 0.02999746 -0.07434757 -0.007823106 0.06597344 0.10355117
0.11560299 -0.09283001 0.04477976 0.0016999184 -0.08393911 0.088646814 0.012372165 -0.038559854
0.06924969 -0.07863244 -0.07765997 0.06618988 -0.013810594 -0.0701343 0.004251015 -0.061533466
-0.0020873107 -0.078423925 0.057701346 -0.014763853 -0.076547764 0.011647753 -0.105650865 0.008036888
0.02870216 -0.086908594 -0.022730157 -0.055944867 -0.025432294 0.018064475 0.04927979 0.091384746
0.069520354 -0.02011575 0.062924705 0.045746714 0.03571818 -0.027003141 -0.010018583 0.06163593
0.04982624 -0.06637019 0.014292644 0.009280068 0.046532083 -0.029512683 -0.08953076 0.08737407
00000000: 4788 a7bd dd34 753c 6d7c 98bd 7b81 603d
00000010: 7f24 90bc cb7d 93bd 29f7 023c eff5 ab3d
00000020: d887 d43c 40a0 f0bc c9cf e5bd 58d5 59bc
00000030: 30e1 8abd 8739 99bd 1127 b93c db45 2abc
00000040: 915b 17bd 8afd a63c fc7a 99bc 6f6f bfbd
00000050: c7a2 ea3d 62a2 d83d f30b 44bd 7715 e43d
00000060: deee b93d deda ec3d 85c4 b63d aed4 2bbd
00000070: 66dc 0d3e 3595 9d3d db33 e63b 6218 953d
00000080: 243e 0bbd 3f46 853d 611c b83d e171 c2bd
00000090: 17dc 913c 98f2 6cbd 6e01 2e3b b0a5 963d
000000a0: 6ffe 303d 9004 323d 8341 97bd cdd8 1dbd
000000b0: 0c8a 403d 40ed 553e 0f46 45bc 8c84 213d
000000c0: 4d1a d2bd b3f3 aebc b49f 77bc e7ed b43d
000000d0: 25a8 f03d 73cf 8e3d 0945 00bd d9c0 f53d
000000e0: 15bc aa3b babe f93c 2bb3 d43c 75b8 fabc
000000f0: 7dab 943d cb69 4c3d dbc1 833d d634 aa3d
00000100: b3b4 f63d f18d 1fbd 29d4 8dbd 6036 62bc
00000110: 8c27 703d feb3 ebbb 5e13 373d 8265 bd3d
00000120: d20f ecbd 68ed 9bbd bd45 d6bc 9d3d 073e
00000130: bd67 18be 60c1 903d b25b adbd 5024 15bd
00000140: 5780 023d 6f76 e23c 47a8 99bd 9eb9 8abd
00000150: 65af 61bd d4d5 2b3c 4211 2ebd d303 c73d
00000160: 45df 2c3d 21a9 15bd ca7a 883d 4852 72bd
00000170: 7d47 98bb fb75 abbd f8d3 bf3d aee2 acbc
00000180: 842c 10bd 5e36 77bd 8595 a3bc 64fb dc3c
00000190: 1166 973d c3a1 89bd eda2 d83d 4c92 acbd
000001a0: 09a7 22bd ddd3 be3d 81e6 5a3d c723 6f3d
000001b0: 9f53 3a3d ccfe ae3b ae1e 1ebd 31cd 8fbd
000001c0: 4208 103c 7b49 80bd c1b5 1fbd c017 e43d
000001d0: 1bd2 463e c425 e33d 7503 e13d 06a2 a13d
000001e0: 3a83 2c3e a88d 263e 9dc0 53bb ae7d fe3d
000001f0: 73b2 313d 1e87 333e f352 d63d fb1e c03d
00000200: a63a 263d 5295 163d cefc 52bd 8326 63bd
00000210: 7e46 c63d 2fe8 9dbd c14c f3bc 8f71 53bd
00000220: 9d5c 49bd 5164 c5bd 514b f83c a20b 8c3c
00000230: 5e50 303d d52d df3d 2bd4 063e 5f28 793d
00000240: a0fc 053d 86f7 533c f683 26bd 4865 be3c
00000250: c19b d2bd ee5a 09be 8f11 90bd d888 c4bd
00000260: cc81 1cbe 5d69 aebd 822f d73c 62d8 0fbe
00000270: f3e3 3bbc 53bb aebc dd94 28bd a24e f2bd
00000280: b8e9 dc3d 9417 1a3d 9a0e 61bd d4f6 bcbc
00000290: c8b5 96bd c7dc d5bc 8045 26bb 45a9 133c
000002a0: e4f4 8a3d fc59 88bd d4b3 f4bb d12c de3c
000002b0: 145c 8c3d d5fd 98bc ca3c 483d 9aba a73c
000002c0: c26c 40bc ef9a f7bb 2cf4 d0bd 70ed d43d
000002d0: 4f19 1fbd 51f0 863c 3af0 0abd 8689 c8bc
000002e0: 92d0 233d 5f0e 803d dac5 c9bd 82b5 373d
000002f0: 1166 a73b 5dbc c3bc d1b2 b03b 3705 d1bc
00000300: e2fa ea3d 39b0 683c 8503 583d 4d14 98bd
00000310: 6209 40bd c709 843d 4829 bdbc 9ef3 48bc
00000320: 8f53 053d d3b7 2cbb e464 45bc 3cbd f53c
00000330: 8a43 98bd 7c2c 00bc 151d 873d a312 d43d
00000340: 43c1 ec3d a91d bebd fb6a 373d cccf de3a
00000350: 45e8 abbd 768c b53d 9fb4 4a3c f0f0 1dbd
00000360: c8d2 8d3d 0b0a a1bd 310c 9fbd 8f8e 873d
00000370: d445 62bc 92a2 8fbd 194c 8b3b 840a 7cbd
00000380: 43cb 08bb b99c a0bd 3f58 6c3d 16e4 71bc
00000390: 13c5 9cbd 38d6 3e3c 7b5f d8bd 27ad 033c
000003a0: cb20 eb3c 22fd b1bd 9834 babc 7226 65bd
000003b0: 6357 d0bc f3fb 933c 9bd9 493d ed27 bb3d
000003c0: b060 8e3d c9c9 a4bc abde 803d e860 3b3d
000003d0: 3a4d 123d b135 ddbc fc24 24bc f575 7c3d
000003e0: 9916 4c3d 18ed 87bd b22b 6a3c 6d0b 183c
000003f0: 6d98 3e3d 95c4 f1bc e75b b7bd 2df1 b23d

weight_hh_l0 f4 [384, 128]
0.10336783 0.032305744 0.04009211 -0.026070898 -0.04447263 0.079462536 0.013891997 -0.027911244
-0.020297026 -0.019163853 0.026502421 -0.07901446 0.0245263 -0.023933854 -0.1272361 0.048427682
0.041280657 -0.038650975 -0.064464755 0.0048848717 -0.119447954 -0.058899246 0.044564232 -0.036262006
-0.025253685 -0.020634927 0.022028217 0.059872746 -0.123706885 0.0608008 0.0452796 0.060883094
-0.033126816 0.017882336 -0.09356317 -0.10184459 0.07235619 0.06475461 0.106035076 -0.016364228
0.04375654 0.00349387 0.09999143 0.033592865 -0.022372175 -0.04348069 -0.020048125 0.07377108
0.0033805652 0.035117976 0.0989693 0.06578947 0.00441273 0.09693453 -0.07807431 -0.06487913
0.0021704864 -0.05181021 -0.055560585 -0.035702534 0.029744174 -0.04615389 0.048845988 0.03895251
0.042528953 -0.051295456 -0.00533819 -0.063110106 -0.02959768 0.116570674 0.060628828 0.10918531
-0.06929138 0.05934056 -0.0118238935 0.021279987 0.07089376 0.016751342 0.030573169 -0.077542886
-0.11160834 -0.055185575 -0.004899866 0.10033188 0.023433497 0.052637286 -0.024945065 -0.07167179
0.055565998 -0.048562203 -0.015845686 0.015531221 0.051456094 0.06895751 -0.0013765868 0.02610116
0.08456943 0.054451026 0.08801506 -0.030987825 -0.0011414153 -0.00861896 0.1206001 0.05403369
-0.1031098 -0.04383866 0.009306863 -0.05533128 -0.07217337 0.012201288 0.04007224 -0.042986613
-0.02144088 -0.08579753 0.12851931 -0.05933501 0.069427766 0.026250957 -0.019849302 0.017156484
0.0360986 -0.02700356 0.070372164 0.037140258 -0.08523309 0.03379344 -0.076474264 0.100409195
0.08510083 0.12868713 -0.005345519 0.023839276 -0.042428732 0.03826188 -0.017443487 -0.08232279
0.015884092 0.022671223 0.008318074 0.050041255 -0.050955538 -0.04011654 -0.015726903 0.05841322
-0.00049413176 -0.04762812 0.0127526 -0.036993183 -0.05546727 -0.044004805 0.030371392 0.14899614
0.082831465 -0.11164299 -0.045075584 0.07999865 0.05975809 0.105231665 -0.022001956 0.0026221317
0.021863084 -0.02806547 -0.015533459 0.044661388 -0.058585644 -0.019697146 0.06804666 0.0420897
-0.04111466 0.024674874 -0.010765095 0.042541727 0.16822818 -0.039857097 0.06469005 -0.0604032
0.09449138 -0.066831775 0.047737453 0.030804532 0.03984508 -0.058997244 -0.007526439 -0.03106684
0.023309343 0.023655768 0.08564443 0.092519015 -0.010998496 0.06201012 -0.075557254 -0.15145539
0.104405366 0.12187097 -0.0011964676 0.01483082 -0.034035187 0.041090097 -0.043021347 -0.10873769
-0.10073243 -0.028584896 -0.124283165 -0.006299739 0.00992932 -0.13072844 -0.105413616 0.108748205
-0.0632676 0.0032563768 0.05240097 0.015655434 0.02613459 0.0071429187 0.009361907 -0.13432857
-0.062130764 0.10811651 0.022876648 0.08508106 0.063626915 -0.061712913 -0.09325307 0.10168635
-0.02992764 -0.06908384 0.123883635 -0.057835713 -0.058690462 -0.10232722 -0.00054896524 0.013697118
0.065425776 0.09050087 -0.020670883 0.09081885 -0.038133226 -0.018519355 -0.15076263 0.016717242
0.051963054 0.0013844083 0.03850262 -0.038478866 0.055685133 -0.035368346 0.072099 -0.020576142
-0.015391825 0.05405462 0.08673968 0.011654953 -0.009310609 -0.012813559 -0.10617695 -0.07698011
00000000: 83b2 d33d 0753 043d a037 243d a392 d5bc
00000010: ef28 36bd 41bd a23d 429b 633c 1fa6 e4bc
00000020: f345 a6bc 83fd 9cbc 9b1b d93c 55d2 a1bd
00000030: 61eb c83c ee10 c4bc 2e4a 02be 1b5c 463d
00000040: e815 293d 7c50 1ebd 1906 84bd 4611 a03b
00000050: 21a1 f4bd 5640 71bd fc88 363d 7887 14bd
00000060: d1e0 cebc 940a a9bc 8574 b43c 203d 753d
00000070: 095a fdbd 420a 793d 1a77 393d 8d60 793d
00000080: fcaf 07bd fa7d 923c 0c9e bfbd e593 d0bd
00000090: 7b2f 943d 119e 843d eb28 d93d 460e 86bc
000000a0: 0f3a 333d 69f9 643b 4fc8 cc3d ac98 093d
000000b0: da45 b7bc cf18 32bd f73b a4bc 4b15 973d
000000c0: 798c 5d3b ded7 0f3d 6bb0 ca3d a1bc 863d
000000d0: aa98 903b 9c85 c63d 6de5 9fbd 59df 84bd
000000e0: b83e 0e3b f136 54bd 7f93 63bd d23c 12bd
000000f0: 0eaa f33c dd0b 3dbd bb12 483d ab8c 1f3d
00000100: d732 2e3d 2f1b 52bd fceb aebb df3f 81bd
00000110: d576 f2bc 9bbc ee3d ef55 783d 8c9c df3d
00000120: a4e8 8dbd 160f 733d 01b9 41bc 5e53 ae3c
00000130: bf30 913d 1c3a 893c 9574 fa3c cece 9ebd
00000140: ea92 e4bd 450a 62bd 0e8f a0bb cd7a cd3d
00000150: 9bf7 bf3c 329a 573d 9859 ccbc a9c8 92bd
00000160: 2c99 633d 29e9 46bd d0ce 81bc aa76 7e3c
00000170: a0c3 523d 9839 8d3d 976e b4ba 1ad2 d53c
00000180: bd32 ad3d 0a08 5f3d 3d41 b43d 2eda fdbc
00000190: 8b9b 95ba 8a36 0dbc 2ffd f63d 6e52 5d3d
000001a0: 3b2b d3bd 2b90 33bd d07b 183c 0da3 62bd
000001b0: a2cf 93bd e9e7 473c ca22 243d bb12 30bd
000001c0: c9a4 afbc 9eb6 afbd 919a 033e 4409 73bd
000001d0: 2530 8e3d 3f0c d73c 019b a2bc c18b 8c3c
000001e0: 20dc 133d 9236 ddbc 481f 903d 6220 183d
000001f0: b08e aebd fd6a 0a3d 8a9e 9cbd 56a3 cd3d
00000200: 5849 ae3d 8fc6 033e 7729 afbb 964a c33c
00000210: c0c9 2dbd 7db8 1c3d a5e5 8ebc da98 a8bd
00000220: 5b1f 823c 00b9 b93c 8848 083c 0ff8 4c3d
00000230: c1b6 50bd 3e51 24bd b5d5 80bc b342 6f3d
00000240: 9f88 01ba b415 43bd 48f0 503c 2a86 17bd
00000250: a631 63bd 623e 34bd 6dcd f83c 7292 183e
00000260: 8ba3 a93d 14a5 e4bd 2da1 38bd 55d6 a33d
00000270: e6c4 743d b383 d73d 723d b4bc 12d8 2b3b
00000280: 361a b33c 8ee9 e5bc 0d80 7ebc dcee 363d
00000290: 80f7 6fbd e95b a1bc 0c5c 8b3d 4066 2c3d
000002a0: d967 28bd f622 ca3c 1560 30bc 3c40 2e3d
000002b0: 0244 2c3e 3241 23bd 387c 843d 5969 77bd
000002c0: b284 c13d 19df 88bd 5988 433d c959 fc3c
000002d0: 9834 233d 18a7 71bd 59a0 f6bb e37f febc
000002e0: 3cf3 be3c bec9 c13c 5966 af3d 9c7a bd3d
000002f0: 0933 34bc 53fe 7d3d c3bd 9abd 1f17 1bbe
00000300: 7bd2 d53d 7d97 f93d cad2 9cba f8fc 723c
00000310: 7b68 0bbd 174e 283d 2737 30bd deb1 debd
00000320: ce4c cebd df2a eabc 2c88 febd 0a6e cebb
00000330: 96ae 223c addd 05be 18e3 d7bd 61b7 de3d
00000340: 7292 81bd f068 553b 66a2 563d d33f 803c
00000350: 3518 d63c 250f ea3b af62 193c 6e8d 09be
00000360: d47c 7ebd 306c dd3d cf67 bb3c fb3e ae3d
00000370: d44e 823d aec6 7cbd 77fb bebd ef40 d03d
00000380: cf2a f5bc d47b 8dbd b4b6 fd3d 24e5 6cbd
00000390: 6965 70bd ef90 d1bd 6fe8 0fba e069 603c
000003a0: f3fd 853d 8558 b93d fc55 a9bc 3cff b93d
000003b0: 9631 1cbd e7b5 97bc 8561 1abe 99f2 883c
000003c0: 36d7 543d 0975 b53a ecb4 1d3d 049c 1dbd
000003d0: 1816 643d 66de 10bd a4a8 933d 4c8f a8bc
000003e0: fe2d 7cbc 6168 5d3d 93a4 b13d 6af4 3e3c
000003f0: 868b 18bc f6ef 51bc 4d73 d9bd bfa7 9dbd

bias_ih_l0 f4 [384]
0.028929202 -0.042442862 0.09907388 0.0024993569 0.022634959 -0.08037639 0.032958113 -0.038236868
0.022736823 0.053500406 0.023710515 0.03633398 0.034775365 0.047567766 -0.036697004 -0.008495617
-0.057182513 -0.017109584 0.117769614 0.004199289 -0.015113364 -0.04676761 0.006875942 0.055037376
0.011292435 0.03539376 0.0739727 0.018373977 0.051010657 0.07951139 0.06709494 -0.079449825
-0.00063692115 0.018338129 -0.058487095 -2.4753532e-05 0.03131816 -0.08091305 -0.09110358 0.08489514
-0.08434004 0.02225387 -0.039881248 -0.08449642 -0.0496155 0.032353014 -0.030704346 0.06764161
0.065418184 0.08184056 0.018762494 0.07639618 -0.004287102 -0.04606669 -0.011492305 0.091660656
0.0718699 -0.062145486 -0.054431688 -0.025256991 0.10101491 -0.016389545 -0.02887952 0.073772654
-0.057071175 0.04612524 -0.019937998 -0.050386902 0.016455196 0.09709342 -0.016168451 0.0124697415
0.0554673 -0.13428323 -0.10300415 0.028229399 0.0026219187 -0.039447427 -0.042942677 0.012537977
-0.035619445 0.008450552 0.03414154 0.043707587 -0.031939834 -0.05451231 0.03304804 -0.038425006
-0.01065085 0.016026376 0.08091864 -0.08309882 0.019081999 0.08196426 -0.048254594 -0.10180749
-0.0560741 0.015149804 0.014837985 0.027009277 0.068453774 -0.02916497 0.018176986 0.044616077
0.004684293 0.08656822 0.0012397749 -0.02416781 -0.012324619 -0.05846023 -0.009757358 0.08799938
0.09717031 0.024508862 0.05651924 0.042602994 -0.1119154 -0.097731695 -0.0060091517 0.0415059
-0.051323667 0.09988367 -0.10053295 -0.11688374 0.019991629 -0.06966039 -0.01732982 0.045484897
0.025699891 -0.0053450093 0.0067413854 0.05354658 -0.08435922 0.11504845 0.05471752 0.026562758
-0.015153671 0.052823916 0.025944091 0.1354508 0.093903646 0.012669631 -0.06474643 -0.009039905
0.0107523445 -0.013304833 -0.024999088 0.10152777 0.045076665 -0.026633117 -0.07701427 0.011082353
0.08931 -0.024304101 0.077157654 -0.041409697 0.074672975 -0.09197482 0.029429646 -0.026334064
-0.08850597 -0.077141166 0.010109522 0.038658623 0.099592 0.12034163 0.038365915 0.042026684
0.024318803 0.0069707525 -0.0067739696 0.04990717 -0.048315637 -0.009411613 0.003313465 0.011574316
-0.023774624 0.12986442 -0.06280875 -0.008369029 -0.026679074 0.029651493 0.021590432 0.0016418279
-0.06425358 0.029727917 -0.10961791 0.03887132 0.12784874 0.03697109 0.04119811 -0.0320826
-0.08419432 0.03024044 0.017488886 0.0655231 0.02799299 -0.05241979 0.07218848 0.083030365
0.13321581 -0.011936845 -0.015350859 -0.035460163 0.035957795 -0.003672899 0.06878817 0.10514248
0.055074807 0.02185567 0.025289133 0.16597967 0.04656634 0.055399958 0.064961426 0.0014012668
-0.07596018 0.050504576 0.061321832 0.019782476 0.0756688 0.017350823 -0.0021089003 -0.022610968
-0.07075625 0.051946227 0.06800891 0.0073179067 -0.083402775 -0.037381668 0.0068705063 0.0073377485
-0.031615414 -0.058103267 0.05510484 -0.018144546 -0.038373172 0.04827033 -0.06412108 0.06893112
-0.08728966 0.10596051 -0.060495406 0.049646024 0.107257895 0.0082869055 -0.1089264 -0.03577204
0.02488279 -0.041190863 0.15960534 0.070944466 0.11662335 0.05643524 0.10021429 0.085655496
00000000: effc ec3c 91d8 2dbd 3fe7 ca3d 40cc 233b
00000010: f36c b93c 609c a4bd 16ff 063d 439e 1cbd
00000020: 9342 ba3c 3e23 5b3d 8e3c c23c f0d2 143d
00000030: 9d70 0e3d 6bd6 423d 994f 16bd 3331 0bbc
00000040: 3638 6abd 6629 8cbc 3231 f13d 309a 893b
00000050: 0b9e 77bc 658f 3fbd 954f e13b df6e 613d
00000060: e803 393c 0cf9 103d 007f 973d 0685 963c
00000070: 8df0 503d ded6 a23d 1269 893d 97b6 a2bd
00000080: 0ef7 26ba d839 963c 2a90 6fbd cea5 cfb7
00000090: 7947 003d beb5 a5bd 8494 babd 81dd ad3d
000000a0: 79ba acbd bf4d b63c 855a 23bd 760c adbd
000000b0: 9f39 4bbd 9884 043d ae87 fbbc af87 8a3d
000000c0: f8f9 853d 069c a73d cdb3 993c 9a75 9c3d
000000d0: d17a 8cbb 6db0 3cbd 394a 3cbc 95b8 bb3d
000000e0: 8730 933d 448c 7ebd c3f3 5ebd c0e7 cebc
000000f0: e8e0 ce3d 5e43 86bc be94 ecbc 1e16 973d
00000100: 77c3 69bd d2ed 3c3d 0355 a3bc 7f62 4ebd
00000110: 0ccd 863c ead8 c63d b373 84bc e34d 4c3c
00000120: ae31 633d 8b81 09be d7f3 d2bd 5741 e73c
00000130: 7fd4 2b3b a093 21bd a9e4 2fbd 166c 4d3c
00000140: b2e5 11bd 2f74 0a3c 00d8 0b3d ba06 333d
00000150: 58d3 02bd 4d48 5fbd 625d 073d 8a63 1dbd
00000160: e780 2ebc bf49 833c acb8 a53d b72f aabd
00000170: da51 9c3c e1dc a73d 9ca6 45bd 7280 d0bd
00000180: f5ad 65bd e236 783c 051b 733c 8f42 dd3c
00000190: 7e31 8c3d 60eb eebc e7e7 943c 59bf 363d
000001a0: b37e 993b ae4a b13d f17f a23a 92fb c5bc
000001b0: 33ed 49bc fe73 6fbd 53dd 1fbc 0539 b43d
000001c0: 3a01 c73d cfc6 c83c b880 673d 7a80 2e3d
000001d0: e733 e5bd 8e27 c8bd 6be8 c4bb 1702 2a3d
000001e0: c438 52bd cf8f cc3d 38e4 cdbd be60 efbd
000001f0: 7cc5 a33c 1baa 8ebd 44f7 8dbc 5f4e 3a3d
00000200: 9488 d23c 3025 afbb d7e6 dc3b a953 5b3d
00000210: 87c4 acbd 869e eb3d 7a1f 603d 249a d93c
00000220: 1a47 78bc e45d 583d b488 d43c 9db3 0a3e
00000230: 8e50 c03d 4994 4f3c c799 84bd 1c1c 14bc
00000240: 9a2a 303c 84fc 59bc e3ca ccbc cbed cf3d
00000250: 4fa2 383d b22d dabc a8b9 9dbd c292 353c
00000260: 29e8 b63d 6519 c7bc d504 9e3d 379d 29bd
00000270: 25ee 983d 4b5d bcbd 7116 f13c 89ba d7bc
00000280: 9e42 b5bd 30fc 9dbd 69a2 253c 8158 1e3d
00000290: e4f6 cb3d ac75 f63d 9425 1d3d 2c24 2c3d
000002a0: 3a38 c73c e96a e43b 2df8 ddbb 766b 4c3d
000002b0: 9ee6 45bd 2b33 1abc b826 593b 33a2 3d3c
000002c0: 00c3 c2bc 2efb 043e e0a1 80bd 401e 09bc
000002d0: 138e dabc b0e7 f23c 6bde b03c 9a32 d73a
000002e0: 6297 83bd f687 f33c 5b7f e0bd 8937 1f3d
000002f0: c8ea 023e ff6e 173d 59bf 283d 0b69 03bd
00000300: 126e acbd cdba f73c da44 8f3c fa30 863d
00000310: 8e51 e53c 22b6 56bd 8ed7 933d d30b aa3d
00000320: ba69 083e c292 43bc 2b82 7bbc ad3e 11bd
00000330: 7b48 133d 05b5 70bb d0e0 8c3d f154 d73d
00000340: 1f96 613d a90a b33c 282b cf3c 93f6 293e
00000350: 59bc 3e3d 11eb 623d 7f0a 853d b6aa b73a
00000360: 0391 9bbd e3dd 4e3d 9a2c 7b3d dc0e a23c
00000370: 3ef8 9a3d 5023 8e3c 7a35 0abb a33a b9bc
00000380: a7e8 90bd 91c5 543d 4148 8b3d 0dcb ef3b
00000390: 13cf aabd 851d 19bd fc21 e13b 7f71 f03b
000003a0: 2a7f 01bd b1fd 6dbd 9db5 613d dfa3 94bc
000003b0: 302d 1dbd 1cb7 453d ea51 83bd c22b 8d3d
000003c0: ecc4 b2bd d301 d93d 08ca 77bd a159 4b3d
000003d0: 07aa db3d cdc5 073c ce14 dfbd b485 12bd
000003e0: fed6 cb3c c0b7 28bd 956f 233e 554b 913d
000003f0: 39d8 ee3d a328 673d 263d cd3d 266c af3d

bias_hh_l0 f4 [384]
0.08030781 0.046424665 0.10186984 0.013123517 0.029009243 -0.06410527 0.048335902 0.091845654
0.053248394 -0.10346397 0.011709176 -0.04863777 -0.050148934 -0.031803675 -0.07826377 -0.07081945
0.09234095 -0.06135073 0.040402126 0.059070196 -0.013567782 0.038514607 0.008553266 -0.047911517
0.07635381 0.011804981 0.021036524 -0.026221167 0.05842613 0.06888476 -0.03526075 -0.00096581184
-0.06626364 0.0022350135 -0.08104056 0.013189153 0.061432622 0.07437054 0.019308629 0.006725566
0.028804338 0.014887075 0.025504945 0.054913882 -0.029757442 -0.0015251942 0.04447953 -0.03514322
-0.038152687 0.042598307 -0.003327502 -0.03623111 0.067293525 -0.026586633 0.08694378 -0.015800273
0.03180199 -0.03066758 0.042199627 -0.03144489 0.023426676 -0.029405119 -0.098931275 0.031158447
0.08332374 -0.053826325 0.064572625 -0.04114672 -0.0409143 0.044244 -0.06934648 0.056386296
-0.028487124 -0.054330762 -0.09118506 -0.10044386 0.049679354 0.012019945 0.09269848 -0.011715934
0.036321186 0.04059005 -0.05321209 -0.03172687 0.08207465 0.05158255 0.084940135 -0.10248495
0.09216945 0.05277222 0.017040698 -0.08649308 0.011900193 0.045296717 -0.0946749 0.047470648
-0.064383 -0.0035452892 -0.007301635 0.03195571 0.00497905 -0.021445023 -0.0534117 -0.0049097803
-0.041038983 -0.03148255 -0.07868429 -0.00092399877 -0.040258735 0.046266634 -0.02037572 -0.03988442
0.097608134 0.042118836 -0.00037322094 -0.04223838 -0.04706835 0.058486223 0.04105029 0.003529274
0.08782442 -0.047181316 0.0018275426 -0.029504435 0.03651397 0.016343214 0.07002194 -0.002323265
0.014283773 -0.056289192 0.08405622 0.082228154 -0.0017854876 0.09076876 -0.016971476 0.041683495
0.033030983 0.1678653 0.060673643 0.04320653 -0.005922899 -0.027838485 -0.0014012412 -0.06364309
-0.032033034 0.010944592 0.10112438 -0.043791372 -0.09747241 -0.09938987 0.050418366 0.024379436
0.0010265135 -0.070880234 -0.046145014 -0.04660793 -0.043020003 0.039233305 -0.06223771 0.04492033
-0.00438442 -0.037979323 -0.037584186 0.1023532 0.088401586 -0.014976689 0.02866844 0.009124148
-0.002677362 0.001979446 -0.08473189 0.030586079 -0.03720962 0.053379316 0.09697491 -0.049935352
0.05877686 0.09920551 -0.04511339 -0.06022812 0.03248691 0.11269691 0.07472211 0.1016567
0.0718475 0.0005868139 -0.035902448 -0.0032367702 0.0023146626 -0.02210079 0.15385653 -0.053439993
-0.06557522 0.016003057 0.11115868 0.08772473 0.04778442 0.02744978 0.104777485 0.06109965
-0.019188553 0.060700938 0.0935407 0.010597937 0.0617693 -0.08732207 -0.0032911994 0.11722662
0.07447146 0.02385306 0.025333157 0.092390515 0.07031366 -0.01880363 0.08526619 0.109034635
-0.055112667 -0.069161035 0.14099409 0.04408149 0.064378016 -0.022480795 0.061026182 0.073637314
-0.0067830808 -0.04777859 -0.013117406 0.038415115 0.032426637 0.09522002 -0.0051912502 0.039746724
0.05225565 -0.055109534 0.026702918 -0.036613613 -0.055657648 -0.07051462 0.019846698 0.014067749
0.05863714 -0.017572409 0.026958283 -0.10643974 0.033681337 0.003425157 -0.03573359 -0.02159304
-0.066670954 0.04026611 0.08832808 0.10785313 -0.05013941 0.0052697477 -0.017964577 0.102814354
00000000: 6c78 a43d ca27 3e3d 22a1 d03d 0504 573c
00000010: cba4 ed3c a049 83bd defb 453d 9319 bc3d
00000020: fd1a 5a3d ebe4 d3bd d8d7 3f3c 6638 47bd
00000030: f868 4dbd 9244 02bd c148 a0bd ca09 91bd
00000040: 411d bd3d e74a 7bbd b37c 253d 97f3 713d
00000050: 674b 5ebc 7ec1 1d3d ff22 0c3c de3e 44bd
00000060: 635f 9c3d ae69 413c ca54 ac3c c6cd d6bc
00000070: 3d50 6f3d 7413 8d3d 946d 10bd 892e 7dba
00000080: 3bb5 87bd 4e79 123b 98f8 a5bd 5117 583c
00000090: c6a0 7b3d 954f 983d 212d 9e3c 2362 dc3b
000000a0: 13f7 eb3c ebe8 733c bfef d03c 61ed 603d
000000b0: e1c5 f3bc 06e9 c7ba 2b30 363d 56f2 0fbd
000000c0: fe45 1cbd 907b 2e3d 3812 5abb 1367 14bd
000000d0: 30d1 893d 36cc d9bc 950f b23d 936f 81bc
000000e0: ce42 023d 943a fbbc 84d9 2c3d 5bcc 00bd
000000f0: 4de9 bf3c 01e3 f0bc 7b9c cabd 0040 ff3c
00000100: a3a5 aa3d fe78 5cbd a73e 843d 7789 28bd
00000110: c195 27bd 3239 353d 8705 8ebd 51f5 663d
00000120: d45d e9bc ef89 5ebd 3cbf babd 83b5 cdbd
00000130: 947c 4b3d 4eef 443c b3d8 bd3d 30f4 3fbc
00000140: 86c5 143d c141 263d ecf4 59bd 09f4 01bd
00000150: c116 a83d 3948 533d 18f5 ad3d a1e3 d1bd
00000160: 56c3 bc3d af27 583d ef98 8b3c 4923 b1bd
00000170: 07f9 423c 0d89 393d eae4 c1bd 9570 423d
00000180: 3cdb 83bd 1558 68bb 8e42 efbb fee3 023d
00000190: 4c27 a33b 79ad afbc 3ac6 5abd 39e2 a0bb
000001a0: 7e18 28bd d9f3 00bd 3b25 a1bd 8238 72ba
000001b0: 58e6 24bd 1582 3d3d fbea a6bc d85d 23bd
000001c0: c6e6 c73d cd84 2c3d deac c3b9 2702 2dbd
000001d0: beca 40bd 408f 6f3d 5924 283d 644b 673b
000001e0: 4add b33d 3241 41bd 278a ef3a 49b3 f1bc
000001f0: ac8f 153d 34e2 853c aa67 8f3d eb41 18bb
00000200: 7c06 6a3c 7f8f 66bd ab25 ac3d 3c67 a83d
00000210: 0607 eaba f9e4 b93d c407 8bbc 50bc 2a3d
00000220: 7f4b 073d e2e4 2b3e ed84 783d 55f9 303d
00000230: e114 c2bb 890d e4bc daa9 b7ba 4f57 82bd
00000240: 1235 03bd f250 333c 4d1a cf3d 955e 33bd
00000250: 9d9f c7bd eb8c cbbd 7d83 4e3d 62b7 c73c
00000260: 148c 863a a829 91bd 8e02 3dbd f5e7 3ebd
00000270: be35 30bd 1ab3 203d f8ec 7ebd 61fe 373d
00000280: 2eab 8fbb 3590 1bbd e0f1 19bd 8e9e d13d
00000290: e40b b53d c960 75bc 14da ea3c 737d 153c
000002a0: ae76 2fbb 98b9 013b ea87 adbd a88f fa3c
000002b0: 1d69 18bd 45a4 5a3d c89a c63d 0389 4cbd
000002c0: 01c0 703d 422c cb3d d1c8 38bd c3b1 76bd
000002d0: fe10 053d a3cd e63d e807 993d 6331 d03d
000002e0: c824 933d 6ad4 193a 720e 13bd fe1f 54bb
000002f0: 98b1 173b b70c b5bc 918c 1d3e e5e3 5abd
00000300: 4d4c 86bd d818 833c 29a7 e33d 06a9 b33d
00000310: 99b9 433d 5cde e03c 9495 d63d a043 7a3d
00000320: 5031 9dbc 8ca1 783d 4492 bf3d f8a2 2d3c
00000330: ce01 7d3d ead5 b2bd 2ab1 57bb 8314 f03d
00000340: 7e84 983d 7e67 c33c 7b87 cf3c 3d37 bd3d
00000350: 9c00 903d 120a 9abc 0aa0 ae3d 8d4d df3d
00000360: d2bd 61bd 4da4 8dbd c160 103e cb8e 343d
00000370: 9fd8 833d a529 b8bc 97f6 793d 29cf 963d
00000380: 9b44 debb 7cb3 43bd 63ea 56bc 2b59 1d3d
00000390: cbd1 043d b702 c33d 5d1b aabb 76cd 223d
000003a0: 050a 563d 89ba 61bd 14c0 da3c 28f8 15bd
000003b0: 46f9 63bd f869 90bd 8b95 a23c 6a7c 663c
000003c0: 7f2d 703d 03f4 8fbc 9ed7 dc3c 14fd d9bd
000003d0: 71f5 093d 9978 603b 635d 12bd e3e3 b0bc
000003e0: c88a 88bd 14ee 243d 5ae5 b43d 1ae2 dc3d
000003f0: fb5e 4dbd d9ad ac3b 732a 93bc 5590 d23d

weight_ih_l0_reverse f4 [384, 32]
-0.046383217 -0.035645682 0.101722114 -0.03841031 0.13447596 0.07078654 0.018299397 -0.05020838
0.05343171 -0.009212847 0.049027696 -0.005887712 -0.049653854 0.029755527 -0.0701542 -0.049820207
0.04947567 -0.0059100743 -0.0027570447 0.035151705 0.08933081 0.026144354 0.03892399 0.088155754
0.07760673 0.0712845 0.06106744 0.044303574 -0.014973404 -0.06114006 -0.00037523627 0.035741385
0.009866373 0.07669088 0.00020741152 0.05789692 0.09369107 0.050544932 0.08288079 -0.0015765906
-0.07051837 0.11261534 -0.06711158 -0.018734712 0.085828766 -0.06936597 0.028033921 -0.071710825
-0.08348644 0.1847176 0.11557522 -0.0077824616 0.13753442 -0.02523315 -0.041232932 0.110529535
0.060913276 -0.009544749 0.038174037 0.0782906 -0.009292163 0.083068416 0.01892094 0.115456656
-0.05681587 -0.05225129 -0.03645612 -0.07250316 -0.078093424 -0.10338575 -0.055600047 0.007529113
0.05180187 -0.04620024 0.02114259 -0.015846634 0.055998072 -0.061623156 0.046489984 -0.065515034
-0.04345188 0.025413053 -0.025314305 0.09288496 -0.016253866 -0.1100895 -0.0255056 -0.077728085
0.0017877425 0.049970377 0.04732702 0.01929556 -0.04907284 -0.017832574 0.0074781575 -0.08969561
-0.053337432 -0.093578584 -0.014935883 -0.045301374 -0.049271565 0.06921882 -0.042599615 -0.030075377
-0.0021131355 -0.06646906 0.056074332 -0.06721028 -0.004907168 0.058582358 0.07469156 0.089061126
0.012038478 -0.07427056 -0.08148685 0.041089546 0.07115683 0.082453944 -0.053733952 -0.06784914
0.022401458 -0.05317115 0.018951718 0.038675085 0.024036163 -0.06842412 0.03427871 -0.056708347
-0.06809706 0.050888997 -0.060372707 0.013841733 0.07221673 -0.07292979 0.025039729 0.0038230594
-0.10273997 -0.022425957 0.005547062 0.04059649 -0.014224121 0.020547384 -0.043124024 -0.06501115
-0.09114411 -0.07522628 -0.11644146 0.0917154 -0.04616456 -0.061172254 0.12352904 0.1093225
0.043307286 0.06499233 0.0470488 -0.05787753 0.088896334 0.07094321 0.04514307 -0.0710642
0.06828655 -0.01522452 -0.02450087 -0.075537376 0.012602397 -0.0016433025 -0.095046304 -0.012730616
0.032136776 -0.09265296 -0.026477087 -0.001784215 -0.06784964 -0.062991306 -0.09151836 0.06378395
-0.0023158188 0.010972263 0.035945963 0.013457251 -0.033551488 -0.04446027 -0.0311713 0.09514093
-0.020243848 -0.052801553 0.057193168 -0.014870037 0.04141534 0.1019602 0.009992993 -0.03174738
-0.0712019 -0.051426575 -0.08474501 -0.08358434 0.10471406 0.044364806 0.047063317 -0.03719485
-0.0026577006 0.013557931 -0.016302712 -0.051211145 0.10968771 -0.009744409 0.08807945 -0.034695424
0.08592286 -0.02385884 0.029462151 0.0043015056 -0.10029625 -0.03474278 -0.11830706 0.012265976
-0.05352117 0.031731755 -0.088204026 -0.05130964 0.040940866 -0.10653157 -0.045210943 -0.056082677
0.098554194 0.0024822475 -0.09251731 0.04090239 -0.050112166 -0.09631621 -0.019781448 0.0020284834
0.01691757 0.01755466 0.08876907 -0.033380628 -0.052799426 -0.005331042 -0.004440161 0.0029774688
0.006976536 0.0489708 0.053567275 -0.03148933 -0.029789476 -0.047466204 -0.07747384 -0.055589072
-0.083137326 -0.07267254 -0.0750992 0.05384025 -0.049260464 0.05341759 0.055282723 0.04887624
00000000: 54fc 3dbd 3501 12bd af53 d03d 2154 1dbd
00000010: 11b4 093e 89f8 903d 9ee8 953c 4da7 4dbd
00000020: 35db 5a3d 7bf1 16bc 44d1 483d b5ed c0bb
00000030: d761 4bbd ddc1 f33c 01ad 8fbd 4610 4cbd
00000040: 00a7 4a3d 4ca9 c1bb 89af 34bb 3cfb 0f3d
00000050: 12f3 b63d af2c d63c c36e 1f3d 018b b43d
00000060: 47f0 9e3d 9cfd 913d da21 7a3d aa77 353d
00000070: 0253 75bc 006e 7abd 5cbb c4b9 8f65 123d
00000080: 91a6 213c 1c10 9d3d 9b7c 5939 5225 6d3d
00000090: 1be1 bf3d 3408 4f3d 67bd a93d 9aa5 ceba
000000a0: ef6b 90bd dfa2 e63d cc71 89bd 8a79 99bc
000000b0: fec6 af3d bf0f 8ebd 65a7 e53c 20dd 92bd
000000c0: f0fa aabd 9c26 3d3e b3b2 ec3d 0504 ffbb
000000d0: d3d5 0c3e c0b5 cebc dde3 28bd 4f5d e23d
000000e0: 3380 793d 9461 1cbc 615c 1c3d d256 a03d
000000f0: 283e 18bc c61f aa3d 1600 9b3c 8a74 ec3d
00000100: c2b7 68bd 7305 56bd 0353 15bd 897c 94bd
00000110: 72ef 9fbd e8bb d3bd e0bc 63bd c7b6 f63b
00000120: 332e 543d 763c 3dbd 3a33 ad3c cdd0 81bc
00000130: 3c5e 653d 9068 7cbd 486c 3e3d bf2c 86bd
00000140: 99fa 31bd 092f d03c f25f cfbc 783a be3d
00000150: d426 85bc 9b76 e1bd 1ff1 d0bc e72f 9fbd
00000160: af52 ea3a bdad 4c3d fad9 413d b911 9e3c
00000170: 9a00 49bd 9e15 92bc 550b f53b 55b2 b7bd
00000180: 5a78 5abd 21a6 bfbd a2b5 74bc ef8d 39bd
00000190: fbd0 49bd 99c2 8d3d ef7c 2ebd a360 f6bc
000001a0: 887c 0abb ee20 88bd 33ae 653d 8ba5 89bd
000001b0: 4fcc a0bb 0ef4 6f3d e3f7 983d ae65 b63d
000001c0: 093d 453c 2a1b 98bd 94e2 a6bd 834d 283d
000001d0: acba 913d 9ddd a83d 2218 5cbd 7df4 8abd
000001e0: 4383 b73c fec9 59bd a240 9b3c c469 1e3d
000001f0: 7de7 c43c f221 8cbd d567 0c3d 0347 68bd
00000200: 7976 8bbd fb70 503d 5f49 77bd 70c8 623c
00000210: 5de6 933d 375c 95bd 1e20 cd3c 4b8c 7a3b
00000220: 5569 d2bd a4b6 b7bc 21c4 b53b 8148 263d
00000230: 4a0c 69bc fd52 a83c d1a2 30bd 9124 85bd
00000240: c3a9 babd 3c10 9abd dc78 eebd 49d5 bb3d
00000250: 0d17 3dbd c28f 7abd cbfc fc3d 7ae4 df3d
00000260: fb62 313d b31a 853d 3eb6 403d fd10 6dbd
00000270: 480f b63d ac4a 913d f1e7 383d 1b8a 91bd
00000280: d2d9 8b3d 4470 79bc 0cb6 c8bc 57b3 9abd
00000290: 497a 4e3c 1564 d7ba a3a7 c2bd 1394 50bc
000002a0: daa1 033d d6c0 bdbd 7ae6 d8bc 52dc e9ba
000002b0: c1f4 8abd 9601 81bd fa6d bbbd 29a1 823d
000002c0: fec4 17bb 02c5 333c 133c 133d cd7b 5c3c
000002d0: 496d 09bd f91b 36bd f45a ffbc 3fd9 c23d
000002e0: 6dd6 a5bc 7146 58bd 6243 6a3d 75a1 73bc
000002f0: 22a3 293d 82d0 d03d a7b9 233c 8a09 02bd
00000300: 4dd2 91bd aca4 52bd cb8e adbd 442e abbd
00000310: 5374 d63d dfb7 353d 77c5 403d a159 18bd
00000320: d12c 2ebb 1622 5e3c 448d 85bc c7c2 51bd
00000330: f3a3 e03d 03a7 1fbc 0063 b43d ca1c 0ebd
00000340: 53f8 af3d 9d73 c3bc 9c5a f13c a5f3 8c3b
00000350: 1f68 cdbd 724e 0ebd f94a f2bd 3bf7 483c
00000360: 0439 5bbd 28f9 013d 50a4 b4bd 0f2a 52bd
00000370: 9cb1 273d 392d dabd 1c2f 39bd f3b6 65bd
00000380: c8d6 c93d 34ad 223b b779 bdbd 4489 273d
00000390: 6a42 4dbd 6f41 c5bd b40c a2bc 4ef0 043b
000003a0: b796 8a3c cace 8f3c 8fcc b53d 20ba 08bd
000003b0: 3644 58bd 06b0 aebb c57e 91bb a321 433b
000003c0: 6d9b e43b 9b95 483d 5c69 5b3d f5fa 00bd
000003d0: 0f09 f4bc ec6b 42bd 9baa 9ebd 5eb1 63bd
000003e0: e743 aabd 57d5 94bd 9ccd 99bd 9887 5c3d
000003f0: 57c5 49bd 67cc 5a3d 2370 623d 7432 483d

weight_hh_l0_reverse f4 [384, 128]
-0.054786026 0.0045282836 -0.06740984 0.013386919 0.095903344 -0.03828759 0.060877115 0.008409075
-0.103004105 -0.047187734 0.025129601 0.05102338 0.015142156 -0.0937894 0.08702552 -0.012790018
-0.017895883 -0.12083254 -0.09092128 0.026659492 -0.002666161 0.019001659 0.05430447 -0.00576385
-0.0138877705 0.07534277 0.0056385924 -0.031391576 -0.05104981 0.0032080957 -0.028273817 0.06782997
-0.065736935 -0.10660783 -0.06695751 0.04641861 -0.014077105 -0.0023608902 -0.031516645 0.049112868
0.08591602 -0.041187953 -0.00175537 -0.045276143 -0.027237918 -0.038159806 -0.07154495 0.050025243
0.03762488 0.05228934 0.0012292466 -0.014772244 0.031424426 -0.0032772478 -0.044706784 0.045384407
0.10166051 0.04603023 -0.008139037 0.0039757765 -0.09301391 0.044216864 -0.047549304 0.02480462
-0.027551467 0.074275196 0.039210573 0.057610426 -0.099453755 0.02153232 0.039307408 0.052429523
0.024973903 0.046048053 0.0046988963 -0.13021362 0.044701144 -0.023979403 0.05357557 -0.035484035
-0.020714996 -0.022140106 -0.027625008 -0.008919159 0.05421792 -0.032197025 -0.10593159 0.050273657
-0.07714616 -0.0019507883 0.02159332 0.016303474 -0.011717719 -0.10112329 -0.008256637 -0.09378291
-0.03775516 0.021296835 -0.0153168 0.017997667 -0.039008524 -0.04863032 0.012797816 0.04446825
0.038630296 -0.0714925 -0.05774889 -0.00058619434 -0.0010396582 0.02938912 -0.031595595 0.07358197
0.058634926 0.019405408 0.086554535 0.11124244 -0.021872042 -0.037639815 -0.025938416 -0.05604381
0.0979295 0.0848782 -0.0061386097 0.047498178 -0.060093544 -0.027267281 -0.0975043 -0.09337708
0.054949623 0.012205893 -0.0036438731 0.022063924 -0.0020850839 0.060439963 0.014466198 -0.03621458
0.057101402 -0.00051263 -0.06511023 0.05594191 0.0026519373 -0.06381174 0.02671178 -0.04502953
0.050084002 -0.107250325 0.06527895 -0.074717805 0.043989092 -0.0037327046 -0.022447802 0.11176816
-0.015173531 0.022066705 -0.051243663 -0.020546794 -0.002362232 -0.13452353 0.05094456 -0.002141344
0.04806577 0.06763098 -0.07480324 0.0009947926 0.030835312 0.07226654 -0.030391844 0.08963747
-0.06434749 -0.003307276 -0.031208012 0.05426523 0.042348575 -0.035126887 0.057330124 -0.026797324
0.01744271 -0.020440606 -0.0744103 -0.07982081 -0.012137698 0.038359635 -0.02160822 -0.090986304
-0.03916325 -0.046310488 -0.0855451 -0.096886255 -0.0070784916 0.046189122 -0.055075914 0.047049522
0.09209541 0.050656423 0.074460626 -0.08457472 0.015812952 0.0425434 0.068425 -0.045479555
0.0016598812 -0.07376993 0.010232295 -0.1293211 0.027834216 0.064577505 0.11148073 0.012720475
-0.04845172 -0.08999663 -0.051477 -0.010672762 0.07161174 -0.040315 -0.011894119 -0.0032879391
0.015765144 -0.013484977 -0.026862007 0.088198654 -0.0932479 0.050187204 0.12842153 0.00406374
-0.05474444 0.029267747 -0.06587416 0.01590215 0.0037964354 0.071816996 0.03827324 0.059472088
0.06867712 0.07333028 0.09960239 0.02974149 0.038560744 -0.062079795 0.09643003 -0.053368885
-0.008511836 0.025671942 -0.08166488 -0.02688358 -0.034670424 0.0065018074 -0.07123161 -0.08558362
-0.08896416 -0.036414836 0.07303861 -0.046893258 0.015058005 0.018100549 0.033693176 0.07073224
00000000: 5067 60bd ff61 943b 2c0e 8abd cf54 5b3c
00000010: f968 c43d 73d3 1cbd 485a 793d 38c6 093c
00000020: d1f3 d2bd ed47 41bd 98dc cd3c e4fd 503d
00000030: ce16 783c a814 c0bd 703a b23d 398d 51bc
00000040: 639a 92bc 0d77 f7bd f034 babd 0265 da3c
00000050: c2ba 2ebb 5ea9 9b3c 5d6e 5e3d aede bcbb
00000060: 8889 63bc 4f4d 9a3d f1c3 b83b 7494 00bd
00000070: 9b19 51bd ea3e 523b 7e9e e7bc 70ea 8a3d
00000080: 16a1 86bd 3555 dabd 0521 89bd 7121 3e3d
00000090: a8a3 66bc 2ab9 1abb 9917 01bd 932a 493d
000000a0: bdf4 af3d b3b4 28bd 7114 e6ba 7a73 39bd
000000b0: 0e22 dfbc 754d 1cbd 2986 92bd 45e7 4c3d
000000c0: 8c1c 1a3d 592d 563d ac1e a13a 4807 72bc
000000d0: e6b6 003d 18c7 56bb 761e 37bd 00e5 393d
000000e0: 6333 d03d 328a 3c3d 9859 05bc 3b47 823b
000000f0: 147e bebd be1c 353d 0fc3 42bd 0f33 cb3c
00000100: 9db3 e1bc 981d 983d 449b 203d e9f8 6b3d
00000110: 69ae cbbd 8c64 b03c ce00 213d 57c0 563d
00000120: 1296 cc3c e29c 3c3d 33f9 993b b856 05be
00000130: 8c18 373d 7470 c4bc 0f72 5b3d b557 11bd
00000140: 7fb2 a9bc 2b5f b5bc d74d e2bc aa21 12bc
00000150: 9c13 5e3d 07e1 03bd a9f2 d8bd c0eb 4d3d
00000160: cefe 9dbd 98b1 ffba 79e4 b03c dd8e 853c
00000170: adfb 3fbc ba19 cfbd d846 07bc 4111 c0bd
00000180: 28a5 1abd b376 ae3c 51f3 7abc d86f 933c
00000190: 67c7 1fbd 9630 47bd eead 513c 5724 363d
000001a0: cd3a 1e3d a96a 92bd 1a8a 6cbd d6aa 19ba
000001b0: 2445 88ba 74c1 f03c 626a 01bd 25b2 963d
000001c0: 2d2b 703d 17f8 9e3c 8143 b13d 14d3 e33d
000001d0: ff2c b3bc 352c 1abd cd7c d4bc 328e 65bd
000001e0: 438f c83d 9fd4 ad3d 6426 c9bb 738d 423d
000001f0: a624 76bd a25f dfbc 56b0 c7bd 7c3c bfbd
00000200: db12 613d 3afb 473c 0cce 6ebb 67bf b43c
00000210: e7a5 08bb e58f 773d a203 6d3c bd55 14bd
00000220: 29e3 693d 0462 06ba 8358 85bd 5823 653d
00000230: 20cc 2d3b bbaf 82bd aad2 da3c e270 38bd
00000240: e224 4d3d 0fa6 dbbd f8b0 853d a605 99bd
00000250: e82d 343d 64a0 74bb 74e4 b7bc b4e6 e43d
00000260: 679a 78bc 3cc5 b43c e0e4 51bd c051 a8bc
00000270: adcf 1abb 89c0 09be 3eab 503d ca55 0cbb
00000280: 9de0 443d 1c82 8a3d 7132 99bd b363 823a
00000290: 569a fc3c 7b00 943d 51f8 f8bc da93 b73d
000002a0: 9ec8 83bd e2be 58bb f2a7 ffbc 3845 5e3d
000002b0: b375 2d3d 36e1 0fbd fed2 6a3d 1086 dbbc
000002c0: 04e4 8e3c 0f73 a7bc 6d64 98bd 1879 a3bd
000002d0: 32dd 46bc fe1e 1d3d b903 b1bc 0757 babd
000002e0: a569 20bd 11b0 3dbd 4532 afbd 4d6c c6bd
000002f0: b1f2 e7bb ce30 3d3d 4897 61bd 00b7 403d
00000300: 859c bc3d 1c7d 4f3d d07e 983d 8335 adbd
00000310: 2a8a 813c fd41 2e3d 6822 8c3d c548 3abd
00000320: 5f90 d93a b014 97bd 5ba5 273c c06c 04be
00000330: 9504 e43c 3641 843d 0250 e43d 8a69 503c
00000340: 5075 46bd 2750 b8bd 8cd9 52bd cfdc 2ebc
00000350: 2da9 923d 5721 25bd 8ddf 42bc 777a 57bb
00000360: e725 813c 18f0 5cbc b60d dcbc 7fa1 b43d
00000370: c1f8 bebd 1991 4d3d ef80 033e 1f29 853b
00000380: b53b 60bd eac2 ef3c 08e9 86bd 3a45 823c
00000390: 9ecd 783b ca14 933d 67c4 1c3d 0199 733d
000003a0: 97a6 8c3d 302e 963d 56fc cb3d 6da4 f33c
000003b0: dff1 1d3d 6247 7ebd 1c7d c53d 5599 5abd
000003c0: 3a75 0bbc f74d d23c eb3f a7bd f43a dcbc
000003d0: 9302 0ebd 1d0d d53b e1e1 91bd 7746 afbd
000003e0: d732 b6bd b927 15bd 4495 953d 2513 40bd
000003f0: dab5 763c 9a47 943c db01 0a3d 11dc 903d

bias_ih_l0_reverse f4 [384]
0.06123207 0.06709682 0.042464286 -0.017792111 0.092387564 0.0735692 -0.008445827 0.0031922278
-0.10166104 0.022226198 -0.005026838 0.0049859914 0.0107250055 0.018059073 0.12321038 0.008403459
0.07648423 -0.020821093 0.07241102 -0.10625735 0.028277487 -0.018297182 0.08530766 0.03902332
0.0011931803 0.02466237 -0.013023295 -0.0714397 0.0669375 0.06581798 -0.055654813 -0.008172642
0.100770995 -0.034905426 0.025521081 -0.029009711 -0.021250566 0.06116081 0.054542318 -0.017688096
-0.019188564 -0.069736734 0.06607908 -0.03872947 0.05973105 0.008051767 -0.04245598 -0.019139122
0.09973201 0.079359435 0.057626486 0.10918309 -0.102777004 -0.07376192 -0.04945421 -0.06012479
-0.099793784 -0.096524775 0.00034445536 0.12578103 0.022273595 -0.011061406 -0.04300723 -0.06333058
0.06997013 0.0042087035 0.025137084 0.04099974 0.07337516 0.098729365 0.0475205 0.07075608
-0.09165672 0.004382101 -0.05388565 -0.029343123 0.06793373 0.012813664 0.06596527 0.029785413
-0.016440228 -0.0026218817 0.062175464 0.029895334 -0.04908821 0.11938645 -0.05700179 -0.047154054
-0.038250923 0.100749694 0.12002229 0.04425168 0.068741746 -0.040501457 0.08546713 0.08201848
-0.036753263 0.029380182 -0.06865019 0.0066255545 0.06628278 0.08533913 -0.04336282 -0.00995731
-0.039251104 -0.075492375 -0.014579983 -0.006440591 -0.012324373 0.011925231 0.034892354 -0.046670474
-0.047041442 -0.06174139 0.013428153 -0.003637034 -0.072493404 0.07400586 -0.09456437 0.00801279
-0.014528931 0.009246657 0.14666776 -0.0474212 0.103004746 0.032098725 -0.018735817 0.032267224
-0.01399497 -0.07192463 0.07124955 0.0064765136 0.08001414 -0.01997537 0.039743118 0.072398305
0.13633977 -0.060659297 0.030853242 -0.053060323 0.13336404 -0.093674265 0.08460803 0.10096521
-0.08586974 0.0318825 0.049583882 0.031336073 0.112905696 -0.04666723 0.027330196 0.087766275
0.038226727 -0.014795117 -0.009082052 0.004718172 0.11116679 0.034678448 0.05916434 0.02704382
0.14191301 0.083145946 -0.006355361 -0.018586732 -0.019406378 0.022835154 0.004537469 0.056562584
0.07514283 -0.010105262 0.10715024 -0.02024879 0.08116381 0.06017116 0.03922064 0.041097835
-0.057465628 0.010560433 0.08949098 0.01827927 0.04257845 0.05293938 0.05562395 0.045326214
-0.06862784 0.0310333 0.016071733 -0.05103968 0.05721051 0.028109422 0.05437385 -0.0062504453
-0.001982815 0.11324275 -0.034653995 -0.043946326 0.02143846 -0.009703677 0.105192415 0.031384338
0.041493073 0.034038514 0.062091503 0.10423064 0.07964941 0.05816694 0.0019730916 0.08460695
-0.07561892 0.06647265 0.014708249 0.007329877 0.004848949 -0.013755311 -0.014599632 0.057307225
0.09710064 -0.08441382 0.017438028 0.06583868 0.08206835 -0.00034352485 -0.094266884 0.041016325
0.00833582 -0.020917147 0.06676731 0.05719115 0.067876376 -0.043751404 0.08768261 -0.008333767
0.09102361 -0.019783217 0.10973211 0.013872294 0.024360755 -0.090160325 -0.0837058 -0.054046642
0.068540856 0.06267534 -0.06040217 -0.0068339575 -0.10109555 -0.080617405 -0.06326096 0.087708555
0.033681177 0.05907554 -0.019595578 0.035697397 0.06455191 -0.017347421 0.018700736 0.06943577
00000000: 7bce 7a3d 0f6a 893d 08ef 2d3d c3c0 91bc
00000010: b135 bd3d 73ab 963d 5e60 0abc b234 513b
00000020: aa33 d0bd b713 b63c 2cb8 a4bb 8761 a33b
00000030: efb7 2f3c 9ff0 933c b955 fc3d a9ae 093c
00000040: c4a3 9c3d ff90 aabc 3b4c 943d 749d d9bd
00000050: 30a6 e73c f9e3 95bc c8b5 ae3d ebd6 1f3d
00000060: 7d64 9c3a bd08 ca3c a95f 55bc fa4e 92bd
00000070: 8716 893d 94cb 863d 4df6 63bd 8ce6 05bc
00000080: 0661 ce3d fef8 0ebd 9611 d13c c6a5 edbc
00000090: ab15 aebc c283 7a3d c467 5f3d a0e6 90bc
000000a0: 5631 9dbc 22d2 8ebd 7854 873d cba2 1ebd
000000b0: 8ca8 743d 8feb 033c 52e6 2dbd a6c9 9cbc
000000c0: 4c40 cc3d 3387 a23d c009 6c3d 629b df3d
000000d0: c07c d2bd 7d10 97bd 7f90 4abd 6945 76bd
000000e0: af60 ccbd c8ae c5bd 0498 b439 becc 003e
000000f0: 1d77 b63c e63a 35bc 5928 30bd 77b3 81bd
00000100: 804c 8f3d 2ae9 893b 49ec cd3c 58ef 273d
00000110: b745 963d 9f32 ca3d dba4 423d 90e8 903d
00000120: 85b6 bbbd ba97 8f3b 33b7 5cbd fd60 f0bc
00000130: d720 8b3d 67f0 513c cd18 873d 8a00 f43c
00000140: a8ad 86bc e0d3 2bbb b3ab 7e3d 0fe7 f43c
00000150: b810 49bd e280 f43d b57a 69bd 9c24 41bd
00000160: 00ad 1cbd db55 ce3d 3fce f53d 4041 353d
00000170: 79c8 8c3d dbe4 25bd 6409 af3d 4ef9 a73d
00000180: 978a 16bd b5ae f03c 7998 8cbd 2e1b d93b
00000190: 44bf 873d 48c6 ae3d 369d 31bd fc23 23bc
000001a0: c4c5 20bd bf9b 9abd e2e0 6ebc 980b d3bb
000001b0: 2bec 49bc 0b62 433c 49eb 0e3d 8a29 3fbd
000001c0: 87ae 40bd 8ae4 7cbd c101 5c3c 4e5b 6ebb
000001d0: 6c77 94bd 6290 973d f7aa c1bd 1448 033c
000001e0: c10a 6ebc 4a7f 173c 1330 163e bb3c 42bd
000001f0: 27f4 d23d f479 033d db7b 99bc a32a 043d
00000200: 294b 65bc 384d 93bd 49eb 913d ef38 d43b
00000210: 74de a33d 63a3 a3bc aec9 223d 9045 943d
00000220: a79c 0b3e e275 78bd f0bf fc3c c855 59bd
00000230: 9590 083e 4bd8 bfbd fa46 ad3d d9c6 ce3d
00000240: 79dc afbd 3997 023d 7818 4b3d 415a 003d
00000250: 1a3b e73d 2326 3fbd 93e3 df3c cebe b33d
00000260: a193 1c3d 3867 72bc e3cc 14bc e59a 9a3b
00000270: 6aab e33d fd0a 0e3d 4f56 723d 008b dd3c
00000280: a551 113e 6c48 aa3d a240 d0bb 3443 98bc
00000290: 20fa 9ebc ca10 bb3c 0caf 943b 2bae 673d
000002a0: 7ce4 993d 8a90 25bc 9671 db3d cae0 a5bc
000002b0: 3639 a63d 0976 763d d2a5 203d 3456 283d
000002c0: 1461 6bbd ab05 2d3c 0c47 b73d 68be 953c
000002d0: be66 2e3d f7d6 583d f0d5 633d fba7 393d
000002e0: c18c 8cbd 8c39 fe3c dea8 833c fc0e 51bd
000002f0: 9155 6a3d bb45 e63c 1db7 5e3d 89d0 ccbb
00000300: 1ef2 01bb d1eb e73d 59f1 0dbd 1001 34bd
00000310: b69f af3c 2cfc 1ebc 1f6f d73d dd8c 003d
00000320: a4f4 293d f86b 0b3d a953 7e3d e076 d53d
00000330: 3b1f a33d 7540 6e3d fc4e 013b 6946 ad3d
00000340: 18de 9abd d022 883d defa 703c 772f f03b
00000350: efe3 9e3b f55d 61bc 4b33 6fbc fbba 6a3d
00000360: b3dc c63d 27e1 acbd 32da 8e3c 6ed6 863d
00000370: 7313 a83d 201b b4b9 ff0e c1bd bc00 283d
00000380: f792 083c 705a abbc 4dbd 883d 4441 6a3d
00000390: c502 8b3d ac34 33bd f192 b33d 5a8a 08bc
000003a0: 966a ba3d 6a10 a2bc 3abb e03d 9e48 633c
000003b0: 3590 c73c faa5 b8bd f26d abbd 0360 5dbd
000003c0: 265f 8c3d ee5b 803d 4468 77bd 64ef dfbb
000003d0: 2f0b cfbd bd1a a5bd f68e 81bd 8ba0 b33d
000003e0: 46f5 093d 32f9 713d e886 a0bc 6f37 123d
000003f0: cb33 843d 2e1c 8ebc 4932 993c 5734 8e3d
