reports/optimize_MERGE_VA_2026-01-07_07-35-08/best_model/optimize_MERGE_VA_2026-01-07_07-35-08.pth (torch, 156444 bytes, 10 tensors)

weight_ih_l0 f4 [192, 32]
00000000: e6d3 74bd f731 133c 383a ba3d 5319 c33c
00000010: b875 a93d 6ce0 9f3d bc50 00be 4076 77bc
00000020: 22ec 2ebe ebf3 a9bc bef6 99bd 79b2 6d3d
00000030: 31ac 3c3d 3cd5 d13d 37fc 343d 8e7e a13d
00000040: 82ec 073e 79a2 df3d 3d09 eebc a1b5 f43b
00000050: eaf5 3d3e 5b88 273e c778 0d3e 7aec d2bc
00000060: 7a13 a73d 7a44 253e 5fc5 233e d808 f43d
00000070: e22c 0dbd 1230 993d 9c8b 6dbd dd4f 183e
00000080: 6ffa 313d 47e5 0f3c df49 9abc 9152 933d
00000090: 38c5 d3bd 4cf6 05bd 2108 babd 0792 38bd
000000a0: 92ef b73d 8a5c 293e 7cc5 c3bd aec0 74bd
000000b0: a4af 803d 7579 2fbd 3652 afbb 4736 ff3c
000000c0: 9ff4 2dbe b1a9 eebd e9c7 273d 453c 943d
000000d0: 1502 043d 9558 943d dabf 7d3c 7d33 2f3e
000000e0: 97ea 30ba 74ee 0e3e 21bd f53d dd17 133e
000000f0: 6ad2 573d 8a0a 3c3c 0ca8 6f3c 9af8 fa3d
00000100: b86e 9f3d 979f 653d 5389 2fbd a90f e23c
00000110: da1c 06be 22d3 d8bd ec77 d33b c50b 4a3d
00000120: d3f8 813d b028 0e3e 524a f93c 3ba5 cbbd
00000130: db8c 0bbe b4c2 cfba d9de fdbd 29ef 1f3b
00000140: 3f75 c73a ee97 263e 0ad5 bfbd 1621 953d
00000150: bde1 b6bd eb6f 58bd 4f3e bd3c 7108 57bd
00000160: 57f1 9abd 8b05 c1bd edd4 153d 4797 8b3d
00000170: bfb2 efbd 3347 9abd 32b7 8cbd 34b3 d3bd
00000180: d414 c93d 4b8d 89bd 66dd 5abb 9c60 bbbd
00000190: ef4c e9bd 7639 cdbd 60dc 86bd 7248 b63d
000001a0: 28a3 793d 9cdd 04bd a39f 08be 20c2 c4bd
000001b0: 589e c1bd 6865 9abd f6f5 78bb 1972 d1bd
000001c0: 4581 963d f5ad b5bc ea17 9bbd e7df 703d
000001d0: 2f1f a73d 758a 9a3d cea1 c53d e31e 44bd
000001e0: a249 ce3d 42ca 213e b903 f7bc 6711 ad3d
000001f0: 6620 62bd 82c8 123e 4580 213e 9260 1bbc
00000200: 1c31 f0bd be39 cdbd a166 e33d 9057 8d3d
00000210: ed5a bb3d 76af 14bd 4440 8e3d 12ce 69bd
00000220: 9d1c 01bd 25a9 cd3c cee1 d0bd fcb3 0abe
00000230: e831 553d 32c3 8bbd 5120 173d 973c 94bd
00000240: 5672 5bbd 83fe ecbd 0f17 2b3d f88b 293d
00000250: 864f f2bd 6505 6cbd 9025 ee3c 0601 973c
00000260: bec0 9e3d 54bc b33d d824 9d3b f95c c9bd
00000270: eb60 0bbe 4cb0 e4bd 5dfb cdbd c51a e8bd
00000280: 7d8d 2cbc ea83 053e 866f 913d ca85 9e3d
00000290: d932 f93d 5b04 ac3d 1450 e23d 2997 263d
000002a0: 0b2b cabd 950d c0bd a535 d93d 8a87 93bd
000002b0: 2c95 01bd 7ea2 a93d 6772 8639 05f6 e4bb
000002c0: 2e02 03be 8fbf 923d 0828 fbbd 2145 f53c
000002d0: 99f0 dabd 6289 7b3d de85 0abe f789 663c
000002e0: 9c34 aa3d 736a 03bd cd96 87bd 6f36 9abd
000002f0: 0cd6 bcbd 249a 07be a875 29be 01c1 913d
00000300: 5f65 aa3d c581 523d 765c 343d b15a 023d
00000310: d2ae 12bd 45f5 58bd 616c debc cdf6 4f3d
00000320: 40b7 293c 70f1 52bd 9ff0 343c 6ea4 3abd
00000330: 7509 063d 20a7 973c 5dc7 ab3d 5c02 753d
00000340: cfcc f03d c393 8c3c 810a b33c 2b5f 74bd
00000350: ec3e 663e 0ebc 253e 7268 2e3e b9d9 803e
00000360: 25cf f63d c007 313d 1628 743e 157f 633e
00000370: 2aae 613d 6a43 1f3e 7d49 3d3d 3821 533e
00000380: 089d cc3d 12a8 2e3d 89c7 a93d 6819 263e
00000390: 9d70 9c3c 04d6 fd3d 3729 af3d 6c2f 6f3d
000003a0: cc1c 793d 05d6 34bd 4f93 d33d aa38 1d3d
000003b0: a1eb c43d cee7 aabb cc3d ed3d 8755 713d
000003c0: 6065 d43d bb2b 9d3d 1a82 893d 6176 0d3d
000003d0: 9170 dc3d c420 033e 5df5 883c 13a5 5abc
000003e0: ba75 b23d 921f 28bd ca57 a9bd 6072 bfbd
000003f0: 85c8 123e 6797 083e 076e 1c3e 4b80 453e
-0.059772395 0.0089840805 0.090931356 0.023815786 0.08274406 0.07806477 -0.12530798 -0.015103877
-0.17082265 -0.020746192 -0.075177655 0.058031533 0.046062652 0.10245749 0.044185843 0.078854665
0.13273814 0.10919661 -0.02905714 0.007467941 0.1855084 0.16360609 0.13815604 -0.025747526
0.08158012 0.16139403 0.1599326 0.11915749 -0.03446663 0.07479872 -0.05799447 0.14874215
0.043451723 0.008782691 -0.018834053 0.07193483 -0.10340351 -0.03270559 -0.09083582 -0.045061138
0.08981241 0.16539207 -0.095591515 -0.059754066 0.06283501 -0.04284044 -0.0053503765 0.031153811
-0.16987847 -0.1165346 0.040962134 0.07238058 0.032228548 0.07243458 0.0154876355 0.17109485
-0.0006748824 0.1395815 0.11998964 0.14364572 0.0526909 0.011477122 0.014627468 0.12254448
0.0778479 0.0560604 -0.042855572 0.027595358 -0.13096943 -0.105871454 0.006453505 0.04932763
0.063462876 0.13882709 0.030430946 -0.099436246 -0.13627951 -0.0015850873 -0.123960204 0.0024404025
0.0015217437 0.16268894 -0.09366806 0.07281701 -0.08929775 -0.05284111 0.023101 -0.052498285
-0.07565563 -0.09424885 0.036580015 0.06815963 -0.11704015 -0.075331114 -0.06870879 -0.10336915
0.09818426 -0.067164026 -0.0033396124 -0.09149286 -0.11391627 -0.100207254 -0.06585002 0.089005366
0.060946614 -0.032437906 -0.13342147 -0.09607339 -0.0945403 -0.07538873 -0.00379884 -0.102268405
0.07348875 -0.022177676 -0.075729206 0.05880728 0.08160245 0.0754594 0.096500024 -0.04788102
0.10072638 0.15799811 -0.030153142 0.08450585 -0.05520668 0.143343 0.15771587 -0.009483473
-0.11728117 -0.10020779 0.11103559 0.06901467 0.09148202 -0.036300145 0.069458514 -0.05708129
-0.03152143 0.025105068 -0.10199319 -0.13545221 0.052049547 -0.0682434 0.036896054 -0.07238119
-0.053575836 -0.11571982 0.041770037 0.04139325 -0.11831574 -0.057622332 0.029070646 0.018433105
0.077516064 0.08776155 0.004795652 -0.09832186 -0.1361119 -0.111664385 -0.10057709 -0.11333231
-0.01053178 0.13038602 0.071013495 0.07740362 0.121679015 0.08399268 0.1105043 0.0406715
-0.09871491 -0.093775906 0.10605935 -0.072035864 -0.031636402 0.08282946 0.00025643708 -0.0069873356
-0.127938 0.07165443 -0.12263495 0.02994019 -0.106904216 0.061410315 -0.13527629 0.014070979
0.08310816 -0.03208394 -0.0662056 -0.07529914 -0.09220514 -0.13242394 -0.16548789 0.07116891
0.08320116 0.05139329 0.04403349 0.03182477 -0.035811253 -0.052968282 -0.027151288 0.050772477
0.010358632 -0.051499784 0.011043697 -0.04556697 0.032723863 0.018512309 0.08387635 0.059816703
0.11757814 0.017160302 0.021855595 -0.05966107 0.2248494 0.16185018 0.1703203 0.2516611
0.120512284 0.04322028 0.23843417 0.22216447 0.055097736 0.1555306 0.046212662 0.2061814
0.09990889 0.042640753 0.082900114 0.16220629 0.019096667 0.12394336 0.08552783 0.058394834
0.06081848 -0.044149417 0.10330831 0.038384117 0.09615255 -0.0052156216 0.115840524 0.058919456
0.10370898 0.076743565 0.06714268 0.034536723 0.10763658 0.12805468 0.01671856 -0.013345021
0.08713861 -0.041045733 -0.082686976 -0.09347987 0.14334305 0.13339005 0.15276347 0.19287221

weight_hh_l0 f4 [192, 64]
00000000: 1e4b 11bd f3cf c2bd 31ee 613b 1d4a 003e
00000010: fa49 10be e006 213e aa14 553b aaeb 99bc
00000020: ad77 b2bd d2a9 573d ad44 f73d 2035 4c3d
00000030: aa2d 0e3c c9f0 ac3d 07dd bb3d 2e24 133e
00000040: 3296 d23c 3834 023c a40e 3b3d ae62 12be
00000050: 2d7b 8fbd 47ef 483d b578 babd f9d9 773d
00000060: b50c 1cbd dfad 383d 92e7 fdbc 183a e23d
00000070: 2bb1 2b3c 40ed 66bc d2c4 9a3d 3db3 eebd
00000080: ddcd c33a 4c56 dabc 9141 43bc b1fb 313e
00000090: 3fa1 03bd 28c2 c4bd c27b 8a3d 2e22 5d3c
000000a0: dd94 253e 3acb 193e 598a b5bd 4aa9 d13c
000000b0: 9b5e 17be d7b2 533d 1710 04bd 6941 b7bc
000000c0: 1cb8 a43c 89d0 82bd 2d51 e63c fac5 513d
000000d0: 44d0 6ebd bd77 f63d 8abd 53bd 4c68 3b3d
000000e0: 554c ecbd 8446 f03d 7648 babc c5cd edbd
000000f0: f9bb 7d3d 15ce 5abd 6490 323e cea8 08be
00000100: b4df d13c c9ba 5ebd 7cb1 a23d 5bd5 f63d
00000110: 99d5 33be 3bfa 49bc 0bcd ca3d b993 cc3c
00000120: 420d 953d bc94 ddbd 9143 3bbd 2ec9 efbd
00000130: 6645 933d cb28 223e 20d1 013e 99b3 99bd
00000140: 99bd 943d b626 18bd 1489 79bd 4b77 0d3d
00000150: fa59 6f3b 186d a0bd f724 c7bd 3566 bbbd
00000160: 8b64 0c3e 3735 e93d ca51 423d 33c5 1dbc
00000170: 9051 ce3d 3536 7c3e dc9f 393d 014b 8bbb
00000180: 1b51 f6bc 5814 91bd 9a3f 2e3c db30 dd3c
00000190: c7a0 adbd e16c 753e 1e7b 9a3d bfdc 03be
000001a0: b436 973d 06d0 353e fe66 c1bc 746f 083d
000001b0: 677d 36bd fb47 023e bf9f 133e 56c9 49bd
000001c0: f557 373d 9960 c3bc e655 a43d 8b0e 4cbd
000001d0: 8a35 263e 91f5 553c ff45 c13d d3a2 0f3c
000001e0: 1977 03be d260 b93d 77d4 22be 8225 c6bd
000001f0: aad7 913b 87a0 14bd cbf8 763e d8e5 583d
00000200: 5769 19bd c935 b3bd 95d4 c7bb 82be adbd
00000210: d641 c1bd e637 55bd 08da 3c3d dd79 c3bd
00000220: 29dc e53d 7da2 acbd 23f2 d339 ee53 ba3c
00000230: 1cd1 63bd 9578 0b3e 49f1 7f3d 7433 abbb
00000240: 0a5d 803c 9ee6 fe3c d35e 003d 5bd7 c7bd
00000250: 9778 1b3b 16e8 a1bc 9c1f b53d a998 9f3d
00000260: 1b80 d43d b65e dbbc 8129 23be f08b 953d
00000270: 4478 a3bd 7f7a 093e 1f07 13bc 0e15 c43d
00000280: 4ecc 9ebd 4adb 10be 90a5 80bd 5304 47bd
00000290: e3de ccbd 9d9f 63bd 6e25 073b 8fb0 38be
000002a0: 18cb 333d 54fc 9eb7 114a c4bd 81b2 f73c
000002b0: 3b99 b1bd 5824 af3d 9b3e 74bd a674 51bd
000002c0: 81f4 abbc 54a3 01bd f766 083e 83e1 dd3d
000002d0: 2509 503c 3328 033d c9bd 503d d8f6 14be
000002e0: dc33 90bd 9219 3e3d 3ef3 1c3d 8ef9 abbd
000002f0: 188b d73d d9b2 84bc b648 79bd a60c 8cbd
00000300: 6dda 0a3e 6be2 083e b3fe dbbb cbb6 15be
00000310: 8c19 16be ea1b e5ba 4367 bd3d 0572 83bd
00000320: 175a 36be 5128 253d 64af a83a 48bd 45be
00000330: 4e25 83bc 496b a5bd 859b af3d a1ab e43d
00000340: c7e0 1ebe 5d05 c139 a30d 67bd 4cbd 12bd
00000350: b2b2 69bd 441e dbbd af62 4bbc 34ce b53d
00000360: 5e43 9f3d 9c2c 94bc d9a0 ed3d ac84 a5bd
00000370: bd4e ad3d 203e 413d 01a2 60bb 0ecd bd3d
00000380: 0fea 1a3c 00f9 4b3d 412b 88bc 1744 9b3d
00000390: 8bf6 66bd 950c 83bd f7d1 0abe 9645 d3bd
000003a0: 5423 d63d 6d12 8a3d 6c3c 203d 2c65 9d3c
000003b0: a5b3 a3bd f8ce 4d3d 1894 223e b905 bcbc
000003c0: f8d8 65bd 7b6d 9d3d 5da3 0bbe f1a6 1a3d
000003d0: 0dad 28bb 69da a7bd 2b3d ff3c 266e f5bc
000003e0: 7f9e 903d e262 383d 86c5 f0bc de19 99bc
000003f0: b25e 29bc 5dd7 053d 6d43 a13c 0606 423d
-0.035472028 -0.095123194 0.0034474249 0.12528272 -0.1409072 0.15725279 0.0032513537 -0.018789131
-0.087142326 0.052652188 0.12073646 0.04985535 0.008677879 0.084443636 0.09173017 0.1436927
0.025706384 0.00794702 0.04566826 -0.14295456 -0.07005916 0.049056318 -0.09105054 0.06051061
-0.038098056 0.04508769 -0.03099421 0.11046237 0.010479252 -0.014094651 0.07557072 -0.11655281
0.0014938671 -0.026652478 -0.011917488 0.17381169 -0.032136198 -0.09607345 0.06761886 0.013496919
0.16170068 0.15018931 -0.08864278 0.025593419 -0.14782183 0.051684227 -0.032241907 -0.022370057
0.020107321 -0.06387431 0.02811488 0.051214196 -0.058304086 0.12034557 -0.05169443 0.045753762
-0.11537997 0.117322 -0.02273963 -0.11611513 0.061946843 -0.05341919 0.17437893 -0.13345644
0.025619365 -0.05437735 0.07944009 0.12052413 -0.1756195 -0.012327726 0.0990239 0.024972783
0.07277919 -0.108193845 -0.045718733 -0.11708294 0.07190971 0.15835874 0.12677431 -0.07504959
0.072627254 -0.037146293 -0.060921744 0.034537595 0.0036522136 -0.07833308 -0.09723847 -0.09150354
0.13710229 0.11387103 0.04744128 -0.0096295355 0.100741506 0.24630053 0.04531847 -0.0042508845
-0.030067971 -0.070839584 0.010635281 0.027000835 -0.084779315 0.23967315 0.07543014 -0.12877177
0.07383481 0.17755136 -0.02360868 0.033309415 -0.044553187 0.12722771 0.14416407 -0.049264275
0.044761617 -0.023849772 0.08024196 -0.049818557 0.16231361 0.013059036 0.09437179 0.008766848
-0.12838401 0.0905167 -0.15901361 -0.09675123 0.004450758 -0.036285903 0.24118344 0.05295357
-0.037453976 -0.08750493 -0.00609834 -0.08483602 -0.09436385 -0.052055262 0.04610637 -0.09544728
0.11223633 -0.0842943 0.00040425462 0.022745099 -0.055619344 0.13620217 0.062485967 -0.0052246395
0.015669364 0.031115826 0.03134043 -0.09757873 0.0023723 -0.019763988 0.0884392 0.077927895
0.10375997 -0.02677856 -0.15933801 0.073020816 -0.07981923 0.13425635 -0.008973866 0.09574328
-0.07753812 -0.14146152 -0.062815785 -0.04858811 -0.1000345 -0.05557214 0.0020621675 -0.18036102
0.043894857 -1.8952567e-05 -0.095844395 0.030236484 -0.086718045 0.08551854 -0.059630018 -0.051136635
-0.020990612 -0.031649902 0.13320528 0.108340286 0.012697493 0.03202076 0.050962243 -0.14547288
-0.070411414 0.046411105 0.03831791 -0.08397208 0.10524577 -0.016198562 -0.06086036 -0.0683835
0.13559885 0.13367622 -0.006713712 -0.14620511 -0.14658183 -0.0017479633 0.09248211 -0.06418232
-0.17807804 0.04032165 0.0012869653 -0.19310486 -0.016009 -0.08077104 0.08574585 0.11165548
-0.15515433 0.00036815825 -0.05640949 -0.03582506 -0.057055183 -0.10699132 -0.012413665 0.08877221
0.07776521 -0.018087678 0.11602945 -0.08081946 0.08462284 0.047178388 -0.003427625 0.09267627
0.009455218 0.04979801 -0.016622188 0.075813465 -0.056387465 -0.06398884 -0.13556658 -0.10316007
0.10455957 0.06741796 0.039120123 0.019213282 -0.07993249 0.05024621 0.15876806 -0.022951948
-0.05611512 0.07686897 -0.13636537 0.037756864 -0.0025737912 -0.08195955 0.031157097 -0.02995975
0.07061481 0.045016177 -0.029391062 -0.018689092 -0.0103375185 0.03267609 0.019685471 0.047369026

bias_ih_l0 f4 [192]
00000000: 2c1f a0bc 259a 7c3d a48c 96bd 5630 b6bc
00000010: 3372 88bd da21 f4bd 6e4b 8fbb b397 933d
00000020: f908 f63d c59c 153c e7a3 8b3d 9adb 66bc
00000030: 708e 713d c163 f0bc eb62 8cbd 6ce8 9fbc
00000040: 8114 f73d e954 433d 574f 1a3e 0d2f 953c
00000050: d1bf 073e e01d 7abc eb34 433e 2152 32bd
00000060: c9f8 023d 0fa5 c53d f035 0ebc 99c0 f03c
00000070: f4b3 b9bd fb8f 9c3d b441 0abd 304f 153d
00000080: d56a cb3d 136c bf3c afb9 ea3c 0783 b93d
00000090: 1cdb 1dbd 92cf d63d 067c 513e 41c1 e73c
000000a0: c6b8 29bc 731c d33d afba 0b3d 7125 b13d
000000b0: 91e0 b13d 8a65 2ebc 8e5a 9b3d fa61 26bd
000000c0: 3d89 d23d 8526 12be 26aa 96bd db39 833c
000000d0: 93d5 a2bd cb82 3a3d 6297 97bd 2fbd 833c
000000e0: 1828 4e3d 1e02 1f3d f95b 4b3e 184e 813d
000000f0: e89b 8a3d ee5e d03d c067 69bd 8a4f 133d
00000100: 30c6 ac3b 488a 14bd 6331 943d 77af c43d
00000110: 7675 073d 76be cf3d a86b 3c3e e3ea 903c
00000120: f309 94bd e9b7 013e 04a5 ad3c 7ba9 8b3c
00000130: 04d2 ab3d e6a8 81bd 4ca1 b93d 08d4 b43d
00000140: 0189 c0bd f57d 0a3d 0d45 e43c f134 e13d
00000150: f19b 463e 414c 49bc 8c89 643c 0348 4f3d
00000160: 34fb 02be 55c9 a83c 035c 8bbc 589c 00bd
00000170: 837c 42bd 8647 2bbd e728 903d 3ecf c93d
00000180: 8f9a 483d 4387 95bd 881b 9fbb 5430 50bd
00000190: eea4 16bd 9291 02bd daed 3c3c 78dd 2dba
000001a0: ff43 d83d fedf 183e 5f35 3fbd d31d d9bd
000001b0: 5382 de3b b56c de3d 7ba3 5dbd c7bf 983d
000001c0: 8081 cd3d 22a8 f3bb d0c8 b0bd 960f 09bb
000001d0: 2995 6cbc b24a 9bbd 524d fcbc fc35 8dbb
000001e0: f9db 1b3e b5d0 f63d e65c 16be 1786 ba3d
000001f0: b9f1 c2bd 42c0 b9bd 628f 563d 60f2 68bd
00000200: 735d e13a 66ea 75bd 553c 9dbb 37a8 b03d
00000210: bea9 9c3d aab4 b63d a9bf c23d ae46 713d
00000220: 8f74 14bd 63c5 a23d 6f8c 8fbd 81b0 5e3d
00000230: 5214 9a3a 0063 fabd 0c69 313d 531a ebbc
00000240: e14a d93a d3a0 c83d 9b98 2dbd 565a e0bd
00000250: 260f b53d 1d03 e6bd adbb 293d f5a2 0cbe
00000260: cf4b fdbc 3f0e e53d 7843 73bd bde6 12be
00000270: a86d 26be f377 9bbd fe56 96bd 3733 27bd
00000280: ec12 91bd 04a9 ac3d 1fa4 bd3d 939f b53b
00000290: 087e 11be c76d dfba 0906 413d 6912 a7bd
000002a0: a9a9 d3bc 5b6c c53d 5f35 f73d f0d2 89bd
000002b0: 0c4e f6bd e444 713c 9980 a03c 4de6 2bbd
000002c0: dee3 9fbd 6b1a 3cbc 111f b7bd 10e7 9bbd
000002d0: 0c1a c83d 3939 143c b004 9e3c 38bb d93d
000002e0: 37f4 1bbd a683 0ebd c8f0 b2bc 4e16 21be
000002f0: df71 d63d 1825 06bd 5f33 fd3d 35ea b33d
-0.019546114 0.06167044 -0.07351044 -0.022239845 -0.06662407 -0.11920519 -0.0043730056 0.07206669
0.1201343 0.009131615 0.06818371 -0.014090443 0.05897373 -0.029344441 -0.068548046 -0.019520007
0.12064458 0.0476884 0.15069328 0.018210912 0.13256766 -0.015265912 0.19063155 -0.043535355
0.03197554 0.09650623 -0.008679852 0.029388713 -0.090675265 0.076446496 -0.033754066 0.036452472
0.09932486 0.023366963 0.028652994 0.090581946 -0.038539037 0.1048881 0.20457467 0.028290393
-0.010358995 0.10308161 0.034113582 0.086497195 0.08685411 -0.010644326 0.07585631 -0.04062078
0.102800824 -0.14272507 -0.07356672 0.016018799 -0.07950892 0.04553489 -0.07401921 0.01608142
0.050331205 0.03882038 0.19859304 0.06313723 0.06768018 0.101743564 -0.05698371 0.035964526
0.005272649 -0.036264688 0.07235982 0.0960378 0.033071004 0.101437494 0.18400443 0.017690128
-0.0722846 0.12667812 0.02119685 0.017048588 0.08389667 -0.06331043 0.09063968 0.08829504
-0.094011314 0.03381153 0.027864957 0.10996426 0.19395424 -0.012286247 0.013948809 0.050605785
-0.12791139 0.020603815 -0.017011648 -0.0313991 -0.047482025 -0.041816257 0.070390515 0.098539814
0.048975524 -0.0730119 -0.004855577 -0.05082734 -0.036778383 -0.031877108 0.011531318 -0.00066324277
0.10559844 0.14929196 -0.046681758 -0.10601392 0.006790438 0.10860578 -0.054110985 0.074584536
0.10034466 -0.0074358145 -0.08632052 -0.002091383 -0.014439859 -0.075826064 -0.030798588 -0.004309414
0.15220632 0.120515265 -0.14683875 0.09107607 -0.09518761 -0.090698734 0.052382834 -0.05687177
0.0017193988 -0.060037993 -0.004798452 0.086258344 0.07649563 0.08921178 0.095092125 0.058905296
-0.03624397 0.07947805 -0.070092075 0.054367546 0.0011755324 -0.12225914 0.04331307 -0.028699076
0.0016578102 0.097963 -0.042381864 -0.1095473 0.0884078 -0.112310626 0.041438747 -0.13734038
-0.030919937 0.11184358 -0.059390515 -0.14345832 -0.16252768 -0.07591238 -0.07340811 -0.040820327
-0.07083687 0.08430675 0.09259819 0.0055427044 -0.14208233 -0.0017046266 0.047124896 -0.08157808
-0.025837736 0.09639808 0.120707266 -0.06729686 -0.12026605 0.014725897 0.01959257 -0.04196768
-0.07807134 -0.011480908 -0.08941472 -0.07612431 0.09770593 0.009046846 0.019289345 0.10631412
-0.0380747 -0.03479352 -0.02184333 -0.15731165 0.10470938 -0.03275022 0.12363314 0.08784906

bias_hh_l0 f4 [192]
00000000: 3050 143e 2e5c 033e 1457 973d 792f de3d
00000010: 82c0 68bd 57fb bc3d 0b77 85bb efc7 d93d
00000020: 4d10 80bd 9d68 6ebd 897f ebbd 81f6 9fbc
00000030: c0b7 d43d d5da b73c 5b88 c1bd aa17 76bd
00000040: 41e6 b5bd c87b abbb 2a95 0bbd 7381 473c
00000050: f64b 123e f4ab fa3d c9d0 323e 1556 503d
00000060: 8c63 22bd a237 be3c 69ef b13d 12aa f93d
00000070: 63c4 d43c 76f8 9abd 4ff9 0c3c b63f bbbd
00000080: 4220 b6bd fe16 0fbd cb2f 3fbd b722 18bd
00000090: 882a d33d ef87 81bc fdff 5f3e f387 0ebd
000000a0: 846b b2bc 7f87 89bc d1b8 70bd f840 3b3d
000000b0: f96d e93c 75e7 b43d d583 1c3d d223 3ebd
000000c0: 7c0a 47bd c225 d8bc 830f febb 5b24 3e3d
000000d0: d1fc 08bb 57f7 b73d d604 f83d cc67 bf3d
000000e0: 15e2 b7bd 6a79 3d3d 5301 ad3d ceba 4b3c
000000f0: 1095 bdbd 68a5 a63c b813 cdbc daa6 173e
00000100: 724d d5bd 56d5 223c 3086 c83d 1a6b 8bbd
00000110: 074c 92bd 5219 e4bb 42fb 0c3e dd7a a4bc
00000120: dc6a 933d f0c3 c93d cb54 9abc 9c36 7f3c
00000130: a894 10be 6863 9f3d f435 913d 9863 c43d
00000140: 6d41 c0bb c592 803d a93d c4bd 4e54 303d
00000150: 90ca ee3d c901 c3bd 8540 64bd 18eb 8b3d
00000160: 74b9 7c3d 98d8 993c 0c3e c43c 63c0 44bd
00000170: ba54 df3d 011b d33d fb33 6dbd 0b32 9cbb
00000180: 08fb 1a3d fb77 0cbd b004 783d 3b8c 863d
00000190: 6ffa a23c 20b9 acbd 3f79 debc 061c bcbd
000001a0: 4735 b7bd 4459 1b3c 5c50 61bd 4a32 623c
000001b0: 756c cb3d 3126 803d f741 14bc 3f69 a4bd
000001c0: 2f4e 5cbd 2b2c 60bc 8cbf 0f3e 8179 7cbd
000001d0: 6d09 183e 6c02 6bbd 2bb9 aabd b4fc a93d
000001e0: 98a2 8c3a 509a 7a3d 6076 a13d ea47 2d3e
000001f0: 960b 283d fbd0 823d a26a 16bd 1dd0 7aba
00000200: 7c6b f8bd 1e3e bebd 1f03 ba3b ef82 183e
00000210: 3dcd 003e 9c95 06be e7ef e83d 8f5d 503c
00000220: 2732 e33b e132 cdbc 824e 943d 896e b33d
00000230: cec7 b7bc e810 4d3d 240f c0bd 03ca 2bbd
00000240: 9029 7dbc b651 0f3d d232 e5bd f51d 123e
00000250: 30eb 303e b104 34bd dd39 55bd 0a42 de3d
00000260: 75ab 4f3b 68de b1bd 42da 963d 7647 a7bd
00000270: 56ea 41be 51c1 a83c 5eb5 96bd e770 023d
00000280: 2a08 e5bc e466 d6bd 8b0c 0e3e 34ac 23bd
00000290: 9ace 0abc 8eca ed3d 14a5 df3c 9f45 0f3d
000002a0: ac6f 47be 6304 043e c3c8 c93d 2ab9 1f3e
000002b0: aee6 38be 603c b23d 390a 5b3c c314 d83d
000002c0: 41f0 09be 66fb c13d f404 85bd ec18 813d
000002d0: 4bbd 93bd e884 2bbd 0a9d a2bd f104 1abe
000002e0: 0fc7 9ebd 7e7c dabd ef11 e6bd d6cf 66bd
000002f0: 6cb7 e8bd 1399 d43d 8c52 0d3e a721 f7bd
0.14483714 0.12828133 0.07389656 0.108488984 -0.056824215 0.09227627 -0.004073029 0.106338374
-0.06253109 -0.058205236 -0.11498935 -0.019526722 0.1038661 0.022443214 -0.09449836 -0.06008116
-0.08881808 -0.0052332617 -0.0340778 0.012176859 0.1428679 0.12239829 0.17462458 0.050863344
-0.039645717 0.023219887 0.08688242 0.121906415 0.02597255 -0.075669214 0.008604362 -0.09143011
-0.088928714 -0.034934036 -0.04667644 -0.03714248 0.103108466 -0.015811889 0.21874996 -0.03479762
-0.021779783 -0.016788242 -0.058770005 0.045716256 0.028494822 0.088332094 0.038211662 -0.04642088
-0.048593983 -0.026385192 -0.007753314 0.04642139 -0.0020902643 0.08982723 0.121102974 0.093459696
-0.089786686 0.046258368 0.08447518 0.012434674 -0.09256947 0.020342544 -0.025033817 0.14809743
-0.10415162 0.009938559 0.09791219 -0.068075374 -0.07143407 -0.006961026 0.13767722 -0.020078117
0.07198116 0.09851825 -0.01883926 0.015576985 -0.14119208 0.07782632 0.07090369 0.095893085
-0.0058671744 0.06277994 -0.09582073 0.04304915 0.116597295 -0.09521825 -0.055725593 0.0683195
0.0617003 0.018780038 0.023955368 -0.048035037 0.10904832 0.10307885 -0.0579109 -0.004766708
0.03783706 -0.03429411 0.060551345 0.065697156 0.019894807 -0.08433747 -0.027157424 -0.091850325
-0.08945709 0.009481732 -0.055008277 0.013805935 0.09932796 0.062572844 -0.00904893 -0.080278866
-0.0537855 -0.013682405 0.14037913 -0.061639313 0.14847346 -0.057375357 -0.08336099 0.083001524
0.0010729609 0.06118232 0.07883906 0.16921964 0.041026674 0.06387516 -0.036722787 -0.00095677545
-0.12129876 -0.09289192 0.0056766416 0.14893697 0.12578292 -0.13143009 0.11373883 0.012717619
0.006933469 -0.025048675 0.07241537 0.08761317 -0.022434141 0.05006495 -0.09377888 -0.0419407
-0.015451804 0.034990035 -0.11191334 0.1426924 0.17277217 -0.043949787 -0.052057136 0.1085244
0.003168789 -0.08684999 0.07365848 -0.08167927 -0.18937048 0.020599993 -0.07358812 0.031845953
-0.027957994 -0.104688436 0.13871972 -0.039959148 -0.008472109 0.116109 0.027300395 0.034978505
-0.19476193 0.12892298 0.098527454 0.15597978 -0.18056747 0.08702922 0.0133691365 0.10550835
-0.13470556 0.094717786 -0.06495085 0.063035816 -0.07213839 -0.041874796 -0.07940109 -0.15040947
-0.07752811 -0.10668276 -0.11233889 -0.05635055 -0.1136311 0.10380759 0.1380102 -0.120669656

weight_ih_l0_reverse f4 [192, 32]
00000000: f963 033e 7b82 a33c 5bcb dabd 54ce 84bd
00000010: c026 873c e30c d5bd 2fbe 813d 9926 333d
00000020: ef50 a43d 19a1 f9bc 1801 bd3d 9924 133e
00000030: 5cd1 28bd 216b 51bd 90e8 c33c da85 8fbb
00000040: 3653 0d3d 5346 db3c 4d3f 6e3d 6f79 c8bd
00000050: 97fa b43d 42ea 3abb 5465 46bd f13a 7ebd
00000060: 40d1 ab3d 44a3 29bd ce93 613d eaf9 ba3d
00000070: ede6 023e b1e2 c13d e62d 58bc 51bc dc3d
00000080: 153c 383d 5d26 85bd f572 aa3c 6c55 ba3b
00000090: 4992 c23d da1c 35bd fab6 87bd 0dbf e53c
000000a0: 50d8 20bd 5aa2 8bbc 4f38 8b3d 5c21 0dbc
000000b0: f3ba 043d 7b3d 41be 7ae0 a0bd 2591 163e
000000c0: 0bd2 b2bd d4e1 db3d 26dd a33d a8ca 09bd
000000d0: 9496 1f3e 5290 a03b 38d7 8abd 30a5 003c
000000e0: c29e f53d 1c5b aa3d 91ce 9dbd 365a d3bd
000000f0: b92a 1ebc f3f5 c23d 3d53 793d b176 c3bc
00000100: 71e4 443c 2c54 973d c8da 23bd 36ad d33c
00000110: 100a 333d e320 183c 978e 333b 2047 223e
00000120: 92b1 d0bc c90c c7bc 3992 843c 48a6 c1bc
00000130: 3d1b ecbc 8018 183e 9496 d639 b35a 133d
00000140: 6217 98bc b8ce 6e3d c8d9 d0bc 5ab3 a2bd
00000150: a009 03bd 0dff 233e 472c 2a3d 8a02 5c3d
00000160: 5f71 8abd 3542 723d ac36 bb3d 2ccb 823d
00000170: e602 253e dcf9 6dbd e7d3 e13c 39f2 e13d
00000180: ac24 1c3e ff73 b33c c6fa fe3c 1374 e63d
00000190: c13c c8bd 0bb8 52bc 8c5a 853d 9082 583b
000001a0: 8705 5abc 0390 2c3d f73d b33d 1aea e73d
000001b0: b148 65bd 6777 2fbb 009b aabb 4896 8abd
000001c0: 646f 17bd f04f c43d 3c11 843d b47e 51bd
000001d0: 1984 b53d 58f5 0a3e c1b2 943d e49b 883d
000001e0: fb3b 6a3d 99a5 193d db3a e63d 8516 d0bc
000001f0: f76d 98bc c76d a13d 1991 673d d4ac 093e
00000200: e9fb 583d 2966 f33c 1e63 d2bc bcff bd3d
00000210: d2d8 eebd f6af 943d f38f 3bbd 6482 933c
00000220: 6e8d ee3c f0b4 5c3d 5248 dcbd ee24 bcbd
00000230: d86e 103d ce89 913d 5ee4 86bb 0062 a23d
00000240: 0214 243d 6bc1 3e3e 5d62 e83d 3092 e33c
00000250: 7768 123e b4e3 243d ee98 1c3e d715 343e
00000260: 7d91 373e 8f2f 8ebd fa1b 183e 7286 e73c
00000270: 66d8 993d 2696 bdbd 449d 193c fabf ce3d
00000280: 7851 efbc 12d4 b23d aa6c 953d ea76 0c3d
00000290: 0329 9ebc 4b3b babd 5a62 44bc 0fc9 72bd
000002a0: d601 73bd 92df b5bd e950 c2bc 7f02 013d
000002b0: 33a7 8f3d 80f9 493d e608 033e 16a4 913d
000002c0: 07ac f2bd b85b 5dbd b11c 39bd 1018 da3d
000002d0: 264c 033e 54a2 b93d dd85 febc b44f cdbc
000002e0: cae3 dd3d 98d2 ed3d e192 cdbd 36ef babc
000002f0: 340d bebd 7fa3 f73d 8234 72bd f9c1 8dba
00000300: 5ae9 c13c 10e7 e93d 6563 aabd d3d8 a53c
00000310: 598e 89bc 9919 563c acde f63d b090 ab3c
00000320: a459 a8bd 2548 3fbd f43f 573d ad85 393d
00000330: ebb6 9d3d c6d4 8fbb a0b5 c4bc 470e 073c
00000340: 1643 8abd 2858 593d 1d9f c1bc ae33 80bd
00000350: d4da ffbc f8ce 0d3d 9b06 8bbd 5690 b7bd
00000360: b269 e73d ed5e 373e c451 9ebc de97 2abd
00000370: c4d1 16bd 9048 2e3e 6160 63bd d8a1 163e
00000380: 6db7 04be 1b98 8e3b 337e 023d 53e2 673c
00000390: 6e0d 4b3d b9ab 213d c553 853d 50a0 b63d
000003a0: 2938 9d3c 50a1 dcbd 14c0 9bbc 5ba1 ebbc
000003b0: a37e 8bbd 13db 7bbd c828 5dbd 7c25 36bd
000003c0: 745f 533d fcb7 b03d e4df 0bbe 0f01 f1bd
000003d0: e547 573e 77b3 6d3e e1cc 9c3c c304 6a3e
000003e0: 4ea9 553e 05fa 193d 23dc b43d ff06 973d
000003f0: aab5 0b3e 6676 1b3d 1642 c63d 32c1 573e
0.12831105 0.019959679 -0.10683318 -0.064846665 0.01649797 -0.104028486 0.06335103 0.04373798
0.08023249 -0.030472325 0.09228724 0.1436943 -0.041215286 -0.051127557 0.023914605 -0.00437997
0.034503184 0.026766932 0.058165837 -0.097887866 0.08836859 -0.0028520976 -0.048436478 -0.06206793
0.08389521 -0.041415468 0.0550726 0.091296986 0.12783404 0.09467066 -0.013194537 0.10778106
0.044979174 -0.06501458 0.020806769 0.0056864526 0.09500558 -0.044216968 -0.06626697 0.028045202
-0.03926879 -0.017045189 0.067978494 -0.0086139105 0.03240485 -0.18871109 -0.078553155 0.14703806
-0.08731469 0.10736433 0.08001165 -0.033640534 0.15584785 0.004900017 -0.06779331 0.007851884
0.11993171 0.08318159 -0.07705415 -0.10319941 -0.009653741 0.09519567 0.060870398 -0.023860307
0.012017355 0.073891014 -0.040003568 0.02583943 0.04371077 0.009285185 0.0027398223 0.15847445
-0.025475297 -0.024298089 0.016183006 -0.02363886 -0.028821582 0.14853096 0.0004092945 0.03597517
-0.018565837 0.05830261 -0.025494471 -0.07944365 -0.0319916 0.16015263 0.041546132 0.05371336
-0.06759905 0.05914517 0.09141287 0.06386408 0.16114387 -0.058099613 0.027566863 0.110325284
0.15248364 0.021905897 0.031125437 0.11252608 -0.09777213 -0.012861262 0.06511411 0.0033036806
-0.013306982 0.042129528 0.08752053 0.11323948 -0.055977527 -0.002677405 -0.0052064657 -0.06766945
-0.036971465 0.09585559 0.064486 -0.051146224 0.08863086 0.13570154 0.07260657 0.06670359
0.057186108 0.03751144 0.112416945 -0.025401363 -0.018607123 0.078822665 0.05653486 0.13444835
0.052974615 0.0297118 -0.025682028 0.09277293 -0.11662449 0.072601244 -0.045791578 0.018006511
0.029120173 0.053883493 -0.107559815 -0.09186731 0.03526196 0.07106362 -0.004116579 0.07928848
0.040058143 0.1862847 0.11346886 0.027779669 0.14297663 0.040256217 0.15292713 0.17586456
0.17926593 -0.06942665 0.14854422 0.02826235 0.07511978 -0.09257154 0.009375874 0.100952104
-0.029213652 0.087318555 0.07296117 0.034293093 -0.019306665 -0.090933405 -0.011986339 -0.059273776
-0.059327923 -0.08880533 -0.023720222 0.03149652 0.070143126 0.049310207 0.12796363 0.07111375
-0.11849218 -0.054042548 -0.045193378 0.10649121 0.12822017 0.09064165 -0.03106969 -0.02506242
0.10834463 0.11612433 -0.100377806 -0.022819143 -0.09279862 0.12091731 -0.059132107 -0.0010815255
0.023670841 0.11421025 -0.08319739 0.020244991 -0.01679151 0.013067626 0.1205419 0.020943016
-0.082202226 -0.04669966 0.052551225 0.0452935 0.077009045 -0.0043893782 -0.024012387 0.00824315
-0.06751077 0.053062588 -0.023635441 -0.06259857 -0.031232275 0.03462121 -0.06788369 -0.08963077
0.11299457 0.17907305 -0.019326098 -0.041648738 -0.03682114 0.17019868 -0.055511836 0.14710176
-0.12960596 0.0043516285 0.031858634 0.014153081 0.049573354 0.039470408 0.065101184 0.08917296
0.019191818 -0.107729554 -0.019012488 -0.028763464 -0.068112634 -0.061488222 -0.05399397 -0.04446934
0.051604703 0.08628842 -0.13659626 -0.1176778 0.2102352 0.23212992 0.019140663 0.22853379
0.20865366 0.037591953 0.0883105 0.07374381 0.13643518 0.03795471 0.09680574 0.21069792

weight_hh_l0_reverse f4 [192, 64]
00000000: a73f 763c b000 a6bc 187a d93c bd40 b33d
00000010: 97e5 9f3c ac4a fd3b 49ed 3f3d 080d b7bc
00000020: 8329 89bd 5209 22be 4688 9c3b abc4 05bd
00000030: e3b5 a5bd ae82 ca3d 0373 05be ee54 97bc
00000040: 954d dd3d d68b 81bd e7e3 9ebd f3ff ae3b
00000050: 0fc2 013e cd81 8e3d 306d a43d 940b e73c
00000060: 3cc6 fcbc 2edc 4dbd 28c6 12bd 1ac8 ac3d
00000070: 8e54 27bc 0af6 bfbc cc38 93bd 1dbd 1d3b
00000080: 2905 c43d 39bd 07be db52 1fba 70b5 423d
00000090: 5cf7 f0bd e677 143d 94dd 85bd 0335 0bbd
000000a0: 9178 103d 8078 373b cf5e 7e3c f3f0 dd3d
000000b0: 352b 1c3d 1981 fe3d 084a 403d 8062 82bd
000000c0: 6225 19be e3e0 9c3d b7ba 05be 621c fc3d
000000d0: 2ff9 1cbe 0587 893c 0805 d6bd a933 a2bd
000000e0: 190b 66bd d8d0 9c3d bab2 593d d0e7 ce3d
000000f0: 623f f6bd f8e4 883d 74bb b63d 73a2 56bd
00000100: 3566 50bc a97c 3abe 378e 1d3e 5003 bcbd
00000110: 4bcb c8bc 7702 3fbe 582e 8dbd 353f e4bd
00000120: 4c22 e4bd b769 0a3e 405c b1bd 0b34 e13c
00000130: 1d11 c4bc b67d 883c dccf 87bd 9dfb e73c
00000140: 1483 903c 07d0 b83d 7292 f23d ec3c fc3c
00000150: 1c4f b0bd b391 c63d eb8d 103d 8b50 95bc
00000160: f57f 4a3d 8124 55bd 0b46 2d3e cca8 50bd
00000170: 4464 13be e5ca cb3c 69f7 173d 889b 4abc
00000180: c202 c0bb 7ebd 91bd 372d 13be ff49 9e3c
00000190: b3b5 6b3d a7c0 1a3e 7221 7cbb 6a4d 95bd
000001a0: 2658 86bd 30ef 43bd 887f e0bb bdf3 4cbc
000001b0: 996c 473c 61f5 a5bd f492 f2bc ad08 bf3d
000001c0: 7905 9bbc 4199 2c39 d8be 2b3b a39c 11bd
000001d0: 54b7 8fbd 1322 82bd 3732 5f3d a26d c4bd
000001e0: 3eff ac3d b5bf 5dbd a670 de3d 613d 4f3d
000001f0: 985d c53d e1ab 08be af36 c2bd 56b5 8c3d
00000200: 9d70 153d abf0 993c 62bf b53d 722e 0dbe
00000210: 5683 ba3b 3add 96bd 7812 92bd cfe1 b8bd
00000220: 7c7c f93d 8382 44bd 2323 e8bd 8a62 1f3e
00000230: 7e51 343d 1b4d 413e e72f df3d a2e4 ad3b
00000240: 055c c43d 7a2d f5bc 11ec 28be 2cb5 febd
00000250: 4d3f a8bb e6e4 6ebe 8340 8a3d 2d90 d6bd
00000260: 9a48 abbd 8240 a1bd 3ab2 2f3e c13d 0abd
00000270: a6c3 c5bd ab33 16be 2f05 e23b 7151 e9bc
00000280: 1889 dabb 0999 1bbd b2da 38bd c502 34bc
00000290: dfab 93bc 01be c8bc 0541 f0bd df97 f4bd
000002a0: 309a 9e3d 8b84 533d 22bf b73d d371 303d
000002b0: ad81 b03d 00c1 c43d 6d76 7fbd 461c 053e
000002c0: 06f3 3b3d 445a 9fbd 924b f83c c17a b83d
000002d0: df26 f0bd 268b 8f3b 1880 45bd 4ee4 533e
000002e0: 594b 7b3d 360e 2e3e 9b24 7f3d 90ce b6bd
000002f0: e49d 47be a157 23be 89f5 01bd 6bfb 273e
00000300: eded cc3d 2f79 8cbc 9e1c f6bb 1740 893d
00000310: 16bb 903d c15a 77bd 02f4 073d 541c d2bd
00000320: afd1 d6bc efd5 4ebc d4aa cbbd 6766 b43d
00000330: e6ed 4a3d 1408 0dbd 5c97 063d b10b 7abd
00000340: 203b f13c 42a1 df3d 4725 c93c 84d1 67bd
00000350: a6c0 e2bb 1bef ac3c eece 46bd 3aad 373d
00000360: 12c6 d8bd a06e dfbd 7671 1c3e 00b2 99bd
00000370: 83f5 aebd ab3f ccbd d4d0 3f3d 8614 413c
00000380: b001 23bd 0e53 903d 7013 acbc 3c92 7e3d
00000390: eaa7 c43d 9df0 103d ed8d ea3c c7da 2dbe
000003a0: 863d 8ebc dfc7 e43d 7b04 8d3c 17e9 76bb
000003b0: e8ff c23d e93e a23b dab0 ab3d 1251 38bd
000003c0: 7c9a 1c3e ce20 9cbd 68e6 063d 8bab 07be
000003d0: 6b17 893d ab7a f9bc c38b 7dbd 0bac 843a
000003e0: 61c1 043e a93e 17bd 2720 8fbc cdea c73d
000003f0: fb6b b93d b0be b6bd facb ddbd b885 8a3c
0.015029824 -0.020264 0.026547477 0.08752582 0.019518657 0.007729849 0.046857152 -0.022345081
-0.06697371 -0.15823868 0.0047769872 -0.03265826 -0.08091333 0.098882064 -0.13032155 -0.018473115
0.10805813 -0.063255 -0.07758313 0.00534057 0.12671684 0.06958351 0.08028638 0.028203763
-0.030856244 -0.050258808 -0.035833508 0.08436604 -0.0102130305 -0.02343275 -0.071885675 0.002406902
0.09571297 -0.13255776 -0.0006077715 0.047536314 -0.1176593 0.036247157 -0.06536403 -0.033986103
0.03527123 0.0027995408 0.015525534 0.10836973 0.038127143 0.12426967 0.0469456 -0.06366444
-0.14955667 0.07660081 -0.13059507 0.12310101 -0.15329431 0.016788015 -0.104501784 -0.0792001
-0.056162927 0.07657021 0.053148963 0.101028085 -0.12023808 0.06684297 0.089224726 -0.052401017
-0.012719681 -0.18211617 0.15386282 -0.09180319 -0.024511 -0.18653284 -0.06893605 -0.11144868
-0.11139354 0.1351689 -0.086601734 0.027490636 -0.023933941 0.016661506 -0.06631443 0.02831822
0.017640628 0.09024053 0.118443385 0.030790769 -0.08608839 0.09695759 0.035291594 -0.018226882
0.049438436 -0.052036766 0.1692125 -0.050942227 -0.14393717 0.024877021 0.037101183 -0.012366183
-0.0058597038 -0.07116221 -0.14372717 0.019322393 0.05754633 0.15112554 -0.0038472083 -0.07290156
-0.06559782 -0.04783553 -0.0068511404 -0.012509284 0.012171888 -0.08103443 -0.029611088 0.09327827
-0.018923508 0.0001646029 0.002620628 -0.03554977 -0.07017389 -0.063541554 0.054491248 -0.09591223
0.08447121 -0.054137904 0.1086133 0.050595645 0.09636992 -0.13346817 -0.09483086 0.068705246
0.03648435 0.018791517 0.08874394 -0.13787249 0.005691926 -0.07366414 -0.07132429 -0.090274446
0.12181947 -0.04797603 -0.11334827 0.15564933 0.04402303 0.1887707 0.108978085 0.005306796
0.09587864 -0.029928911 -0.16496302 -0.124368995 -0.005134499 -0.23329505 0.06750586 -0.10476718
-0.08363457 -0.07873632 0.17157832 -0.0337503 -0.096564576 -0.14668147 0.0068975906 -0.028481217
-0.006669175 -0.037987743 -0.04513044 -0.010986988 -0.01802629 -0.024504663 -0.117311515 -0.119430296
0.07744253 0.051640075 0.089720026 0.0430773 0.08618484 0.09607124 -0.0623688 0.12999067
0.045886062 -0.07780889 0.030309472 0.090077884 -0.11726164 0.0043806015 -0.048217863 0.2069256
0.061351154 0.16997609 0.06229077 -0.089261174 -0.19493824 -0.15951397 -0.0317283 0.16404502
0.10006318 -0.017147629 -0.0075107357 0.06701677 0.07066934 -0.060389284 0.03319169 -0.102593094
-0.026223032 -0.012624248 -0.09944692 0.08808594 0.049543284 -0.034431532 0.03285919 -0.061046306
0.029447138 0.10919429 0.024553908 -0.056596294 -0.006919938 0.021110108 -0.048537187 0.044842936
-0.10584654 -0.10909772 0.15277657 -0.07504654 -0.085429214 -0.09973081 0.046830013 0.011784678
-0.03979653 0.070470914 -0.021005362 0.06215118 0.096023396 0.035385717 0.028632129 -0.16977988
-0.017363321 0.11170935 0.01721405 -0.0037675553 0.095214665 0.004951347 0.08383341 -0.04499919
0.15293306 -0.076234445 0.032934576 -0.13249032 0.0669392 -0.030454 -0.061900865 0.0010122074
0.12964393 -0.03692499 -0.017471386 0.097615816 0.09053799 -0.089230895 -0.10829921 0.016909465

bias_ih_l0_reverse f4 [192]
00000000: 9d3b 923c b336 9ebd 9f5d 7f3d 2666 d93d
00000010: dfeb 573b d397 f83d b649 a1bd 43da 403d
00000020: 8274 603b 6d3b c5bb 6a98 3ebd 2baa f83c
00000030: ed55 34bb 96d1 9cbb a8d9 0ebe b590 043d
00000040: 93b6 fb3d 7950 c43d 4a69 623d 52e6 443d
00000050: 2d2f 233d 39c7 243c 45eb af3d 27e4 fa3d
00000060: 5082 e93d 2357 dc3d 6ee1 1e3e d7f1 6ebd
00000070: d5f2 b3bd 21fb d03d ad8d dc3b 87f1 813d
00000080: 9610 a8bd 99bd f63d 5b51 ae3d 13c4 d03d
00000090: 55fc 3fbc 8bf1 f4bd 0db9 7cbd 5d99 d0bc
000000a0: 6190 9e3d 9264 ec3d d577 b9bd 3778 30bd
000000b0: cadc e43c 0732 253e ad1a 023e 40ea ee3d
000000c0: d06f f63c 6531 45bd 6897 6a3d 628c 2e3e
000000d0: 4252 f0bc 6fd4 33bd 5435 9b3b db61 603d
000000e0: c606 65bd 5654 c5bd b164 a03d c26d 9fbb
000000f0: e5c4 d33d 3434 013e 2817 c33c 0c74 c13d
00000100: e2d9 173d 3b76 45bd ac37 57bb 3369 1b3c
00000110: c5c8 953d 1944 0c3d 0696 663d cae0 0e3e
00000120: 0890 c33c dda9 9f3d 1dd4 f8bd d029 0f3c
00000130: 09d3 ad3c cb7a 053e c54a 90bd 7c73 9c3d
00000140: 21c4 4b3d c345 52bd 1926 073e cff9 e83d
00000150: 20a6 fabb c538 a4bd eb50 95bd cadb 1f3e
00000160: 5c07 59bc 758c 6bbd 0799 673d 59c3 d93d
00000170: 7e4a 363d 8431 e13d 9c47 f9bd a178 d1bb
00000180: 8d94 b33d f2ac 283c cdd3 cabb ea0a 483d
00000190: 064a 253e 0dda 923d 2594 013e a881 30bd
000001a0: 2458 b9bd 372b b0bd 826f 233e ed1e d1bd
000001b0: 7f1b 84bd d4f2 0d3d 23df b7bc 425b 343e
000001c0: 9935 ea3c 2b96 c3bd 2d72 593d a8f8 87bc
000001d0: aea4 223d 0373 81bd 7078 d9bd f9ee 1e3e
000001e0: 1c07 1d3d d478 d33d 3bec 98bd 6ed5 e63d
000001f0: 59e9 9c3c 4714 fb3b f7a9 a63d 3b1d 0ebc
00000200: a1e7 563d 7d98 40bd 1dc2 ef3d 8b01 b5bd
00000210: dd70 74bd f062 133d 8f65 b93d 1e59 b7bc
00000220: f30a 0e3a 7084 313d 7cfa 73bc 0b03 953d
00000230: be2a 303c 8e10 9e3d 5ba8 94bd 2af9 a0bd
00000240: 98a8 9f3d cda6 d8bd e75f 013d a332 fabc
00000250: 5fba 1f3e 8122 79bc cef6 9f3d c738 e33d
00000260: a1f5 8bbd aaed 42bb 6961 fd3d 54d0 b9bd
00000270: 4d25 1bbd 4750 a2bc c72f b73c ce83 7a3d
00000280: e5a3 533d 9552 4a3d 1e03 883d 7d0a 32bc
00000290: c591 a2bd 1fee c6bb 8d79 d0bd b36a cb3c
000002a0: 0dd7 24be 8223 6d3d 29f8 86bd aa8a dabd
000002b0: f1e7 dcbc c6d0 8c3d 3bbd c73d b5b1 15bc
000002c0: 9b3d f2bd 029c 8b3d 168c b43d b4ab 07be
000002d0: 6afc 5d3d 00d6 24bc 3ee9 073b d164 8fbd
000002e0: 71e1 f8bd 8f5e fd3c 1dd4 963d daff 173d
000002f0: 3596 c1bd fd07 7ebd 3b0e 813d d715 2b3d
0.017850691 -0.07725277 0.062345143 0.106151864 0.0032946987 0.12138333 -0.07875387 0.04708315
0.0034249132 -0.006019047 -0.046532072 0.03035458 -0.0027517036 -0.004785727 -0.13950217 0.032364566
0.12290683 0.095856614 0.055276193 0.048071213 0.039839912 0.010057264 0.08589796 0.12250548
0.11401808 0.107588075 0.15515682 -0.058336105 -0.08786551 0.10204149 0.0067307563 0.06344896
-0.082062885 0.12047882 0.08511611 0.10193648 -0.0117178755 -0.11960133 -0.061699916 -0.025463754
0.07742382 0.1154262 -0.09056059 -0.043083396 0.027937312 0.16132365 0.12705489 0.116657734
0.030082613 -0.04814281 0.0572733 0.1704574 -0.029336099 -0.043903764 0.004736582 0.054780822
-0.055914663 -0.096352264 0.07831705 -0.004865379 0.10340289 0.1261757 0.023814753 0.09445962
0.037073024 -0.048208456 -0.003283958 0.009485531 0.073136844 0.03424463 0.056295417 0.13952938
0.02387239 0.07796071 -0.121498324 0.008737996 0.021218793 0.13035123 -0.07045511 0.076392144
0.04974759 -0.05133606 0.13198127 0.11375772 -0.007649198 -0.080186404 -0.072908245 0.15611187
-0.0132463835 -0.057506997 0.056542423 0.10632963 0.044504635 0.109957725 -0.121718615 -0.006392554
0.08768568 0.01029514 -0.0061897994 0.048838533 0.16141519 0.07170496 0.12654169 -0.0430924
-0.090500146 -0.086019926 0.15960506 -0.10210977 -0.06450557 0.034655407 -0.022445267 0.17612937
0.02859001 -0.09550127 0.053087402 -0.01659806 0.039707832 -0.06320765 -0.10618675 0.15520848
0.03833686 0.103257805 -0.074669324 0.11271177 0.019154238 0.0076623294 0.08137887 -0.008673961
0.052466992 -0.047020424 0.11706946 -0.08838185 -0.059677947 0.035983026 0.09052574 -0.022381362
0.00054185017 0.043339193 -0.014891263 0.07275971 0.010752378 0.07718001 -0.07258674 -0.07860024
0.077958286 -0.1057869 0.0315856 -0.030541724 0.15598439 -0.01520598 0.07810746 0.11094814
-0.06833959 -0.002974371 0.12372095 -0.090729386 -0.03787737 -0.01981367 0.02236165 0.061160855
0.051669974 0.049395163 0.066412196 -0.010866758 -0.079379596 -0.0060708667 -0.10179434 0.024831152
-0.1609766 0.05789519 -0.065903015 -0.10670979 -0.026966067 0.06875758 0.0975289 -0.009136607
-0.118281566 0.068168655 0.08815782 -0.13249093 0.0541958 -0.010060787 0.0020738388 -0.07001651
-0.121523745 0.030928878 0.07364676 0.037109233 -0.09452478 -0.062019337 0.06301542 0.041768875

bias_hh_l0_reverse f4 [192]
00000000: 4fe8 43bd 6c03 113c 9772 703d db4e debd
00000010: 43f8 c3bd e872 da3d ece6 8cbc 17f7 2abb
00000020: 91d4 98bc 6486 fa3d 18e0 a93d 5034 983b
00000030: 18e8 f33d 4c2e b13d c694 24bd c622 39bb
00000040: 534f 843c c229 4b3d 497f 0dbe 9287 b7bd
00000050: c5a1 ea3c 3481 f43c 71b0 82bd ebbe fb3d
00000060: fc1b bd3d 62e3 c23d 0fdb b93d 5419 223e
00000070: 506f 21bd 2713 833d 472d d43d d792 1e3e
00000080: 550b 0e3e 3810 493d de4c e63c c796 8bbc
00000090: 9a9e 93bd 4916 10bd 1999 323e a3df da3d
000000a0: 4d2d 9abd bdcb 12bd d027 99bc fa5d 073e
000000b0: 8f66 373a fb76 7ebd afec a93d 02bb 98bd
000000c0: 5fb3 01be b0e9 233c 1480 21bc 62f3 f13d
000000d0: 5cac a2bc 550b 6c3b 6b6e 173e 635b 543d
000000e0: 8fc2 ecbd 049d 27bd c5de f1bd 103d 7c3c
000000f0: 7908 023d ca31 54bd e595 463d 7f48 b039
00000100: aa75 053e 9038 3fba 9ff2 78bd f7d9 173a
00000110: e543 9d3c 97a1 e23d f888 e9bd 827a 2e3e
00000120: 61b7 643d a657 113e ae8c d0bd 59d3 c33c
00000130: 3cf8 933d 2055 123e e78d 533d 76cf c53d
00000140: 9940 c83d d6d1 b1bc 3037 4b3d f402 093e
00000150: 03d9 b23d d755 f9bd 536f 1bbc a42a 223d
00000160: 9459 97bd 9163 8d3d 7ebe a83d 33fb 193e
00000170: e7a7 883b 1967 2dbd 97cc d53d f8c6 863d
00000180: 7faf f83d f6e9 83bd b6fe 033d 941a e53d
00000190: dcaa 3ebd a936 a13d 5cf4 033e b4ad 8c3d
000001a0: 0700 fa3c 76d5 43bb 662f d1ba 8e21 1d3d
000001b0: 0fa0 b03d a53f 063e a3af d9bd 9852 083e
000001c0: cb84 de3d c19b 4ebd 49b6 903d 638c ab3d
000001d0: db7f 723c e3db bc3d a86a 343d c7ba 93bd
000001e0: 366a e73d 7dc6 b1bd e3f5 e03d 49eb d83b
000001f0: e77c 2e3c 32de 09be eb08 043e d0c7 263c
00000200: 9297 073e 1ce1 253e cf96 523d b383 6bbd
00000210: 026e babc 596f 5cba fc27 43bd 4d3d 86bd
00000220: d7f7 7f3d 32aa d33d b7c0 90bd aa4e 463d
00000230: effc b9bd eacd 8abd bf30 e13d 3ded 80ba
00000240: a4cf d23d 3d66 90bd fab0 9bbd c640 263d
00000250: 0fcd 8e3d 64df e13d 0433 69bd 1c30 4e3d
00000260: 581d 0cbe a9e6 88bd 2b1a 103e 7a94 fb3d
00000270: 8ff3 273e 0858 e4bd 6ce9 bcbd c410 0e3e
00000280: 7bb4 8ebd 99ee 403d 19f4 c63c 35f7 163e
00000290: 3279 1cbd 14f6 05bd 6f9a 3ebd 2bd7 b2bd
000002a0: 704d ae3d 2bcb e53d 0759 a4bd 2dc3 843d
000002b0: 50db 0bbe 2bc0 103e 4f79 053d e8eb a63d
000002c0: 085d 51bd 668e 8d3b f671 173e 0d76 23bd
000002d0: c25b 443d 879e 22bd f2ee d7bd c64e 663d
000002e0: 990c 19be 7cf3 1e3d e951 9e3d 8864 92bd
000002f0: ade6 2abe f046 343d 7472 b8bd 5dd4 95bd
-0.04782897 0.0088509135 0.05870303 -0.10854884 -0.095688365 0.10666448 -0.017199956 -0.0026087218
-0.018656047 0.12232664 0.082946956 0.004644908 0.11909503 0.086514086 -0.040180944 -0.0028249486
0.016151106 0.04960037 -0.13818087 -0.08961405 0.02864159 0.029846765 -0.0638131 0.12292274
0.09233853 0.09516026 0.09074985 0.15829974 -0.039412796 0.064001374 0.103601985 0.15485702
0.1387151 0.049087733 0.028112825 -0.01703967 -0.07207985 -0.035177503 0.17441215 0.106871866
-0.07528172 -0.03583883 -0.018695742 0.13219443 0.00069961784 -0.062125187 0.08297097 -0.07457544
-0.12666081 0.010004446 -0.009857196 0.11814 -0.019857578 0.0036017497 0.14788215 0.051844966
-0.115605466 -0.040921226 -0.11810068 0.015395418 0.03174636 -0.051805295 0.048482794 0.0003362335
0.13033167 -0.00072945 -0.060778257 0.0005792672 0.019197414 0.11065977 -0.11403078 0.1703892
0.055838946 0.14193591 -0.101830825 0.02390449 0.07225081 0.14290285 0.051649 0.09658711
0.09777946 -0.021706503 0.049613178 0.13380033 0.08732798 -0.12174576 -0.009486991 0.039591447
-0.073901325 0.069037564 0.082394585 0.15037231 0.004170406 -0.04233465 0.10439413 0.06580919
0.12142848 -0.06441109 0.032225333 0.1118671 -0.046549663 0.07871754 0.12886184 0.06869069
0.030517591 -0.0029881871 -0.001595956 0.03836208 0.08624279 0.13110216 -0.10629203 0.13312757
0.10865172 -0.050441507 0.07066018 0.08376386 0.014800991 0.092216276 0.044047028 -0.07213359
0.11299555 -0.08680437 0.10984399 0.006619845 0.010649896 -0.13463667 0.12894027 0.010179475
0.13241413 0.16199154 0.051413354 -0.057498645 -0.022757534 -0.0008408926 -0.047645554 -0.06554661
0.062492218 0.103351966 -0.070680074 0.048414864 -0.090814464 -0.06777556 0.10995626 -0.0009836328
0.102935106 -0.070507504 -0.07602115 0.040589117 0.069727056 0.110289365 -0.056933418 0.05033885
-0.13683069 -0.0668462 0.14072482 0.12284179 0.16401504 -0.11149603 -0.09224209 0.13873583
-0.06968018 0.047102544 0.024286317 0.1474274 -0.03820152 -0.03270538 -0.046533998 -0.08732446
0.08510864 0.11220392 -0.08024793 0.06482539 -0.1365788 0.14135806 0.032586392 0.08150464
-0.051114112 0.0043199537 0.14789566 -0.039907504 0.04793907 -0.039701965 -0.10543622 0.056227468
-0.14946212 0.038806424 0.07730467 -0.07148081 -0.16689558 0.044012964 -0.09006205 -0.07315896
