reports/optimize_PMEmo_Russell4Q_2026-01-08_11-20-43/best_model/optimize_PMEmo_Russell4Q_2026-01-08_11-20-43.pth (torch, 157276 bytes, 10 tensors)

weight_ih_l0 f4 [192, 32]
000000 65 81 67 3c 3f c3 c4 bd 53 e8 b2 bd 04 c9 09 be
       0.014129971 -0.09607553 -0.087357186 -0.13455588
000010 4a 6b bd 3c 53 45 85 bc 55 3d 5e 3d c8 27 72 bd
       0.023122448 -0.016268408 0.05425771 -0.05911997
000020 c8 4b 03 3e 65 4b 52 bd 42 42 a7 3d 74 7e 57 bc
       0.12821877 -0.051341433 0.081669345 -0.013152707
000030 a4 39 a5 3d 81 4b 96 3d f8 fb 72 3d 8c 85 75 3d
       0.08067635 0.0733862 0.059322327 0.059941813
000040 08 65 e0 bd 0a ff 4a bd cd 82 12 bd b5 09 b0 3d
       -0.1095677 -0.04955963 -0.035769273 0.085956015
000050 d1 e1 b3 3d 5d 0c 96 bd 33 75 2a bd 56 ed 87 3c
       0.087833054 -0.07326577 -0.041615676 0.016592663
000060 2e 55 56 bd 91 8a e3 3d 32 0b 1c 3e 7b b0 33 3e
       -0.052327327 0.11110414 0.15238646 0.1754779
000070 54 92 ae 3b 3e 56 46 3e e7 02 2c 3e b8 31 ea 3c
       0.0053275023 0.19368836 0.16797982 0.02858816
000080 a0 f8 d7 3d f6 32 e2 bb 2d b3 d8 3d 51 ba 77 3d
       0.10545468 -0.0069030477 0.1058105 0.06048042
000090 7a 12 0a 3d b1 ca b7 3d cd 52 80 3d f9 54 0d be
       0.033709027 0.08974207 0.06265793 -0.13801946
0000a0 9d 7b cb bd 50 ba a9 bd 88 21 61 bd c1 06 9c 3b
       -0.09935687 -0.082874894 -0.05496362 0.0047615473
0000b0 30 71 65 39 0a 96 a3 bd 7f 0f 6e 3c 4a 82 f8 bd
       0.00021881307 -0.07987602 0.014530062 -0.12134226
0000c0 e2 cc 10 3d 35 26 15 3d f6 a4 18 bc 46 b3 b7 3d
       0.03535164 0.03641339 -0.0093166735 0.089697406
0000d0 44 f8 3b bb 43 27 fb 3d 8e b9 f9 3d fc 16 aa 3d
       -0.0028681913 0.12263348 0.12193595 0.08305165
0000e0 4f f7 02 3d 3d cf 46 3d 61 ff 76 bd 56 78 16 3e
       0.031974133 0.04853748 -0.060302142 0.14694342
0000f0 a5 da 0a bc 33 f3 f8 3c 60 35 61 bc 16 c2 06 bc
       -0.0084749805 0.030389404 -0.013745636 -0.008224985
000100 06 49 7f bc 68 e7 b6 3c 06 be 3d bd 5b 43 9a bc
       -0.015581375 0.02232714 -0.0463238 -0.018830946
000110 16 b8 89 3d 80 15 e7 3d 72 6e bd bd d3 2f d3 3d
       0.06724565 0.11283398 -0.092495814 0.10311856
000120 1e bf 8b 3d a7 51 6d bb f9 8c 7a bb 27 d3 b8 3d
       0.06823562 -0.0036211999 -0.0038231 0.09024649
000130 27 a7 70 3d 2a b4 93 3d b8 9d 9e bd 2e e3 95 bd
       0.05875316 0.07212098 -0.07744926 -0.07318722
000140 d4 d9 8b bb bc e2 4b bd cb 40 a4 3c ff 3b d5 3d
       -0.0042679105 -0.049776778 0.020050427 0.10411834
000150 02 f2 9b bd 86 e1 fc 3d ff 19 b1 3a 6b 2c 3c 3d
       -0.07614519 0.12347703 0.0013511776 0.045940798
000160 ba f2 1a 3e 4e 44 43 bd e1 a1 27 3d 05 46 78 3c
       0.15131655 -0.047672562 0.040925864 0.015153413
000170 a9 86 36 3e 2d ab 48 bd 55 f0 6d 3d 47 88 52 bd
       0.17824806 -0.04899137 0.058090527 -0.051399495
000180 51 98 9c bd d9 8c c7 3d de 73 4a bd f6 24 94 3d
       -0.076462395 0.097436614 -0.049426906 0.07233612
000190 12 a3 e2 bd 61 5b b2 3d de 83 b7 3d 83 e4 f5 ba
       -0.110662594 0.087088354 0.089606985 -0.0018760118
0001a0 ef 88 4b 3d 47 e2 59 3d 06 19 6c bb 2f f1 f7 bb
       0.049691137 0.05319431 -0.0036025657 -0.007566593
0001b0 be e3 91 3d 9f 7e ec 3d df 28 e7 3c 85 00 3b 3d
       0.071235165 0.115475886 0.028217731 0.045654792
0001c0 ad 26 b2 bc b8 e0 09 be cf b1 0d bc 14 6c 12 be
       -0.021746958 -0.1346463 -0.00864835 -0.14299041
0001d0 b7 64 34 3d d7 2f 21 be 5a 6b 17 be cf fb 89 3d
       0.04404136 -0.15740906 -0.14787045 0.06737482
0001e0 40 eb 74 bd 25 83 3d bd 7d 67 8c 3d a1 24 d1 3b
       -0.059794664 -0.046267647 0.06855676 0.0063825403
0001f0 d5 a2 a1 bd db ed 89 bd 6f bb 1b be 56 04 cf bd
       -0.07892386 -0.067348205 -0.15208219 -0.10108249
000200 e9 ff 7e 3d 7a 5f 1e 3b fb cd 74 bd 85 df 97 bd
       0.062255774 0.0024165795 -0.05976675 -0.0741568
000210 86 e6 3d bd a7 5c b1 bc b8 6e 59 3d 7d 5f ef 3d
       -0.046362422 -0.021650625 0.053084105 0.11688135
000220 69 2c 7d bd c0 63 70 3d 1e 96 97 bd ac 27 e9 bd
       -0.06180993 0.05868888 -0.074016795 -0.1138452
000230 69 59 ae 3d 5e e2 8a bd bd 34 95 3d 85 f7 e5 3d
       0.085131474 -0.06781457 0.0728545 0.11228851
000240 1f 92 8a ba 6f 4c a1 3c e1 28 40 3d e2 4e c7 bd
       -0.0010572112 0.019689767 0.046913985 -0.097318426
000250 dd 7b 1b 3d 9b 86 87 3d cc 61 d8 3d 73 36 b1 bd
       0.037959922 0.06617471 0.10565528 -0.086529635
000260 17 11 02 3e e7 1e b1 3c 5e cf db 3c a4 0b 26 3d
       0.12701832 0.02162118 0.026832279 0.040538445
000270 42 92 a6 bd 3d 0f 8e bd 15 7d 05 3d e0 a0 2c 3d
       -0.08133365 -0.069365 0.03258999 0.04214561
000280 d2 e6 fe bd a8 3f ea 3d ab d0 5f 3d f9 87 b1 bd
       -0.12446369 0.11437923 0.05464236 -0.08668513
000290 f2 64 45 bc c5 9c c8 bd 7d 8f e8 3a 3b ad 13 bb
       -0.012047993 -0.097955264 0.0017742958 -0.0022533673
0002a0 71 1f d9 bc 52 a6 0d bd 2a e5 17 bd 12 11 91 3d
       -0.02650425 -0.034582444 -0.037083782 0.07083334
0002b0 4b 4e 88 bd c1 57 ad 3d 20 20 b8 bd 2d 89 40 bd
       -0.06655558 0.08464003 -0.08990502 -0.04700582
0002c0 98 20 c0 bc 02 cb 13 3b c0 9a f7 3d 17 08 94 bd
       -0.023453042 0.0022551422 0.12090063 -0.072281055
0002d0 8a 1b 55 3b fb 66 2e bd 08 29 91 bd e9 2b d8 3d
       0.0032517635 -0.04257868 -0.07087904 0.1055525
0002e0 a9 41 a1 bd a9 63 01 3e 6c 77 20 3e 51 3c 15 bd
       -0.07873852 0.12635674 0.15670556 -0.036434475
0002f0 aa 3d c1 bd d3 ea 71 bd 0a 07 a0 bc d2 4e 05 3e
       -0.094355896 -0.059061836 -0.019534606 0.13018349
000300 32 bd e1 3d fc 3a 5c bd 8d b9 2b bd ba 09 ba bd
       0.11022414 -0.05376719 -0.041925002 -0.090838864
000310 91 43 b0 bd 6e ff e9 bd 1b fd a6 3b 4a 53 ae bd
       -0.08606637 -0.114256725 0.0050960905 -0.0851198
000320 be d4 f8 3d 3e 6a 11 be 01 22 95 bd 58 fa a5 bd
       0.12149952 -0.14200684 -0.07281876 -0.0810439
000330 d1 b1 f9 3c 45 72 33 3d 1e bd fb 3c 32 00 b5 bc
       0.030480297 0.043810148 0.030729827 -0.02209482
000340 3b 1f d0 bd 0b 4f b9 bd 57 59 e3 bc 44 56 3a 3c
       -0.10162207 -0.090482794 -0.027752561 0.011373106
000350 73 62 1d bd bd 7e 49 3d 67 ef 15 3d e7 dd 21 3d
       -0.038423967 0.049193133 0.036605265 0.039518263
000360 dd 1d d2 3d a0 53 86 bb 82 2d 1e 3e d0 f8 0f bd
       0.10259602 -0.0040993243 0.15447047 -0.035149395
000370 ea 9b 35 bd ba 59 2b bc 5f f4 8d 3d 8c f5 b1 3d
       -0.044338144 -0.010458404 0.06931376 0.086894125
000380 51 78 d1 bd 90 c1 ea 3d e6 11 ca 3d a2 97 91 bc
       -0.10228027 0.114627 0.09866695 -0.0177725
000390 55 6c be 3c 98 28 2b bd cf 36 e3 3d f1 21 bf bd
       0.023245016 -0.04178676 0.11094438 -0.09332646
0003a0 54 fe a3 bc 86 fa a5 bc 34 94 c3 bd 93 98 76 bc
       -0.020018734 -0.02026106 -0.09549752 -0.015051025
0003b0 f2 ab 26 3d 6a 22 bb 3d 4b 39 a7 bd 4a ab ad 3b
       0.040691324 0.09137423 -0.08165225 0.0052999603
0003c0 76 c9 f7 3d 54 48 af bd 5a a2 96 bb 8c 04 d6 bd
       0.120989725 -0.08558717 -0.0045969905 -0.10450086
0003d0 bc 79 81 bd 08 1e ce 3d 3e 12 49 ba 97 18 62 3d
       -0.06322047 0.10064322 -0.000767026 0.055199232
0003e0 96 fc 8a 3d b2 9c b3 3d a5 70 dc bc 6e 27 76 3c
       0.06786458 0.08770122 -0.026909182 0.015024049
0003f0 b0 e8 81 3d 79 e6 ae 3d af 1d 75 3b a9 0a de 3c
       0.0634321 0.08540053 0.0037401726 0.027104693

weight_hh_l0 f4 [192, 64]
000000 02 8e 0e bd 57 d5 01 bd e0 d6 d2 ba e7 7c fc bc
       -0.034803398 -0.031697597 -0.0016085766 -0.030821277
000010 3d 6a f2 3c 88 ed c6 3b 91 91 be ba 72 f0 9b 3d
       0.029591674 0.0060707964 -0.0014539232 0.07614221
000020 4f 6b 7d bd 8e e6 8b bd 55 b9 53 bd 77 56 1a 3e
       -0.061869916 -0.06831084 -0.05169042 0.15072046
000030 d4 b8 06 39 11 3e 55 3d 36 98 40 bc 42 7a 4b bd
       0.0001284809 0.052061144 -0.01175504 -0.04967714
000040 8b eb 40 bd db 36 24 3e 9f 96 84 bd 23 34 b3 bb
       -0.04709963 0.1603655 -0.06474041 -0.0054688617
000050 f0 e1 40 bd 19 33 1d bd a8 15 15 3d 7e 5b c1 bd
       -0.04709047 -0.03837881 0.036397606 -0.09441279
000060 21 51 57 3d d4 40 fa 3d 27 b8 5e be 08 94 11 3d
       0.052567605 0.12219396 -0.21749936 0.035541564
000070 fe 8f 45 3d 5b 5f 0a be a2 5f c4 3d 5f 61 14 bd
       0.048233025 -0.13512938 0.09588553 -0.036225673
000080 be d7 92 bd 76 32 a2 3c 31 81 80 bd ee 40 94 bd
       -0.07170056 0.019799452 -0.06274641 -0.07238947
000090 09 b5 a1 bd e4 c9 1f bd 8d 16 2b be 2f 30 bd bd
       -0.07895858 -0.039010897 -0.16707821 -0.09237706
0000a0 0a 5e 68 3d 77 e7 12 be 78 d9 84 bd b9 09 e0 bd
       0.056730308 -0.1434611 -0.06486791 -0.109393544
0000b0 25 79 85 3c f1 a3 6c 3d dd c4 35 3e 2e cb e8 bc
       0.016293118 0.057773534 0.17750879 -0.028417196
0000c0 16 ba 98 3d bf 71 47 3e e2 fc 0e 3d 4b c0 0d 3d
       0.07457368 0.19476984 0.034909137 0.034607213
0000d0 9c 2f 65 bd 61 b4 f2 bc 33 f5 a1 bd 46 9a ef 3d
       -0.055953607 -0.029627027 -0.07908096 0.11699347
0000e0 1b de 17 3e 23 5f 12 3d aa 4b a0 bc 1a ef e7 39
       0.1483082 0.03573526 -0.01956733 0.00044237898
0000f0 09 7c 87 bc fb 54 87 3c b3 34 a1 3d 8b 19 eb 3d
       -0.016538637 0.016520014 0.0787138 0.11479481
000100 f3 98 26 be bb 38 7a be 2a 88 17 3e e2 da 21 bd
       -0.16269283 -0.24435703 0.14798036 -0.039515384
000110 1f 1a 8f 3d 82 06 2a be 09 17 67 3d 4e 69 19 3e
       0.06987404 -0.16604045 0.056418452 0.14981577
000120 17 57 84 3d 1d d4 2a be ce d7 9f 3d b9 da 6c 3d
       0.064619236 -0.16682477 0.07804833 0.057825778
000130 a0 c9 25 3e 36 e6 82 3d f9 8e c7 3d f3 55 1f be
       0.16190195 0.063915655 0.09744067 -0.15560131
000140 22 16 5d bc 1f a1 d1 3d 01 90 23 be 48 6b b0 3d
       -0.013494046 0.102358095 -0.15972902 0.08614212
000150 ab 58 66 bd 5a b5 36 3e 51 b2 b0 3d 4c f1 12 3d
       -0.056236904 0.17842618 0.08627761 0.03587465
000160 5c df c6 3d 5a cf c7 3d 66 39 73 be 8e 89 3c bc
       0.09710571 0.09756346 -0.23752365 -0.011507405
000170 35 3d 2e be d2 b2 c5 bc 09 11 a8 3d 4b 65 76 b8
       -0.17015536 -0.02413312 0.08206374 -5.8745307e-05
000180 02 04 6f bd e9 ef 09 3e 6d 69 ed bc dd b2 04 3d
       -0.05835343 0.13470425 -0.028980935 0.03239714
000190 98 6c 04 bd 01 3a 76 bc cc 60 ba bd bd 31 99 3d
       -0.032330126 -0.015028478 -0.09100494 0.0748019
0001a0 05 6b a2 bd 01 b6 bd bd b5 f9 cc bd ca 95 25 be
       -0.079305686 -0.0926323 -0.10008565 -0.16170421
0001b0 94 6a c3 bb af 45 94 bd 7f ea 41 bc 1c 77 23 3d
       -0.005963633 -0.072398536 -0.011835693 0.039908513
0001c0 a4 b9 19 3a 71 e4 24 3e e9 1b 05 3e 68 59 71 bd
       0.00058641494 0.16102768 0.12998928 -0.058923155
0001d0 ce ab 1a 3d 0f 0a ad bd ef 99 2a bd a0 00 05 3d
       0.037761502 -0.08449184 -0.04165071 0.0324713
0001e0 9f 7d 30 3d a6 01 d3 3c 24 a9 61 bd 8d 31 02 bd
       0.04308855 0.025757622 -0.055092946 -0.031785537
0001f0 57 6f 77 bd a7 25 ae bd 8e 15 b6 bb d2 a5 0d 3e
       -0.060408916 -0.08503275 -0.0055567687 0.13832787
000200 9a 76 89 3d 29 1a c9 bd 81 72 a6 3d 6e 4a 2e be
       0.067120746 -0.09819443 0.08127309 -0.1702058
000210 9b 6c 2e be 2a 63 0e be b0 2f 14 3e 3d f2 93 3d
       -0.17033617 -0.13905016 0.14471316 0.07223938
000220 4c 02 8c 3d 8a b3 e9 bd 44 b2 62 bd f0 6a 46 bd
       0.068363756 -0.114111975 -0.05534579 -0.048441827
000230 9a c6 18 3e f2 05 40 bd 70 cf 08 3e dd 52 10 3d
       0.1491951 -0.04688067 0.13360381 0.035235275
000240 5d e5 3d 3d 33 8b 31 3e 89 4d 14 3d 57 ba 99 bd
       0.046361316 0.17338257 0.036206756 -0.07506245
000250 1a 2a 00 be 93 fd 2c bd c5 f4 75 3d 5d 4e 43 3d
       -0.1251606 -0.042234015 0.060047884 0.047682155
000260 c3 bc c0 3d 1b ab 28 bd c8 67 c9 3c bc 0b 9a 3b
       0.094110034 -0.041178804 0.02458562 0.004701106
000270 fd 99 9c bd 3f 7d 15 bd 62 87 05 3e a6 fd 1f 3e
       -0.076465584 -0.036496397 0.13039926 0.15624103
000280 cf 8e 4f 3e d7 99 07 3d 77 6f 2c bd b7 4a 13 be
       0.20269321 0.033105697 -0.04209849 -0.1438397
000290 09 d9 a4 bd 37 f8 cd 3b f2 f4 35 bb 63 05 ce 3d
       -0.08049209 0.006285693 -0.0027764407 0.10059621
0002a0 db 6e 7b bd 91 59 2f be ee 58 a3 bd 66 84 af 3d
       -0.061385017 -0.1712401 -0.07975946 0.08570175
0002b0 32 51 47 3d 3a a9 97 3d 0d e4 e9 3d 62 5c e6 bd
       0.04866142 0.07405324 0.1142045 -0.112480894
0002c0 d9 12 ee 3c a2 ab ad 3d 1e 6e 65 bd d9 83 f2 bc
       0.029061722 0.08480002 -0.05601322 -0.029603885
0002d0 51 5d f4 bd 15 97 46 3d 85 da 62 3d 18 35 59 bd
       -0.11931861 0.048483927 0.055384178 -0.05302915
0002e0 cc eb f9 3d 5f 1c 2d be e5 e1 3a bc 26 79 8f 3d
       0.12203178 -0.16905354 -0.0114063965 0.07005529
0002f0 56 12 19 be fe 81 60 3d e6 e2 f0 3d 2e d5 f5 3c
       -0.14948401 0.05481147 0.117620274 0.030008879
000300 a5 8f 6e 3d ed 6d 3c bc 10 b1 18 3e cd 5f c2 bd
       0.05824246 -0.011500818 0.14911294 -0.09490929
000310 d7 04 a5 bd 11 86 c8 bd d2 d8 06 be 47 2d 20 bd
       -0.08057564 -0.09791196 -0.13168648 -0.03910568
000320 fb c4 08 3d 99 b4 64 bd cc ad d5 3d 59 2f 9a 3d
       0.03339098 -0.055836294 0.1043354 0.07528562
000330 f7 e1 db bb 98 a5 c7 bc c0 16 e5 3d 93 6e 3e bc
       -0.0067102867 -0.024370953 0.1118598 -0.011623043
000340 9e 2c 8a 3c eb c0 54 3d db 67 59 3d 64 a3 ef 3c
       0.016866978 0.051941793 0.05307756 0.029252715
000350 94 5f b8 bd 67 0e ef bd b2 10 16 be c4 36 11 be
       -0.09002605 -0.11672669 -0.14654806 -0.14181048
000360 91 14 7f 3d d4 5f 1b 3d 01 79 2f bd a8 a9 d8 bd
       0.062275473 0.037933186 -0.042840008 -0.10579234
000370 e1 d6 93 bb e6 ce 18 3d 64 35 e7 3c c0 f8 b6 bd
       -0.0045116995 0.03730669 0.0282237 -0.08934164
000380 43 a7 6c 3d 62 87 88 3d 9f 53 ae 3c c2 37 c6 bd
       0.0577767 0.06666447 0.021280108 -0.09678604
000390 1e 0b 06 be e6 c2 10 3e 90 db e0 3d 69 ff b8 bd
       -0.13090178 0.14136848 0.10979378 -0.090330906
0003a0 94 84 e1 bd fe b6 98 3a 52 8b 06 3e 92 e3 ef 3c
       -0.110116154 0.0011651216 0.13139084 0.029283319
0003b0 71 8c 53 3c 4f 6c 95 3d 96 25 4a 3d 81 87 99 bc
       0.012911902 0.07296049 0.04935225 -0.018741371
0003c0 7e e1 15 be d2 e7 91 3c 69 08 42 3b 6c 13 35 3d
       -0.146368 0.017810736 0.0029607064 0.044207975
0003d0 72 e3 57 ba 5d 86 2a bd a6 a3 16 3e 73 f1 5b 3d
       -0.0008235491 -0.041632045 0.14710864 0.05369706
0003e0 28 ad 7f bd dd af 4a bd d5 c5 2d 3d d8 08 2d ba
       -0.062420994 -0.049484123 0.042424995 -0.0006600744
0003f0 cc 48 6e 3d bc 86 a0 bd 23 20 b5 3d 07 f6 30 bd
       0.058174893 -0.078381985 0.0884402 -0.04320338

bias_ih_l0 f4 [192]
000000 fe 8a 7c bc 19 6e 20 3d 27 db 84 bc 48 ed 5a 3d
       -0.015413998 0.039167497 -0.016217781 0.053448945
000010 ad 9e fd 3d 4c 83 51 bd 8b d9 43 bc 0c 01 02 3c
       0.12383781 -0.051150605 -0.011953722 0.00793482
000020 e7 a6 57 3d cc 61 28 3d d2 bd b9 3d ea 92 b5 bd
       0.052649405 0.04110889 0.090694085 -0.08865912
000030 d4 10 fe 3d 35 ec 09 3e f2 ad bf 3c 89 4c a0 bd
       0.124055535 0.13469012 0.023398373 -0.07827098
000040 12 77 ea 3d fe 4c 92 bb 29 b1 f3 3d d3 d8 a5 bc
       0.11448492 -0.0044647446 0.11899025 -0.020244991
000050 88 47 be 3d f7 0f 9b bd df 98 bf bd e3 2b 62 bd
       0.09290987 -0.075714044 -0.0935533 -0.055217635
000060 76 9a 8d bd 04 0d 8c bd 1b ea 2d 3d 83 7c 29 bd
       -0.06914227 -0.0683842 0.04245959 -0.04137851
000070 4b a6 e6 bc fe 5b 60 bd e7 ab e1 bc 16 21 16 3d
       -0.028155467 -0.05477523 -0.02754779 0.036652647
000080 d7 d9 d0 bc 74 2c f0 bd 2e 2e db bd 90 a6 d2 3d
       -0.0254945 -0.11727229 -0.107021675 0.102856755
000090 3b 09 5e 3d 0f 19 6a bc dd 62 b9 3d ba 03 fa 3c
       0.05420802 -0.014288201 0.0905206 0.030519355
0000a0 b3 3b 2b bd b0 19 54 bd 2c b2 4e 3c 27 f3 2c 3d
       -0.04180498 -0.05178231 0.012615722 0.042224076
0000b0 f7 2b 0c be a1 37 38 bd 1f e7 e0 3d e8 51 a3 3d
       -0.13688646 -0.044974927 0.10981583 0.07974607
0000c0 b2 ac cc 3d 76 6e 87 bd 16 35 a7 bd d9 09 14 3d
       0.099938765 -0.066128656 -0.08164422 0.036142204
0000d0 6a f8 e2 3d 0a cd c1 3d 36 b0 f5 bc 73 b3 85 bc
       0.110825375 0.09462936 -0.02999125 -0.01632092
0000e0 06 12 27 bd ee 28 41 bd 5a 71 02 bd d0 36 3c 3d
       -0.040788673 -0.047158174 -0.03184638 0.04595071
0000f0 14 8d 88 3d 23 37 d6 bd 32 bb 05 bd c3 f9 0e 3c
       0.066675335 -0.10459735 -0.032649226 0.00872654
000100 4c 1e ab bd bb 6f fa 3d ed cc 29 bb c3 26 ab bd
       -0.08355388 0.12228342 -0.0025909499 -0.083570026
000110 34 28 60 38 21 c8 b2 3d 98 8f d9 3d 89 0a 01 3e
       5.3443204e-05 0.08729578 0.106230915 0.12601675
000120 67 2f 1a 3e d1 23 d7 bd e1 e2 ab bd e4 d0 ec 3d
       0.15057145 -0.10504878 -0.08392883 0.1156328
000130 a2 81 96 bd ec 86 9b 3d de fb 45 bd ef f8 1d bd
       -0.07348944 0.07594094 -0.048335902 -0.03856748
000140 3d f1 58 3d 83 04 a1 bd ca b0 71 bc 44 40 eb 3c
       0.052964438 -0.07862189 -0.014751622 0.028717168
000150 eb 78 fd bc a5 a6 23 bc aa 79 d3 bd c7 0e 6a bd
       -0.030941447 -0.009988462 -0.1032594 -0.057143
000160 ac 05 1b 3e c0 08 b9 3d 23 9d 9e bd 7b 3c 07 3c
       0.15138882 0.09034872 -0.07744815 0.008254166
000170 a5 0c be bd 16 1e 5e bd e7 d8 97 bd 1b af 39 3d
       -0.092797555 -0.05422791 -0.07414418 0.04533301
000180 62 4d 99 3d 64 f0 6b 3d b6 cd aa bd c9 c5 46 bd
       0.07485463 0.0576023 -0.083400175 -0.048528466
000190 3a d7 02 be 7e 6a 85 bc ad 03 0c 3e 7b 28 e5 bc
       -0.12777415 -0.016286131 0.13673277 -0.027973404
0001a0 92 69 f0 3b f0 13 a2 bc cb 1a 03 bd f4 3b 59 bc
       0.0073368037 -0.019784898 -0.032007974 -0.013258923
0001b0 04 a4 16 bd 98 bf e2 3d 5b f9 eb 3c ab 84 e5 3c
       -0.03677751 0.110717 0.028805425 0.028017363
0001c0 88 f1 1e 3d a3 51 90 bc 69 b2 d5 3d bd f4 ba bd
       0.03880456 -0.017617052 0.1043442 -0.091287114
0001d0 57 e5 92 bd 05 f0 71 bd 13 6c 4e bd 91 43 2a 3d
       -0.07172649 -0.05906679 -0.050396036 0.041568343
0001e0 a1 c1 26 3e 29 14 b6 3d a6 8a ed 3d ad 2e a8 3d
       0.16284801 0.08890564 0.11598711 0.08212028
0001f0 15 67 3c bc 28 05 7f 3d 50 e5 46 3a a5 ed 85 bc
       -0.011499186 0.062260777 0.0007587271 -0.01634867
000200 aa fc 83 3b 50 61 e2 bd 95 67 06 3e a4 67 5b bb
       0.0040279226 -0.11053717 0.13125451 -0.0033478523
000210 90 80 ea bd d2 80 b5 bc b2 77 06 3c 8f d7 c3 bd
       -0.114503026 -0.022156153 0.0082072485 -0.09562599
000220 38 1f 0f bc fa 82 ac bd 40 eb a4 3b 20 a0 9b 3c
       -0.0087354705 -0.08423419 0.005032927 0.018997252
000230 6f 42 ad 3d 3c b0 96 ba 2b 63 65 3d 60 c7 5d bd
       0.08459937 -0.0011496614 0.056002777 -0.054145217
000240 fb 42 31 bb 08 77 81 bd 7b 44 0f 3d d8 87 10 3d
       -0.002704798 -0.063215315 0.034977417 0.0352858
000250 b0 66 ea bd 0b 81 93 3c d1 f4 cf bc 8d b7 66 3b
       -0.11445367 0.018005868 -0.025385292 0.003520462
000260 d6 01 b6 bd df be f0 bc 03 dc 00 be c5 3a 5e 3d
       -0.08887069 -0.02938789 -0.12583928 0.054255266
000270 1d 13 b1 bd ea 5a af bd 8d 95 81 3d 0f 0d 20 3d
       -0.08646224 -0.08562262 0.06327353 0.039074954
000280 fe 32 6b bd 5b f4 c0 bc c4 89 de 3d 18 9f ba bd
       -0.057421677 -0.023554018 0.108661205 -0.09112376
000290 31 e9 e0 3d 3a 86 fc 3d bd 48 ab 3d cf db 9a bd
       0.10981978 0.12330289 0.08363483 -0.075614564
0002a0 c7 66 8b bd 39 f2 2e bd 96 41 50 bd d9 c1 07 be
       -0.068067126 -0.04271147 -0.050843798 -0.13257541
0002b0 5b 8e 98 bd 25 53 0c 3e 6c 13 b2 3c e7 d3 ed bc
       -0.07449027 0.13703592 0.021737777 -0.029031707
0002c0 0c b4 e4 bd fd 78 6c 3d 89 97 fe bd 40 2b 86 bd
       -0.11167154 0.05773257 -0.12431247 -0.06551218
0002d0 be bb a2 3d 6d 27 72 bd f5 ff 3d bd ff f6 f8 3d
       0.07945965 -0.05911963 -0.046386678 0.12156486
0002e0 dd 16 95 bd e6 1e ae bd 17 e3 cc 3d d2 48 84 3d
       -0.072797514 -0.08501987 0.100042515 0.06459202
0002f0 6f f6 f8 bc d3 16 02 3e ce 57 60 bb dc a4 e9 bd
       -0.030390946 0.12704019 -0.0034232023 -0.114083976

bias_hh_l0 f4 [192]
000000 71 69 a5 3d 48 60 10 3e 6f d5 69 bc 71 3a 84 3d
       0.08076752 0.14099228 -0.014272078 0.06456459
000010 cf 45 e7 3d 72 04 6d 3d 61 9d fe 3d c8 f6 e0 3d
       0.11292612 0.057865568 0.124323614 0.1098457
000020 0f 8b 99 bd f5 ca b3 3b 27 f7 1b bc 3e aa d7 3d
       -0.074972264 0.005486841 -0.009519375 0.10530518
000030 a3 7c e5 3b b2 7a ba 3d d2 54 9b 3d c5 89 20 3e
       0.0070033832 0.091054335 0.075845376 0.15677555
000040 11 c1 f3 3d a5 17 87 bd a5 d4 9b 3d 0c a9 40 bc
       0.11902059 -0.06596307 0.07608918 -0.011759054
000050 c4 1f 36 3e 3a 55 a2 3b 2e 6d c1 bd 51 92 67 3d
       0.17785555 0.0049540075 -0.094446525 0.056536023
000060 15 2c e6 3c ab 52 ed 3c 60 e0 d6 bc 80 45 8d 3c
       0.028097192 0.028970083 -0.026230037 0.017245054
000070 bb 87 aa 3b e0 85 c3 39 e2 70 f0 bc 78 14 47 bd
       0.0052041686 0.00037293043 -0.029350702 -0.048603505
000080 15 1c dc bd 47 0f 6d 3d 63 98 30 3d 8c f4 a1 3d
       -0.10747544 0.057875898 0.043114077 0.07907972
000090 dc 27 a9 3d 2f de 1a 3c ea 3c 73 3d 4d fb 79 3d
       0.08259556 0.009452387 0.059384264 0.061030675
0000a0 13 83 78 3d 64 95 9c bd 04 02 05 bd 55 0c d0 bc
       0.060671877 -0.076456815 -0.032472625 -0.025396505
0000b0 f1 f6 90 38 a2 05 d9 bc d1 3e c2 bd 42 ad ce 3c
       6.9124515e-05 -0.026491944 -0.094846375 0.0252291
0000c0 5a 15 ef bd 4d 4a fc 3c 5f 62 30 3d a1 77 af bd
       -0.11673994 0.030797148 0.043062564 -0.08567739
0000d0 5a 19 b7 b9 f1 5b fd bc f3 ac a0 3d 84 a6 19 3e
       -0.00034923368 -0.03092763 0.078454874 0.15004927
0000e0 a2 c1 95 3d d6 d0 ca 3d 0a 17 30 3d 60 7d fe bc
       0.07312323 0.099031135 0.04299072 -0.031065643
0000f0 b8 04 8a 3c 62 53 ec 3d ce 26 30 bd 13 9d e7 3d
       0.016847953 0.115393415 -0.043005757 0.113092564
000100 b8 4d 98 bc 34 99 a2 3d 42 ff ba bc 15 da c9 bd
       -0.018591747 0.079393774 -0.022826795 -0.09856049
000110 26 0e e1 3d ea c4 01 bd e9 39 b6 bd f5 72 94 ba
       0.10989027 -0.031681933 -0.08897764 -0.0011325764
000120 65 30 1e 3d 11 9e fd bd 04 7e a6 3b 8f 19 f7 3d
       0.03862037 -0.123836644 0.00508094 0.12065422
000130 fb 69 cb bd 79 e6 1d 3e 89 bb 6d 3d e1 6f 01 3e
       -0.099323235 0.1541995 0.058040176 0.12640335
000140 2f a4 aa bd d1 32 03 3e cf c4 af 3d 68 95 10 3e
       -0.08332097 0.12812354 0.0858246 0.14119494
000150 e2 fe 4e 3d 43 9f 53 bd b4 30 96 3c 6b 5d fe 3d
       0.050536044 -0.051665556 0.01833377 0.12420162
000160 5d b7 81 bd 27 9c c9 bb 33 94 01 be 6f bb 1b 3c
       -0.06333802 -0.006152648 -0.1265419 0.009505137
000170 53 2e ba 3d 67 f4 d7 3d af d0 e6 3d 6a 12 96 bd
       0.09090867 0.10544663 0.11270272 -0.07327731
000180 69 d5 0b be 48 49 9b 3d d1 42 19 bd 8c f7 c6 3d
       -0.13655628 0.07582337 -0.037417237 0.097151846
000190 71 07 70 3d cf f7 17 3e 4b 39 4c 3c 8f c7 d6 bd
       0.058600847 0.14840625 0.012464832 -0.104872815
0001a0 10 1d 40 bd 66 d8 e8 3d 34 09 1f bb 81 59 01 3e
       -0.046902716 0.113694 -0.002426696 0.126318
0001b0 b2 0c 52 3d 54 35 95 bd 57 1a 02 3e 21 45 be bd
       0.05128164 -0.07285562 0.1270536 -0.09290529
0001c0 ce 30 a1 bc 2b c9 6f 3c fd ae 81 bd e5 27 56 3d
       -0.019676592 0.0146353645 -0.063322045 0.05228414
0001d0 01 b4 11 bd 85 76 b5 bd e7 63 bb bd 38 1e 50 bd
       -0.035572056 -0.088604964 -0.09149914 -0.05081007
0001e0 84 e8 05 3e d8 b0 8e 3d 00 fb 2d bd cc 83 15 3d
       0.13076979 0.06967324 -0.0424757 0.036502644
0001f0 be cd 65 3c 54 bd a5 bd b9 1b 99 bd d9 9a 72 3d
       0.014026104 -0.08092752 -0.07475991 0.059229705
000200 c2 ef 16 be 04 7d f5 bc b7 e0 a4 3d ba 00 ad 3d
       -0.14739898 -0.029966839 0.080506735 0.08447404
000210 dc c3 6f bd 09 6a a6 3c d0 92 0c bb 38 ac a8 bd
       -0.058536395 0.020314233 -0.0021449812 -0.08235973
000220 e9 14 8e bd b6 d5 e7 bc 50 77 0e 3d a5 e4 90 3d
       -0.06937582 -0.028300148 0.034781754 0.070748605
000230 6d d5 ed bd e1 68 85 3d d0 fa b8 3c cc f4 38 bd
       -0.11612973 0.06514145 0.022580534 -0.04515533
000240 98 60 2d bd c0 80 30 bd b0 ab 60 bd cb 79 3e bc
       -0.042328447 -0.043091536 -0.054851234 -0.011625717
000250 fc 73 34 bd 58 ef 8e bd ae c3 e9 3d 6f f4 27 3d
       -0.044055924 -0.06979245 0.11414276 0.041004594
000260 c1 f7 26 3e 65 14 cd 3b 67 68 bb 3d 44 9a bc bd
       0.16305448 0.0062585347 0.091507725 -0.09209111
000270 03 7b ca 3d ae be f9 3b 5a af 13 3e 36 92 9c bd
       0.09886744 0.0076216077 0.1442236 -0.07645075
000280 98 50 66 bd aa e3 eb bd db de 02 3e 87 3b 0c 3e
       -0.056229204 -0.11518033 0.12780325 0.13694583
000290 3f bb 37 3d ae 23 fe 3c 41 a6 64 bd 9f e4 bb 3d
       0.044856306 0.031022873 -0.055822615 0.091744654
0002a0 b4 b4 a0 bc d5 e5 ac bd f7 0e 98 3d 34 ec 81 3c
       -0.019617416 -0.084422745 0.07424729 0.0158597
0002b0 03 ed 80 3d e7 f4 10 3e df ce 9a bc 66 61 61 bd
       0.062952064 0.14155923 -0.018897472 -0.055024527
0002c0 91 96 a0 bd 5a 12 ed 3d 9e f0 a2 bd 19 6b f6 3c
       -0.07841218 0.11575766 -0.0795605 0.030080365
0002d0 8a 21 a7 bd df 04 7d bc 91 26 13 bc 56 dc 85 bd
       -0.08160694 -0.015443056 -0.008981363 -0.06536166
0002e0 71 8b 87 bc 43 53 ab 3d f2 30 21 3e 16 ea 2b bd
       -0.016545983 0.0836549 0.15741327 -0.04197129
0002f0 d1 cd ce bb b2 71 c8 3d f0 4b c0 bd ec 94 d5 3d
       -0.0063111563 0.09787311 -0.09389484 0.10428795

weight_ih_l0_reverse f4 [192, 32]
000000 51 7d dd 3d 90 5d d0 3d ca 3d ad bd 2f a4 1a 3d
       0.10814918 0.10174096 -0.08459051 0.037754234
000010 9d dc 4b 3d 67 77 d7 3d 39 b1 a9 3d 36 f5 9a bd
       0.04977094 0.10520821 0.08285756 -0.075663015
000020 c9 c2 80 3d 42 1e ce 3d 00 0e 24 3d 60 7c c2 3d
       0.06287152 0.10064365 0.040052414 0.09496379
000030 b4 54 6c 3d 26 84 61 bd e9 00 dd 3c 16 ac 66 bd
       0.057697967 -0.055057667 0.026977973 -0.056316458
000040 7b f3 8e 3d 30 af 76 3d 01 61 1c 3d 45 fa 0b 3e
       0.06980034 0.060225666 0.038178448 0.13669689
000050 c8 ca f1 3d 1f 92 99 bc f2 b4 0b 3e 80 4f 4a bd
       0.118062556 -0.018746434 0.13643244 -0.049392223
000060 7c 1f fd bb 40 fd 1b bd 00 ab 89 bd f8 63 92 3d
       -0.0077247005 -0.038083315 -0.06722069 0.07147974
000070 7a 2e 81 bc e9 00 1c 3e 9a 40 27 bd 8d cf 91 3d
       -0.015769232 0.15234722 -0.040833093 0.07119665
000080 d8 4e d8 3c dd 0a 7b 3d 4f 3c 87 3d e5 e3 f8 bc
       0.026404783 0.061289657 0.066033 -0.030382106
000090 72 41 80 3d 9b 99 42 bc da 6a e4 3d a3 04 d9 3d
       0.06262483 -0.011877443 0.11153193 0.105965875
0000a0 b2 5e d1 bd f4 d6 86 bd d9 27 e9 bd 98 42 94 3d
       -0.1022314 -0.06583968 -0.113845535 0.07239264
0000b0 91 ad b9 bd e1 be 16 3d bc 34 d5 bc 92 d1 e6 bd
       -0.09066308 0.03680313 -0.026026122 -0.11270441
0000c0 90 1f 15 3c df 43 f6 3d ff 30 f3 bd 63 ff 67 3d
       0.009101763 0.12024664 -0.1187458 0.05664004
0000d0 52 6b 86 bb ee 79 d1 3d 08 d0 c2 bc db 37 d5 3d
       -0.004102149 0.10228334 -0.023780838 0.10411044
0000e0 b7 79 d2 3d be 1d 18 3e db e0 e5 3d 83 4e 3d bb
       0.102771215 0.14855096 0.112245284 -0.0028885908
0000f0 02 8f 0e 3d 19 33 c3 bd 99 ab 9c bd 40 dc 82 3d
       0.03480435 -0.095312305 -0.07649917 0.063896656
000100 d1 57 38 3d b1 c1 21 3d 4a aa 01 3d b5 81 78 bd
       0.045005623 0.03949136 0.03165654 -0.060670573
000110 cd 26 1b 3d ec 64 d4 3c 43 2e 03 3e a3 df 95 bc
       0.0378788 0.02592703 0.12810616 -0.018295115
000120 91 ee 58 bd 0e 5d bf 3b a0 cd df 3d af e5 e0 3d
       -0.05296189 0.0058399504 0.10927892 0.10981309
000130 0e 52 de 3d d8 c6 25 bd 33 f4 4d bd 86 bc 3d bc
       0.108554944 -0.040472835 -0.050281715 -0.011580592
000140 9d 97 83 3d 6f 8d ea 3d 60 8e 6b bd 05 76 48 3c
       0.06425402 0.114527576 -0.057508826 0.012235169
000150 db 16 5d 3e 5c b5 74 bb c0 99 d6 3d 6e ce dc 3d
       0.2159075 -0.0037339544 0.10478544 0.10781561
000160 9f 55 79 bd 51 64 a2 3d cc 13 13 3b 1c 83 09 3e
       -0.06087267 0.0792929 0.002244222 0.1342892
000170 46 0a 0b 3e 50 5c b1 3d 4a 66 a4 3d 5a 93 99 3d
       0.13578138 0.08660185 0.080273226 0.07498808
000180 7c 78 32 bd b7 28 bb 3d c3 6d 83 3d 9c 09 75 bd
       -0.043571934 0.09138625 0.0641742 -0.059823617
000190 49 b8 1f 3c 64 8d e2 3d fe f4 7b 3d 49 03 80 bd
       0.009748527 0.11062124 0.06151294 -0.062506266
0001a0 bc a6 a0 3c c8 79 9e bd cd 78 89 bd e2 88 be 3d
       0.019610755 -0.07738072 -0.06712494 0.09303452
0001b0 c9 3a b6 bc e7 13 8b 3d 3d 1d 9b bd 4e 75 39 bd
       -0.022244828 0.067909054 -0.07573936 -0.045277886
0001c0 ef 73 9a 3d 30 34 eb 3d 7b 91 8d bd 2a c6 93 bd
       0.07541644 0.11484563 -0.06912514 -0.07215531
0001d0 01 e6 06 ba 28 47 94 3d 5a b2 46 bd ad 1b da bd
       -0.00051459676 0.072401345 -0.048509933 -0.1064981
0001e0 9e 8f 11 3e ad 3b ac 3d 48 cc f8 3d 77 c2 92 bd
       0.14214942 0.0840982 0.121483386 -0.071659975
0001f0 ac 72 e1 3d 98 93 47 bc 9a 87 d9 3d 61 8c be 3d
       0.110082 -0.012181185 0.10621567 0.09304119
000200 ca bc a0 3d bd a4 1a bd 4a 8f 81 bd 15 fe f2 3d
       0.07848509 -0.037754763 -0.06326158 0.118648686
000210 be ff f8 bc 4b 11 b8 bd 14 af 58 bd c2 0c 1c 3d
       -0.030395385 -0.08987673 -0.052901343 0.038098104
000220 23 48 c6 3c 0c 35 12 bd 40 32 68 bd 25 b9 98 3d
       0.02420432 -0.03569512 -0.056688547 0.074571885
000230 71 cb ad 3d 9e c0 03 3e 3f db 0d 3e 63 64 e0 3d
       0.08486069 0.12866446 0.13853167 0.10956647
000240 4b 90 99 bd 74 17 b1 bc 26 8b b4 bd 11 e2 11 3d
       -0.07498225 -0.021617629 -0.08815603 0.035615984
000250 89 bc ae 3c de a6 d4 bc 59 c2 63 bd e5 2a de 3c
       0.021330135 -0.025958475 -0.055605266 0.027120063
000260 78 41 2b 3d 3a d7 d1 bd 2d b7 ac 3d f7 fa 47 bd
       0.041810483 -0.10246129 0.084333755 -0.048823323
000270 ad 52 bd ba 4d 6a b4 3d 61 8a 90 bd 3e 50 75 3b
       -0.0014444195 0.08809338 -0.07057644 0.0037431861
000280 0b a0 09 bc 4f e7 20 bd 91 3e 02 be 53 f1 70 bd
       -0.008399974 -0.039283093 -0.1271918 -0.058823895
000290 18 b2 09 3e 16 8a c7 3d 11 1e d8 bc 2c eb a5 bd
       0.13446844 0.09743135 -0.026381524 -0.08101496
0002a0 28 04 01 be 7f a0 a7 bc 39 bc b5 3d 8f d7 d5 bd
       -0.12599242 -0.020462273 0.08873791 -0.10441505
0002b0 37 af a0 3d d7 42 92 3d bf ed ad bd 5b c2 e6 3d
       0.078459196 0.07141655 -0.08492612 0.11267539
0002c0 71 f6 ec bd 69 c6 9d 3d 10 6c 16 3e f0 97 38 3c
       -0.115704425 0.07703859 0.1468966 0.0112666935
0002d0 6e 1a db bb 2a 56 a5 bd 05 33 6e 3d d7 d5 73 3d
       -0.0066865003 -0.08073075 0.058154125 0.059530105
0002e0 53 16 8a bc cb b9 e4 3d 69 55 65 3d 4e 65 50 3d
       -0.016856348 0.1116825 0.055989657 0.05087786
0002f0 09 4c 0e 3e 21 b1 db bd e1 17 96 3d 35 db de 3d
       0.13896193 -0.10727144 0.07328773 0.10881654
000300 6d d4 0f 3e 0e 8a 50 bd 39 d9 fc bc 21 71 80 bd
       0.14045878 -0.05091291 -0.030865299 -0.062715776
000310 db b5 82 bd 81 6b af bd 0f 49 d0 3d ad 8f 06 3e
       -0.063823424 -0.085654266 0.10170185 0.13140745
000320 60 03 86 3d 08 98 06 3e 1b 89 b4 3d f5 bd 1f bc
       0.065436125 0.13143933 0.08815213 -0.009749879
000330 bd 73 9d 3d b1 1c 2b bd e2 27 69 3d 26 99 e9 bc
       0.07688091 -0.04177541 0.0569228 -0.02851541
000340 c8 88 a7 3d 6d 97 dc 3d c4 72 80 bd 8b 31 7d bd
       0.08180386 0.1077107 -0.0627189 -0.061814826
000350 8e f1 df 3d 93 98 89 bd 6d 66 c9 3d cf 77 bb bd
       0.10934745 -0.06718554 0.09833989 -0.09153711
000360 86 4c 08 3e 4d c2 36 3d 44 19 52 3d e6 6d 00 bd
       0.13310441 0.044618893 0.051293626 -0.031354807
000370 50 70 8f bd 25 ea 21 bd 91 80 e5 bd 35 92 f8 3d
       -0.07003844 -0.03952994 -0.11206163 0.12137262
000380 b3 b5 11 be 3b bc b0 bc 66 84 8f bd 3d c3 ed 3c
       -0.14229469 -0.02157413 -0.07007675 0.02902376
000390 62 d2 04 be 98 19 95 3c 37 c2 57 3d 94 72 f2 bc
       -0.1297088 0.01820068 0.052675452 -0.02959565
0003a0 79 11 54 3b 73 a8 60 3d 51 8c ee bd f5 2b 1e bc
       0.0032359047 0.054848146 -0.11647857 -0.009654035
0003b0 ee 00 31 3c 1a 0b 3f bd a2 65 a3 3d 0d 24 1a 3d
       0.010803444 -0.046641447 0.07978369 0.037632037
0003c0 4f da f4 bd 2a 35 ea bb 69 5a 5c bd fd f9 ba 3c
       -0.119557016 -0.007147451 -0.05379716 0.022824282
0003d0 93 89 89 3d fa 77 a8 bd d7 7f b5 3b 72 8c a6 bd
       0.06715693 -0.08226009 0.0055389213 -0.081322566
0003e0 f0 a6 ff 3c 5a 18 44 bc 14 5d 61 3d 2d a3 19 bd
       0.031207532 -0.0119686965 0.055020407 -0.037509132
0003f0 a9 cf 5d bd 17 67 e8 3d ae 9f 80 3c 7e 55 bb bd
       -0.05415312 0.11347788 0.015701141 -0.09147166

weight_hh_l0_reverse f4 [192, 64]
000000 3a ae c8 3d ca 68 0c 3d b9 77 b1 3d d9 ee d2 bd
       0.09798856 0.034279622 0.086654134 -0.10299463
000010 b8 25 3b bd 89 aa a4 bd ed 92 91 bd e1 71 38 3c
       -0.04569027 -0.080403395 -0.07108102 0.01125762
000020 63 2c f2 bc 97 a6 4e bb f0 ef 73 bd e6 54 c1 3d
       -0.02956218 -0.00315324 -0.059554994 0.09440021
000030 7d ff 6a 3d 6c 3b f1 bb 39 2d db bd 7a f6 87 bd
       0.05737256 -0.00736182 -0.10701985 -0.066388085
000040 cc 14 81 bc db 7c 87 bd 18 d1 d1 bd fe 7e 3e bb
       -0.015756987 -0.06615611 -0.102449596 -0.0029067392
000050 9b a6 13 3a 8a d2 de bd 32 10 0f bd ff 61 d8 bd
       0.0005632431 -0.10880001 -0.034927554 -0.10565566
000060 bd 1e b5 bd 23 46 a1 bd 7b 38 37 bd 90 05 0d bc
       -0.088437535 -0.07874706 -0.0447316 -0.008607283
000070 75 3a 91 3b d7 46 dc bc d2 53 f6 3c b7 37 65 bd
       0.0044320174 -0.026889248 0.030069266 -0.055961337
000080 63 a3 6c bd 30 06 3b bd a2 07 dc 3d 6a cc 1b be
       -0.057773005 -0.045660198 0.10743643 -0.15214697
000090 25 b3 91 3d 27 1c b5 bd b0 17 f3 3d 32 1e 5d bd
       0.07114247 -0.0884326 0.118697524 -0.053983875
0000a0 21 67 ea 3d b4 0f 03 bd e0 87 6e 3b b4 17 83 bd
       0.114454515 -0.031997398 0.0036396906 -0.064010054
0000b0 e2 a2 83 3c d3 ca 0b 3e 80 2c 7f bc 62 c0 22 3e
       0.01606888 0.1365159 -0.0155745745 0.158937
0000c0 f5 6f 9f 3d b1 34 05 bd ac d3 65 3d 9a a8 8b bd
       0.07785026 -0.032520954 0.05611007 -0.068192676
0000d0 bf d3 10 be f2 57 de bd 0e 6a b1 bd ad 06 b0 bd
       -0.14143275 -0.10856618 -0.086628065 -0.08595023
0000e0 cc b3 b9 bb 3e 93 1b 3d 07 c2 b5 3d 79 d9 80 bd
       -0.0056671854 0.037982218 0.088748984 -0.062914796
0000f0 5c 21 91 bd db c9 71 3c 90 ff d8 3d 91 52 9e 3d
       -0.07086441 0.014757599 0.1059562 0.07730592
000100 a1 2b b0 bc 56 e0 ce 3d 1d 3b d7 bd 6d f1 60 bd
       -0.021505179 0.101013824 -0.10509322 -0.05491774
000110 44 fc ac bb 7a 17 31 3e ae 1f fc bc 62 8c fe 3d
       -0.005279096 0.17294112 -0.030776825 0.1242912
000120 b0 65 87 3d 78 0a 84 3c 7e 01 23 3c 18 5d 11 3e
       0.06611192 0.016118273 0.009949086 0.14195669
000130 2c 7a 94 bd b9 ff 67 3d a6 d8 90 3d 69 68 96 3c
       -0.07249865 0.05664036 0.070725724 0.018360334
000140 9b ba e9 3d 2c a6 87 3d a0 3d 49 bd 6f c7 2a 3b
       0.11412545 0.06623492 -0.049131036 0.0026058813
000150 35 cb df bd af 7f 05 be d6 a4 e9 3d 4a 65 01 be
       -0.109274305 -0.13036989 0.11408393 -0.12636295
000160 18 00 f8 3d 13 87 88 bc 5b 6d 24 bb 8b fd 37 3d
       0.12109393 -0.01666597 -0.0025089595 0.04491953
000170 e3 b9 b2 bb 6e b7 d0 bd 2b 91 40 3d bb 46 88 3d
       -0.0054542883 -0.101912364 0.047013443 0.06654116
000180 56 72 09 3d ec 3f ac 3d 03 0d 07 3e 2b 8d 46 3d
       0.033556305 0.0841063 0.13188557 0.048474472
000190 c5 39 ac bc b6 1e e0 bc fb dc 9a 3d 2a d8 10 bd
       -0.02102364 -0.027358394 0.0756168 -0.0353624
0001a0 2e 04 82 bd 17 be 46 bd 12 e4 a9 3d 88 e4 5a 3b
       -0.063484535 -0.048521128 0.08295454 0.0033400375
0001b0 8c c7 c5 bd b7 14 ab bb 07 43 fb bc 8b c3 8d bd
       -0.09657201 -0.0052209753 -0.03067161 -0.069220625
0001c0 85 e2 03 3e 83 8f a9 3d 43 e0 01 be c1 5c a5 bd
       0.12879379 0.08279326 -0.12683205 -0.08074332
0001d0 e3 ab 11 3d c8 d2 ff bd 96 a4 7e bd 2e 37 b7 bd
       0.035564315 -0.12491375 -0.06216868 -0.089460716
0001e0 e7 74 01 bd d5 89 82 bd 99 41 bd bc 69 b8 41 bd
       -0.031605627 -0.063739456 -0.023102568 -0.047295008
0001f0 e5 3a c7 3d 3b d1 fe bc 75 24 4c 3c 71 7f c7 3c
       0.0972803 -0.031105628 0.012459864 0.024352761
000200 80 d4 8f bd ec 63 b3 3c 9f d3 1c 3e 10 81 db 3d
       -0.07022953 0.021898232 0.15315102 0.10717976
000210 62 79 b1 3d af 30 58 3e 3e 2c d8 3d 1a 0f 53 bd
       0.0866573 0.21112321 0.105553135 -0.051528074
000220 66 14 3f bd 3f 07 5a 3d 05 62 2c 3d 23 61 c9 3d
       -0.046650313 0.053229567 0.042085666 0.098329805
000230 1e c7 ca bd 97 47 a5 3d f4 2c 9f bd 33 5d d4 bd
       -0.0990126 0.08070295 -0.07772246 -0.10369339
000240 14 f6 38 bd 9a ba ba bd e7 0d f3 bd e9 6a 6e bc
       -0.045156553 -0.09117623 -0.11867886 -0.014551857
000250 96 ba 54 bd 74 6a 75 bd 6b 5e ba bd 96 a2 89 3d
       -0.051935755 -0.059915975 -0.0910004 0.06720464
000260 10 e8 cd bd 85 83 ce 3d 5d c5 a9 bd c4 25 32 bc
       -0.10054028 0.10083679 -0.08289597 -0.010873262
000270 df 6d 95 bd 91 a0 ef 3d 56 db 05 bd 96 76 bf bd
       -0.07296347 0.117005475 -0.03267988 -0.0934879
000280 c2 9f cc 3d ba 75 39 be eb 9f de 3d 14 e3 66 be
       0.09991409 -0.18111315 0.10870346 -0.22547561
000290 7e 5a f1 3c df ce b3 bd 4b 7e d3 bd 77 ff 9a 3d
       0.029462095 -0.08779692 -0.10326823 0.07568257
0002a0 32 0f 6f 3e 6e dc 2b 3d 86 84 f7 3d 2c 94 10 be
       0.2334564 0.041958265 0.12085824 -0.14119023
0002b0 5f 11 15 3c 9f ce 8b 3c 62 d0 d7 bd 20 12 0b be
       0.00909838 0.017066298 -0.10537793 -0.13581133
0002c0 bd a9 ee bc ef 87 9c 3d e3 c5 04 3e 73 8c 17 be
       -0.029133672 0.07643115 0.12966113 -0.14799671
0002d0 5b a0 d8 3c 63 0a 11 3e 83 05 60 3d 9a 61 61 3d
       0.026443651 0.14164118 0.054692756 0.05502472
0002e0 fd 33 03 3e 75 be 9d bd 0a 4c 09 bd d6 32 04 3e
       0.128128 -0.077023424 -0.033519782 0.12910017
0002f0 71 c4 78 3c 4c 6a 55 3d 51 ba 88 bd 4f c5 0a be
       0.015183554 0.052103326 -0.06676162 -0.1355183
000300 fd ea 59 3d af a4 68 3c 61 95 f6 bd 74 8b f8 bb
       0.053202618 0.01419942 -0.120402105 -0.0075849835
000310 1e df c5 3d 9d da af bd 04 e5 15 be 4c 63 07 3e
       0.09661697 -0.08586619 -0.14638144 0.13221473
000320 b3 54 e2 3d 86 d7 bb 3d cb 0b bf 3c 61 6d 75 bd
       0.11051311 0.09171967 0.023321053 -0.059918765
000330 ae 20 71 3d be 56 26 bc d9 cf b6 bd 87 f3 fb bd
       0.058869056 -0.010152517 -0.089263625 -0.123023085
000340 56 24 b4 bd f1 05 a4 3d ca 6a 80 3d 2e cb 2f be
       -0.08795993 0.08008946 0.062703684 -0.1716735
000350 b8 21 e9 3c 88 8e a8 3d 01 22 e0 bd ce 80 5e 3d
       0.028458461 0.08230311 -0.10943986 0.054322056
000360 1a 13 cd 3d 14 91 1a bd 92 1f 39 bc ae 34 cc bd
       0.10013409 -0.037736014 -0.011299031 -0.09970985
000370 85 e9 da 3c df b7 ea 3d 47 5e eb 3c af af 10 3e
       0.026722679 0.11460852 0.028731478 0.14129518
000380 84 b5 1e 3d 2e a0 e4 bc ab be 8c 3d c1 e3 ad bd
       0.038747326 -0.02790841 0.068723045 -0.08490706
000390 59 33 a9 3d f0 3d 63 bd 12 e6 c3 3d e3 6e 54 3d
       0.08261747 -0.05547899 0.09565367 0.051863562
0003a0 2d df cf 3d d4 5f 1c bd 19 2d a8 bc 6f 35 87 3d
       0.10149989 -0.038177326 -0.020529317 0.066019885
0003b0 74 c5 36 bd d9 6f 15 3d f5 3e bf 3d 5c 42 59 3d
       -0.0446219 0.03648362 0.0933818 0.0530418
0003c0 47 2d 8c 3d a4 1a 18 3d 88 e0 3b bc d2 31 c9 3d
       0.068445735 0.03713478 -0.011467107 0.098239556
0003d0 ad 21 1d 3d 8c ce 7f 3d 78 b1 22 bd 24 00 11 3d
       0.038362194 0.062452838 -0.03972003 0.035400525
0003e0 73 31 39 3d b4 00 f2 3c 04 7b dc 3d 8b b8 bb 3d
       0.045213174 0.02954135 0.10765651 0.09166058
0003f0 a0 9a 87 3d 5e 6b c0 3c f5 d3 84 bd 82 16 18 be
       0.06621289 0.023488697 -0.0648574 -0.14852336

bias_ih_l0_reverse f4 [192]
000000 39 ee cb bd 43 04 bd 3c c1 9d bc 3d 6e 65 af 3d
       -0.09957547 0.023073321 0.09209777 0.08564268
000010 b5 fc 7d bd 1e 64 a0 bd 5f 79 c5 3d 23 8e 11 3e
       -0.06200858 -0.07831596 0.0964229 0.14214377
000020 b2 21 86 bd db be 36 3c e7 e1 1d bd 07 41 d1 bd
       -0.065493956 0.011153902 -0.038545515 -0.10217481
000030 17 3f 13 bc 3f 39 69 bd d4 96 d9 3d 48 6b 8f 3d
       -0.00898721 -0.05693936 0.10624471 0.07002884
000040 17 2c 2d 3d 8c 81 c8 3d 90 bf 85 3d 33 53 1e 3e
       0.042278375 0.09790334 0.06530678 0.15461425
000050 71 8a 92 bc 30 41 0e 3d c4 3e 8b bd 26 19 ad bc
       -0.01788828 0.034730136 -0.06799081 -0.021130156
000060 09 10 f8 3d 78 18 5e bb 9d 14 63 bb db c0 b0 bd
       0.121124335 -0.0033889096 -0.0034649738 -0.08630534
000070 b2 07 f7 bc ad 50 06 bd 90 f0 90 bd 70 28 c5 bc
       -0.030155037 -0.032791782 -0.07077134 -0.024067134
000080 91 d7 93 bd 9a be b0 bd ca 5f b6 3d 9b 14 a6 bd
       -0.072188504 -0.08630104 0.08904989 -0.08109399
000090 e8 3b 9d 3d 09 93 bf 3d 74 90 fa bd df c4 bd bd
       0.07677442 0.093542166 -0.122345835 -0.09266066
0000a0 6c 7f 71 3d cd 17 28 bd 16 0f 98 3d 5e 53 30 3c
       0.05895941 -0.041038323 0.074247524 0.010762064
0000b0 01 9b 17 3c 4e 21 13 bd 75 e1 e6 3d 3b 3b 75 3d
       0.009253264 -0.035920434 0.11273471 0.05987094
0000c0 85 ef 88 3d 34 67 74 bd 60 c9 95 3d af 70 01 be
       0.0668631 -0.059668735 0.073138 -0.12640642
0000d0 af 09 b4 bd 2f a2 c4 3d e6 0b 16 bd b2 3c a3 3d
       -0.087909095 0.096012466 -0.03663244 0.07970561
0000e0 ab b2 39 bd 7b 07 e3 bc 13 2e 06 3e 8e 94 90 3c
       -0.045336407 -0.027713528 0.13103513 0.017648961
0000f0 27 ad 15 bd 2e e1 7c 3c 75 cb 80 3d 17 9a 3d 3d
       -0.036542084 0.015434546 0.06288806 0.04628953
000100 a2 52 d9 3d bc 3e 3c bc 25 88 70 3d c8 53 24 bd
       0.10611464 -0.011489566 0.058723588 -0.040118963
000110 86 17 18 bc 89 84 08 3e c7 99 82 3d 3d e9 33 3d
       -0.009282952 0.13331808 0.06376987 0.043923605
000120 d8 2a 21 bd 55 b2 70 bd 50 ec b7 3d 46 c1 01 3e
       -0.0393475 -0.05876382 0.0898062 0.12671384
000130 95 9b 90 3d b5 9d aa 3d 4e 18 ce bd e3 64 5a 3d
       0.07060925 0.083308615 -0.100632295 0.05331887
000140 fa 21 cf bd c4 a9 61 bd 9f 80 21 bd 40 eb 09 3d
       -0.101139024 -0.05509354 -0.039429303 0.033671618
000150 d2 6f 1d 3e 3c 8e e8 bd 48 b1 ea 3c c9 c5 3a 3d
       0.15374687 -0.11355254 0.028648987 0.04559878
000160 e8 b6 e8 3d d4 4f 73 bc d1 6c 5a 3c b1 d9 cf bd
       0.113630116 -0.0148505755 0.013331608 -0.10148943
000170 95 84 2a 3e 75 a8 a4 3c 6b a1 d6 3d 1f 0a 8d 3d
       0.16652139 0.020099858 0.10480007 0.06886696
000180 ec 22 ee 3d b5 0a a6 bd c2 18 ac 3d fd cc 8b 3c
       0.116277546 -0.08107511 0.0840316 0.01706552
000190 4b 81 94 3c 5a 82 b7 3d 6d ca d0 3d 5e 77 1e bd
       0.018128058 0.089604095 0.1019486 -0.038688056
0001a0 5d e0 67 bd 77 d0 a7 3d 4d 15 37 3d f7 e1 63 bd
       -0.056610454 0.081940584 0.04469805 -0.05563542
0001b0 a1 66 e3 3d c7 ee 8d 3d c9 e2 b8 bd bf 06 5b bd
       0.11103559 0.06930309 -0.09027631 -0.05347323
0001c0 c8 0c 38 bd e1 94 d0 3d 1d a5 37 3e 2b 74 1a bb
       -0.044934064 0.101846464 0.1793408 -0.0023567777
0001d0 1c 28 ad 3d 76 e8 d3 3d f5 5f b1 bd ae 18 11 3e
       0.08454916 0.10347073 -0.086608805 0.14169571
0001e0 f3 da 34 3e 51 70 cc bd 38 be 9e 3d 03 b6 89 bd
       0.17661647 -0.0998236 0.07751125 -0.06724169
0001f0 cc 6b eb 3c 95 50 03 3e 0b 1f 50 bc 60 47 c2 3c
       0.028737925 0.12823708 -0.012702714 0.023715675
000200 70 e5 95 bd 8b 9b 75 3d fc a3 32 3d 87 6a 86 3d
       -0.07319152 0.05996279 0.04361342 0.06563287
000210 4b a3 d5 3d 15 cc 21 bd a2 83 0c bd 24 2b 99 3c
       0.10431536 -0.03950127 -0.034305222 0.018697329
000220 e4 41 96 3d f7 04 ab 3d 2a ad 9d bc 1d 3f 19 be
       0.073367864 0.08350556 -0.01924761 -0.14965482
000230 88 37 35 3d 89 f4 66 ba 63 0d cb bd 35 0b b2 bd
       0.04424241 -0.0008810242 -0.09914663 -0.08693544
000240 0e 09 24 3d 1c 99 fd 3d 94 ae f0 bd 17 d5 4c bb
       0.040047698 0.12382719 -0.11752048 -0.003125494
000250 0a ba 6e bd bf c1 88 3d 67 52 9f bd a6 84 d8 3d
       -0.05828289 0.06677579 -0.07779389 0.10572176
000260 57 5d 76 3d c5 69 db bd 4a e3 2a 3e 83 ec 89 bd
       0.06014761 -0.10713533 0.16688266 -0.06734564
000270 53 74 32 3d d4 12 86 3d da db bc bc ce 93 b7 3b
       0.043567967 0.0654656 -0.023054052 0.0056023365
000280 f9 15 93 3d 0e 7b e6 3d 7a fd 54 3c 97 42 c6 bd
       0.07181925 0.112539396 0.012999887 -0.0968067
000290 94 21 03 3d dd b5 f6 3d 30 e9 b7 3d db d5 9e 3d
       0.032014444 0.120464064 0.08980024 0.077556334
0002a0 04 d4 04 3e 6a b9 07 3e 5c 9e 60 3c da 79 05 bd
       0.12971503 0.13254324 0.013709631 -0.03258691
0002b0 84 12 fd bd fc 01 f0 3c 33 98 89 bd 68 42 c5 bc
       -0.12357047 0.029297821 -0.06718483 -0.024079517
0002c0 af 2c 95 3d d1 0d b7 3d 70 51 70 3d 6e 5d 03 3e
       0.07283913 0.08938182 0.058671415 0.1282861
0002d0 ce ab 04 3c 74 1c dc bd 0f 92 13 3e 7b de 14 bd
       0.008097602 -0.107476145 0.14411186 -0.036344986
0002e0 5b de c2 3c 79 53 98 3b 53 08 70 3b ca 3d 47 bc
       0.023787668 0.0046486226 0.0036626055 -0.012160728
0002f0 23 be bc 3d 3a b0 fc bd 35 5f dc 3d fc 5b 2e 3d
       0.09215953 -0.123383 0.10760347 0.042568192

bias_hh_l0_reverse f4 [192]
000000 2d 97 d3 bd 34 77 0d bc c5 f3 82 bd 8a e1 5d 3d
       -0.10331569 -0.008634377 -0.063941516 0.05417017
000010 1f 3e 3d bd 48 29 ab 3d d3 7a f2 3d 98 8d 0f 3e
       -0.04620182 0.08357483 0.11839833 0.14018857
000020 d0 2d 0e 3d 3f d8 49 3d b8 4f 04 3d 50 d6 a4 bd
       0.03471166 0.049278494 0.03230259 -0.08048689
000030 2e 40 8a 39 8a b7 33 bd 37 b9 b1 bd a6 3c ab bd
       0.0002636923 -0.04387621 -0.08677905 -0.08361177
000040 7e df d8 3d 8b a1 0c 3e 91 a5 09 bd 7f 64 05 3d
       0.10589503 0.13733499 -0.033605162 0.032566544
000050 e2 ee f2 3d f6 9e 7c bc ea dc 91 3d 5c 5a a5 3d
       0.118619695 -0.015418759 0.07122214 0.08073875
000060 d1 da b7 3d 70 99 be 3d 05 88 86 bd 24 b8 18 bd
       0.08977283 0.0930661 -0.065689124 -0.037284985
000070 47 8b 3a bd be 7c 84 bd 87 bf 9c bc 5c c4 e7 bd
       -0.04554298 -0.06469105 -0.019134296 -0.113167495
000080 b6 dc b2 3d 7c f1 82 bd 96 ad 2b 3e 9c ab 4a 3d
       0.087335035 -0.06393716 0.16765437 0.049480066
000090 2e 49 21 bc 7b 7f 4c bd 7d 95 f2 3d 7d c8 bb 3d
       -0.009844108 -0.049926262 0.11844919 0.091690995
0000a0 79 83 66 3d 3d ce f2 bd be e5 00 3d 12 8e 6b bd
       0.056277726 -0.11855743 0.0314691 -0.057508536
0000b0 72 34 8e bb 67 eb 2b bc 5f 8e 42 3e d8 8c 08 bd
       -0.004339748 -0.010493136 0.18999623 -0.033337444
0000c0 cf ee 0c 3e a1 03 0c 3d 42 92 01 3e d9 75 67 bd
       0.13762973 0.03418315 0.12653449 -0.056508873
0000d0 4e 02 cc bb a4 9c 92 bd 64 28 ae bd e4 98 eb bd
       -0.0062258607 -0.07158783 -0.08503798 -0.11503771
0000e0 d7 17 c8 bd 7f ff 9c 3d a4 19 2b bd d6 5e 09 3d
       -0.09770172 0.076659195 -0.0417725 0.03353771
0000f0 ed 5e fa 3c f0 af 37 bc 63 3f 91 3d 96 b7 b7 bd
       0.030562842 -0.01121138 0.07092168 -0.08970563
000100 ab 2e 20 bc 2b 87 46 3e db 95 b4 bb df 59 8a bd
       -0.0097767515 0.193875 -0.005511028 -0.06755423
000110 f5 71 02 be e5 5a ca bd 14 88 9d bc 19 c3 d1 bd
       -0.12738784 -0.09880618 -0.019229926 -0.1024229
000120 c7 b6 0d 3e 80 d7 c9 bc 40 4a 85 bc 31 2a d0 3d
       0.13839255 -0.024638891 -0.016270757 0.10164297
000130 d3 14 17 bd 3f ec ec 3d a7 16 52 bd b6 46 51 bd
       -0.036885094 0.11568498 -0.051291134 -0.051092826
000140 b5 9d e6 3d a5 58 e4 3d 8f 38 52 bd 4d 1c f5 bb
       0.11260549 0.1114972 -0.05132347 -0.0074801804
000150 88 86 e7 3d 46 ea ce 3d 9e 34 7c 3d 5a 9e b4 bc
       0.11304957 0.10103278 0.061573617 -0.022048164
000160 75 e8 a7 3d 6c 84 f7 3b ff 12 cb 3d f1 32 22 bd
       0.081986345 0.0075536277 0.099157326 -0.039599363
000170 c6 2a f5 3d d4 5e 9a bd 22 fd 8d bc 27 12 cc ba
       0.11971049 -0.07537618 -0.017332617 -0.0015569375
000180 2e 70 a1 bd bf f8 6f bd 4e ea b3 3d 22 5c 54 bd
       -0.07882725 -0.058586832 0.087849244 -0.051845677
000190 0b 2b 96 3d 70 bb 0d 3c 30 3e ac 3d 28 88 c5 3c
       0.073324285 0.008650646 0.08410299 0.024112776
0001a0 e4 fa 69 bd 77 ef d3 bd ff 55 86 bd 18 ce 0a bd
       -0.057124034 -0.10348409 -0.06559371 -0.033887953
0001b0 73 33 8d 3d a3 55 c5 bd 6d ce 39 bd db 42 b2 bd
       0.06894579 -0.096354745 -0.04536288 -0.08704158
0001c0 d5 53 15 be d5 87 75 3d eb 5f c4 bc 31 4d 6a 3d
       -0.1458276 0.059943993 -0.023971519 0.05720252
0001d0 38 14 7d bc 07 11 87 3d 82 7d 84 3c 41 08 81 bd
       -0.015446715 0.065950446 0.016173128 -0.063004024
0001e0 7f 96 e0 3d d2 10 ec b9 17 19 ff 3d 12 52 91 3d
       0.10966205 -0.0004502596 0.124559574 0.07095732
0001f0 6c 0c 9d 3d 4e da be 3d 27 6d 1a bd aa 60 f1 bc
       0.07668385 0.09318982 -0.037701752 -0.029465038
000200 a3 a7 71 3d b9 cf cb 3d cf 8d 16 3d 31 6b d9 3d
       0.05899776 0.09951729 0.036756333 0.10616148
000210 92 71 0f b9 bc 6e 4e bd cc 4e c7 bd b8 31 ae 3b
       -0.00013679851 -0.050398573 -0.09731826 0.0053159855
000220 74 77 05 3e aa 5d 9b bd 1a 94 f2 b8 17 8d 68 3d
       0.13033849 -0.075862244 -0.00011567045 0.05677518
000230 1f 29 6d 3d d5 e3 5f bd 8c c0 1d bd 2b 3c cb 3d
       0.057900544 -0.054660637 -0.038513705 0.099235855
000240 05 06 09 3e 81 ec 53 3a f3 4f 35 bd cb ec 61 3d
       0.13381203 0.0008084253 -0.0442657 0.055157464
000250 b8 45 05 be 0f af 9e 3c 82 95 85 3d 19 7e 0e bd
       -0.13014877 0.019370584 0.06522657 -0.034788225
000260 4b 27 97 3d ea 3c e2 bd 82 a4 10 3e 5d c8 12 3d
       0.073805414 -0.11046775 0.14125255 0.035835613
000270 01 02 e3 3c ed 75 1e 3d 43 8f 5d 3d d6 d7 d9 3d
       0.027710916 0.03868668 0.054091703 0.106368706
000280 36 d6 f3 3d f4 69 08 bd 4a fa 2d 3d 27 ba 9f bd
       0.11906092 -0.03330417 0.042475022 -0.077991776
000290 a9 58 13 3e 8d d5 3e bd 73 46 b7 bc 91 21 46 3d
       0.1438929 -0.046590377 -0.02237246 0.048371855
0002a0 51 a6 d6 3d f2 cf 47 bd fe 79 5b bb 1a c6 15 be
       0.10480941 -0.048782296 -0.003348946 -0.14626351
0002b0 a0 fc d6 3b 27 da b4 3d 35 6b e6 3d 61 eb ef 3d
       0.006560877 0.08830672 0.11250917 0.11714817
0002c0 10 d5 45 bd 7d be 9f 3c de 9c 8b bd 29 a7 89 bd
       -0.048298895 0.019500012 -0.068170294 -0.067213364
0002d0 c1 97 ff bb d6 05 d9 3c 9f 19 5f bd b7 4c f9 ba
       -0.007800073 0.02649204 -0.054467794 -0.0019020055
0002e0 f6 af f1 3c ef 49 ae 3d da 18 a5 3c 50 a7 d3 3d
       0.02950285 0.085101955 0.020153452 0.10334647
0002f0 57 94 ca 3c b8 29 b4 3d 5c 8f 10 3e 0f 5c 01 be
       0.024728937 0.0879702 0.14117187 -0.12632774
