reports/optimize_DEAM_VA_2026-01-04_21-07-54/best_model/optimize_DEAM_VA_2026-01-04_21-07-54.pth (torch, 156444 bytes, 10 tensors)

weight_ih_l0 f4 [192, 32]
00000000: b561 7dbd 2497 043d 4094 d4bd 41e9 aa3d
00000010: 828b e6bc fefb f03d 4419 4a3d 6435 19bb
00000020: 8981 cb3a f8fc 1abd dbe0 1c3e 43ae 323d
00000030: b096 91bd bf18 833a 34bb 12be 6df8 763c
00000040: 2ee0 f1bd 110c 723d 7e8b 9fbd baf2 36bd
00000050: 2b3d 86bd 661e 2c3d 82d2 c43d 7087 9f3b
00000060: b86f d9bd 1d1f 883d 782d b6bd fb7c b2bc
00000070: 2e9a d23d 5b15 c1bd 9ed4 35bd 3149 bebd
00000080: 9fbe 2fbd 60e2 e3bc d9c4 5b3d e046 c33c
00000090: 870f 353d 4e8e cbbd 4dbb 913d 6295 06be
000000a0: 1f6d 21be b216 5fbc 86a3 40bd 4f15 79bd
000000b0: 6e60 7a3d b7c3 4bbd ab90 64bd 2326 a3bb
000000c0: af06 a43d 038b f4bd c13e c9bd 37da 5d3d
000000d0: 89a8 873d 254d 89bb 2559 4d3e 5220 75bd
000000e0: 23f9 b7bd a03e b6bb 72be 173e 7b0a e53d
000000f0: 7f6a 883d 5825 d7bc e3e0 bb3d aba3 cfbd
00000100: 9a15 c13d 89a5 5f3c 24ec d3bd 62a3 c7bc
00000110: fb09 e43d 4074 d2bd ada9 ce3d a0ab ff3a
00000120: 08c8 cdbd d172 9bba fadf 15be c3d7 8abb
00000130: e56a d8bd b676 11bd a54d 1cbe 2629 39bd
00000140: 62d7 87bd 5462 e3bd d3df 94bc f5b4 74bd
00000150: 47c2 ac3d 50e5 343d f23a d2bd 42b3 dabd
00000160: e81b cc3d cb9d 85bd e369 9bbd 550f b23d
00000170: dc91 453c c440 863c 1e94 963d 9e4e 103e
00000180: ca2a 95bd b8ca c73d 687a a53d 45c3 eb3d
00000190: 0791 a93d 23ce 843d 95c6 b33c 749e 8d3d
000001a0: 199b 69bc e2af 9b3d a87c 9a3a 97c5 67bc
000001b0: b8e6 8ebd df87 a93b 13a0 cbbd 992e 4cbd
000001c0: eb69 f7bd 604e d9bd f2d6 84bd 5239 70bb
000001d0: f442 78bd 9f2c 02bd 0229 96bd 72f2 99bd
000001e0: e12f 9fbd c657 c1bc c41f 2abd 1f85 b73d
000001f0: 6bae 48bd 184e 44bc 2f9d c33c 3014 833d
00000200: b36f 49bb 03cd 37b9 70db 7dbd 987d 09bd
00000210: aabb a13b d9a5 89bd e006 ccbd 163a 0dbd
00000220: 8c24 873d 6dbb 9fbd cb93 ea3d 5024 023e
00000230: 5836 f53d 2c10 a13d 3869 d83d 56e3 e33d
00000240: 7ead 0e3d d3b0 933c 6384 e9bd c300 63bd
00000250: 9485 9c3d de4f 093e bc9a 373e d909 583d
00000260: 9cbf 203c bcd5 953d 25bb 8a3d c688 a1bd
00000270: de15 15bd d9dc 2c3e bff3 f8bc 0c1f 4f3c
00000280: dba4 9abd 1e53 babd 8a47 8bbd 54d2 e33d
00000290: 435b 853d fa3c fcbd 1934 ba3d 3c65 053e
000002a0: d7b3 99bd f868 513d 9c2a 5bbd 4e4e d43d
000002b0: bada d33d f653 94bd 281a a6bd 0f60 93bd
000002c0: e14e a63d f0a3 9e3d 7907 343d b5d5 963d
000002d0: 482d e33d 9718 7f3b 7963 573d 6e62 80bd
000002e0: 4783 f6ba 18d3 eabd b94d c2bd 57e8 013e
000002f0: 78d5 ac3c e04d 5fbc 8570 fcbc a845 c33c
00000300: 75b1 54bd 518a 413d 95c3 203c 66aa 873d
00000310: d9c3 cfb9 6b71 b4bd 49ea ecbd ab0e 153e
00000320: 3fd4 06be b0f1 cfbd 0d62 0abd 2a5c 2fbd
00000330: 18fa babd 24ac 6d3d a7b7 d6bd 8f6f b63d
00000340: f306 853d a939 393e 74ad 183e 68a2 133c
00000350: bbfa cbbd 3c97 7b3d 40aa dbbd 61be ac3d
00000360: 5aa5 7dbd fac9 983c 5576 16be 4663 9d3d
00000370: 08c4 be3c f9b1 c93d e875 993d e991 0d3c
00000380: 632a d5bd 63a1 6c3d e1a3 b33d 1ff2 ca3b
00000390: 857b 963d 2cc3 eabb 2b6b 0c3d f159 cb3d
000003a0: d398 d1bd a056 ad3a 541b b9bc 8eff 233e
000003b0: 4d68 a7bc e38e a4bd a8c5 e93d 686a 563d
000003c0: 7bb2 cfbc ceb0 eb3d 15c4 8d3d 74d6 bcbc
000003d0: 8aee a23d 4090 113e 6867 dd3d fd44 b03d
000003e0: 3ee4 013e be8c 4abc 68b6 e73c 5f82 d63d
000003f0: d9b9 073e de05 14bc 67c7 a23d 5757 003d
-0.06186076 0.0323707 -0.10379839 0.08345271 -0.028142694 0.11766814 0.0493405 -0.002337777
0.0015526275 -0.037838906 0.1532015 0.04362322 -0.071088195 0.0010001882 -0.14329225 0.015073878
-0.11810337 0.05909354 -0.07790278 -0.044665076 -0.065546356 0.042021178 0.09610464 0.0048684403
-0.10617012 0.066465594 -0.08895391 -0.021788111 0.10283314 -0.09427901 -0.04439222 -0.09291304
-0.0429064 -0.027817905 0.053654525 0.023837507 0.04420426 -0.09939252 0.07115803 -0.13142923
-0.15764283 -0.013616251 -0.047030948 -0.060811337 0.06112712 -0.049747195 -0.05580203 -0.0049789115
0.08009087 -0.11940577 -0.098264225 0.054163184 0.066239424 -0.0041901045 0.20053537 -0.059845276
-0.08983066 -0.0055616647 0.14818743 0.111836396 0.066609375 -0.026262924 0.09173753 -0.10138639
0.09427948 0.0136503065 -0.103477746 -0.0243699 0.11134716 -0.10276079 0.10090957 0.0019506104
-0.100479186 -0.001185978 -0.14636222 -0.0042371466 -0.105672635 -0.035513602 -0.15263994 -0.045205258
-0.06632878 -0.11102739 -0.018173134 -0.059742887 0.08435493 0.044164002 -0.10265149 -0.10678722
0.0996626 -0.06524237 -0.07588556 0.086943306 0.012058701 0.016388305 0.0735247 0.1409249
-0.07283552 0.097554624 0.08079988 0.11511854 0.08279615 0.0648463 0.021945277 0.06914988
-0.01425817 0.07601906 0.0011786418 -0.01414623 -0.069776 0.005173668 -0.09942641 -0.049849126
-0.12080749 -0.10610652 -0.0648631 -0.003665526 -0.060610726 -0.031780835 -0.0733204 -0.07516946
-0.07772804 -0.023601424 -0.0415342 0.08960938 -0.048994463 -0.01198151 0.023878662 0.06400335
-0.0030736744 -0.00017528613 -0.06197685 -0.03356704 0.0049357014 -0.06721086 -0.09962249 -0.034479223
0.06598768 -0.077994205 0.114539705 0.12709165 0.11973256 0.07864413 0.10566944 0.11127345
0.034833424 0.018028652 -0.11402204 -0.05542065 0.076426655 0.13409373 0.1793012 0.052743766
0.009811308 0.07316157 0.06773976 -0.078874156 -0.036397807 0.16881122 -0.030389665 0.0126416795
-0.07550975 -0.090978846 -0.06800754 0.11124101 0.065115474 -0.12316318 0.09091968 0.13026899
-0.07505005 0.051125497 -0.053507432 0.10366498 0.10344453 -0.07242577 -0.08110458 -0.07196056
0.08120514 0.07746112 0.04395244 0.0736498 0.11092621 0.0038924569 0.0525851 -0.06268774
-0.0018807434 -0.11466044 -0.09487481 0.12686287 0.021097884 -0.013629407 -0.030815372 0.023836926
-0.05192705 0.04725105 0.009812255 0.06624298 -0.00039628035 -0.08810695 -0.11568124 0.14556377
-0.13166903 -0.1015352 -0.033784915 -0.042812504 -0.09129733 0.058025494 -0.10484248 0.08907997
0.06495466 0.18088402 0.14909917 0.009010889 -0.099599324 0.061423525 -0.10725832 0.084347494
-0.06192527 0.018650997 -0.14693578 0.076849505 0.023286834 0.09848399 0.07493192 0.008640745
-0.10408475 0.057771098 0.08771492 0.006193414 0.07347778 -0.0071643796 0.03428189 0.09929264
-0.10234227 0.0013224669 -0.022596039 0.16015455 -0.020435477 -0.08035066 0.11414653 0.05234757
-0.02535366 0.11508332 0.06922165 -0.023051478 0.07955654 0.14215183 0.10810739 0.086069085
0.12684724 -0.012362657 0.02828522 0.10474085 0.13254489 -0.009034602 0.07948189 0.031333294

weight_hh_l0 f4 [192, 64]
00000000: 552f d73d 15f5 163e 1fd6 90bd c010 99bd
00000010: e828 033e 7b7b 823d 8b69 a4bd d21d 7a3c
00000020: 5232 b83d 9f58 d03d fed7 09be 836b 1d3d
00000030: 907e e6bd 6d76 48bd ed81 b3bc dac1 813d
00000040: 3788 b4bd cb70 f3bd 1426 353d 670b 993d
00000050: 7148 36bd a5a2 df3d a8ec e9bc 6a17 9e3d
00000060: 7f12 edbd 139b 153e f168 ad3d b987 d83d
00000070: 6238 00be 53db 8b3d c0aa 273b 6ba0 093d
00000080: af09 a5bd 7b80 b93d 5edc fabb 007f 99bd
00000090: c77f 2cbe 7e04 253e 5034 8abd 4c4c 1dbe
000000a0: 12d7 cf3c 8d43 10be 359e cabd 6ca9 1c3d
000000b0: c9bb ffbd 3010 91bc fd86 613c 5de4 ffbd
000000c0: 9843 01bd 964f 733d 4f67 be3d c1df 453c
000000d0: 2ba2 c53c 10c9 fbbb f599 523d fab2 163d
000000e0: 4acb eb3d d9ac 45bd aba3 733d 0965 023d
000000f0: dfa2 73bd 9b2a 423d 72b8 8ebd f83b 093e
00000100: 8b2d 2b3e c77f a23d e949 743d 6caa 47bc
00000110: 16f9 95bd 77f0 f3bd 1e76 873d 9b71 a6bd
00000120: 4d2a e8bd b2ee 7d3d 6f32 afbc d757 ba3d
00000130: 926c 6cbc 41ce 163d 8333 adbd 5785 27ba
00000140: 9f15 c33c ac88 2cbd ea6e 87bc 2821 12bd
00000150: 8370 b13d 150e 3ebd 96d4 10bc 5979 90bd
00000160: 1987 7dbd 8a2b 403e aa1e d6bd a17e 0c3e
00000170: da42 80bd d5d7 f1bc d2bf d5bd 2a81 a0bd
00000180: daf3 813d 1e96 c03d 93d9 4cbd 7113 ec3c
00000190: 8c28 183d 4e14 dc3d 0f90 cbbd e393 b5bd
000001a0: 5b1c 99bc d322 893d 8c61 093d f44d 07bc
000001b0: eb2a 883d 5e64 9fbd cfff 49bd 1cf9 063d
000001c0: 66b5 63be 8606 a63d f4d5 5a3d 3211 333d
000001d0: 8b3c 203e 87e9 d6bd 4b6b a6bd 769b cebd
000001e0: bb12 d73c 2bb7 ec3d 4ef7 9a3d 1d51 393e
000001f0: cfd7 fa3c 80e2 de3a b4d2 9c3d 5dc8 7fbd
00000200: d9dd 88bd 038a 3cbd 9833 123c b777 393d
00000210: 5530 863c 7bcd fb3d 8a44 53bc 97c2 86bd
00000220: 18ee f63d edac 37bb 6b82 d1bc 04a7 4ebd
00000230: c84b 1b3c 0402 a23d 2086 523d ff10 c0bd
00000240: c684 84bd 288c 82bc ba74 633c 7c59 9bbd
00000250: 3419 b7bc d2cb c2bc fa38 903d b10c 223c
00000260: f09f d7bd f49e 45bc 718b 18bc d6ee 023e
00000270: 74d4 fdbd dee4 e2bd 11af 153d 1544 ef3d
00000280: 606f a9bc 4004 70bd ccc5 093c ca6e 9f3d
00000290: 07a2 af3c 3a08 d23d a287 3e3d f27d c53d
000002a0: 99db 44bd 73a3 efbb 67d4 88bd 1430 0e3e
000002b0: 0434 bd3d 0648 463e 3764 e1bb 7b1e e3bd
000002c0: 205e f1bd e5d7 8ebd e859 103b 2a3b debc
000002d0: 948f 99bd cdc7 983d e793 0dbd e11c 1bbd
000002e0: fb01 e1bc a63e da3d 4bda 223d ab49 d3bc
000002f0: 08ed c03c 0802 893d cc7b d3bc 1237 18bd
00000300: b463 133c 069f 7cb9 4782 d7bd c1e6 36bd
00000310: c8af bb3c 428d 59bc 2c10 c13d 4291 5dbd
00000320: 7b6b 683d 9d64 0fbd 1615 703d 266b 313e
00000330: 13f5 acbd 266f 0cbe 911f 9c3d 7e37 9b3d
00000340: 5a3e c83d 098f a03d daab 08bd d192 ddbd
00000350: 5d89 b8bc 8ebb 36bd bf2b 1c3d 8552 b43d
00000360: 1fce d6bc 9da0 c83d 3a5c 2abc ac7a 1b3c
00000370: eeb3 35be cffb 293b ab39 e7bc c24e fbbd
00000380: 999f b43d 08af cd3c dafb 97bd 4125 3bbd
00000390: 41a1 ad3d 8ea4 20be c14b 76bc d711 a73d
000003a0: 046b 72bd 80f8 a7bc fe4b d33d 3b44 44bd
000003b0: edfe 503d 3191 0f3e 9bbb 353c 8651 23be
000003c0: c9b7 c33d 18df 16bd a33e e2bd b2dc 5a3d
000003d0: e264 993c 6675 a53d 5ea2 a4bd ed9a ee3c
000003e0: d152 f3bc 0afe ffbd 02f0 bc3d 49f7 833d
000003f0: 401e 373a 4042 8bbc bb6f ed3d 8ac1 e63d
0.10507075 0.14741929 -0.0707209 -0.07473898 0.12808573 0.06371208 -0.08027943 0.015265899
0.08993973 0.10173153 -0.134613 0.03843261 -0.11254609 -0.048941065 -0.02191254 0.063358024
-0.088150434 -0.11886748 0.044225767 0.07472878 -0.04450268 0.10919694 -0.02855523 0.0771931
-0.115757935 0.14609937 0.084672816 0.10572762 -0.12521508 0.06828942 0.0025583953 0.033600252
-0.080584876 0.09057709 -0.0076556643 -0.074949265 -0.16845618 0.16114995 -0.06748259 -0.15361136
0.025371108 -0.14088269 -0.09893457 0.03824751 -0.12486989 -0.017707914 0.013765094 -0.12494729
-0.031558603 0.05940207 0.09297048 0.012077273 0.02412518 -0.0076838806 0.051416356 0.03679178
0.11513384 -0.048260543 0.059482258 0.031834636 -0.059481498 0.047403913 -0.06968774 0.13401783
0.16716592 0.07934528 0.0596408 -0.012186628 -0.073229 -0.119110994 0.06614326 -0.08127137
-0.11336193 0.061995216 -0.021386353 0.09098785 -0.014430182 0.036817793 -0.08457091 -0.00063904136
0.02381402 -0.042122528 -0.01653238 -0.03567615 0.08664038 -0.04640015 -0.008839747 -0.07054395
-0.061896417 0.18766609 -0.104550675 0.1372018 -0.06262751 -0.029521862 -0.104369774 -0.07837136
0.06345339 0.094036326 -0.050012182 0.028817864 0.037148044 0.1074606 -0.09939586 -0.08866098
-0.018690279 0.06696095 0.033540294 -0.008258332 0.06648811 -0.077828154 -0.049316224 0.032952413
-0.22237167 0.08106713 0.053426698 0.04371757 0.15648095 -0.104937606 -0.08125933 -0.100882456
0.026254049 0.11558374 0.07566701 0.18097349 0.030620484 0.0017004758 0.07657376 -0.06244694
-0.06682939 -0.046030056 0.008923434 0.045280185 0.016380468 0.12295052 -0.012894759 -0.06580084
0.120571315 -0.0028026656 -0.025574883 -0.050452247 0.009478517 0.07910541 0.051397443 -0.09378242
-0.06470637 -0.015935972 0.01388281 -0.07585427 -0.022350885 -0.02377883 0.070421174 0.009890721
-0.105285525 -0.012061823 -0.009310589 0.12786421 -0.12394038 -0.11078809 0.03654391 0.116829075
-0.02068299 -0.058597803 0.008408975 0.07784803 0.021439565 0.10255475 0.04651607 0.09643163
-0.048060987 -0.007313186 -0.066811375 0.13885528 0.09238437 0.19363412 -0.0068784016 -0.11089798
-0.11785531 -0.06974772 0.0022026245 -0.027127821 -0.074980885 0.07459984 -0.03456488 -0.037869338
-0.027466765 0.106564805 0.03975896 -0.025791964 0.023550525 0.066898406 -0.025815867 -0.037161894
0.008995939 -0.00024091834 -0.10522895 -0.044653658 0.022910967 -0.013278307 0.09426913 -0.054093607
0.056743126 -0.03500806 0.05861386 0.1732603 -0.08445182 -0.13714275 0.07623208 0.07578944
0.097775176 0.07839782 -0.033367015 -0.10819019 -0.022526437 -0.04461246 0.038127657 0.08804802
-0.026221333 0.097962596 -0.010397965 0.0094896965 -0.17744419 0.0025937443 -0.02822574 -0.12270881
0.08819503 0.025107875 -0.07421084 -0.045689825 0.08478022 -0.15687773 -0.01503271 0.081576996
-0.05918409 -0.020504236 0.10317229 -0.047916632 0.051024366 0.1402023 0.011092092 -0.15949067
0.095565386 -0.036833853 -0.11047103 0.053433128 0.018724862 0.080790326 -0.080387816 0.029126609
-0.029702576 -0.12499626 0.09225465 0.0644365 0.00069854036 -0.016999364 0.115935765 0.112673834

bias_ih_l0 f4 [192]
00000000: 5acc c1bd cb51 eb3b 9249 67bd acd9 3ebd
00000010: 31db 163e 57fe 483d 8ab3 973b 18aa b73d
00000020: 99b9 c73d d737 4dbd e489 fbbc 3343 d53d
00000030: 110a ea3d 2f7d 7dbd 350f 9ebd fc9a b93c
00000040: f0f7 36bd 9269 afbc d57d dd3d 093b bcbd
00000050: d6e9 a73d 9982 a4bd 6c68 8cbd a300 4b3d
00000060: 16ff e23d e642 3d3c a45c eabb 8d31 023e
00000070: 56de ef3d 183b 46bd b908 0dbd 682b 01bd
00000080: 3539 bd3c c2a5 babd 8754 6e3c 491f 513d
00000090: 1ace 0a3e 50b9 fbbd 18ad a43d 0acd ef3c
000000a0: e5a7 86bc 7e2b 533d cb55 e23d 43b2 d6bc
000000b0: b231 47bd c654 643d c1ce 033e 154f 163e
000000c0: 4f37 473c 8784 f33d 69aa 03be a7f4 983d
000000d0: 024d 1f3e 6b9a 79bc fee2 b7bd 9fc8 e5bc
000000e0: 55a5 bd3d 9fba 4d3d 471b b3bd 3e38 003e
000000f0: bdca 1d3e 208d 8dbd ee96 dabc 790d c7bd
00000100: 3fd3 a1bd 1d1b 093c 8907 12be 5e24 15bd
00000110: 2f31 343d 1146 6f3d 7987 263c f66f 003d
00000120: a6cb 4c3d ffd3 113d d11b a9bb 905b 1dbd
00000130: 0f92 aa3d 98e7 fb3d e808 8b3d 3963 c7bd
00000140: f75f 5b3b cd32 7f3d c964 1dbd c76e 823d
00000150: 75a5 af3d 8a29 9a3d 5149 7c3c 212e c33c
00000160: 96d5 b7bd 7d64 45bd f2ae 033d 375a 573d
00000170: 3a97 f73d d79c f63b 1317 a53d cb0d 97bb
00000180: fd0f dc3d 8cc0 973d fc49 013e d756 f6bb
00000190: d33a d3bd 9bb7 8e3d 35cf a0bd 4136 143d
000001a0: a81b 3bbd 1e0c 06be ef4b bf3d 6c0a fa3d
000001b0: 67c9 bfbd 76c1 e43c 5b33 83bd 59e4 02bd
000001c0: 6f54 62bc d2ef 8a3d 1a7d aebd 49c1 c8bd
000001d0: e01e 06be cb89 4a3d 9652 683c 850c 8e3d
000001e0: 8619 90bc 5a16 84bd 469f 503c f0b8 4cbd
000001f0: 7dd4 e8bd 672d d3bc 0a04 a33c 25e3 e3bd
00000200: 451e 9f3d b2b2 12bd 8d2c 823d 279b 043e
00000210: 0f2e 8cbb 6525 2bbd 0873 97bd 0473 c13c
00000220: dc9f fb3d 6b84 ad3d c558 bbbd 3d62 d73d
00000230: d17b d7bc 990f a9bd a360 a23d 9a37 9fbd
00000240: 70cd 90bd f500 d13d b9f5 09be 4504 4abd
00000250: 6fb1 cfbb 4baf cbbb aed8 d53d bb4c c2bc
00000260: 09db febd 656a a9bd 2f68 033d fdc4 923d
00000270: b01d 0f3e a0ad 1d3d 0dd8 8dbd 97ba b33d
00000280: 721c 7d3c 36de 3c3c d743 c7bc 64ad b5bc
00000290: f407 81bd 9177 5e3d 5870 f6bc 5edb 8fbc
000002a0: 92ce d13d 6f2c b93d a9fe a23d 59a8 cdbd
000002b0: d91f c7bd c380 683d 3b5e b33d c6bd 10be
000002c0: b707 1fbe 7a5a a1bc 1033 2fbd eed6 753d
000002d0: a8ff b93d 3444 9bbd bcb0 f7bd 5433 0ebc
000002e0: 4059 84bd 09e7 c83c e435 b93d 0cd5 e9ba
000002f0: 5984 433d a310 2cbc 1bde 473d 6f27 b3bd
-0.09462805 0.0071813813 -0.056466646 -0.046594307 0.14732052 0.049070682 0.004629557 0.0896799
0.09752197 -0.05010208 -0.0307054 0.10413208 0.11427701 -0.061886963 -0.07717744 0.02265691
-0.044670045 -0.021412645 0.10815016 -0.091909476 0.081988975 -0.08032722 -0.068558544 0.049561154
0.1108381 0.011551594 -0.007152157 0.12714215 0.11712329 -0.0483962 -0.034432147 -0.031535536
0.023098568 -0.09113647 0.01454652 0.051055226 0.13555184 -0.12291205 0.080408275 0.029272575
-0.01643748 0.05155515 0.1105152 -0.026208049 -0.048631378 0.05574491 0.12871839 0.14678605
0.012159183 0.11890512 -0.12857975 0.07468539 0.1555672 -0.01523457 -0.08978842 -0.028049765
0.0926005 0.050226804 -0.08745437 0.12521455 0.1540937 -0.06911683 -0.026683297 -0.097193666
-0.0790162 0.008368281 -0.14260687 -0.036411636 0.043992218 0.05841643 0.010164135 0.031356774
0.0499989 0.035602566 -0.0051607867 -0.0384174 0.0832864 0.123000324 0.06788808 -0.09735722
0.0033473948 0.062304307 -0.038426194 0.06368785 0.0857648 0.07527454 0.015398339 0.023825707
-0.08976285 -0.048191536 0.032149263 0.05257627 0.12089391 0.007526021 0.08061042 -0.0046097985
0.10745237 0.07409772 0.12625879 -0.0075176763 -0.10313954 0.06968614 -0.078520216 0.036184553
-0.045680672 -0.1309056 0.09340655 0.12209019 -0.09364586 0.02792428 -0.0640628 -0.03195605
-0.013814076 0.06784023 -0.08519955 -0.09802491 -0.13097715 0.049447816 0.014179846 0.06935982
-0.017590296 -0.06449576 0.012733286 -0.049981058 -0.11368654 -0.025778485 0.019899387 -0.11127309
0.07769445 -0.03581495 0.06356154 0.12949811 -0.0042779515 -0.04178371 -0.07394987 0.023614414
0.1228635 0.08472522 -0.09147791 0.10516784 -0.026304157 -0.08254928 0.07928588 -0.07774277
-0.07070434 0.10205261 -0.13472642 -0.049320478 -0.0063382904 -0.006215965 0.10441719 -0.023718229
-0.124441214 -0.08272246 0.03208178 0.07166479 0.13976169 0.03849566 -0.06925974 0.087758236
0.015448676 0.011527589 -0.02432434 -0.022177406 -0.06300345 0.054313246 -0.030082867 -0.017560657
0.10244478 0.09041678 0.07958729 -0.100418754 -0.09722871 0.05676342 0.087582074 -0.14134893
-0.15530287 -0.019696463 -0.042773306 0.060019426 0.09081966 -0.07581368 -0.12094256 -0.00867923
-0.064623356 0.024524229 0.09043482 -0.0017839982 0.04773364 -0.010502013 0.0487958 -0.08747756

bias_hh_l0 f4 [192]
00000000: 5d00 b73d 93bf e73d c6ed 3c3d 9bcf 293d
00000010: c209 073e adac de3c cfa6 863d 8521 69bd
00000020: c69e dcbd 639a f6bd a231 b63d 9a12 0a3d
00000030: bbb7 c2bc 205f eebb f131 3bbd e833 ea3d
00000040: 07ef a9bd b763 e93c 4b71 ee3d d6a7 de3d
00000050: 5e57 9d3d 958d a53d 96e6 68bd 8f6d e13d
00000060: 35f2 0b3e 44d8 bfbd 5808 9fbd 2f1b 133e
00000070: c2e0 96bd 555f 61bd a025 e8bd ba12 b53d
00000080: 3dde 9b3d ec88 ef3d b177 773c 0b74 3e3d
00000090: 2947 233e 9b20 0dbe 6347 b13b 0fad 643d
000000a0: 6d59 babd 5192 2d3d 0134 223d 8a39 84bd
000000b0: 0523 223c aa1b 8cbc 95e4 a73d c71e 33bd
000000c0: 248b f0bd 6442 ba3d 0add 93bc 4d9a f73d
000000d0: 5698 28bd 9d0f c73c 3c98 83bd 0886 c9bb
000000e0: 98b8 3c3d 03f4 8d3d c31d 103c 451a b03b
000000f0: aac8 813d 03a5 47bd abc7 8f3d 6e1d 0a3e
00000100: 9ba6 833d fb3f abbd 11b3 cd3c 042a 133d
00000110: c6af d5bd fb52 a33d 6e8a c7bc ac87 08bd
00000120: c8cb bfbd 6a1d b9bd d766 f93c 6747 bcbd
00000130: 5fe4 9b3c 49d2 aebc 4fc7 faba d1c5 83bd
00000140: 0232 123e 91a6 093e 81a6 a5bc bd26 ca3d
00000150: 56a4 03be c1bd ac3d ffc3 c7bc 15b0 41bd
00000160: a146 1d3d 799c 173e e778 c23c c6ac 69bc
00000170: 7ca9 763d 0887 13be e1ff ef39 5a63 94bc
00000180: f8d6 ee3b ee93 0cbd b98f 90bd 0ab4 38bd
00000190: 5749 c33d e119 dcbc 9796 123c f11c 45bd
000001a0: 01af 15bb 05a3 37bd 4aac ad3d 8acf 89bc
000001b0: 4244 073d 066f 983d 2a21 d03d 4d5d db3d
000001c0: b7d2 d53d c5f0 0e3d 8c3a 6dbd 3a82 f83d
000001d0: 85ad f3bd 825f 34bc b426 f63d 86f6 143d
000001e0: ea08 8b3d aad6 48bd 5fcd 783d 93e8 dd3d
000001f0: 88ae 9dbd d081 2b3e af94 e9bd 2946 dcbd
00000200: 9058 ed3d a1f6 103e 931d c9bd 9de2 d2bd
00000210: 922c eb3d 8e94 393e 92d0 763d 71d8 c83d
00000220: 1d13 8cbd 767d 8ebd 5038 3f3c b0bc cb3d
00000230: bc6e 2a3e cf2a b3bd e5de 39bd 14e3 e7bd
00000240: 871b 583d e0d4 273e 13dc 49bd b030 7dbd
00000250: c1f6 a63d 92ca 073e d58c 0dbe 12f5 ca3d
00000260: 38b9 e8bd 7eb3 363c debb a33c d72b 503d
00000270: c3a8 353d 4c4d f1bd 03ba a9bc 3829 9ebc
00000280: 4cf2 5cbd fa70 063e 38a4 be3d 229d 1fbe
00000290: cd76 90ba 9bdb 19be 59f6 2a3c 666a 59bc
000002a0: 218e cabd 3b88 23bc f8a1 0e3e fbe5 273b
000002b0: 1cc8 113d 8242 24bb 0540 a73c 36ae 6fbe
000002c0: 31cb 173d 1024 ea3b 0f74 c9bd d739 8fbc
000002d0: 9f9c 06be f688 243e d948 c7bd 1435 1ebe
000002e0: cf52 283c 8acb d7bd bcbd 373d 169f ad3c
000002f0: 03e1 1dbe 4c02 86bc f13a d53d 14ad a73d
0.08935616 0.11315837 0.046125196 0.041457754 0.13187316 0.027181948 0.06574785 -0.056916732
-0.10772471 -0.12041166 0.088961855 0.033709146 -0.02376925 -0.0072745234 -0.045701925 0.114356816
-0.08297544 0.02848993 0.11642703 0.10871856 0.076826796 0.08083645 -0.05686053 0.11007225
0.13666613 -0.09367421 -0.07765263 0.14365838 -0.07367088 -0.055022556 -0.113353014 0.088414624
0.07610748 0.11696038 0.01510422 0.046497386 0.15945114 -0.13781969 0.0054101213 0.055829104
-0.09099088 0.042375866 0.039600376 -0.06456287 0.009896045 -0.017103035 0.081978954 -0.043730523
-0.11745289 0.09094694 -0.018049736 0.120899774 -0.041160904 0.024299437 -0.06425521 -0.006150011
0.04607448 0.06931307 0.008796158 0.0053742253 0.06337102 -0.04874135 0.070205055 0.13487789
0.06428262 -0.08361813 0.0251098 0.03592874 -0.10433917 0.07974812 -0.024358 -0.03333251
-0.0936504 -0.090388134 0.030444546 -0.091933064 0.019029794 -0.021340506 -0.0019132885 -0.06434215
0.14276889 0.13442446 -0.020220997 0.0987067 -0.12855658 0.0843463 -0.02438545 -0.047287066
0.038397435 0.14805783 0.023739291 -0.014262384 0.060220227 -0.14406979 0.00045776277 -0.01811378
0.00728881 -0.034320764 -0.07058663 -0.045093574 0.09535473 -0.026867809 0.008947036 -0.048123304
-0.0022839906 -0.044833202 0.08480127 -0.016822595 0.03302408 0.07443051 0.101625755 0.10711155
0.10440581 0.034897584 -0.057917163 0.12134214 -0.118983306 -0.011009099 0.12019101 0.036367916
0.067888096 -0.049032845 0.060742732 0.10835376 -0.07699305 0.16748738 -0.11405312 -0.107555695
0.115891576 0.14156581 -0.09820094 -0.10297129 0.114831105 0.18123075 0.060257502 0.09806908
-0.06839583 -0.069575235 0.011671141 0.09948099 0.16643804 -0.087483995 -0.045378584 -0.113226086
0.052760627 0.16389799 -0.049282145 -0.06181401 0.08152533 0.13260868 -0.13823254 0.09910025
-0.11363453 0.011151193 0.019987043 0.05082306 0.044350397 -0.11782321 -0.02071858 -0.019306764
-0.05394201 0.13129035 0.09308666 -0.15587285 -0.0011021734 -0.15025179 0.01043471 -0.013269996
-0.0989039 -0.00998121 0.13928974 0.0025619257 0.03559123 -0.0025064056 0.02041627 -0.234063
0.037059013 0.0071454123 -0.098365895 -0.017483635 -0.13145684 0.16067871 -0.097306915 -0.15449935
0.010273649 -0.10536869 0.04485868 0.021194022 -0.15417866 -0.016358517 0.10411633 0.08187309

weight_ih_l0_reverse f4 [192, 32]
00000000: d560 cfbd 8bfb 073e 904f 8fbd f298 43bd
00000010: 205d 5fbd d4e7 35bd dfe5 023e f34c 94bd
00000020: 7e03 ac3b e6b1 333d 9667 143d b044 0e3c
00000030: c2a8 923d c842 8bbd 3796 e3bd 07f7 17bd
00000040: 70cf 2bbc 97ee 703d cfae 02bc 4975 90bd
00000050: 57f1 533d c619 cb3b b6bf 053c 9229 cdbd
00000060: 4613 793c 302b 6abb bc17 f63c 3982 d8bd
00000070: c7c6 41bd ba71 e43d 67b8 12bd d77e 1d3d
00000080: 9690 4cbc 419b a73d 79dc 84bd 00bf 23bd
00000090: 8592 bebd 426d 963a b4f5 973d d3af e63b
000000a0: 5d0b ee3d 03d2 2ebc 61e2 103d b0c0 96bd
000000b0: c515 9b3d 6600 8d3d a94f 9c3d 0dad 8d3d
000000c0: 9ec1 4dbd e290 183b 109c b63d 0ccf c1bc
000000d0: aa39 85bd 9f5d 673d 0040 33bd 605a af3d
000000e0: 4d25 303d 0e63 efbc 721b 24bc 6641 1d3e
000000f0: 496e a3bd 86f9 fe3d 4113 063e fcff dabc
00000100: 7e52 b0bc d014 073d 2ade e53c d2b4 bd3c
00000110: fd9d 993d 0404 1d3b 690b a23c 3e5a 8b3d
00000120: 8e95 123c 6a57 e93b 5c53 e63d 302f 773c
00000130: 67f3 f03d b816 4c3d f554 82bd 7bd3 e53b
00000140: 3d0c f33b 3f49 e3bc d660 02be 1f1b 98bd
00000150: 1dab 853d 6086 c33d 4d6c 8c3d ca82 b0bd
00000160: 9938 bd3d 5f0c b6bd 2b70 9dbd 1278 093e
00000170: a551 103b 2168 793d ac9d 5e3d 1cd9 b43d
00000180: 5f5a b13c db53 883d 2453 2fbd cae2 a83c
00000190: 7e55 693d 9eb1 b03c e2e7 ff3d 896c 18bd
000001a0: faf4 c3bc 4368 383d c357 f7bc ec3e e33d
000001b0: 7104 9a3d fac8 b1bc caf4 c33d 4516 37bd
000001c0: 79a3 873d 9272 0e3e 4653 b03c 5b80 72bd
000001d0: 2e8b 1bbd 024b bf3c 67f6 36bb 13a2 8a3d
000001e0: 18ce e5bc ff79 00be 86d8 2cbd 262d 61bd
000001f0: cb99 4bbb 1b11 dbbd 7595 0ebe e105 e1bc
00000200: 20c9 74bd d2cf 433d 3a5a 07bd e0a8 bd3d
00000210: a457 d3bd b357 c1bc 2f5e 123e 9097 703d
00000220: c108 da3c 1056 d13d 5a43 cd3d d1eb 593c
00000230: 9fc9 7a3d a53d ff3d 9e9e 34bd e229 083d
00000240: 1698 43bd d755 d93d c41b 68bd 2de0 9abd
00000250: 2b7c 033d 8e37 3fbc e2b9 903d 92d1 863d
00000260: 2a34 bcbd 1fc1 a13c 80f9 c5bd 6bc0 90bd
00000270: 0cdf ad3d a3ec e2bb c5a5 8cbd 45e1 1b3d
00000280: 1e14 ccbc 4e89 003c 168c 22be c702 8ebd
00000290: e8f2 ef3d a803 303d eedb b3bd 5353 5239
000002a0: 1ac6 88bd 83d6 89bc 7273 7abc dfba ddbc
000002b0: 0414 563d 518e f13c 06da 023e de27 32bd
000002c0: 08bd 76bd aae6 2dbd a1dd 73bd 08f3 bd3d
000002d0: fd6c 16be d493 c7bd 62c3 68bc 3409 efbc
000002e0: 6ed7 13be e351 41be 72a0 2fbe 17aa 2ebe
000002f0: 4900 15bd 2b3c 33be 6c28 fcbd e9d5 a2bd
00000300: 3070 70bd a278 bc3d 98c5 cc3d c105 e4bc
00000310: 69c3 e8bc 9d8b 90bd ee5a 783c 464a 06be
00000320: 6acf a73d 1b9f 0cbe cb20 0abe 0ea8 2dbd
00000330: ac32 edbd 42d9 8b3c a7af d5bd 9893 6b3b
00000340: 5025 09be 14d9 a23c a5e7 513a 8c10 b3bd
00000350: cdab d4bd c01c babb 7a08 143e bd4f 203d
00000360: 6523 66bc b158 c33d e414 3d3c c9e7 133d
00000370: 30e7 a13d 6978 95bd 4247 a1bc 85b9 bfbd
00000380: f1f5 a1bd b70c 42bd 9ad4 2b3d 79d2 163d
00000390: 9176 9e3d ca5c 67bd ee2e b23d 75fd 283d
000003a0: edb1 26bd 4d34 83bd 519d 04be 87cb f0bd
000003b0: b7c8 d53d 9c1a a2bd c6e3 283d 5b25 27bd
000003c0: cb3b 933d 095a 653d cf2e d53c 27de 55bb
000003d0: 2e47 e73d be4f f63d 542e e33c a4ac 1f3e
000003e0: 9b45 eb3d 267d 0e3c 6932 fabc 736c 133e
000003f0: 2bf0 a53d 682d 543c 9cbd 0b3e aeb4 113e
-0.10125891 0.1327955 -0.06997597 -0.047753282 -0.05453217 -0.04441054 0.12783001 -0.072412394
0.0052494397 0.04387083 0.0362316 0.008683369 0.07161094 -0.06799847 -0.111126356 -0.037100818
-0.010486469 0.058821287 -0.007976248 -0.0705362 0.05174383 0.006198141 0.008163383 -0.100176945
0.015202349 -0.0035731308 0.030040614 -0.10571713 -0.04730871 0.11154504 -0.03582039 0.038451042
-0.012485644 0.08183909 -0.06487364 -0.039977074 -0.0930529 0.0011476653 0.07419911 0.007040003
0.11623261 -0.010670188 0.03537214 -0.07360971 0.075725116 0.068848416 0.076323815 0.069177724
-0.050233476 0.0023279716 0.08916485 -0.023658298 -0.06505139 0.05648577 -0.043762207 0.085621595
0.043004323 -0.029222038 -0.010016309 0.15356979 -0.079800196 0.124499366 0.13093282 -0.026733391
-0.02152371 0.032978833 0.028060038 0.02315751 0.07500837 0.0023958692 0.019780831 0.06804322
0.008946789 0.0071210163 0.11246368 0.015086934 0.11765175 0.049826354 -0.063638605 0.007013736
0.0074172304 -0.027744887 -0.12732252 -0.07427048 0.06526778 0.09547114 0.06856594 -0.08618696
0.09239311 -0.08889078 -0.0768741 0.1342471 0.002202132 0.06089032 0.054349586 0.08830473
0.021649538 0.06656619 -0.0428039 0.020615954 0.056966297 0.02156907 0.124954 -0.037212882
-0.023920525 0.045021307 -0.030193215 0.11095986 0.075203784 -0.021702278 0.09568174 -0.044698972
0.06622977 0.13910893 0.021524083 -0.05920444 -0.03797453 0.023351196 -0.0027917863 0.067691945
-0.028052375 -0.12546538 -0.04219868 -0.054974698 -0.003106701 -0.10696622 -0.13924201 -0.027468624
-0.05976212 0.047805615 -0.03304503 0.09260726 -0.103194505 -0.023601389 0.1429374 0.05873829
0.026615502 0.10221493 0.10022612 0.013300852 0.061227437 0.1246293 -0.04409658 0.033243068
-0.047752462 0.10612076 -0.056667104 -0.075622894 0.032100838 -0.01167096 0.07066704 0.06582941
-0.09189637 0.019745408 -0.09666729 -0.07067951 0.084898084 -0.006925182 -0.068675555 0.03805663
-0.024911936 0.007845236 -0.15873751 -0.069341235 0.117162526 0.042972237 -0.08782183 0.00020058201
-0.0667841 -0.01682592 -0.015286313 -0.027066646 0.052265182 0.029486807 0.12778482 -0.04349505
-0.060238868 -0.042456307 -0.059537534 0.0927487 -0.14690013 -0.09744993 -0.014206739 -0.029179193
-0.14437649 -0.18878894 -0.17151049 -0.17057072 -0.036377225 -0.17503421 -0.12312397 -0.079509564
-0.05870074 0.092026964 0.099986255 -0.027834775 -0.028413491 -0.07057879 0.015158398 -0.1311427
0.08193858 -0.13732569 -0.13489072 -0.042396598 -0.115819305 0.01707137 -0.10433894 0.0035946127
-0.1339314 0.019878902 0.0008007235 -0.087433904 -0.10384331 -0.005679697 0.14456359 0.039138544
-0.014046525 0.09538401 0.011540625 0.03610972 0.07905424 -0.07298357 -0.019687299 -0.09361557
-0.07908238 -0.047375407 0.0419508 0.036821816 0.077374585 -0.056484975 0.087003574 0.04125734
-0.040697027 -0.0640646 -0.12950636 -0.1175757 0.10438674 -0.079152316 0.041232847 -0.04080711
0.07189139 0.055994067 0.026023297 -0.0032633634 0.11292873 0.12026928 0.027732052 0.15593201
0.114878856 0.00869683 -0.030541616 0.14396839 0.08102449 0.012950279 0.13646549 0.1422908

weight_hh_l0_reverse f4 [192, 64]
00000000: e374 2dbc d1d6 8dbc e2d1 f837 fb21 2d3b
00000010: 8b91 e2bd eec9 dabd a526 f63a 7d1f 98bd
00000020: 1e54 aebd e49d 20bd 9081 913c ee63 d7bd
00000030: ac71 d63d c063 ed3c 567f 2fbc 1a80 ddbc
00000040: b7c3 c13b 2e89 213e aa76 afbd 0b25 fbbb
00000050: 1b1a 83bd 0399 343c f3d1 59bd 35b1 c4ba
00000060: ea1f 733c c93b 023e b12e cdbd 498d 79bd
00000070: cbc6 a1bd 9b57 2c3d bd77 813d fcc9 183e
00000080: 3015 0cbd 2b97 483e fa41 95bd ed83 c3bc
00000090: 46ea 4b3a 4a77 2a3e c3e7 32bb 4a7b b33d
000000a0: 7826 dcbc 96a4 b8bd 399e 133e ed5b a4bd
000000b0: f72a 2ebd ad20 023c 68ee 34bd 18b3 6cbd
000000c0: df6a 90bd 14f7 873c 8ab0 51bd 5640 d3bd
000000d0: 6b4e 2c3d 01c5 953d 9e11 f13d 0b99 c73d
000000e0: ae92 de3b 5a5f 253e befe 6ebc ad88 0ebe
000000f0: e51f cd3d eb5a 113e caeb 4f3d 4582 95bd
00000100: 2d64 bc3d 435a 463d 8bd4 c73d 917b 2b3d
00000110: 2c99 79bd da30 dfbc 25d8 99bd b4e5 d73d
00000120: bfa4 a6bd 2614 283c e688 463d a479 b6bb
00000130: b8ea 15bc a95f c83c 310b 4b3d 86a9 943d
00000140: 7b36 e5bd 6d30 13bd 2537 893d 8ff3 df3d
00000150: 965a 2bbd 2fab b43d 5462 1f3d 5b0d c43d
00000160: e59c 6d3c 464b 0c3e f6d8 adbc f589 edbd
00000170: fc3b 9ebd ab42 f2bd dc32 2ebd 221c b3bd
00000180: 28e9 e0bd b1d3 d13c c019 703d 411f 253d
00000190: f985 10bd 11bb b33c 44a8 203c ae38 553d
000001a0: 718b cbbd eb3c 463d 526f 353d 5420 523d
000001b0: 4b6e 80bd 462f 4c3d b516 9bbd 33c3 4b3c
000001c0: cee3 2abd e075 dd3d b53d abbc dbcf b2bd
000001d0: 1079 91bd edc4 9a3d 0285 8b3d 1cee e13d
000001e0: dfca 9fbb 1187 c7bd cc00 133d 39da b83d
000001f0: 4cf2 82bd 9c9d cf3d 0b52 8abd fea9 a3bd
00000200: b518 ab3d f458 30bd 3d01 2dbd 74f2 03be
00000210: 120b 20be 364d a3bd 6efe f7bd 33d3 80bd
00000220: 55cd 683d 3c09 133d 77bb e6bc 11fb d03d
00000230: 7c33 153d 150d 0b3d a9a8 f1bd 9de3 c6bc
00000240: 6db2 023e be60 cbbd 329c b23d dec1 163d
00000250: 0f85 ea3d d5ff c7bc 1e42 173e 29c3 debc
00000260: 2995 e03c 0ddc 8f3c d014 e43d 1573 3abd
00000270: ef40 cbbd e915 a33d b9f7 e6bd 5877 773d
00000280: 46f1 083e 90c3 2c3d 56be c6bd 2b5f a73d
00000290: b3f2 19be 738c ec3b 9c4e 22bd b251 e9bd
000002a0: b16d 91bd 0cc4 febc d9ab a43d 8960 7f3d
000002b0: cc05 8cbd da95 293e b0de 423d d1c6 293d
000002c0: e261 093e a544 34bd fbd9 3e3d c8d2 f73b
000002d0: 1dcd 4c3c bc2e 003e 1782 983d 8100 b63d
000002e0: 9eb8 cabd cabf 053d 46b2 79bd 84fc a93d
000002f0: 7b52 0d3e e115 cf3d 77a9 613d aad1 f73d
00000300: 32e6 08be 625e 193c 2777 3fbd 2b62 f9bc
00000310: 829c 37bd 6442 de3d 993d 853c e7d0 f63d
00000320: 3350 2bbe 7b81 953d 03f5 e3b9 b684 00bc
00000330: 178d 013c 65e8 d83d 57f6 1f3d 3ec8 0bbe
00000340: 45cf ad3d 4a9f bcbd 9923 ea3d 87a3 a03d
00000350: cc2b 883d 5686 113e 2f71 fdbd 6e28 22be
00000360: d7b6 88bc a0a5 9bbd 4c97 c1bd ca56 8b3d
00000370: 1bae b2bb 2a2d 75bd e7bb b5bd 9d92 d9bd
00000380: 3c4f 0dbe a971 4e3d 76af 41bd c615 9dbd
00000390: cbe8 853d 49a4 b83c 2a35 0e3d dbe5 bfbc
000003a0: 11bd 333d b35c 4e3c 574d 88bd 84fb 2c3d
000003b0: 198b c83c d6ba 9b3d 4051 dc3d c322 d03d
000003c0: 088e 603c c3ff 87bd e00e 7cbd 7fa4 0d3e
000003d0: 4757 84bc e9a2 fbbc 4d04 443d 88a5 eb3d
000003e0: c268 d43c 2e3b de3d 8b19 34bd 8463 c1bc
000003f0: 846b b53d fd8b 77bc 091e cd3a 25ee 433e
-0.01058695 -0.017314347 2.9661638e-05 0.002641796 -0.11062916 -0.10683046 0.0018779828 -0.07427881
-0.08512138 -0.039213076 0.017761976 -0.10517107 0.104709 0.028978229 -0.010711512 -0.027038623
0.0059132236 0.15774986 -0.08567555 -0.007664328 -0.064014636 0.011022809 -0.05317874 -0.0015006425
0.014839152 0.12718119 -0.10018671 -0.060925756 -0.07899245 0.042075735 0.063216664 0.14920801
-0.034199893 0.19588916 -0.07287975 -0.023866618 0.0007778745 0.16647068 -0.0027298785 0.0876375
-0.026873812 -0.09015767 0.14415826 -0.08025346 -0.042521443 0.007942361 -0.044172674 -0.057787985
-0.07051634 0.016597308 -0.05119375 -0.103150055 0.042066973 0.07312966 0.11770938 0.097459875
0.006792388 0.16149655 -0.014587102 -0.13919325 0.10015849 0.14194839 0.050761975 -0.073002376
0.091987945 0.048425924 0.09757336 0.04186589 -0.06093709 -0.027244974 -0.075119294 0.10541859
-0.081368916 0.01025871 0.0484704 -0.0055687 -0.0091502 0.024459677 0.04957122 0.072588965
-0.11192032 -0.035934854 0.06699971 0.10935127 -0.041834436 0.08821713 0.038912132 0.0957286
0.014502739 0.1370059 -0.02122162 -0.11598579 -0.07726285 -0.11829122 -0.042528972 -0.087456
-0.10981971 0.025613638 0.058618307 0.04031301 -0.035284016 0.021939786 0.009805743 0.052056007
-0.09938706 0.04839794 0.044295616 0.05130036 -0.06271037 0.04984977 -0.075726904 0.012436676
-0.041721158 0.108134985 -0.020903448 -0.087310515 -0.07103169 0.07557092 0.068124786 0.11031744
-0.004876479 -0.09742559 0.03588943 0.09025998 -0.06393871 0.101374835 -0.0675393 -0.07991408
0.08354322 -0.043053582 -0.04223751 -0.12885457 -0.15629223 -0.07973711 -0.121090755 -0.06290283
0.056836445 0.03589748 -0.028165562 0.10204137 0.036426052 0.033948023 -0.117997475 -0.024278456
0.12763377 -0.099305615 0.08721198 0.03680598 0.1145116 -0.024413982 0.14771315 -0.027192669
0.027414875 0.017560983 0.11136782 -0.045519907 -0.099244945 0.079631634 -0.11277718 0.06041655
0.13373289 0.04217869 -0.097042724 0.08172449 -0.15033989 0.0072188913 -0.03962575 -0.11392535
-0.07101 -0.031099342 0.0804059 0.062347922 -0.06837043 0.1656107 0.047575653 0.04144937
0.13416246 -0.044010777 0.0465946 0.007562969 0.012500075 0.12517828 0.07446688 0.08886815
-0.09898494 0.032653607 -0.06096103 0.08300117 0.13800995 0.10111595 0.055093255 0.12100537
-0.13369063 0.0093608815 -0.046744492 -0.030442318 -0.04482699 0.10852507 0.016264724 0.12051564
-0.16729812 0.07300087 -0.00043479362 -0.007844141 0.007907174 0.10591201 0.039053287 -0.13650605
0.08486799 -0.092100695 0.11432571 0.0784369 0.066489786 0.14211401 -0.12375104 -0.15835735
-0.016688747 -0.0759995 -0.09452686 0.06803663 -0.005452884 -0.059857525 -0.0887373 -0.106236674
-0.13799757 0.050401364 -0.047286473 -0.076701686 0.06538542 0.022539275 0.03471867 -0.023425033
0.04388148 0.012595343 -0.066553764 0.04223205 0.02448039 0.076039955 0.10757685 0.1016288
0.013705738 -0.066405796 -0.061537623 0.13832282 -0.016154898 -0.03071733 0.047855664 0.11506182
0.025928859 0.108511314 -0.043969672 -0.023607023 0.088583976 -0.015109059 0.001564921 0.19133814

bias_ih_l0_reverse f4 [192]
00000000: 46f3 cabd ddec adbd 322a 5dbd 072f e33c
00000010: e22b 003c 3b2d c9bd 6a33 c73c c341 e3bd
00000020: e02d c23d 4328 c33c fd62 6a3d 7e5d e8bb
00000030: f3b1 243e d3bc fdbd 1c2b 353d c713 d33d
00000040: ee83 0f3d ad5a 833b cd65 b53b 076a 85ba
00000050: 4242 b5bd d4c9 313d f90a cf3d 5d49 b63d
00000060: 2ae1 0bbd 12ac 95bd 9b86 87bd 09a4 f2b8
00000070: 68fb 443d 9260 98bc a9c2 86bd 82ee f03d
00000080: efdd 7cbd b100 43bc e219 3abd 114d 10bd
00000090: bf9c b53d 98ea b93d 35a5 4a3d da36 de3d
000000a0: 5d77 243e 90cb a7bd 4905 83bd 090a cdbd
000000b0: 32f5 ea3d 94b4 4e3d c0a9 85bd bc0d 5ebc
000000c0: 6965 613d dbc0 6bbd faa3 033e 688c 293d
000000d0: e542 95bd 5d41 67bd cd78 e53c b3d5 083e
000000e0: 5c16 3b3d 428c b73d 55de e6bc 3ace ea3d
000000f0: fb17 60bc 4f94 3c3c 8b2a c33b b431 25bd
00000100: ca25 dfbd 6550 70bd 8c36 193e 38bc c33c
00000110: 65c0 7cbd 2b89 903c 1aad aa3d c8ff 0bbd
00000120: c8e4 bcbd 720a 713d b0b3 1dbc e4ca 283b
00000130: 0827 89bd 8c88 9ebd 1ab9 58bd 00a2 983b
00000140: 20d9 18bd 7e36 823d 19e7 0c3d a63f bfbd
00000150: aac9 3abd 449c bcbd 060f e5bd 3eb0 b3bd
00000160: 83d3 ba3d 34d9 72bd 478d c1bd d06b 30bd
00000170: f9da dfbc 007b 733c 5347 34bd f623 85bc
00000180: fd83 68bd 9ec0 10bb 09f0 593d 540d 41ba
00000190: db7a 123e 89c6 7f3d 1b15 71bd e167 38bd
000001a0: 059a f8bd 3419 8f3d 24dc 9ebd ccea 103c
000001b0: 638e 6c3d c769 a33c 0633 5e3b 47c9 033e
000001c0: bd61 c23d 4e76 76bd 6e59 2dbd e361 54bd
000001d0: b901 61bc 0a92 97bd e192 12be 0b48 e53d
000001e0: 8931 673c e235 833d 493d db3d 082c 85bb
000001f0: ac0c f4bc 39b4 04bc 9d3c 7dbc a283 dabc
00000200: dedf be3d f6c0 b03d a965 983c 2c85 e8bd
00000210: 4b99 e7bd 31fe b5bd 77ad a7bd 9cde 4fbd
00000220: 91e6 a23d 1746 aebb b7b5 88bd 57eb 14bd
00000230: 01e8 3d3d 7917 3fbd 06a3 70ba 746b 30bd
00000240: 552e 273d 5e2f 7abd 9a74 08be 4545 38bd
00000250: 9ead cf3d 321a 983c cb22 80bd 700a e13d
00000260: d603 133d 6f75 36bb 6e47 86bd 93ab ff3c
00000270: b805 143c ceff d63d 0bc5 093d a8a4 9a3d
00000280: 0012 7f3d edd1 6a3d a183 8dbd 2576 d1bd
00000290: 6149 c0bd 2d3c 92bd 9358 f03c 8df2 6b3b
000002a0: 7696 8d3d 87e1 21bd 1876 b4bd 7b05 eabd
000002b0: e9ba 7a3d d2a4 5abd 600d 813c 28fc 9abd
000002c0: 0336 933d 9158 3dbd ba4c e0bc ed2d 11be
000002d0: 653a d43c cdbd 51bd 6147 7abd b535 2c3d
000002e0: 2d38 33bd 781b 6f3d f826 fa3c 23b5 9dbd
000002f0: 565d a3bd 913c c7bb 98a2 78bd a4d0 7cbd
-0.09909682 -0.08492444 -0.05399532 0.027732385 0.0078229625 -0.0982308 0.024316508 -0.110965274
0.09481406 0.02382291 0.05722331 -0.0070912233 0.16083507 -0.12389531 0.044230565 0.103065066
0.035037927 0.004008612 0.0055358172 -0.0010178693 -0.08850528 0.04340537 0.10109515 0.08900712
-0.03415028 -0.073082104 -0.06617471 -0.00011570013 0.048091322 -0.018600736 -0.06580097 0.11764242
-0.06173509 -0.01190202 -0.04543484 -0.035229746 0.088677876 0.09077948 0.04947396 0.10850306
0.16061158 -0.08193123 -0.063974924 -0.1001168 0.114725485 0.05046518 -0.06526518 -0.013553079
0.055028353 -0.05755697 0.12855521 0.041393667 -0.0728815 -0.05645882 0.028011704 0.1336277
0.04567562 0.08962299 -0.028182188 0.11465116 -0.013677592 0.011509969 0.0059559993 -0.040330604
-0.108958796 -0.05867042 0.14962214 0.02389346 -0.06170692 0.017643532 0.08333798 -0.03417948
-0.09223324 0.058847852 -0.00962536 0.0025755698 -0.06696898 -0.07740888 -0.0529109 0.004657984
-0.03731644 0.0635805 0.03440008 -0.09338312 -0.045602478 -0.09209493 -0.11184506 -0.0877385
0.09122374 -0.059289172 -0.09450775 -0.043071568 -0.027326094 0.014860868 -0.044013333 -0.0162525
-0.0567665 -0.0022087465 0.05320743 -0.0007364352 0.14304678 0.062445197 -0.05885802 -0.04502094
-0.12138752 0.06987229 -0.07756832 0.008845042 0.057752978 0.0199479 0.0033904924 0.1286975
0.09491298 -0.060171418 -0.042321615 -0.051851165 -0.013733321 -0.074009016 -0.14313842 0.11195382
0.014110931 0.06406762 0.107050486 -0.004064087 -0.029791199 -0.008099609 -0.015456346 -0.026674096
0.09320043 0.086305544 0.018603163 -0.113535255 -0.11308535 -0.08886374 -0.08187383 -0.050749406
0.07954133 -0.005318414 -0.06675284 -0.03635725 0.046363834 -0.046653245 -0.0009179566 -0.043071225
0.04081567 -0.06108033 -0.1332573 -0.044987936 0.10140537 0.018567178 -0.06256636 0.10988319
0.03589233 -0.0027840992 -0.06556593 0.031209743 0.009034567 0.104980096 0.03363518 0.07550937
0.062273026 0.057329107 -0.06909872 -0.102276124 -0.09388996 -0.07140384 0.02933911 0.0036002726
0.06913464 -0.03952172 -0.08811587 -0.114268266 0.061213408 -0.05337984 0.015753448 -0.07567626
0.07188036 -0.04622704 -0.027380336 -0.14177676 0.025906751 -0.0512064 -0.06110323 0.042043407
-0.043754745 0.058375806 0.03053616 -0.07700565 -0.07976787 -0.006080218 -0.060701936 -0.061722413

bias_hh_l0_reverse f4 [192]
00000000: 7453 c1bd ac66 523d 38ca 133d 2f37 833d
00000010: 6e58 b5bd 7df3 32bc 3a2a c5bd 3cb3 f23d
00000020: db6d c8bd 505e df3d 4c6d 85bd c486 b23d
00000030: ea0c 25bd a452 8a3b 8b5c 65bd 1378 d7bc
00000040: 3b63 a73d d88c 273c 7d70 933d d3ec 9fbd
00000050: c8ce e43d 7e6a 073c 1c50 d5bd 08a3 d4bd
00000060: ac9a 6c3a 8e16 0a3d 5100 e0bc f669 073c
00000070: 03ec ccbd 1c6f c83d 9a18 df3d d1bc f33d
00000080: 1461 9b3d 1d7a d63d 9861 a33c d369 d2bc
00000090: cbdd 233d 27a7 dabd 18db 0fbe 7452 003e
000000a0: 53a6 253e 5571 06bd d58f a63d a39a 5cbd
000000b0: c627 9f3d 210a acbd 508e 2a3e 5fda ea3d
000000c0: 4b5c 88bb 887c 8bbd 0194 97bd 91ec 983d
000000d0: 7830 f33d 9712 74bb e55f 483d 0a83 2abc
000000e0: f033 b13d 27c0 193b 829d e73d e0cb fe3c
000000f0: 2e60 be3d 30e0 873c 6896 6fbd 21b5 99bd
00000100: 153a efbd aa4a 61bc d863 d13d e346 c63d
00000110: 65d7 d83d 88d6 9d3d fcc1 0dbd 564c d33d
00000120: 17f6 eebc bf13 953d a6e2 a1bd a858 103e
00000130: 9fc1 313c 287a 1b3b f317 c5bc a8fc 23bd
00000140: 704a 4d3d eb26 b0bd 335b 81bd fbfd aebd
00000150: 5635 e1bc 66d4 413d 9ade bf3b f6e9 8e3d
00000160: 89a7 19bd 0bdf 1dbe 51e6 69bd 5abf e83d
00000170: d3e2 e0bc f68d 743d cd95 873d 1d4f 903d
00000180: 0c10 163c 8a97 b6bd 75bf d9bb a61e 85bd
00000190: c7ed 973d 1279 60bd 4c2b a43d 80c8 43bd
000001a0: bb37 11be 618e fe3c 39b9 12bd 5f61 dd3c
000001b0: 7f4b 1a3d 9511 0d3b 7fd6 80bd 4b51 173e
000001c0: faa7 3c3c f7b8 2a3d 3c23 b6bd 7354 4fbd
000001d0: bc8a 76bc be23 8ebb c91e 343b 58c9 a93d
000001e0: 0b13 f23d 848f 51bd 3beb aa3d 999b 0cbd
000001f0: d17b 33bd f946 7abd 9646 d0bc 96e6 86bd
00000200: 88c5 a53d 2c58 e4bc 1169 62bd ec68 763d
00000210: befe d23d 46ec 61ba 373f 05bd 2389 b03d
00000220: 549c f4bd d161 073c 4249 d6bb ca07 9a3b
00000230: 3a3b 683d 02f7 94bd b56a abbd 86cb d43d
00000240: 0606 bfbd 15c2 37bd 34d0 f13d e274 f13c
00000250: ee66 a7bd 01df 43bd d922 9ebd bcf8 f4bc
00000260: 16a7 8b3d 49f4 ddbd 88da 83bd caa4 02bd
00000270: 11f2 093d d98f 003d fd23 943d 3fc3 0d3e
00000280: dc24 90bd b2a7 d83d 4c49 813d f2d7 2ebe
00000290: e435 b1bc 68dc 98bc 9ca7 223a 35ae b13d
000002a0: 0aa8 5f3c 2728 02be 4c7f eebd 332e e0bd
000002b0: d63a bbbd 7a1b 613c 7e6e 15be 25ad c7bd
000002c0: b80a b93d 6b1a f33d 773c bb3d f443 a1bd
000002d0: a0ad 69bc 2181 debc 428b 17bd c674 2d3d
000002e0: 3a61 763d 6623 8fbc 2edf 7bba 07a4 c3bc
000002f0: 548b ae3d a25b 403c 97a8 b7bb 75bf 02be
-0.094397455 0.051367447 0.036081523 0.0640701 -0.08854757 -0.01092231 -0.09627195 0.118505925
-0.09786578 0.109066606 -0.06514987 0.08717111 -0.04029552 0.0042212773 -0.05599646 -0.026302373
0.081732236 0.010226451 0.0719919 -0.078088425 0.11172253 0.008265136 -0.1041567 -0.10382658
0.00090257335 0.033712916 -0.0273439 0.008265009 -0.10005953 0.097868174 0.10893364 0.11901248
0.075868756 0.1047251 0.019943997 -0.025685227 0.04000644 -0.10676413 -0.14048421 0.12531453
0.16176729 -0.032822926 0.081329025 -0.05385841 0.07771258 -0.084003694 0.1665585 0.11467432
-0.004161393 -0.06810862 -0.074012764 0.074669965 0.11874479 -0.0037242526 0.048919577 -0.010407219
0.086524844 0.002346048 0.11309339 0.031103075 0.092956886 0.016586393 -0.058493048 -0.07505251
-0.11681 -0.013750711 0.10224122 0.09681489 0.10587958 0.07706934 -0.034608826 0.10317294
-0.02917008 0.07279157 -0.07904558 0.1409632 0.0108493855 0.0023723934 -0.024059271 -0.040035874
0.050119817 -0.08601173 -0.06316223 -0.08544537 -0.027491253 0.0473217 0.0058553936 0.06978218
-0.03751329 -0.15417115 -0.057104412 0.113646224 -0.027451908 0.059705697 0.06620369 0.0704634
0.009159099 -0.089156225 -0.006645138 -0.06499986 0.07418399 -0.05480296 0.08016071 -0.047798634
-0.14181416 0.03107375 -0.035821173 0.02702397 0.037669655 0.0021525372 -0.06290912 0.14777105
0.011514658 0.041680302 -0.08893439 -0.050617646 -0.015047725 -0.004337757 0.002748417 0.082903564
0.118200384 -0.051162258 0.08345648 -0.034328077 -0.043819252 -0.06110284 -0.025424283 -0.065869495
0.08094317 -0.027874075 -0.05527598 0.060158655 0.103024945 -0.00086182763 -0.03253099 0.08619907
-0.1194388 0.008263067 -0.0065394947 0.0047006356 0.056697108 -0.072736755 -0.08369962 0.103903815
-0.09327321 -0.044862825 0.1180729 0.02947468 -0.08173929 -0.047820095 -0.077214904 -0.029903762
0.068189785 -0.10837609 -0.06438166 -0.031895436 0.03367812 0.031387184 0.07233427 0.13844012
-0.0703828 0.1057886 0.063128084 -0.17074564 -0.021632142 -0.018659785 0.00062047853 0.086758055
0.0136509035 -0.1271063 -0.11645374 -0.10946312 -0.091420814 0.013739461 -0.1459293 -0.097498216
0.090352476 0.11870273 0.09142392 -0.07874289 -0.014262587 -0.027161183 -0.03699804 0.042347692
0.060151316 -0.017472934 -0.00096081465 -0.023881925 0.085226685 0.011740597 -0.0056048143 -0.12768348
