reports/training_PMEmo_VA_gain_shift_gain_reverb_lowpass_highpass_bandpass_pitch_shift_2026-01-08_22-51-48/training_PMEmo_VA_gain_shift_gain_reverb_lowpass_highpass_bandpass_pitch_shift_2026-01-08_22-51-48.pth (torch, 156572 bytes, 10 tensors)

weight_ih_l0 f4 [192, 32]
-0.0013243158 0.039604854 -0.061890304 -0.036209974 0.07540807 0.060218405 0.043835886 0.13376446
0.06990297 -0.05144144 0.08832934 -0.010704531 -0.033206686 0.08077696 -0.11149412 0.03322474
0.053161107 0.012507467 -0.03923381 -0.011320567 0.16558388 0.16242975 -0.012111758 0.15679468
-0.008422127 0.19777808 0.22020695 0.14610891 0.10448873 0.19592105 0.15832607 0.08622786
0.0798479 -0.02896827 0.115786925 0.12485115 -0.034723595 -0.11590926 -0.16260022 0.079093285
0.07985675 0.008850306 -0.05870813 0.105423644 0.042129096 0.01132164 -0.17378241 0.06446704
-0.081004165 -0.012761996 -0.014348517 0.044992898 0.19339208 0.112252444 0.086800836 0.08197385
0.08883318 0.11940863 0.20251615 0.0742274 0.053038344 0.109983295 0.20929825 0.023252815
0.028403636 -0.09569888 0.047630254 -0.028756857 -0.017851507 -0.013689135 -0.059244692 0.12835616
-0.15024903 -0.06688281 0.048132233 -0.026794154 0.03954888 -0.1426781 -0.06959259 -0.023785254
-0.07793519 0.060603287 0.10970875 -0.058700167 0.1355878 -0.058709227 0.094516754 -0.02617089
0.10259562 0.13171627 -0.04981964 -0.010194297 -0.089260936 -0.008916124 -0.06377938 -0.029161718
-0.049148146 0.052026816 0.070939735 0.045430522 0.009018545 0.013624121 -0.032146774 -0.05774191
-0.14795181 -0.1433363 -0.015271443 0.046619106 0.15802062 -0.009961236 -0.10316699 0.015879896
-0.0463285 -0.14391881 -0.055327512 0.07686572 0.022551635 0.10032012 -0.01985832 -0.07437949
-0.037350163 0.07823364 -0.021589743 0.008927666 -0.011936727 -0.062022 0.05897195 -0.1542691
-0.007514096 0.06140437 0.09707822 -0.08301753 0.03548232 -0.13226026 -0.092278205 -0.020180145
0.0017618829 -0.089568295 -0.004886999 0.03668957 0.12470609 -0.08827414 -0.08689063 -0.053743783
-0.060363866 -0.029741408 -0.05327115 -0.04975327 -0.05985365 0.13566174 0.11748534 -0.036386754
0.08413046 -0.039363787 -0.01575908 0.0759258 0.070806816 0.12608774 0.07444904 0.017298538
0.06403006 0.123509675 0.04272003 0.06533593 0.020509753 -0.08108061 0.028020658 0.012288434
0.009909864 -0.07360967 -0.092942774 -0.067687266 -0.096362256 0.023843596 0.036487427 0.015395599
0.10683597 0.09328066 -0.05121763 0.022785258 0.108175 0.21391967 0.09264864 0.058372084
0.01830913 -0.011833034 0.029659212 0.161621 0.04800614 -0.020855265 0.11187514 -0.057403263
-0.028861463 0.07089208 0.09625655 0.1216 -0.007761447 -0.005190843 0.06605912 -0.022539424
-0.022542419 -0.08143251 -0.11968292 0.004373833 -0.0077894176 0.034674916 -0.035238054 -0.023594722
-0.0056254817 -0.038578168 -0.16524363 0.07705222 -0.05462063 -0.019177927 -0.05050722 0.16929808
0.13325565 0.12921047 0.108779676 0.12755887 0.04011929 0.0044464534 -0.055913392 -0.028191864
0.0049365633 0.13586512 0.0075151217 -0.09259717 -0.060953535 -0.0147352815 -0.020818267 -0.009919096
-0.012566072 0.0047430797 -0.14496942 -0.009821464 0.055907603 -0.0054536574 -0.010943551 0.021429121
0.08088653 0.057303265 -0.09010459 0.033831928 0.017233988 0.068149485 0.16099027 -0.047220737
-0.029814536 0.15436578 0.08599236 -0.027502216 0.11510273 0.1325264 0.036488086 -0.0116873905
00000000: aa94 adba b338 223d b080 7dbd e950 14bd
00000010: 8c6f 9a3d 93a7 763d 428d 333d 8df9 083e
00000020: 4a29 8f3d 42b4 52bd 03e6 b43d 0f62 2fbc
00000030: bc03 08bd 646e a53d 0757 e4bd aa16 083d
00000040: 76bf 593d 1eec 4c3c a2b3 20bd e679 39bc
00000050: d28e 293e fc53 263e 6570 46bc c98e 203e
00000060: f6fc 09bc 5686 4a3e ee7d 613e 939d 153e
00000070: 30fe d53d 879f 483e 3b20 223e 3b98 b03d
00000080: 4c87 a33d de4e edbc b221 ed3d f6b1 ff3d
00000090: 543a 0ebd d661 edbd ac80 26be a9fb a13d
000000a0: f08b a33d e000 113c f077 70bd 5ae8 d73d
000000b0: 8f8f 2c3d 667e 393c 04f4 31be 4c07 843d
000000c0: 83e5 a5bd b117 51bc 0b16 6bbc 794a 383d
000000d0: 9308 463e 9ce4 e53d a3c4 b13d e8e1 a73d
000000e0: 2cee b53d 838c f43d 6560 4f3e 8904 983d
000000f0: bc3e 593d ec3e e13d 4852 563e b07c be3c
00000100: beae e83c c6fd c3bd f117 433d 8093 ebbc
00000110: 533d 92bc 6548 60bc 90aa 72bd cc6f 033e
00000120: e2da 19be dbf9 88bd 4e26 453d 6a7f dbbc
00000130: 02fe 213d 351a 12be 8f86 8ebd 4bd9 c2bc
00000140: 7c9c 9fbd 273b 783d fbae e03d 966f 70bd
00000150: 87d7 0a3e 1679 70bd 0092 c13d 5664 d6bc
00000160: a71d d23d a1e0 063e ae0f 4cbd fb05 27bc
00000170: 70ce b6bd ef14 12bc c39e 82bd 8ee4 eebc
00000180: 914f 49bd 121a 553d da48 913d 5b15 3a3d
00000190: 85c2 133c b537 5f3c 56ac 03bd c882 6cbd
000001a0: ae80 17be c0c6 12be 1335 7abc adf3 3e3d
000001b0: 28d0 213e 7434 23bc 3749 d3bd 8e16 823c
000001c0: f4c2 3dbd 745f 13be 1a9f 62bd c66b 9d3d
000001d0: 35be b83c a374 cd3d eaad a2bc 4654 98bd
000001e0: 7cfc 18bd f538 a03d f9dc b0bc 5845 123c
000001f0: 4392 43bc c80a 7ebd 928c 713d b8f8 1dbe
00000200: ce38 f6bb 2683 7b3d f2d0 c63d 1805 aabd
00000210: e955 113d 3c6f 07be 5bfc bcbd d550 a5bc
00000220: fbee e63a 956f b7bd 1e23 a0bb cd47 163d
00000230: e865 ff3d 13c9 b4bd b7f3 b1bd 7122 5cbd
00000240: 1a40 77bd 41a4 f3bc d932 5abd 16ca 4bbd
00000250: 1a29 75bd e9ea 0a3e 279c f03d 470a 15bd
00000260: 974c ac3d ec3b 21bd 3019 81bc fc7e 9b3d
00000270: 2a03 913d 251d 013e bd78 983d aab5 8d3c
00000280: 3122 833d a4f2 fc3d 33fb 2e3d d8ce 853d
00000290: 1204 a83c 970d a6bd 948b e53c 6e55 493c
000002a0: fb5c 223c abc0 96bd c858 bebd 9f9f 8abd
000002b0: 9359 c5bd a553 c33c d773 153d d33d 7c3c
000002c0: d1cc da3d ee09 bf3d 94c9 51bd 26a8 ba3c
000002d0: db8a dd3d c20d 5b3e 92be bd3d 9117 6f3d
000002e0: 07fd 953c 58df 41bc e0f7 f23c fa7f 253e
000002f0: 16a2 443d a9d8 aabc cb1e e53d af1f 6bbd
00000300: e06e ecbc de2f 913d 2722 c53d 6c09 f93d
00000310: bd53 febb f217 aabb 014a 873d 99a4 b8bc
00000320: e1aa b8bc 16c6 a6bd 521c f5bd 5f52 8f3b
00000330: 5f3e ffbb 4907 0e3d c755 10bd b849 c1bc
00000340: f655 b8bb 2404 1ebd a035 29be 8ecd 9d3d
00000350: e2b9 5fbd 071b 9dbc a9e0 4ebd 7a5c 2d3e
00000360: 2b74 083e c04f 043e e1c7 de3d cb9e 023e
00000370: 2054 243d 8eb3 913b 7105 65bd a0f2 e6bc
00000380: e5c2 a13b 3a20 0b3e 6941 f63b 96a3 bdbd
00000390: 6aaa 79bd 406c 71bc 128b aabc b483 22bc
000003a0: ede1 4dbc d66b 9b3b dd72 14be 35ea 20bc
000003b0: 5fff 643d 98b4 b2bb 944c 33bc 208c af3c
000003c0: d6a7 a53d d4b6 6a3d c188 b8bd 5993 0a3d
000003d0: 4b2e 8d3c f591 8b3d a2da 243e 886a 41bd
000003e0: 9d3d f4bc 1012 1e3e c31c b03d 544c e1bc
000003f0: fbba eb3d 00b5 073e 8874 153d 787c 3fbc

weight_hh_l0 f4 [192, 64]
0.065693446 -0.039192855 -0.020274252 0.1841787 -0.0066168816 0.071034454 -0.07487284 0.1425252
0.09281147 -0.13086541 -0.072470106 0.074834965 -0.18622594 0.013453484 -0.17963514 0.035726137
0.109478466 -0.019908253 -0.09813461 -0.18959036 0.065059006 -0.10223831 0.0416468 -0.064200245
-0.029349191 0.10856315 0.02523257 0.0014182433 0.15126501 -0.12932038 -0.104722895 -0.1053956
-0.016891496 0.13377361 -0.070029676 0.05106898 -0.20291303 -0.08641949 -0.044130605 0.22366914
-0.12540434 -0.16341063 -0.13192329 0.19408245 0.048544284 -0.015099878 0.07229731 0.014839155
0.045083243 -0.006911955 0.04111131 -0.071235605 -0.0025889017 0.17509829 0.009650162 -0.09076295
0.14024504 -0.10378447 0.019400941 -0.0036898514 -0.1297284 -0.048265204 -0.065025605 -0.09357812
0.011390933 -0.09926665 0.11534605 -0.092154115 0.03083785 -0.09172295 -0.21820004 0.13565826
0.18849687 -0.1573482 0.07141563 -0.04507024 -0.1611355 -0.06365228 -0.11702442 0.08066856
0.14065301 0.086444475 0.055370644 -0.14156862 -0.09397263 0.0176542 0.21931988 -0.15292066
-0.1112097 0.03344902 -0.07301067 -0.02546573 0.11063953 -0.04191555 -0.032522038 0.038197614
-0.0029280214 -0.043006077 -0.046938293 -0.14965051 0.0062302025 0.009050793 -0.09213141 0.069137685
-0.06093512 -0.09521538 -0.0064240987 0.2216783 0.1625292 0.11482685 -0.02594917 -0.08597039
-0.059043635 -0.04284984 -0.2165132 0.063672096 0.05458344 0.14372355 0.003620866 0.077083096
0.11031391 -0.01369096 0.026447788 0.08725476 -0.23562656 -0.083631374 -0.08418448 -0.050863348
0.1255922 -0.10192658 -0.07718363 0.083856806 0.010464157 -0.008409248 0.09886858 -0.057821885
-0.05845791 -0.13359521 -0.11395792 -0.13369443 -0.023833334 -0.018843763 0.063213855 -0.032842785
0.001100873 0.07682825 -0.11509868 -0.1056562 0.0066420953 -0.11210996 0.028133044 0.15342598
-0.043566335 0.11192743 0.03516761 0.080680706 -0.053236574 -0.087248534 -0.033113092 0.050419677
-0.018776389 0.013362222 0.052711934 0.08012299 -0.06102628 -0.032839827 -0.00033493125 -0.0320074
0.148786 -0.082861476 -0.05968363 -0.031397764 0.056929205 0.081910044 0.123447835 -0.1445509
-0.1509633 -0.03639718 0.058662586 -0.15204413 0.024485126 0.09432999 0.024134705 -0.013500419
-0.0976739 0.030472824 -0.0075792517 0.12368722 -0.08288511 0.0520713 -0.059363812 0.016950075
0.057029758 -0.09975726 0.05542439 0.012062443 -0.11824368 -0.0636458 0.031129094 -0.012350778
-0.08211013 0.13173543 0.071241036 0.1192534 0.113284685 -0.088558555 0.06335688 -0.009223903
-0.10289053 0.048397746 -0.058500312 0.023821255 -0.104238115 0.111121416 -0.088910386 -0.08319106
0.10380771 -0.115615144 0.039140385 0.021259468 -0.14187875 0.03267428 0.034222968 0.033935286
-0.10437851 0.0048912284 -0.035551544 0.0763064 0.071522735 0.13791074 0.0049209897 -0.062377967
-0.022301445 0.07628447 -0.06319273 0.018952442 0.02964328 0.11899814 -0.11260265 0.07595744
0.017679654 -0.0499442 0.13354243 -0.081639946 0.12450715 -0.04428571 0.017769063 0.08742645
0.08353131 0.08575829 -0.11571185 -0.13388191 -0.056554243 -0.1617344 -0.044953585 -0.10645472
00000000: 498a 863d b088 20bd 3016 a6bc 5799 3c3e
00000010: 6dd2 d8bb 837a 913d ee56 99bd 20f2 113e
00000020: f113 be3d 9501 06be 356b 94bd 1343 993d
00000030: 03b2 3ebe 006c 5c3c 46f2 37be 9255 123d
00000040: 3f36 e03d a216 a3bc ccfa c8bd fa23 42be
00000050: a83d 853d 5262 d1bd d695 2a3d 6b7b 83bd
00000060: b76d f0bc 5b56 de3d 89b4 ce3c 59e4 b93a
00000070: 37e5 1a3e 906c 04be f578 d6bd a6d9 d7bd
00000080: 0960 8abc f3fb 083e b86b 8fbd b52d 513d
00000090: 6fc8 4fbe b4fc b0bd 4bc2 34bd 8609 653e
000000a0: ff69 00be 1e55 27be e616 07be 8dbd 463e
000000b0: 5fd6 463d 7b65 77bc 9d10 943d ed1f 733c
000000c0: 35a9 383d ae7d e2bb 5564 283d f9e3 91bd
000000d0: 90aa 29bb f74c 333e b71b 1e3c ede1 b9bd
000000e0: 659c 0f3e f48c d4bd b9ee 9e3c 6fd1 71bb
000000f0: 86d7 04be bcb1 45bd 252c 85bd e3a5 bfbd
00000100: 09a1 3a3c 504c cbbd 8d3a ec3d 4cbb bcbd
00000110: a99f fc3c 3ed9 bbbd d56f 5fbe 00ea 0a3e
00000120: 5305 413e e31f 21be 5c42 923d 929b 38bd
00000130: b400 25be 205c 82bd 80aa efbd 8f35 a53d
00000140: 5807 103e cd09 b13d 54cc 623d 5df7 10be
00000150: b974 c0bd 8a9f 903c 6495 603e 3c97 1cbe
00000160: e9c1 e3bd d701 093d 9e86 95bd 829d d0bc
00000170: fa96 e23d a4af 2bbd d435 05bd 1a75 1c3d
00000180: 0ce4 3fbb 2427 30bd 5e42 40bd fc3d 19be
00000190: ba26 cc3b c749 143c 65af bcbd 0f98 8d3d
000001a0: 1b97 79bd 4800 c3bd 3f81 d2bb a3ff 623e
000001b0: 0e6e 263e 572a eb3d 5b93 d4bc 3e11 b0bd
000001c0: bdd7 71bd 5083 2fbd a3b5 5dbe 8466 823d
000001d0: e392 5f3d 442c 133e 0d4c 6d3b bedd 9d3d
000001e0: 42ec e13d 0c50 60bc 08a9 d83c a0b2 b23d
000001f0: 1748 71be ed46 abbd ea68 acbd 1656 50bd
00000200: 3e9b 003e e2be d0bd 7312 9ebd 1ebd ab3d
00000210: db71 2b3c f1c6 09bc 9c7b ca3d a4d6 6cbd
00000220: 9071 6fbd 2fcd 08be c562 e9bd 31e7 08be
00000230: 203e c3bc 3c5e 9abc 4476 813d 2886 06bd
00000240: 2b4b 903a 2158 9d3d dbb8 ebbd 4762 d8bd
00000250: efa5 d93b e899 e5bd 4577 e63c b31b 1d3e
00000260: 9d72 32bd 353a e53d e90b 103d ed3b a53d
00000270: 980e 5abd 5caf b2bd 98a1 07bd dd84 4e3d
00000280: f1d0 99bc 39ed 5a3c 78e8 573d 8617 a43d
00000290: b1f6 79bd 0e83 06bd b699 afb9 311a 03bd
000002a0: 5b5b 183e 47b3 a9bd d276 74bd f19a 00bd
000002b0: 992e 693d 74c0 a73d 38d2 fc3d 2705 14be
000002c0: 2096 1abe 3615 15bd 2e48 703d 75b1 1bbe
000002d0: 0895 c83c 1530 c13d 25b6 c53c dd30 5dbc
000002e0: 4109 c8bd 25a2 f93c 5f5b f8bb ba4f fd3d
000002f0: abbf a9bd b748 553d 7827 73bd e2da 8a3c
00000300: 0998 693d 894d ccbd af04 633d 8ea1 453c
00000310: be29 f2bd bb58 82bd 7102 ff3c eb5a 4abc
00000320: 5b29 a8bd a7e5 063e d2e6 913d 203b f43d
00000330: cd01 e83d 305e b5bd 40c1 813d da1f 17bc
00000340: 45b8 d2bd b73c 463d 069e 6fbd cb24 c33c
00000350: cb7a d5bd a093 e33d a616 b6bd 1360 aabd
00000360: 2399 d43d a2c7 ecbd ab51 203d 5628 ae3c
00000370: aa48 11be 77d5 053d 622d 0c3d baff 0a3d
00000380: 66c4 d5bd 9946 a03b 7f9e 11bd 8846 9c3d
00000390: 837a 923d 7938 0d3e 4140 a13b 0a80 7fbd
000003a0: 85b1 b6bc 083b 9c3d 316b 81bd 2742 9b3c
000003b0: 77d6 f23c 4cb5 f33d 389c e6bd 938f 9b3d
000003c0: ecd4 903c 4a92 4cbd 59bf 083e d832 a7bd
000003d0: 9bfd fe3d ef64 35bd 6d90 913c a30c b33d
000003e0: 7712 ab3d 0ba2 af3d 56fa ecbd 5718 09be
000003f0: 6ca5 67bd b49d 25be 4021 38bd ef04 dabd

bias_ih_l0 f4 [192]
0.20250073 0.052152995 0.012055846 0.004422474 0.119647756 0.027830463 -0.06569403 0.13539386
-0.08089023 0.092225164 -0.0676268 0.104532346 0.012211024 0.10095005 0.10441283 -0.010559986
0.042113986 0.028921971 -0.027695045 -0.072497725 -0.12067333 0.121120065 -0.047212906 0.18473618
0.14898407 -0.047839534 0.10349553 -0.10377894 0.22122273 0.16818422 0.14774126 0.12588632
-0.007926181 0.0008737277 -0.09477955 0.16467191 -0.047381237 -0.07754063 0.032332014 0.09816421
-0.013792485 0.058212917 -0.03478975 0.019567078 -0.0039791972 -0.021730052 0.10329458 0.0557959
-0.051077846 0.048809517 -0.011315971 0.103380755 0.049116664 0.12135599 0.022625959 -0.09602992
0.12398943 -0.09087577 -0.053838253 0.15343386 0.109459214 -0.0023471953 0.103874944 0.103452586
0.025940385 0.12452377 0.021950316 -0.12993091 0.16707742 0.0327282 -0.008059866 -0.05186664
-0.023148369 0.16009429 0.029966747 0.12681851 -0.05935101 -0.0722286 0.028551716 0.061118994
0.014138298 0.11268147 -0.020533882 -0.008123594 0.040172126 -0.0051199407 -0.051488537 -0.011983843
0.09376805 -0.035586998 0.04831088 -0.03188029 -0.007190807 -0.01719781 -0.097755656 -0.113136984
-0.13879329 -0.052332748 0.17279339 -0.0024725457 -0.08015506 -0.08262215 0.13122077 -0.01926458
0.113012016 0.049006958 0.12947696 0.030071445 -0.032658294 0.043489985 -0.06480687 -0.003997718
-0.10263356 -0.052611694 -0.00550531 0.098001406 0.008050761 0.15022695 0.07856342 0.035443418
0.11092915 -0.035150032 0.015940651 0.08836167 -0.060506742 0.04040365 0.027954886 0.08416195
0.07508914 -0.018695965 -0.10281823 0.009601846 -0.018012432 -0.13995354 -0.094613224 0.11003465
-0.02340867 -0.055431813 0.0378682 -0.015862066 -0.053146135 0.03843182 0.14961374 0.08770847
0.0666146 0.06582257 0.07902884 -0.0041890275 0.00067111093 0.1262723 -0.034594554 -0.1010642
-0.12514259 -0.013232216 0.059848133 0.09730618 0.06704232 0.041895602 0.02206472 -0.12534556
0.118149176 0.014904014 -0.14188915 0.002137279 0.023039611 0.060274024 -0.06408782 0.015606426
-0.07365209 0.06687277 0.049110588 -0.0063150623 0.051504266 0.011657266 -0.043748036 0.083276674
-0.021741796 -0.068536416 -0.008606916 -0.11653179 0.053491343 0.018503856 -0.0002974024 0.08969554
0.03834447 -0.054096475 -0.046155725 0.1216685 -0.12108684 -0.03704319 0.017735405 -0.0115300715
00000000: 5a5c 4f3e 619e 553d e285 453c 67ea 903b
00000010: e209 f53d b6fc e33c 978a 86bd b0a4 0a3e
00000020: c7a9 a5bd 8ce0 bc3d eb7f 8abd 0e15 d63d
00000030: bf10 483c e6be ce3d 65d6 d53d cb03 2dbc
00000040: b77f 2c3d c5ed ec3c b8e0 e2bc b079 94bd
00000050: 9423 f7bd cc0d f83d 5262 41bd 7b2b 3d3e
00000060: 488f 183e 63f3 43bd 77f5 d33d 0e8a d4bd
00000070: 3688 623e 7c38 2c3e 7c49 173e 58e8 003e
00000080: d0dc 01bc e00a 653a c81b c2bd c19f 283e
00000090: d412 42bd 9fcd 9ebd 936e 043d 510a c93d
000000a0: e0f9 61bc ab70 6e3d b27f 0ebd 234b a03c
000000b0: ed63 82bb 3903 b2bc 1c8c d33d 3e8a 643d
000000c0: 0137 51bd 7dec 473d 9f66 39bc 4ab9 d33d
000000d0: 8e2e 493d 7d89 f83d 135a b93c 56ab c4bd
000000e0: 2cee fd3d 131d babd 8085 5cbd c41d 1d3e
000000f0: 272c e03d 67d3 19bb 63bc d43d f3de d33d
00000100: ee80 d43c 5106 ff3d 26d1 b33c 9c0c 05be
00000110: 5816 2b3e 010e 063d 870d 04bc 1d72 54bd
00000120: a6a1 bdbc c2ef 233e d37c f53c b6dc 013e
00000130: 0b1a 73bd 97ec 93bd 4ae5 e93c e957 7a3d
00000140: 52a4 673c 8bc5 e63d ac36 a8bc d318 05bc
00000150: 878b 243d 2dc5 a7bb a5e5 52bd e157 44bc
00000160: 7709 c03d acc3 11bd a1e1 453d e894 02bd
00000170: dca0 ebbb 6ce2 8cbc 1e34 c8bd 5db4 e7bd
00000180: d41f 0ebe dd5a 56bd c0f0 303e 6f0a 22bb
00000190: 5628 a4bd cd35 a9bd bd5e 063e c1d0 9dbc
000001a0: d872 e73d 85bb 483d 9c95 043e 6458 f63c
000001b0: b4c4 05bd 8e22 323d 77b9 84bd 4aff 82bb
000001c0: 8b31 d2bd 5c7f 57bd e365 b4bb f6b4 c83d
000001d0: 57e7 033c 18d5 193e dce5 a03d 1e2d 113d
000001e0: d22e e33d 7bf9 0fbd f895 823c f7f6 b43d
000001f0: ebd5 77bd 4c7e 253d a501 e53c 1a5d ac3d
00000200: 56c8 993d 4828 99bc 5d92 d2bd 1051 1d3c
00000210: cf8e 93bc fb4f 0fbe 94c4 c1bd d959 e13d
00000220: 8ac3 bfbc 780c 63bd b01b 1b3d 2af1 81bc
00000230: c3af 59bd af6a 1d3d 5834 193e 80a0 b33d
00000240: 3c6d 883d fccd 863d dfd9 a13d 1c44 89bb
00000250: 7eed 2f3a 874d 013e 05b3 0dbd bffa cebd
00000260: 6125 00be f0cb 58bc 5123 753d 7648 c73d
00000270: 7c4d 893d b99a 2b3d 12c1 b43c 965a 00be
00000280: 32f8 f13d f72f 743c 644b 11be 9711 0c3b
00000290: 91bd bc3c e5e1 763d 7a40 83bd 18b2 7f3c
000002a0: e8d6 96bd 97f4 883d 2f28 493d 95ee cebb
000002b0: 23f6 523d 1efe 3e3c 2431 33bd f68c aa3d
000002c0: da1b b2bc d25c 8cbd 0604 0dbc 38a8 eebd
000002d0: bd19 5b3d 6695 973c adec 9bb9 4cb2 b73d
000002e0: 170f 1d3d 4494 5dbd c90d 3dbd 562d f93d
000002f0: 61fc f7bd 9aba 17bd d749 913c a0e8 3cbc

bias_hh_l0 f4 [192]
0.11245358 -0.04812428 0.15213345 -0.076860294 0.1305249 0.14898531 0.15698723 0.14983064
0.09762467 0.0069412794 0.14083232 0.18082915 -0.017181309 -0.038023278 -0.08751889 -0.022164918
0.1019956 0.1170244 0.036096543 -0.06001702 0.11989614 0.009769653 0.02124443 0.20623434
-0.019187523 0.12676845 -0.091195405 -0.008902655 0.068104886 -0.06944757 0.07830608 0.0016533254
-0.0047151665 -0.07576796 -0.033374727 0.14334996 -0.051479924 -0.06336285 0.10411991 0.12331526
0.013499564 -0.07846397 0.17288958 -0.048680756 1.6195838e-05 -0.014565742 -0.051528346 -0.06467527
-0.03171155 0.13993719 -0.041795626 -0.007243582 0.09451346 0.039425835 0.07462504 0.0150414705
0.08631895 0.103407264 -0.07895897 -0.078111954 0.033632558 0.10541249 0.15414654 0.032469135
0.042157125 0.030743204 -0.07640973 -0.12006002 0.07460209 -0.036975153 -0.058974702 0.07575245
-0.16754547 -0.022691729 -0.054740712 0.0965356 0.047231205 -0.0019841914 -0.11053791 -0.07878304
0.14805019 0.0024820194 0.043238085 0.065265074 -0.10297484 0.008111146 -0.03536043 0.09458797
0.099008165 0.12216252 0.00043519225 0.06488817 -0.06024682 -0.13421552 0.035870347 -0.0725157
-0.03637686 -0.059397038 0.21339244 0.14136666 0.029378751 -0.16689701 0.09320346 0.13963538
-0.103077784 0.014367267 0.096012205 -0.0057393136 0.118681274 -0.056601327 -0.05183786 -0.039386455
0.07511773 0.08280755 0.010192456 0.02202132 0.054796707 -0.0677524 -0.013122352 0.015435245
0.10201085 0.13216378 0.062450387 0.09407037 0.05359741 0.13241363 -0.0021119737 0.030086223
-0.013860038 -0.15904129 0.060672566 -0.106467314 0.15093389 -0.06850286 0.05021767 -0.14903662
-0.037542563 0.06448134 0.008136473 -0.12674272 0.027305195 -0.03753826 0.1939651 0.17684506
-0.064886145 0.10595588 0.06515233 0.08400041 -0.10251494 -0.12509987 0.05601669 -0.108268686
-0.020977722 -0.12248322 -0.028561398 0.14125794 -0.03576481 -0.10949768 -0.12536234 0.005591571
0.039351046 0.05115975 -0.06304578 -0.026869198 -0.0821087 0.07273355 -0.09746247 0.027678495
0.13825478 -0.0898272 -0.057137135 0.059653174 -0.058894154 0.008631585 0.052314825 -0.024574263
-0.046883795 0.04378163 -0.07766441 -0.08633097 -0.019143738 -0.102724954 0.03143538 0.029484086
0.016135698 -0.07314832 -0.17444175 -0.05722648 0.034570236 0.08860317 -0.039015975 0.08036728
00000000: 104e e63d f71d 45bd dfc8 1b3e ee68 9dbd
00000010: 52a8 053e 9b8f 183e 43c1 203e 346d 193e
00000020: 71ef c73d ac73 e33b 5936 103e 472b 393e
00000030: d1bf 8cbc 4cbe 1bbd 1b3d b3bd 3493 b5bc
00000040: 12e3 d03d 7daa ef3d f8d9 133d 68d4 75bd
00000050: 1c8c f53d e510 203c cd08 ae3c 182f 533e
00000060: 272f 9dbc 97cf 013e a8c4 babd 71dc 11bc
00000070: 937a 8b3d 873a 8ebd f05e a03d 65b4 d83a
00000080: af81 9abb 3b2c 9bbd f0b3 08bd 55ca 123e
00000090: 9ddc 52bd 62c4 81bd d23c d53d b68c fc3d
000000a0: 462d 5d3c b8b1 a0bd f709 313e 7965 47bd
000000b0: 4cdc 8737 26a5 6ebc 630f 53bd 7874 84bd
000000c0: f8e3 01bd b24b 0f3e e431 2bbd 925b edbb
000000d0: 4690 c13d fc7c 213d 03d5 983d 8070 763c
000000e0: fdc7 b03d 30c7 d33d 3eb5 a1bd 29f9 9fbd
000000f0: 4bc2 093d 81e2 d73d 97d8 1d3e 5bfe 043d
00000100: f3ac 2c3d 2cd9 fb3c b47c 9cbd 07e2 f5bd
00000110: fbc8 983d 4273 17bd 758f 71bd 1a24 9b3d
00000120: 0a91 2bbe 01e4 b9bc cc37 60bd 75b4 c53d
00000130: 8275 413d 3509 02bb b361 e2bd 0159 a1bd
00000140: 789a 173e 60a9 223b 6b1a 313d b2a9 853d
00000150: 79e4 d2bd 9de4 043c 19d6 10bd 56b7 c13d
00000160: cbc4 ca3d 5830 fa3d 842a e439 17e4 843d
00000170: 5fc5 76bd cb6f 09be c9ec 123d 1c83 94bd
00000180: e7ff 14bd 4f4a 73bd 8c83 5a3e 6cc2 103e
00000190: b5ab f03c 0de7 2abe 75e1 be3d 94fc 0e3e
000001a0: 721a d3bd af64 6b3c 0ca2 c43d da10 bcbb
000001b0: 2b0f f33d cbd6 67bd f053 54bd b153 21bd
000001c0: 53d7 993d 0197 a93d 42fe 263c 0e66 b43c
000001d0: 8372 603d c5c1 8abd 22ff 56bc 1ce4 7c3c
000001e0: 11eb d03d f155 073e facb 7f3d f7a7 c03d
000001f0: f588 5b3d 7097 073e 0a69 0abb 6277 f63c
00000200: 3615 63bc b8db 22be cc83 783d 890b dabd
00000210: 6a8e 1a3e 3a4b 8cbd 0bb1 4d3d 0e9d 18be
00000220: 3bc6 19bd cb0e 843d d74e 053c d8c8 01be
00000230: 25af df3c b8c1 19bd ca9e 463e df16 353e
00000240: 07e3 84bd 65ff d83d 966e 853d 6808 ac3d
00000250: 5af3 d1bd 2e1a 00be c271 653d f9bb ddbd
00000260: 79d9 abbc 7cd8 fabd 98f9 e9bc eca5 103e
00000270: 1f7e 12bd 5240 e0bd fc5e 00be 7f39 b73b
00000280: 902e 213d e38c 513d 251e 81bd cb1c dcbc
00000290: 9b28 a8bd 54f5 943d 679a c7bd 03be e23c
000002a0: a992 0d3e 53f7 b7bd a108 6abd e356 743d
000002b0: ff3a 71bd 7e6b 0d3c 1248 563d f74f c9bc
000002c0: 3909 40bd 5e54 333d 850e 9fbd 4bce b0bd
000002d0: 54d3 9cbc 7661 d2bd 63c2 003d 9c88 f13c
000002e0: 032f 843c c9ce 95bd dca0 32be 5066 6abd
000002f0: 8599 0d3d 9475 b53d 37cf 1fbd 9a97 a43d

weight_ih_l0_reverse f4 [192, 32]
0.07171667 0.093554 0.023503343 0.04050417 -0.08754298 -0.09591556 -0.12580928 0.09790458
-0.03273175 0.07969764 -0.15925291 -0.09008391 -0.04064157 0.010107124 -0.09598351 0.13285068
0.041192807 -0.09188575 -0.004942507 0.07012525 0.014453116 0.015955452 -0.024008807 0.21732931
0.034212276 0.035718773 -0.031197757 0.17118685 0.14498991 0.15999559 0.20772246 -0.034538414
0.08051431 -0.09184623 -0.124229684 -0.09812268 0.07916393 -0.02948515 0.08599091 -0.11064527
-0.108202934 0.01117052 0.065927364 -0.100334115 0.08262291 0.019949317 0.08251738 0.029093694
-0.12670878 0.059107646 -0.08513255 -0.059410006 0.025110321 -0.10291672 0.01017857 0.067041025
-0.021234347 -0.104666494 -0.021998577 -0.12428163 -0.114956625 -0.11971309 0.09263799 -0.10735804
-0.11940848 -0.031101884 0.035595223 0.031090392 0.09601006 0.095548056 0.09898755 0.11266041
-0.12282055 0.03149076 0.06829022 -0.049112327 0.05139952 0.09914293 0.028080191 0.036931116
-0.11409153 -0.017742757 0.07799077 -0.015004494 -0.042687066 0.07382365 0.13802667 0.09444313
0.11734499 0.00746533 -0.058305204 0.073637456 0.110833876 0.149956 -0.023065621 0.13583115
-0.003311928 0.014235796 0.046256904 -0.016590128 -0.025695184 -0.028756853 -0.21585438 0.014185956
-0.013968847 0.07272771 -0.08510457 0.06342544 -0.00082485 -0.016050037 0.07912218 -0.03361632
0.063697994 0.072767854 0.11077341 0.06881898 0.0030109666 0.081448264 0.16248868 0.06996928
0.07033875 0.08453259 0.03872471 0.08205279 0.077093855 0.028150227 -0.05369778 0.07976265
-0.13225342 0.12903453 0.058715526 -0.09746533 0.016929924 -0.05444135 -0.049754117 -0.020167675
0.075159095 -0.07108529 0.105410114 -0.040987942 -0.039899345 -0.058930863 0.061814178 -0.1791663
0.037836906 0.03711834 -0.0481713 -0.08642093 0.07006611 0.002296006 0.118042 0.09145065
0.048810624 -0.074341215 -0.0050032195 0.072673015 0.090724505 0.03378192 0.06692546 0.10081546
-0.050919417 0.04741538 0.035691127 0.13780253 0.097061574 0.030812588 -0.054403115 0.010221471
-0.016468668 -0.10202521 -0.044734653 -0.01600046 0.045012955 -0.010661915 -0.060395602 -0.0728158
-0.06593741 -0.060434077 0.064789176 0.01975195 0.022524485 0.04727105 0.19145918 -0.05201015
0.007821401 0.038643897 0.13499318 0.115783274 -0.043071553 0.17125641 0.056301396 -0.025101272
0.08055547 0.024635611 0.023500219 0.024047008 -0.059444297 0.06906693 -0.07149517 0.06941817
0.03801396 0.034072094 -0.057665102 -0.07755757 -0.049205445 0.063293196 -0.10794076 -0.031015154
-0.065956034 0.066291064 0.01523616 -0.0777038 0.070043094 0.02280198 0.11181074 -0.003814201
-0.027398225 0.054705415 0.1325933 0.16273394 0.19611579 0.10153199 0.02324582 0.06711482
-0.0031913486 0.087971546 -0.05174669 -0.025533428 0.108867764 -0.04894446 0.06726011 -0.055006407
0.13533212 -0.03171082 -0.05205396 0.039961603 -0.13872594 0.09222989 -0.11240167 -0.049410563
0.11383661 -0.0931576 -0.11779434 -0.1438723 -0.11333657 -0.061343458 0.0046742307 0.13167633
-0.022608798 -0.088711135 0.07105912 0.058012046 0.13223834 0.06923155 0.044668034 0.07802976
00000000: 31e0 923d 3d99 bf3d 158a c03c b3e7 253d
00000010: bc49 b3bd 616f c4bd 26d4 00be 3282 c83d
00000020: ba11 06bd 8438 a33d 3213 23be ea7d b8bd
00000030: c677 26bd 5a98 253c 0193 c4bd 020a 083e
00000040: cab9 283d 992e bcbd c1f4 a1bb d49d 8f3d
00000050: c3cc 6c3c 02b5 823c 1eae c4bc 938b 5e3e
00000060: 2c22 0c3d d94d 123d 7092 ffbc 9b4b 2f3e
00000070: 3c78 143e e2d5 233e 32b5 543e 2778 0dbd
00000080: b0e4 a43d e019 bcbd 226c febd 8bf4 c8bd
00000090: b320 a23d d78a f1bc 011c b03d fd99 e2bd
000000a0: 8099 ddbd 8f04 373c ed04 873d f97b cdbd
000000b0: 3336 a93d c06c a33c dffe a83d e655 ee3c
000000c0: f2bf 01be dc1a 723d f959 aebd e857 73bd
000000d0: 29b4 cd3c 00c6 d2bd 04c4 263c ce4c 893d
000000e0: a7f3 adbc 635b d6bd 5c36 b4bc 5e87 febd
000000f0: 616e ebbd 232c f5bd fdb8 bd3d 88de dbbd
00000100: 6f8c f4bd 61c9 febc 4ccc 113d 47b1 fe3c
00000110: eca0 c43d b3ae c33d fcb9 ca3d 80ba e63d
00000120: 5789 fbbd 75fc 003d bedb 8b3d 022a 49bd
00000130: 4e88 523d 730b cb3d 6e08 e63c 1545 173d
00000140: d2a8 e9bd 4259 91bc a0b9 9f3d 69d5 75bc
00000150: a2d8 2ebd db30 973d dd56 0d3e 666b c13d
00000160: 9252 f03d ba9f f43b 70d1 6ebd 3ccf 963d
00000170: dffc e23d 118e 193e 1df4 bcbc 5217 0b3e
00000180: ee0c 59bb 423d 693c e177 3d3d 05e8 87bc
00000190: b57e d2bc 7e93 ebbc ee08 5dbe 366c 683c
000001a0: 97dd 64bc 44f2 943d 4e4b aebd 32e5 813d
000001b0: bf3a 58ba 5e7b 83bc cf0a a23d 44b1 09bd
000001c0: 1874 823d 5007 953d 2bdd e23d f7f0 8c3d
000001d0: a353 453b 59ce a63d 6f63 263e 0e4c 8f3d
000001e0: c30d 903d 6c1f ad3d cd9d 1e3d 4b0b a83d
000001f0: 62e3 9d3d 4e9b e63c 34f2 5bbd 9a5a a33d
00000200: 716d 07be a121 043e b17f 703d e79b c7bd
00000210: a0b0 8a3c e5fd 5ebd f9ca 4bbd ae36 a5bc
00000220: 03ed 993d 2a95 91bd 42e1 d73d f9e2 27bd
00000230: 7f6d 23bd 7d61 71bd dd30 7d3d 5f77 37be
00000240: dffa 1a3d 6709 183d 454f 45bd 75fd b0bd
00000250: d27e 8f3d 9778 163b 01c0 f13d 7a4a bb3d
00000260: a6ed 473d 3540 98bd 0cf2 a3bb 97d5 943d
00000270: c5cd b93d e95e 0a3d 3710 893d 5678 ce3d
00000280: e190 50bd a136 423d dc30 123d 1b1c 0d3e
00000290: 38c8 c63d ae6a fc3c cdd5 5ebd f577 273c
000002a0: 4de9 86bc 98f2 d0bd af3b 37bd 6613 83bc
000002b0: 815f 383d 50af 2ebc 6161 77bd 7320 95bd
000002c0: 310a 87bd b989 77bd 30b0 843d d7ce a13c
000002d0: 4585 b83c 4a9f 413d e00d 443e 9808 55bd
000002e0: 5525 003c 1049 1e3d a73b 0a3e c81f ed3d
000002f0: cc6b 30bd d75d 2f3e 4b9c 663d 2fa1 cdbc
00000300: 44fa a43d 9fd0 c93c 8883 c03c 3bfe c43c
00000310: dd7b 73bd f672 8d3d 0f6c 92bd 1d2b 8e3d
00000320: 87b4 1b3d 2e8f 0b3d 3e32 6cbd 81d6 9ebd
00000330: a68b 49bd dd9f 813d 0c10 ddbd 7e13 febc
00000340: f513 87bd 9cc3 873d 16a1 793c 2b23 9fbd
00000350: c172 8f3d 38cb ba3c 07fd e43d adf7 79bb
00000360: 3e72 e0bc c912 603d 8ac6 073e baa3 263e
00000370: 94d2 483e 01f0 cf3d 056e be3c 7f73 893d
00000380: f225 51bb 6d2a b43d 56f4 53bd 7b2b d1bc
00000390: 10f6 de3d fc79 48bd abbf 893d 664e 61bd
000003a0: 8194 0a3e 34e3 01bd 8836 55bd c7ae 233d
000003b0: 2c0e 0ebe 06e3 bc3d d932 e6bd bb62 4abd
000003c0: 2b23 e93d 69c9 bebd 293e f1bd 4353 13be
000003d0: 011d e8bd 4743 7bbd 4a2a 993b 29d6 063e
000003e0: 1636 b9bc 2fae b5bd 7287 913d 0a9e 6d3d
000003f0: 7d69 073e 45c9 8d3d d4f5 363d 11ce 9f3d

weight_hh_l0_reverse f4 [192, 64]
0.032870695 0.021505892 -0.0650039 -0.14544912 -0.06624883 0.004553425 0.0038649316 0.0989093
0.02715078 0.09957511 0.10646633 0.009727355 -0.016529884 0.06590618 -0.041719522 0.07337939
-0.067136884 -0.08346851 0.11340176 0.075798884 0.08977518 -0.12692288 -0.05657551 -0.1432117
0.09578466 0.0973005 0.05534127 0.06945669 -0.0060629887 -0.068107165 0.114639945 -0.04044905
-0.16751698 0.012008215 -0.18933153 -0.08991864 -0.014084031 -0.18829976 -0.1943066 0.066636465
0.0001505192 -0.010233764 0.055102456 0.027936991 0.022405798 -0.038041476 -0.041138057 -0.08357079
-0.11056838 -0.0008041377 0.08304128 -0.13382654 0.11190718 -0.008068647 0.039384652 0.1292229
0.08580486 0.13094002 0.03474122 -0.04056769 0.09131393 0.21432608 0.015748091 -0.08099409
0.08818326 -0.11529272 -0.0667167 -0.11183659 -0.07644295 0.021454936 0.027948825 0.0358706
-0.026582085 0.06486922 0.023625221 0.032739047 0.06611692 0.13822545 -0.08039841 0.042917356
0.13952947 -0.038487345 -0.066374235 -0.03559673 -0.065889955 0.17095117 -0.12744354 -0.09645363
0.12607843 -0.0053077247 -0.1020294 -0.08943812 -0.0011419316 -0.037482772 0.019383768 0.037828967
-0.14896148 -0.056916256 0.07673148 0.12236072 -0.06616784 -0.14468871 -0.0402949 0.033533722
-0.08990643 0.007742219 0.107567035 0.11187212 -0.056729488 0.03822271 0.020755505 0.0065822634
-0.10747081 -0.04920253 -0.08005317 -0.071456 0.0388013 0.03245483 -0.08825869 -0.014584776
0.16254547 0.0023931703 0.060112342 0.04809481 -0.13667452 -0.05427204 0.051706135 0.045935333
-0.090082094 -0.09564357 0.004130244 0.088692784 0.08740373 -0.09944924 -0.0003896347 -0.02100998
0.020405816 -0.10534822 0.030627474 -0.00045375124 -0.04827167 0.019102072 0.11315367 -0.056963786
-0.11542184 -0.09218423 -0.017907431 0.08412368 0.13177794 0.031026458 -0.06696447 -0.012237663
0.0800302 0.142186 -0.13798746 -0.028363256 0.114507966 0.057919007 -0.036857665 0.0065450887
-0.00929991 -0.06873934 -0.015694277 -0.079971306 0.06747328 -0.12232066 -0.012018399 -0.012126142
-0.15727748 0.07784376 -0.053974513 0.085609615 -0.030429402 0.09354696 0.042335242 -0.015630156
-0.07897652 -0.16556545 -0.020619176 -0.15590109 0.14922304 0.097319774 -0.03976476 0.109246
0.03155224 0.0739552 0.05587869 0.035800457 0.07000698 0.08501228 -0.055830568 0.0011021883
-0.029637739 -0.11592136 0.0033686021 -0.10136238 -0.06568837 -0.15681536 0.024325341 0.22555454
-0.014629752 0.031149946 -0.021397809 0.030373223 0.046811495 0.11206442 0.13115163 -0.089470126
0.03661104 -0.13455762 0.08808135 -0.076948054 0.05464873 -0.12908947 -0.13309337 0.15252686
0.111480534 0.014968693 -0.054722253 0.050985932 0.08362897 0.026022 0.049010914 -0.093564175
0.018528605 0.037874788 0.091555715 -0.039749797 -0.1130459 -0.14297856 0.044772413 -0.04939045
-0.12493373 0.059628274 0.07453383 -0.09168586 0.094769694 0.026814885 -0.03225401 -0.04048131
0.08936743 0.13401675 0.08461273 -0.02388845 0.032144926 -0.14627258 -0.12103904 0.001746286
0.13522282 0.13311876 0.036711056 0.074739 0.028083423 -0.12660605 0.04558466 -0.062458932
00000000: 6ca3 063d 202d b03c c420 85bd 9df0 14be
00000010: 77ad 87bd e634 953b cb4a 7d3b f690 ca3d
00000020: 506b de3c 09ee cb3d 050b da3d 7c5f 1f3c
00000030: ae69 87bc d2f9 863d 17e2 2abd ef47 963d
00000040: 107f 89bd 8af1 aabd 2f3f e83d 723c 9b3d
00000050: 0ddc b73d 12f8 01be b9bb 67bd 16a6 12be
00000060: bf2a c43d 7c45 c73d 87ad 623d 4f3f 8e3d
00000070: 09ac c6bb c57b 8bbd 59c8 ea3d e7ad 25bd
00000080: 9289 2bbe 1bbe 443c 20e0 41be 4427 b8bd
00000090: b5c0 66bc a7d1 40be 4ff8 46be b378 883d
000000a0: b1d4 1d39 84ab 27bc 1db3 613d 1edc e43c
000000b0: 5d8c b73c 61d1 1bbd 6180 28bd 2a27 abbd
000000c0: ad71 e2bd c4cc 52ba 8c11 aa3d d309 09be
000000d0: 972f e53d 5c32 04bc cd51 213d 0253 043e
000000e0: 75ba af3d 2415 063e cf4c 0e3d 4e2a 26bd
000000f0: cc02 bb3d 4c78 5b3e 2402 813c 3be0 a5bd
00000100: 6d99 b43d 971e ecbd c4a2 88bd 950a e5bd
00000110: 1f8e 9cbd 43c2 af3c eff4 e43c 0ded 123d
00000120: acc2 d9bc 27da 843d ae89 c13c 6119 063d
00000130: 4f68 873d f98a 0d3e eca7 a4bd 1cca 2f3d
00000140: d0e0 0e3e e8a4 1dbd 37ef 87bd e0cd 11bd
00000150: 50f1 86bd d30d 2f3e 8f80 02be 7b89 c5bd
00000160: b41a 013e 6cec adbb caf4 d0bd 552b b7bd
00000170: deac 95ba 8987 19bd b5ca 9e3c 8cf2 1a3d
00000180: 5c89 18be 0521 69bd 6525 9d3d 4298 fa3d
00000190: 0183 87bd 4729 14be 440c 25bd a85a 093d
000001a0: dd20 b8bd 71b2 fd3b 1b4c dc3d 361d e53d
000001b0: 2e5d 68bd 6b8f 1c3d 7307 aa3c 07b0 d73b
000001c0: a819 dcbd 9888 49bd ebf2 a3bd 8657 92bd
000001d0: 1dee 1e3d 5bef 043d f9c0 b4bd fcf4 6ebc
000001e0: 5272 263e bcd6 1c3b 5c38 763d 10ff 443d
000001f0: 68f4 0bbe 5c4c 5ebd d0c9 533d b026 3c3d
00000200: f67c b8bd c7e0 c3bd ff56 873b 90a4 b53d
00000210: ba00 b33d 0bac cbbd e247 ccb9 1f1d acbc
00000220: 192a a73c cfc0 d7bd 78e6 fa3c 76e5 edb9
00000230: 84b8 45bd f37b 9c3c 1dbd e73d dc52 69bd
00000240: 4962 ecbd 16cb bcbd 9bb2 92bc 0949 ac3d
00000250: ccf0 063e 332b fe3c ab24 89bd 7b80 48bc
00000260: e0e6 a33d 3599 113e 964c 0dbe 0f5a e8bc
00000270: 2783 ea3d 7b3c 6d3d 10f8 16bd 2f78 d63b
00000280: a65e 18bc 36c7 8cbd 4991 80bc ffc7 a3bd
00000290: 6e2f 8a3d 4183 fabd d2e8 44bc baac 46bc
000002a0: 590d 21be 8d6c 9f3d 6114 5dbd 1854 af3d
000002b0: 1547 f9bc 8c95 bf3d b867 2d3d d00a 80bc
000002c0: 71be a1bd fd89 29be 8ce9 a8bc 89a4 1fbe
000002d0: edcd 183e 974f c73d 5fe0 22bd 5ebc df3d
000002e0: ec3c 013d d375 973d 0ee1 643d 80a3 123d
000002f0: d25f 8f3d eb1a ae3d 98ae 64bd 4d77 903a
00000300: d8ca f2bc 2e68 edbd c4c3 5c3b 1497 cfbd
00000310: a087 86bd 3594 20be f045 c73c c5f7 663e
00000320: a1b1 6fbc 2c2e ff3c 754a afbc 44d1 f83c
00000330: 69bd 3f3d 0882 e53d 9d4c 063e 1d3c b7bd
00000340: 75f5 153d 79c9 09be ff63 b43d f196 9dbd
00000350: 59d7 5f3d 0830 04be a149 08be 0030 1c3e
00000360: e84f e43d 403f 753c 7124 60bd a0d6 503d
00000370: aa45 ab3d 172c d53c abbf 483d 939e bfbd
00000380: 4dc9 973c 9822 1b3d 9081 bb3d afd0 22bd
00000390: 9c84 e7bd f968 12be 4763 373d a44d 4abd
000003a0: 41dd ffbd c73c 743d 31a5 983d ccc5 bbbd
000003b0: 9d16 c23d e4aa db3c c81c 04bd bbcf 25bd
000003c0: 4506 b73d b03b 093e 7049 ad3d b6b1 c3bc
000003d0: 66aa 033d 7bc8 15be 51e3 f7bd a3e3 e43a
000003e0: da77 0a3e 4950 083e 555e 163d c310 993d
000003f0: 350f e63c 04a5 01be fbb6 3a3d f0d4 7fbd

bias_ih_l0_reverse f4 [192]
0.13485472 0.12857859 -0.05743365 -0.0029411525 0.12815778 0.052369855 0.18272848 -0.012902858
-0.06809767 -0.0036432634 0.035133094 -0.043383095 0.1428101 0.07999504 0.10954804 -0.10997342
0.13544765 0.04834956 -0.101964146 -0.016833961 0.027208619 0.046671078 -0.0015614122 0.13128713
-0.07175318 0.13501723 -0.017063284 0.12626679 -0.08703224 0.12714578 -0.014141961 -0.019501554
0.13438171 -0.013260995 0.07269231 -0.03327721 -0.07127992 0.098578855 0.122666515 0.031677436
0.020245163 0.15228032 0.10776005 0.076905765 0.02392406 -0.025320504 0.076678894 0.1348894
-0.07110516 0.025561081 -0.02054657 0.056196727 0.064720556 0.13572834 0.06650972 0.058918267
0.011698764 0.041972753 0.14817727 -0.054921035 0.17914757 -0.041316498 -0.00649147 -0.08239066
0.03877547 0.11051918 -0.0354891 0.22669104 0.14528863 0.08730081 0.07281649 0.03047303
-0.029895086 -0.02680999 0.084502116 -0.07569999 -0.08171282 0.1381271 -0.013711722 -0.039014682
0.14288265 0.025196992 0.24149948 -0.03996688 0.035722803 0.0549243 0.20006949 0.1029957
0.05540579 0.15593925 -0.04666218 -0.040461387 0.13844669 -0.016094422 0.1995787 0.12611759
-0.029708588 0.17199558 -0.04228122 -0.07499764 0.035119515 0.10641836 0.10426701 -0.0071360744
-0.029265873 0.025266234 0.003380413 0.12093022 0.054100715 0.02725114 0.13395509 -0.052493505
-0.11155998 0.113089666 -0.038528368 0.19102956 -0.036698855 0.0223799 0.14663848 0.0033181396
0.104196645 0.013351191 0.09813165 -0.08041293 -0.065152556 -0.0714086 -0.07397394 0.0016468285
0.09920879 0.06673462 0.041237187 -0.13248318 0.090310276 -0.16193381 -0.08997423 -0.0077031218
0.025900224 0.08426184 -0.047781188 0.15856999 0.06996835 0.051097646 0.010898633 -0.07112862
0.12922806 0.07094758 0.12906514 0.0209998 0.067549236 -0.100403644 -0.18341187 -0.15214242
-0.00035600844 0.05069538 -0.12506804 -0.103307664 0.08663401 -0.04738519 -0.043255888 -0.10008568
-0.044036932 0.12045602 -0.051210724 0.083385624 0.096253656 -0.04117586 -0.14999852 -0.116115324
-0.09103568 0.096507214 0.02570329 -0.04229677 0.048148915 -0.053861853 -0.011476661 0.022138622
-0.11154378 0.046617262 -0.06634888 -0.16462478 0.10726435 -0.008349815 0.023002349 0.11043301
-0.068153106 0.072493225 0.030958874 0.0702046 -0.012113088 0.04585487 0.02573799 -0.14990465
00000000: 5b17 0a3e 1baa 033e 8c3f 6bbd 5ac0 40bb
00000010: cb3b 033e c681 563d 2d1d 3b3e 8266 53bc
00000020: cb76 8bbd d1c3 6ebb b8e7 0f3d 79b2 31bd
00000030: d03c 123e 71d4 a33d b95a e03d bf39 e1bd
00000040: cab2 0a3e 300a 463d 94d2 d0bd 60e7 89bc
00000050: 9ce4 de3c 2c2a 3f3d 4da8 ccba 2270 063e
00000060: 55f3 92bd f541 0a3e 4dc8 8bbc 154c 013e
00000070: f63d b2bd 8132 023e afb3 67bc b9c1 9fbc
00000080: 5c9b 093e a544 59bc b5df 943d af4d 08bd
00000090: 35fb 91bd b6e3 c93d 9538 fb3d 33c0 013d
000000a0: 2fd9 a53c 5fef 1b3e 4db1 dc3d c580 9d3d
000000b0: 64fc c33c f26c cfbc d309 9d3d 7220 0a3e
000000c0: 959f 91bd 7965 d13c 4851 a8bc 8a2e 663d
000000d0: 368c 843d 5ffc 0a3e 4036 883d 4854 713d
000000e0: 2cac 3f3c 9feb 2b3d c8bb 173e e1f4 60bd
000000f0: 7672 373e 7d3b 29bd 66b6 d4bb 6fbc a8bd
00000100: 07d3 1e3d e157 e23d 055d 11bd b221 683e
00000110: 8bc6 143e c4ca b23d d020 953d 93a2 f93c
00000120: 8ae6 f4bc a0a0 dbbc 720f ad3d 9908 9bbd
00000130: 0d59 a7bd 3171 0d3e 21a7 60bc dccd 1fbd
00000140: d44f 123e ec69 ce3c a44b 773e 50b4 23bd
00000150: 1352 123d 4ef8 603d 04df 4c3e 69ef d23d
00000160: 2ff1 623d 8aae 1f3e d820 3fbd d7ba 25bd
00000170: f8c4 0d3e 73d8 83bc 5c5e 4c3e f824 013e
00000180: 6d5f f3bc 9c1f 303e 132f 2dbd 5d98 99bd
00000190: 7bd9 0f3d def1 d93d f189 d53d bbd5 e9bb
000001a0: fcbe efbc 22fb ce3c eb89 5d3b 43aa f73d
000001b0: b698 5d3d c83d df3c 862b 093e 6e03 57bd
000001c0: 8f79 e4bd 8e9b e73d eccf 1dbd 419d 433e
000001d0: 8a51 16bd 0d56 b73c 6628 163e 2575 593b
000001e0: 0d65 d53d f4be 5a3c 3ff9 c83d 89af a4bd
000001f0: b46e 85bd ac3e 92bd a67f 97bd 65da d73a
00000200: fa2d cb3d 29ac 883d 53e8 283d aca9 07be
00000210: 98f4 b83d fad1 25be 6944 b8bd 786a fcbb
00000220: b52c d43c 7991 ac3d 35b6 43bd 2c60 223e
00000230: 914b 8f3d c44b 513d 2e90 323c e2ab 91bd
00000240: 5c54 043e f74c 913d a729 043e c607 ac3c
00000250: 4157 8a3d 6da0 cdbd 52d0 3bbe 39cb 1bbe
00000260: a5a6 bab9 f5a5 4f3d d611 00be f892 d3bd
00000270: 2c6d b13d f916 42bd 162d 31bd b9f9 ccbd
00000280: 1260 34bd a5b1 f63d 56c2 51bd 15c6 aa3d
00000290: a320 c53d 05a8 28bd 3699 19be dfcd edbd
000002a0: ea70 babd 93a5 c53d b58f d23c 613f 2dbd
000002b0: cc37 453d 3f9e 5cbd 9b08 3cbc 0e5c b53c
000002c0: 1171 e4bd bef1 3e3d ece1 87bd 6693 28be
000002d0: 69ad db3d aacd 08bc 6c6f bc3c b42a e23d
000002e0: db93 8bbd 5477 943d 779d fd3c 6ec7 8f3d
000002f0: f975 46bc 51d2 3b3d 7ad8 d23c 9b80 19be

bias_hh_l0_reverse f4 [192]
0.015472843 0.014021663 0.024536265 0.0777963 0.12666707 -0.01667246 0.05972621 0.057551667
-0.056615237 0.1457611 0.060085803 -0.05037458 -0.02534356 0.10622959 0.07546717 0.114259705
-0.001694223 -0.01237999 0.07219018 0.1001034 -0.08900602 0.10656367 0.124455206 -0.015433577
-0.045788646 -0.06545315 0.059984546 -0.03642177 0.12749694 0.15080342 0.14929909 0.034101114
0.031161027 0.12855388 -0.05635401 0.013280753 0.007177462 0.095010206 0.018515864 0.009526211
-0.031479653 0.13758115 0.0034610846 0.09196046 -0.08222174 0.20502207 0.079090886 0.061437376
0.07394951 -0.05104691 -0.044587262 -0.0661318 0.1064776 0.101657815 0.16671683 -0.042841252
-0.029700367 0.08957415 0.10167937 0.16782552 0.048047435 0.0019502162 0.001827108 0.08237236
0.16311969 -0.09730429 -0.062269274 0.08138166 -0.04829178 0.053616855 0.018928675 0.15806352
0.059374414 0.033260964 -0.030819865 0.11466604 0.11115629 -0.028136 0.14907113 0.030043714
-0.043357383 0.121383525 0.25301373 -0.08471043 0.19469091 -0.02826601 0.19785713 0.103986986
0.09031325 0.0836307 0.12283849 0.11871735 0.05177529 0.13549925 0.19945943 -0.0021615243
-0.008557598 0.17476514 0.14544351 -0.004489564 -0.08013902 0.034697533 0.02185452 -0.09015631
-0.07302223 -0.026841564 -0.0635357 -0.03736673 -0.09595722 0.009847366 0.16728286 0.017842801
-0.05050654 0.1673229 0.10635114 0.09915031 0.037631545 0.038334507 0.15900093 -0.034187812
0.13767542 0.0948385 0.07818539 -0.04468572 -0.0125067085 -0.06642484 -0.07456556 -0.06329314
0.093779504 -0.15153222 0.016663698 -0.16070597 0.087274894 -0.113822 0.1099607 -0.021920752
0.019333605 -0.009021152 -0.08645408 0.091728 0.17524005 -0.12040839 0.014847424 0.088580266
0.08402566 0.08583999 0.07914818 -0.18591055 0.057381373 -0.06487096 -0.10531689 -0.0104831
0.0863034 0.067333475 -0.016501086 0.027585322 -0.06296372 -0.19151275 -0.003947945 -0.1669802
-0.006140456 0.013387368 -0.0446236 0.036489446 0.18372096 -0.13851123 -0.1652637 -0.05095366
-0.11764004 0.011078076 0.15530102 -0.0392746 -0.013494413 0.13688162 -0.08304824 -0.11943352
0.08335458 0.0944255 0.061126783 0.0089683775 0.021162665 -0.012557263 0.072096474 -0.14759067
0.036626056 0.047543034 -0.16375469 0.034495786 0.1237782 -0.0612609 0.06295686 -0.090755925
00000000: cf81 7d3c 1ebb 653c 4700 c93c ab53 9f3d
00000010: 03b5 013e af94 88bc 78a3 743d 4cbb 6b3d
00000020: 61e5 67bd 6642 153e 881c 763d 9355 4ebd
00000030: 4c9d cfbc e68e d93d 888e 9a3d fe00 ea3d
00000040: b110 deba 71d5 4abc 72d8 933d 0303 cd3d
00000050: ca48 b6bd 0e3e da3d 5fe2 fe3d 1ddd 7cbc
00000060: e08c 3bbd 4d0c 86bd 5bb2 753d fe2e 15bd
00000070: 8f8e 023e 366c 1a3e dce1 183e 9cad 0b3d
00000080: 6945 ff3c a1a3 033e 76d3 66bd 8497 593c
00000090: ea30 eb3b b694 c23d 95ae 973c d313 1c3c
000000a0: cff0 00bd 13e2 0c3e 5dd3 623b c455 bc3d
000000b0: df63 a8bd 4ef1 513e 67fa a13d c2a5 7b3d
000000c0: d772 973d 9116 51bd 22a1 36bd 1c70 87bd
000000d0: ee10 da3d f931 d03d d1b7 2a3e 4f7a 2fbd
000000e0: 2f4e f3bc a772 b73d 463d d03d 74da 2b3e
000000f0: 63cd 443d 669e ff3a 927b ef3a d7b2 a83d
00000100: d908 273e 7947 c7bd 110e 7fbd 6eab a63d
00000110: 9acd 45bd 599d 5b3d 4f10 9b3c 67db 213e
00000120: 9632 733d a63c 083d f179 fcbc 07d6 ea3d
00000130: e9a5 e33d 787d e6bc 1aa6 183e 3c1e f63c
00000140: 8397 31bd ed97 f83d 048b 813e a97c adbd
00000150: 0e5d 473e 1f8e e7bc 0f9b 4a3e 21f7 d43d
00000160: 27f6 b83d 9346 ab3d bf92 fb3d 1522 f33d
00000170: 5412 543d 51c0 0a3e 183f 4c3e 5ca8 0dbb
00000180: 2b35 0cbc a2f5 323e 25ef 143e 311d 93bb
00000190: ed1f a4bd 001f 0e3d 4008 b33c dfa3 b8bd
000001a0: ae8c 95bd d7e2 dbbc 011f 82bd db0d 19bd
000001b0: 3885 c4bd d956 213c 334c 2b3e 112b 923c
000001c0: f2df 4ebd b256 2b3e a0ce d93d 510f cb3d
000001d0: 8923 1a3d a504 1d3d 24d1 223e 8508 0cbd
000001e0: c9fa 0c3e b03a c23d a91f a03d 6008 37bd
000001f0: f0e8 4cbc bf09 88bd d4b5 98bd d59f 81bd
00000200: 780f c03d 432b 1bbe 4f82 883c 1b90 24be
00000210: 2ebd b23d 821b e9bd 1333 e13d 2693 b3bc
00000220: 8261 9e3c 74cd 13bc d60e b1bd e4db bb3d
00000230: 2172 333e ad98 f6bd 9c42 733c 9269 b53d
00000240: a515 ac3d e0cc af3d 7118 a23d 565f 3ebe
00000250: bb08 6b3d 11db 84bd 62b0 d7bd 4fc1 2bbc
00000260: d6bf b03d 22e6 893d 492d 87bc 9dfa e13c
00000270: 1ff3 80bd eb1b 44be c35d 81bb dcfc 2abe
00000280: e135 c9bb b156 5b3c 3cc7 36bd f575 153d
00000290: 5921 3c3e e3d5 0dbe e33a 29be c9b4 50bd
000002a0: 43ed f0bd d280 353c 3b07 1f3e 67de 20bd
000002b0: ac17 5dbc b22a 0c3e 3215 aabd 9099 f4bd
000002c0: ceb5 aa3d 2862 c13d 1460 7a3d 1af0 123c
000002d0: 535d ad3c fabc 4dbc 51a7 933d 0222 17be
000002e0: 3405 163d 7cbc 423d 4faf 27be 744b 0d3d
000002f0: 6d7f fd3d b6ec 7abd 87ef 803d 3ede b9bd
