reports/training_MERGE_Russell4Q_gain_shift_gain_reverb_lowpass_highpass_bandpass_pitch_shift_2026-01-11_13-20-27/training_MERGE_Russell4Q_gain_shift_gain_reverb_lowpass_highpass_bandpass_pitch_shift_2026-01-11_13-20-27.pth (torch, 157212 bytes, 10 tensors)

weight_ih_l0 f4 [192, 32]
00000000: a78d 963d aa9a d43d 8995 c5bc 2fd2 713d
00000010: 2383 443d 0aa8 a7bc 2b4b dfbd c755 043e
00000020: 8821 fa3d ff54 9abd 36e9 123e ae6a 9b3d
00000030: 6bb2 293d 0e7f d33d c8a8 553d 8a84 1ebd
00000040: f06e 083e 556e 9a3d 8f22 b4bd 969a bcbc
00000050: 10b7 96bd 1b67 293c 1231 0ebd b359 e03d
00000060: cca2 0ebe f949 d7bd 9390 5fbd 335f b6bd
00000070: 6613 2d3d dcdb 1abe 2a92 1a3d 3215 43be
00000080: a227 963c b374 a13d ab17 febc 62df b93d
00000090: a6c2 c33b 8768 0b3e afcd 24bc 0c6b 22be
000000a0: 3c04 db3c dbe0 a4bd 307a ad3c 6ac3 7f3c
000000b0: a7a5 dc3c 3cea 9ebc 94eb 1d3e e232 ad3d
000000c0: 7d30 833d cfa5 f4bc 7015 08be 31f8 fcbc
000000d0: 5f33 393d ef1c 6b3e 6d5a 103e 496e 6a3e
000000e0: 5efe 4e3e 633a 163e f772 553e f11e bd3c
000000f0: 26c8 4a3e 0c87 763d 211d 103e 195b 2d3d
00000100: e7e2 df3d f499 e7bb d5b1 8a3d f64e 9e3c
00000110: aba4 d8bc 3ca0 ffbc a5d8 c03d 8db8 b13d
00000120: deff 123d cec0 1e3c c84f 0dbe 6a2b 05be
00000130: b23a fdbd fc76 04bd fd8c 8dbd 946a 993d
00000140: 2416 ccbd 7c2e 0bbe 8bd2 4abd d4a9 18be
00000150: 7b5e 413e fd2a cf3d bf4f 4c3e acab 263d
00000160: 06fa 86bc a24a e63d 63d4 fd3d 4d79 1b3d
00000170: c49c 3a3e ff8c 343e 8daf 993d b148 253d
00000180: 0e4f be3d 3ded df3c c963 c1bc 55b3 cebd
00000190: 97e9 8fbc 90bb 113e 8fa9 b9bc 4c39 5abd
000001a0: 3fa7 6b3d 9c6b 30bd 91ad a9bd c146 0bbe
000001b0: 457c aebd 7d96 a03d 7b02 503e 967f ca3d
000001c0: bb8f a33d e17e c8bd 4b1d d4bd a105 57bd
000001d0: c5a9 b8ba 14dd e0bd 02cc 5fbd f5f6 c7bd
000001e0: 5381 34bd 255a 24bc 7600 bdbb 6668 01be
000001f0: 1390 f3bd 25ed f1bd d9b5 b1bd 2263 51be
00000200: a0b3 c83d 905f 20bd 3346 433d 220b 4a3d
00000210: 3144 15be ed47 593d b297 59bd 462f f9bd
00000220: fe6d 2dbe 00dc 21be ec39 84bd fc1c 45bd
00000230: db7c 1c3c 4dac 88bd f3e7 093e 69a5 91bc
00000240: 6140 c53b d9d8 a73d c178 083e 7a37 023e
00000250: f275 cf3d 991d 35bd 3ddf 523d bed3 203b
00000260: a05e d03c 445c bdbd 180e 083e 5676 cbbd
00000270: 769c 863d d837 0e3d 1637 9a3d d5a7 e5bc
00000280: 98e0 0b3d 4c6e 8b3d 703b 563c 7381 10bd
00000290: c5f5 fb3c 6dab 1f3e d221 2cbd fa7b 603d
000002a0: 6350 9e3d 4f41 e6bd 746f bebd 9548 fcbc
000002b0: 346d 173c f02c 99bd cf4a 11be 86b1 ed3c
000002c0: 57ad 25be e762 023d fe90 463e c760 e9bd
000002d0: 4789 a33d 48b7 d23d b5b2 d23d 64f4 e5bc
000002e0: 8154 e33d dc32 273e 27ba 043e ec99 903c
000002f0: 6c7e dcbc 0a64 843d 3e7a 0d3d cf06 e53b
00000300: 2e18 323d 70d7 013e 111b a6bc 4d03 603d
00000310: 6652 3e3d 4eae e4bd 213f abbd 44a1 023e
00000320: 1b6f 8abd b77f 62bd f82f 00bd e511 3c3c
00000330: adc1 22bd 20e3 b4bc 75f6 be3c 974c a63d
00000340: 2b7c 56bc ca0e 953d bbd0 f03a bd57 a23d
00000350: bca9 313d 3c2d 0e3e 9c5b 943d 0dff a13e
00000360: 434b 483e e9da 3a3e 07db 2a3e b597 2c3d
00000370: c5e8 603e f665 883e 318a d73d 5d37 e63d
00000380: c841 dabd 5769 e13c d556 053e 0d9d f83b
00000390: f650 42be e2c4 933c 0ed6 afbd 9748 bc3d
000003a0: 27f0 2b3e 70b2 013e 50bf c53c a692 bb3d
000003b0: fdfc cdbb 459d fcbd dc4b cbbd df49 a3bc
000003c0: 707a 013e e646 76bd 4c61 b1bc 822d 6bb9
000003d0: 626d 2fbd 957d e3bd 99a3 a9bd 0712 2a3d
000003e0: 9d0a d4bc e9f6 d23d 640f 34b7 c4a3 1dbc
000003f0: 86a9 103d b790 7bbd 1024 f5ba 530c dcbd
0.07351237 0.10381062 -0.024119155 0.059038337 0.047976624 -0.02046587 -0.10903009 0.12923346
0.12213427 -0.07535743 0.14346775 0.07588707 0.04142992 0.10326968 0.052162915 -0.038700618
0.1332357 0.075405754 -0.08795654 -0.023022931 -0.07359135 0.010339524 -0.034714766 0.10954609
-0.1392929 -0.10512156 -0.054581236 -0.089048766 0.042254828 -0.15122932 0.03773705 -0.19051054
0.018329445 0.07883587 -0.031017145 0.0907581 0.0059741316 0.13614093 -0.010058804 -0.15861148
0.026735418 -0.080507 0.021176428 0.015610555 0.026934458 -0.019398801 0.15421897 0.08456971
0.06405733 -0.02986422 -0.13289428 -0.030880066 0.045215007 0.22960256 0.14096995 0.22893633
0.20214221 0.1467071 0.20844637 0.023086043 0.19802913 0.060187384 0.14073612 0.042323206
0.1093195 -0.007067913 0.067722 0.01932476 -0.026445707 -0.031204335 0.09416322 0.086777784
0.035888545 0.009689523 -0.13799965 -0.13004842 -0.12364711 -0.032340035 -0.06911657 0.07491031
-0.099651605 -0.13591951 -0.049517196 -0.14908534 0.18883698 0.10115621 0.19952296 0.040691063
-0.016476642 0.11244704 0.12394025 0.03795748 0.18223864 0.1763191 0.07504187 0.040352527
0.09292422 0.027334804 -0.023607152 -0.100927986 -0.017567439 0.14231706 -0.02266386 -0.0532773
0.057532545 -0.043071374 -0.08285058 -0.13601209 -0.08519796 0.07841203 0.20313446 0.09887616
0.07986399 -0.09789825 -0.1035715 -0.052495603 -0.0014088681 -0.10979667 -0.054637916 -0.097639
-0.044068646 -0.010031258 -0.005767877 -0.12637481 -0.11892714 -0.1181281 -0.08677263 -0.20447972
0.09799886 -0.039153636 0.04767437 0.049327023 -0.14576794 0.05304711 -0.053123184 -0.1216722
-0.1693649 -0.1580658 -0.0645636 -0.048123345 0.009551252 -0.06673489 0.13467388 -0.017779069
0.0060196375 0.08195657 0.13327314 0.12716475 0.10129918 -0.04421768 0.051482428 0.002454027
0.025435746 -0.09246114 0.13286626 -0.0993468 0.06572811 0.034721226 0.07530038 -0.02803413
0.034149736 0.06808147 0.013075694 -0.035279702 0.03075684 0.15592737 -0.04202444 0.054805733
0.07730176 -0.112429254 -0.09298602 -0.030796329 0.009242345 -0.07479274 -0.14188693 0.029015314
-0.16179405 0.031832602 0.19391248 -0.11395412 0.07985168 0.102888644 0.10287992 -0.028070636
0.11100102 0.16327995 0.12961636 0.01765152 -0.026915751 0.064643934 0.034540407 0.006989337
0.04348009 0.12679839 -0.020276578 0.054690648 0.0464653 -0.111660585 -0.0836165 0.1275683
-0.06759473 -0.05529758 -0.031295747 0.011478876 -0.039735485 -0.022080958 0.02331088 0.08120077
-0.013091127 0.072782114 0.0018372753 0.07926891 0.043374762 0.13884443 0.072440356 0.316399
0.1955996 0.1824757 0.16685115 0.042136867 0.21963795 0.2664029 0.10524405 0.112410285
-0.10657078 0.02751605 0.13021405 0.0075870813 -0.18976197 0.018038217 -0.085857496 0.09193533
0.1679083 0.12665725 0.024139076 0.0915883 -0.006286262 -0.12334684 -0.099265784 -0.019932685
0.12644362 -0.060126208 -0.02165284 -0.000224283 -0.042828925 -0.11107937 -0.08283157 0.0415211
-0.025883967 0.103010006 -1.07324195e-05 -0.009621564 0.03531792 -0.061417308 -0.0018702764 -0.10744538

weight_hh_l0 f4 [192, 64]
00000000: da8f 3abe ec72 6cbc b104 fd3d f25a e63d
00000010: a65b 0abe a664 a63d 6e5f 8e3d 84cb 8a3d
00000020: b454 bdbd 6715 083e c400 9abd e9e4 d93d
00000030: a434 44bc 18ce 31bb 7a04 ce3d 3dce b3bd
00000040: 8aed a13b b193 de3c 3ca0 27be 5f0a d93d
00000050: 2999 963d e833 de3d 9747 d9bc 3e6d dfbd
00000060: b215 53bd 9385 a33d 20a3 94bd fd9c 163e
00000070: 182f 3abd 2abb 74bb 8598 16bd 484a d3bb
00000080: 21fb a3bd ea41 9c3c e823 abbc ee26 913d
00000090: 6557 273d fcff 963d a409 00be 5b43 cc3c
000000a0: 4437 1bbd eae7 343c 8142 563e 2970 1cbe
000000b0: b6cd afbd 9f52 473d 9dea 753c fee1 0d3e
000000c0: f4e1 50be 1a0f d23b 5168 b5bd 23e3 d03d
000000d0: 5469 e3bd e31c 8a3c eb6b 373c 28b7 ac3d
000000e0: 40f6 a03c daa8 383e 4dd9 2b3d 23a8 5d3b
000000f0: e017 7abd dfec 173d a080 00be 0ac0 c5bd
00000100: 90ee 02bc 7a16 36be 5551 9bbd 34a8 f4bd
00000110: e1b3 49bd ed48 f83b ac8a 34be 221f 16be
00000120: d147 053d 7580 5d3d 1b11 65be 1977 5ebe
00000130: 3c90 543d 2841 4a3e 62ea 803d cca1 123c
00000140: 5114 8a3c ece3 0f3c 661a 01bc f5b2 82bd
00000150: 194b 34be ac36 e53d a2f6 1d3e ebf6 b53d
00000160: 171c 7ebe 44c0 63bd 0488 0bbe 51a5 683e
00000170: 3132 273e c73b 1cbe 9e24 ad3c abdb 58be
00000180: 430d e2bd f61c b03c 5eb9 7b3d 1d69 13be
00000190: c0bb 56be dbaa 5e3e ec0c 0fbd e5cf 383e
000001a0: 2271 c23d a596 bfbc 7c8d c1bd e4b8 ba39
000001b0: 139e 193d ed09 3ebb 8489 d53d ee5f 433e
000001c0: be57 f93c 2660 973d 6859 093e e890 d93d
000001d0: 0f80 88be d8f3 1c3d 4f01 043e 8b38 893c
000001e0: cacb 44be ffd3 4fbd 6051 f53d ed67 f9bd
000001f0: 1200 26bb 61fe f63d 0c06 e63a bab7 1dbe
00000200: 012b 89be df3f 3a3b 90a4 8c3d 6e9d 173e
00000210: 0fba 0a3e d424 413c fda5 69bd cb74 693c
00000220: 003c 14be 0d1b b4bc 669f 5bbc da80 fc3d
00000230: 5d09 b7bd 3977 0e3e 2304 9cbc d84f b03c
00000240: 4dfa e13a f728 283d 99e8 913d a2ce 0fbd
00000250: 782d 7cbe 4331 d0bd 69c2 ea3d 7519 403d
00000260: e652 5c3d 3142 0bbe c82b 9fbd 981c 333c
00000270: 3e46 9abb f46c 90bd a5db 163e dcc6 1fbe
00000280: 01de 8a3d 13a4 81be 6204 153d fbca ad3d
00000290: 33d1 81bd 03ee 693e ca2a bd3a d680 f63d
000002a0: 7d56 633a 02d8 9d3d 5642 17bd a810 4cbd
000002b0: 3528 8bbd ee35 8cbe 6958 163d c5fc 283e
000002c0: 4004 173e 2d20 16be f618 9b3d d20d 653e
000002d0: 0531 77be 9cf2 41be 5b9d de3d 3b55 a73c
000002e0: 6acb 01be 9648 6bbd 7815 033e 1fe6 28be
000002f0: 8f6a e3bd cea4 e53d 2f84 d33d aba3 a9bd
00000300: 12c5 313e e08f fc3d c3b0 3c3c d89f 133e
00000310: 992a e33a 6dcd 113c c7e0 323e 32ae a13d
00000320: b48c 043e dc9a 0fbd f15c 2ebe 7506 cfbd
00000330: 0468 1bbe 65ea 66bc a44c a53b cc25 0dbe
00000340: 0af8 03be 59c8 48bd 5ebf 253d ef50 e23d
00000350: 4d74 bfbd 014a 83bc f88e 82bc 0ce2 2c3d
00000360: 34ff 593c 2222 30bd 740a 1abe 3b5c 31be
00000370: 4b1e b6bd 5dc3 143e b03b a53d 8540 abbc
00000380: 61b4 d73d f226 fb3d 5b3f 0abd aa33 073c
00000390: 66e1 073d 0976 febd 6c6d ddbd 3aa5 03be
000003a0: 2af2 0fbe 8020 9abd 7170 cdbd 4d72 5f3e
000003b0: 7dcc d1bc 6c89 c5bd 402d 653e 4e03 e63c
000003c0: 7aa4 1b3e ddd7 20be 5f60 893b 68f1 c3bc
000003d0: 1772 eb3d 3739 c3bd 0164 86be dc99 9fbd
000003e0: f4a2 863e b196 aebc df8d 86bc f503 ab3d
000003f0: 9f1e 9abd 8a8b 41b8 7a5c db3d add2 423e
-0.18218938 -0.014431696 0.123544104 0.11247815 -0.13511524 0.08124666 0.069517955 0.06777099
-0.092446715 0.13289414 -0.07519677 0.10639364 -0.011975441 -0.0027130898 0.100594476 -0.08779571
0.004941647 0.027170034 -0.16369718 0.10597681 0.07353432 0.10849744 -0.026523395 -0.10909508
-0.051534362 0.07984462 -0.07257676 0.14708324 -0.04545507 -0.0037343004 -0.036766548 -0.006448064
-0.080068834 0.019074399 -0.020891145 0.070875034 0.04085483 0.07373044 -0.12503678 0.024934461
-0.037894502 0.011041621 0.20923807 -0.1527716 -0.08584158 0.048662778 0.015009549 0.1385574
-0.20398694 0.0064104917 -0.088577874 0.10199573 -0.11104074 0.016859477 0.011195163 0.08433372
0.019648671 0.18033162 0.04195528 0.003382214 -0.061057925 0.037091132 -0.12549067 -0.09655769
-0.007991448 -0.17782012 -0.07583872 -0.11946145 -0.04924381 0.007577053 -0.17631024 -0.14660314
0.032539193 0.054077584 -0.22369806 -0.2172512 0.051895365 0.19751418 0.06294705 0.008949708
0.01685539 0.008782368 -0.007879829 -0.063817896 -0.17606772 0.111920685 0.15426114 0.088849865
-0.24815403 -0.05560328 -0.13626105 0.22719313 0.1632774 -0.15257178 0.021135624 -0.21177547
-0.11037686 0.021498185 0.061456077 -0.14395566 -0.20970058 0.21744864 -0.034924433 0.18048055
0.094942346 -0.023387263 -0.09450814 0.0003561444 0.037504267 -0.0028997615 0.1042662 0.19079563
0.030437347 0.07391386 0.13413012 0.10623342 -0.266602 0.038318485 0.12891124 0.016750595
-0.19218364 -0.050739285 0.11978412 -0.121780254 -0.0025329632 0.12060238 0.001754941 -0.15402117
-0.26790622 0.0028419418 0.06867325 0.14806148 0.13547538 0.011788566 -0.057043064 0.014249037
-0.14476013 -0.021985555 -0.013404703 0.12329264 -0.08937333 0.13912667 -0.019044941 0.021522447
0.0017240733 0.041054692 0.071244426 -0.03510917 -0.2462672 -0.10165646 0.11462862 0.046899278
0.053789996 -0.13599469 -0.077720225 0.01093211 -0.0047080806 -0.07052031 0.14732225 -0.15603203
0.06780625 -0.2532049 0.036381133 0.08485981 -0.0633873 0.228447 0.0014432308 0.12036292
0.00086722506 0.07707216 -0.036928497 -0.049820572 -0.06794778 -0.27384895 0.03670541 0.16502674
0.14747715 -0.14660712 0.0757312 0.22368553 -0.24139793 -0.18940204 0.10869857 0.020426383
-0.12675253 -0.05744227 0.12801158 -0.16494034 -0.11104309 0.112130746 0.103279464 -0.0828317
0.17360333 0.123321295 0.011516753 0.14416444 0.0017331421 0.008899075 0.17468558 0.07894553
0.12944299 -0.035059795 -0.17027642 -0.101086535 -0.15176398 -0.01409397 0.0050445367 -0.1378395
-0.12887588 -0.04901919 0.040465705 0.11050593 -0.093483545 -0.016026499 -0.015937313 0.042207763
0.013305474 -0.0430013 -0.1504305 -0.1732034 -0.08892497 0.1452765 0.08068025 -0.020904789
0.105324514 0.122632876 -0.033751827 0.008252064 0.03317394 -0.12424857 -0.10811886 -0.12855998
-0.14057222 -0.0752573 -0.10031212 0.21820946 -0.025610203 -0.09645352 0.22380543 0.028077748
0.15199462 -0.15707345 0.0041923965 -0.023918822 0.1149637 -0.09532397 -0.26248172 -0.07793018
0.26296198 -0.02131209 -0.016425071 0.08350364 -0.07525372 -4.614474e-05 0.10710998 0.19025679

bias_ih_l0 f4 [192]
00000000: efd9 5abc 31de c13d 496c bbba 81ff b6bd
00000010: 271f a93d 955b 0cbd 030d ca3d 78da 4b3c
00000020: 8b76 203e 3efa 8c3c 41e0 253e 8ead e6bc
00000030: b78b 403d 6dff 253d 8047 433c 0bf6 913d
00000040: 4317 fa3a 6ee6 d03d 6fd1 e93b cd08 1c3d
00000050: 7f99 dcbc d003 393d b0e8 093e 0c17 b03d
00000060: cad0 943c 96c4 503d 333b d03c 84ae b93d
00000070: c112 063e 88c0 2fbd fd8d ae3c f260 683e
00000080: 4928 883c 1fcf bbbd f54a 87bc a313 133c
00000090: 30dc b7bd f6b4 1fbb 4f73 613e 33d3 7c3d
000000a0: ece2 1a3e 7f81 21bd a1c2 0a3e 00c9 bd3d
000000b0: a809 aebc c47c 863d 05c5 e03d 93a4 60bd
000000c0: c8a8 ce3d 55f2 cc3d ed58 88bd cf59 e83c
000000d0: 924e 0f3e 4c5f 583d 1f50 833d 865b c73c
000000e0: 3513 a9bd 83bb 763d 8b82 b83d 8dc7 bc3d
000000f0: e61b 673d 23ad 02bd d6ba 61bc 2165 173e
00000100: 60c9 eebd c806 983d 856c d03d a1bb 20bd
00000110: 2b30 da3d 1901 1b3e 6783 203d d04c 803d
00000120: 295e 283e 5396 aa3b 932c 003e e89e 2abd
00000130: 8c16 3ebd 324e 953d 8867 f43d 82c2 2a3e
00000140: 5943 9ebd 5543 cf3c e2d0 28bd a509 4abc
00000150: bf95 223c 1438 9cbd 21f0 cabd 9bdd 1dbd
00000160: 94a2 b0bd 5d3a 263d 67f0 f83d 31e0 543d
00000170: 32c4 5f3e 4c0e c93d d19f 84bd 3ee4 133d
00000180: 5b98 823d ac7d d33d 40d2 cd3d f8a6 4c3c
00000190: a6c1 de3d 4b3b a9bd 5eca 003d 28c4 a4bd
000001a0: 10ae 033d fc77 a1bc 6491 96bd 29bf 37bd
000001b0: 82fb 9d3d 03a6 2a3c b5bd 703d 8717 523d
000001c0: 81cd 0a3e d3b0 973d 4814 a23d d3e9 0e3e
000001d0: f3aa 9bbc 3b60 2c3b 04cf f4bd 58b9 e83d
000001e0: a300 ec3c cf64 01be 8382 b63d ef4c 053d
000001f0: ccec dabd 74c3 d0bd b2bd 9cbd 1489 e53d
00000200: 71e4 1cbe bb9d 30bd 5d05 01bd b915 2abd
00000210: 69f6 b8bb 9550 843d 319c 97bb 9976 a9bd
00000220: a092 3b3d d766 0fbd f5d4 81bd 8842 2d3d
00000230: bd45 01bd b35b dd3d 9437 063e ea04 7e3d
00000240: 16bd b0bc af0b 61bc 1665 983d cbba 40bc
00000250: 4c09 b3bd f4d5 dfbd 1706 91bc 2723 173d
00000260: d6c9 a13d 1a9b 823d 33ba 973d d58f a53d
00000270: 52d4 993d 8f63 bfbd 1cb2 0b3e e4d1 1d3b
00000280: f10a 74bd d9be ac3d 24c4 c5bd 9141 e9bc
00000290: eb57 2f3d a74f 9b3d a8d0 87bd c8cb f13c
000002a0: 242c 093e da12 ff3a 15c4 263d 7645 73bd
000002b0: dbfd 983d b5a7 c2bd f9d5 8abc 599c 373d
000002c0: 8de7 23bb 73f4 bf3d 9b3f ec3c 76e7 2a3e
000002d0: 72fa 30bb eed8 07bd 8a1f 99bd 2951 843a
000002e0: 8707 85bd 4c5c 293d a8ae 113e 6fc6 8f3c
000002f0: ca2c 573d c41a e83d 83f6 163d 7e35 afbb
-0.0133576235 0.09466208 -0.0014299239 -0.08935452 0.08257895 -0.034267027 0.09865763 0.012442224
0.1567022 0.017209169 0.16198827 -0.02815893 0.047008242 0.040526796 0.011918902 0.07127007
0.0019080419 0.10200201 0.007135562 0.03809433 -0.026928661 0.04516965 0.1346767 0.08598146
0.018165965 0.05096873 0.025418853 0.09066489 0.13093092 -0.04290822 0.02130794 0.22693232
0.016620772 -0.091703646 -0.016515234 0.00897685 -0.08977544 -0.0024369336 0.22016643 0.061724853
0.15125626 -0.039430138 0.13550808 0.09266853 -0.021244839 0.06566766 0.109750785 -0.05484445
0.10090786 0.10007159 -0.06657586 0.028363137 0.13994816 0.052825257 0.06411766 0.024335634
-0.082556166 0.06023742 0.09009274 0.09217749 0.05642309 -0.031903397 -0.013777455 0.14784671
-0.11659503 0.074231684 0.101769485 -0.039241437 0.106537186 0.15137137 0.039187815 0.06264651
0.16442169 0.0052059083 0.12517004 -0.04165545 -0.04640822 0.07290305 0.119338095 0.16675761
-0.07727689 0.025300661 -0.04121483 -0.012331401 0.009923398 -0.076278836 -0.09909082 -0.038541418
-0.08624759 0.040583003 0.12155228 0.051971618 0.21852186 0.0981718 -0.06475795 0.03610634
0.06376716 0.103267044 0.10049868 0.01249098 0.10876779 -0.08263262 0.031442992 -0.08045226
0.03214842 -0.019710533 -0.0735195 -0.04486004 0.07713987 0.010415557 0.05877467 0.05129197
0.13554956 0.074067734 0.079140246 0.13956384 -0.019002413 0.0026302475 -0.119535476 0.113634765
0.028808897 -0.12636112 0.08911612 0.032544073 -0.10689697 -0.1019353 -0.07653369 0.11207786
-0.15321518 -0.043119173 -0.031499255 -0.041524623 -0.0056446088 0.06460682 -0.0046267738 -0.08274574
0.04579413 -0.035010185 -0.063394465 0.042299777 -0.03156065 0.10808506 0.13107139 0.062016405
-0.021574538 -0.013735696 0.074411556 -0.011763285 -0.087420076 -0.1092948 -0.0177031 0.03689876
0.07899825 0.063772395 0.074085616 0.080840744 0.075112 -0.09345161 0.13642162 0.0024081403
-0.059580747 0.08434839 -0.096565515 -0.028473647 0.042808454 0.07583552 -0.06631595 0.029516116
0.13395745 0.0019460574 0.040714342 -0.059392415 0.07470294 -0.09504644 -0.016947733 0.04482684
-0.0025009841 0.09372797 0.028838923 0.16689858 -0.0027004746 -0.033165865 -0.07476719 0.0010094988
-0.06495576 0.041347787 0.14226782 0.017550675 0.05253295 0.1133323 0.036856186 -0.005346953

bias_hh_l0 f4 [192]
00000000: 3198 24bd 355e d5bc d57e b4b8 4e3e dbbc
00000010: f3f0 75bd a53c 45bd 97ad ac3d cecb 36bd
00000020: 1be1 d5bc 9d4d 1cbd 1b58 f93d 1c4d fbbb
00000030: cd58 1abb bde6 abbd 1c03 0e3e fe01 223e
00000040: 0078 d73d 436c 193e 7ada cb3c 538f fc3d
00000050: cdc0 133e 61e7 a33c 90f1 bf3d 7b50 96bc
00000060: df4a eb3d 6bda a6bd a5bb 96bd b9b9 73bd
00000070: 911c a4bb ada3 0f3e f711 2bbc f61d 213e
00000080: 4f9f fbbb b732 34bb 1862 1cbc e054 b8ba
00000090: 5fae 96bd 4ca1 bb3d ceb5 99bc 756d 20bd
000000a0: 9c10 383e adb3 033e 878f 653d 4909 60bc
000000b0: 7741 533e 4065 b93d 2657 debc b3ca 073e
000000c0: 0e3d 2d3e 282e 4d3d db57 0c3e 0e4e c2bc
000000d0: 3c4a 643d 37fa 3e3e d5dc 693c 2b49 00be
000000e0: 489e 033d 976c 543d cf6e 463e 80ca 343c
000000f0: c7ad 683e 3675 c43d 003c a2bd a2b2 14bd
00000100: 2d1a d53d 503e 56bd f20b 793d 8b52 be3d
00000110: d76e 503d c94b bfbb 4b1b 063d 2c29 3abd
00000120: 2339 3d3e 0da7 d43b 9bc5 1dbd 4616 e3bd
00000130: 5004 833d f0aa 5f3d c86f 8abd f89f 7a3d
00000140: 3c0a 573c cb61 583d dc69 383d 9791 9d3d
00000150: d891 96bd ac87 493c c110 213d 7c1a 16b9
00000160: 29cb c13d 0a55 e83d e7bf b33d 5e5a 6a3e
00000170: 4666 1d3e 6cc7 ffbc f5ab dd3d 36e0 9cbd
00000180: 32d1 17bd 36f2 ecbd e1b5 fa3d 2397 333e
00000190: 6df9 00bd cf2b 563d c653 973c 8185 d43d
000001a0: c6a9 2b3e 3c3d 723d ca81 e1b9 dded ab3c
000001b0: b52c f03b 750f 8ebd 67f4 0dbd 70be 593e
000001c0: 466f 613d 0a03 603d 04ad 153e 8dcc cc3d
000001d0: dbe5 1e3e bd1a fa3d 068a e2bd 99f8 bb3d
000001e0: b47f 1e3e 0654 c9bc 63d7 ec3d bd1b 243d
000001f0: beca 20bd 3653 aebd 1575 14be 0514 413d
00000200: 1fae 35be 86f8 bbbd 61f4 123d 0f95 25be
00000210: 12d1 493d a23a c4bc c7be 0ebe 1260 b8bc
00000220: 86be d8bc 3563 c13d 5373 51bd 67ad adbd
00000230: 6462 f63d 795a cebd bf2b 943a e074 ec3b
00000240: 13b5 5c3d 0afe dbbd a9ac c6bd 8080 15be
00000250: b0c3 21bc 2a01 fabd a86e 4abe b428 35be
00000260: 224f 41bd abbe d53d 033a e33d 9dd9 cabd
00000270: de61 693e 15ef 01bd 843d 1fbd f9a2 443d
00000280: 3aac f0bd 5bc6 25be b1df b5bd d364 3fbe
00000290: e5a7 0f3e fc2b 103d 615c 0dbe bd67 a03d
000002a0: 4b01 1f3d 1a52 c7bd 0fae 06bd e0e8 49bd
000002b0: 7b2d efbd e2f5 933c 4b18 bc3d 58c7 81be
000002c0: 49a7 4f3d 5616 fdbd 6fc1 7abd 99ab b83d
000002d0: 4fa5 1bbe bcdc cb3d c984 18be 4461 843e
000002e0: 41b5 193e 615a 55be 93fe cbbc e0ee 7e3d
000002f0: a022 ac3c 0ae1 10be ed4d 223e a381 3c3e
-0.040184204 -0.026045898 -8.606693e-05 -0.026763108 -0.06004424 -0.04815354 0.08431547 -0.044627957
-0.026108315 -0.038159955 0.12175008 -0.0076691043 -0.0023551465 -0.08393619 0.13868374 0.15821072
0.10520935 0.14982705 0.024884451 0.123320244 0.14429016 0.020007791 0.09372246 -0.018348923
0.1148889 -0.08147129 -0.07360009 -0.05950329 -0.005008288 0.14027281 -0.010441295 0.15734085
-0.007678903 -0.0027496049 -0.009544872 -0.0014063381 -0.073574774 0.09161624 -0.018763449 -0.039166886
0.17975086 0.1286151 0.05604508 -0.013674089 0.20630442 0.09052515 -0.027141165 0.13260917
0.16917822 0.050092846 0.13705389 -0.02371886 0.055734858 0.18650137 0.014273842 -0.12527911
0.03213337 0.05186137 0.19378208 0.011034608 0.22722541 0.09592669 -0.079216 -0.03630317
0.10405383 -0.05230552 0.060802408 0.092930876 0.050886955 -0.0058378917 0.032740872 -0.04544942
0.18478827 0.0064896406 -0.03851853 -0.11088233 0.06397307 0.054606378 -0.06759602 0.061187714
0.013124999 0.052827638 0.04502283 0.07693785 -0.07352036 0.012300413 0.03932262 -0.00014314981
0.09462578 0.11344345 0.08776837 0.22886035 0.15371045 -0.031223021 0.10823814 -0.07659952
-0.03706474 -0.115696356 0.12241722 0.17538123 -0.03148787 0.052287873 0.018472563 0.10377026
0.16763982 0.05914043 -0.00043012045 0.020987445 0.0073295482 -0.06936542 -0.03465691 0.21264052
0.05503776 0.0546904 0.14616781 0.099999525 0.1551737 0.12212131 -0.11061482 0.091782756
0.15478402 -0.024576198 0.11564519 0.040065516 -0.03925585 -0.08511965 -0.14497788 0.047138233
-0.17742203 -0.091782615 0.03587759 -0.16170143 0.04927165 -0.02395374 -0.13939963 -0.022506747
-0.026458036 0.0944275 -0.051135372 -0.084803395 0.12030485 -0.1007585 0.0011304541 0.007216081
0.053883623 -0.107418135 -0.09700901 -0.145998 -0.009873316 -0.12207253 -0.19768775 -0.17691308
-0.047194608 0.10436758 0.11095049 -0.09904788 0.2279124 -0.031722147 -0.038877025 0.048006985
-0.117515996 -0.16188948 -0.088805564 -0.18690805 0.1402889 0.035198197 -0.13804771 0.078322865
0.038819592 -0.097324565 -0.03288084 -0.049294353 -0.116785966 0.018061582 0.09184321 -0.253474
0.050696645 -0.12357776 -0.06121963 0.09017105 -0.15199779 0.09954211 -0.14894404 0.25855458
0.15010549 -0.20835258 -0.024901664 0.062239528 0.021012604 -0.14148346 0.15850039 0.18408827

weight_ih_l0_reverse f4 [192, 32]
00000000: 0b68 b4bc a5e7 e13d 2d81 e7bd b149 b73d
00000010: 090c 2ebd f899 b23d bd72 73bc 0c91 b7bb
00000020: d48b 4ebe 38f6 14bb 0f16 efbc b0f1 aebd
00000030: b601 2bbd 3d61 f3bc 01ed f2bd 1cae 37bd
00000040: 6d36 83bd ea4b 63bc 8942 7abd 8da2 36be
00000050: c40f 033d 8db7 163e 4fda 033e 968e f0bc
00000060: ec81 d03d 2181 0a3e b402 f83d 1a1a 183e
00000070: 425f 203d ca56 c6bb 7ff6 063e c0aa 1e3e
00000080: e171 1e3d 1844 fb3d 00b3 ca3d 9fa7 9b3d
00000090: 039c d9bd a9ba 033d e6b5 11be 8fac 14be
000000a0: 2389 ca3c e5ff 423d 1a51 2ebd 6301 313d
000000b0: 5b31 15be f595 e5bd c218 febd 8c6b e6bc
000000c0: bdf1 963a 7c22 683d 5c80 65bd ca6a 2b3e
000000d0: 5eab 10be 4593 d3bd f5a2 9e3d 4e21 fcbd
000000e0: 97e5 773d c05a d1bd f6ec 1c3d c316 28be
000000f0: b6a3 8bbe 420e 57be 1e61 2ebe 8347 043d
00000100: 89d7 f5bc 8789 d33d cf79 be3d 0c61 fe3d
00000110: 1dd3 00bd 570f 973d cb7b b7bd 9405 533c
00000120: 74d3 82bd 0152 a5bd 7ce8 3cbd 5603 213d
00000130: 67f1 7fbd 21e3 903c a592 f3bd 2d30 853b
00000140: 2dd3 ebbc b59d fabc d66e e1bc 584e 313d
00000150: 7c82 f13d 3f36 a63a 59eb 123b f0dd 6f3d
00000160: d8e7 5a3d bc62 273d bccc 843d 80f0 073e
00000170: a4a8 c0bc d080 e63d 8eb7 0d3e 9e25 4d3d
00000180: dc99 a13c 1008 4abd 2ffd e0bd a0a9 13bd
00000190: ac07 093e aa98 5b3d a243 983c 1c34 f73c
000001a0: 3787 8fbd 1da5 3e3d b242 1abe 013c 9f3c
000001b0: fc0e 3dbd 2e3f 9b3d 513b d83c 983a b3bd
000001c0: 14d8 a4bd 12e5 edbc 0f56 c53b 99f5 38be
000001d0: ddfb 18be 608e 1d3d 6525 133d 3240 84bd
000001e0: 1f6e f0bd db51 c03c 0c34 fdbd 1e90 0ebe
000001f0: 4623 d6bd 7757 98bc e710 2ebc dccf b13d
00000200: b534 81bd 4fb0 823c dd0b ed3d a891 213e
00000210: 1ca1 e1bd e36d 68bd 2ae5 80bc 8fec ba3c
00000220: c231 e4bb da3d 2dbc d675 03be ec52 9b3c
00000230: 98df 02bb 799b b63b 7e01 f9bd e0ce a7bd
00000240: 6b53 a93d fa98 a33d 317f a03d 54f7 bbbd
00000250: 348d aebb e25f 0c3e ba02 343e fcf2 1a3e
00000260: 81dd 7ebd 0788 64bd a13a 293c 62e6 18bd
00000270: 5930 b1bc 38ee 9e3d e029 b83d dd4d 023e
00000280: 05b0 8fbd 398d 543d a644 1ebe e878 f9bc
00000290: e8fa 513b df86 af3d 9561 a83b d426 0e3e
000002a0: e1c2 fcbd 39b0 72bd 091b 003e 3835 583e
000002b0: 0599 993c 3b3d 4bbd 4cb9 973d 7bf9 e93c
000002c0: 7644 b03d e669 f83d 3044 e8bd 6c2b c43d
000002d0: 755b e53d 3cc3 0b3e 2c7d 1c3e b417 c23d
000002e0: a53b 23bd 7ef8 c13b 6a54 8cbc 57b2 9f3d
000002f0: e62b 163e d744 353e bf38 e63d f4e3 c93d
00000300: 40b6 5e3d b85b 10bd 62e2 2fba b06c 133e
00000310: 2fde abbc 8623 3bbd 6a19 ba3d 99a2 89bd
00000320: 8259 cbbc 99ba 27bc feb8 19be 8b12 be3d
00000330: 8243 9ebd 6bd5 453d 01ef 00be 8fb4 a13c
00000340: 8062 2bbd cb22 4dbd 9fc3 9f3d bab9 1f3d
00000350: df8e e63b 3a4a c73d 7f43 13bd 27c0 0abe
00000360: d996 3abe 29bd 08be 41c2 08bc 41de b0bb
00000370: 2465 44bd f2fe 843c 854c 91bd a52c 14be
00000380: 15cf d2bc 5b4f a43d e760 c9bd f586 423d
00000390: cf57 0dbe 492b 54bd 3418 ee3d fbde 123e
000003a0: 19bd 04be 6c4c 3bbd dd6d 213b 2ce8 d53d
000003b0: fdef 23be 97b7 a53d 0af8 04be 4d9c afbd
000003c0: 758b d1bd cc4e 7dbc c1a6 723c e5ab 5e3d
000003d0: 75b8 4bbd 8a39 d73d 093f 843e 3c38 223e
000003e0: 82f1 253e 35a2 dfbc 2368 023c 4170 f03d
000003f0: 8c81 d7bd 1835 4abc b559 183e f3d5 603d
-0.022022268 0.11030511 -0.11303935 0.089496024 -0.042491946 0.087207735 -0.014858899 -0.0056020077
-0.20170528 -0.0022729766 -0.029185323 -0.08542192 -0.04174968 -0.029709453 -0.11861611 -0.044843778
-0.06406865 -0.01387308 -0.06109861 -0.17835446 0.031997457 0.14718457 0.12876247 -0.029364865
0.10181031 0.13525821 0.121098906 0.14853707 0.039153345 -0.0060528265 0.13179968 0.15494823
0.038682822 0.12268847 0.09897423 0.076003306 -0.1062546 0.032160435 -0.14229545 -0.14518951
0.024723595 0.04760732 -0.042557813 0.043214213 -0.14569609 -0.11210243 -0.12407066 -0.028127454
0.0011516135 0.056673512 -0.056030616 0.16739956 -0.14127871 -0.10330824 0.07745925 -0.1231104
0.06052169 -0.10222387 0.03831192 -0.16414933 -0.2727334 -0.21001533 -0.17029235 0.03229476
-0.030010002 0.10328966 0.09300577 0.12420854 -0.031451333 0.07375973 -0.089591585 0.012879748
-0.06387988 -0.08072282 -0.046120152 0.039309822 -0.06248608 0.017686429 -0.118932046 0.004064581
-0.02878722 -0.030592779 -0.027518671 0.043287605 0.11792466 0.0012680962 0.002241811 0.058561265
0.05344376 0.040865645 0.064843625 0.13275337 -0.023517914 0.11255038 0.13839552 0.050084703
0.019726686 -0.049324095 -0.10985791 -0.03605044 0.13381833 0.05361239 0.018586937 0.030176215
-0.07008212 0.046544183 -0.15064505 0.019437792 -0.04615687 0.0758041 0.026395472 -0.0875141
-0.08049026 -0.029039893 0.006022222 -0.18062438 -0.14939828 0.038465858 0.035924334 -0.06457557
-0.11739754 0.023476532 -0.12363443 -0.13922164 -0.104559466 -0.018596394 -0.010624147 0.08682224
-0.06308881 0.015953211 0.11574528 0.1577822 -0.11017057 -0.05674542 -0.015734274 0.022817878
-0.0069639394 -0.010573829 -0.1283792 0.018960439 -0.0019969698 0.005572733 -0.12158488 -0.08193755
0.08267864 0.07988162 0.0783676 -0.091780335 -0.0053268913 0.13708451 0.17579165 0.15131754
-0.06222296 -0.05579379 0.01032892 -0.037329085 -0.0216295 0.0776028 0.08992362 0.12725015
-0.07015995 0.051892493 -0.15455875 -0.03045316 0.003204042 0.085706465 0.005138586 0.13881999
-0.12341858 -0.05925009 0.12510313 0.21114051 0.018749723 -0.04961894 0.074083894 0.028561344
0.08606808 0.121295735 -0.11341131 0.095785946 0.11199085 0.13648695 0.15282124 0.09477177
-0.039851803 0.005919515 -0.017130096 0.077976875 0.14665183 0.17702042 0.11241292 0.09857932
0.054373026 -0.03524372 -0.0006709454 0.1439693 -0.020979969 -0.045688175 0.090868786 -0.06720466
-0.024822954 -0.010237359 -0.15011975 0.092808805 -0.0772772 0.048299234 -0.12591173 0.019739417
-0.041841984 -0.05008201 0.07800984 0.038995482 0.0070360745 0.097309545 -0.03595304 -0.13549863
-0.18221606 -0.13353409 -0.008347095 -0.0053975885 -0.047948018 0.016234849 -0.07094673 -0.14470156
-0.02573351 0.08022948 -0.09832936 0.047491986 -0.13803028 -0.051799092 0.1162571 0.14342873
-0.1296276 -0.04572718 0.0024632134 0.10444674 -0.16009517 0.080916576 -0.12985244 -0.08574734
-0.102316774 -0.015460681 0.014810265 0.05436315 -0.04973646 0.105090216 0.25829342 0.15841764
0.16205409 -0.027299026 0.007959398 0.11740161 -0.10522756 -0.01234176 0.1487797 0.054891538

weight_hh_l0_reverse f4 [192, 64]
00000000: 6eb2 31be 2096 4dbd d230 00be f041 bd3b
00000010: a8ef 0c3e d4e0 e43c 3ee9 9b3d b066 d3bd
00000020: 6d4f ab3d 16d8 a2bd c4ec 3c3d 6725 2bbc
00000030: 4c21 b03c 555b 28bc f378 273b e140 9abe
00000040: acae 4ebd e26f 523a 15e6 633e 8563 8cbd
00000050: f560 393e 8b9a 28be dcc1 12be 6093 dcbd
00000060: 2677 5f3e f398 19be fc4e eebd 5c55 323e
00000070: f831 2e3e 9532 55bd 7d7b 7e3c e8c5 86bd
00000080: 0389 e0bc fd12 ba3d bf26 94bd 6b15 20be
00000090: 508a 423d 4b56 92be 01b0 9ebd cbb5 17bd
000000a0: 9f71 e73d 67f5 b0bd 710c 67bd c264 5a3c
000000b0: 1b3c e8bc 85ae fbbd 5c55 b9bd 9e0b c13d
000000c0: d511 6ebd 0f48 293e 4b0c 65bd af98 383e
000000d0: 12de 4abd ba6d 03bd 28c3 343e a380 23be
000000e0: 0ae9 893b 3029 823d 86fe 3ebe dc54 ec3d
000000f0: 2e85 68be d606 053b 0d9e 23be 9277 5cbe
00000100: 8ae5 bcbd f127 a1be 920a 1dbe 7404 e63c
00000110: 6713 30be b5d1 123d f52b a139 8957 64bd
00000120: 30e9 b5bd 3de5 f8bc c07b f63c d7c2 e9bd
00000130: 7167 c93d 3d35 f5bd 0049 713e a5f5 093d
00000140: 173d 593e c29f 673e dbc5 ae3d cba7 6b3d
00000150: 1950 3d3d cb86 02bc a5f6 e8bd c9b0 723d
00000160: c2ab 92bd f5fc 1fbe 2fc0 333e 25b8 82bd
00000170: 7f5a 253b fcab 1abe 60c5 17bd a35e 17be
00000180: f2b0 883d 05fd 03bc 6a21 9f3d ff15 453e
00000190: 4d03 d4bd 54e5 d2bc 01a5 b1bd 63c4 bcbd
000001a0: 251e f7bd 1c3a efbc 734d bcbd dde9 00bc
000001b0: c774 26bd 7376 a23d d99e 34be 4109 b73c
000001c0: 88be 04bd 6c89 e23c 1f8f f13a 588e 023e
000001d0: 988d 8fbc ba3a b03c 8fa3 1fbc 5e5c 473e
000001e0: 9947 43be 6be7 e1bc 5e9c 0fbe 5c48 07be
000001f0: 9b49 83bd d0e2 1a3d 8471 773c dacb 183e
00000200: dc08 31bd ab0f b9bd a3c6 063e 89a3 423e
00000210: 4bb5 82bd 8da0 013e b325 0bbe a2e3 df3c
00000220: 55f0 d6ba 47ec 3abe 21d6 d9bc bb19 e23d
00000230: f567 d6bd d181 c23d 1d23 11be 54d0 df3c
00000240: ea2b 36be 2e91 0fbe 03b5 b93d cf93 203c
00000250: 2b0d 653e df81 74bd 0502 9c3d 41df ed3d
00000260: 3d13 003e f528 0c3e d69b 17be 8184 123e
00000270: ab23 4bbc 64c0 ae3d 6151 01be 47ef 26bd
00000280: 67ff f2bd 49be d03d 7f70 173d 133d ddbd
00000290: e16b 9ebd 58f0 4abe e9d4 6a3d 3aab 95bd
000002a0: 40a3 763d ec77 9cbd d540 ad3d 2a6b e0bb
000002b0: f8d0 41be 454c 52bd 2de8 033e c252 7ebd
000002c0: 049f 893d 3cbb aebc bf2f c3bd 8f00 da3d
000002d0: db39 9e3c 87b2 20be ff0c dd3d a845 a8bd
000002e0: bd0f a0bd bac5 0a3e 8d05 63be 7fd1 c03d
000002f0: 79fc 21be 85ae bcbd ce1e 05be be6c a13c
00000300: 735e 653e 068d 3abe 73e9 e83d 0626 093b
00000310: fe9f 8abd 2532 3abd 4754 f63d dba3 c23d
00000320: 56a1 36be 1882 763d 14ab 08be b20e f73a
00000330: 16f5 c13c a56f 9fbc f472 9cbd 1f48 5b3c
00000340: d5ef b23d de82 3ebe d775 8abd 13ee 933b
00000350: 0fee 3d3c 510d efbd 5a3d 2e3e 53b1 4f3d
00000360: 9870 9bbc 1e00 593e 70bd 9bbd 2a59 da3d
00000370: c18f f43d 16ec d2bd 9399 d83d d099 e5bd
00000380: 7d5a 95bd a26a cd3d 81ff 003e 55a0 3dbc
00000390: e7ce 713d 5237 333d 7ea2 68bc 3ce5 77bc
000003a0: 8546 73be f89b 91bd d001 22be 8d2a 3e3d
000003b0: e2d6 b1bd 650c 85bd 766e 323e 35b6 99be
000003c0: 6001 89bb 2451 14be 3e1d dc3e 3a96 04be
000003d0: e73e 0f3c ed60 073c a3fc 9c3d c018 efbc
000003e0: 088b 483d 6f07 4ebe aee6 1fbd e41e dd3d
000003f0: b4be 3e3c 34c8 e0bd fd38 6cbd 0b23 fa3d
-0.17353222 -0.050192 -0.12518623 0.0057756826 0.13763297 0.027939238 0.07612847 -0.103223205
0.08364759 -0.07951371 0.046124235 -0.010445929 0.021500252 -0.0102756815 0.002555427 -0.30127624
-0.05045955 0.0008027536 0.22255738 -0.06854919 0.18103392 -0.16465203 -0.14331764 -0.10770297
0.21822795 -0.14999752 -0.11636159 0.17415375 0.17011249 -0.052050192 0.015532372 -0.06580716
-0.027409082 0.09085653 -0.07233953 -0.1563317 0.047495186 -0.2858146 -0.07748414 -0.037038606
0.113009684 -0.08640557 -0.05640835 0.013329687 -0.028348973 -0.12289146 -0.09049484 0.09426044
-0.058122475 0.16531394 -0.055919927 0.18026994 -0.04952819 -0.032087065 0.17652571 -0.1596704
0.0042086886 0.06355512 -0.1865178 0.11539623 -0.22707054 0.0020298264 -0.1597826 -0.21529987
-0.092234686 -0.31475785 -0.15336064 0.028078295 -0.17194901 0.035844523 0.00030741064 -0.055747543
-0.088823676 -0.030382747 0.030088305 -0.11414116 0.09834183 -0.11973045 0.23563004 0.03368153
0.2121471 0.22619537 0.08533832 0.057533067 0.046218965 -0.007966707 -0.11375169 0.059250627
-0.071616665 -0.15623839 0.17553781 -0.06382779 0.0025230942 -0.1510467 -0.037053466 -0.14782195
0.06674375 -0.00805593 0.07770045 0.19246672 -0.10352192 -0.025744118 -0.0867405 -0.09217145
-0.120662965 -0.029202513 -0.0919446 -0.007868257 -0.04063871 0.07932749 -0.1763872 0.02234328
-0.032408267 0.027653418 0.0018429494 0.12749612 -0.017523572 0.021512378 -0.009743585 0.19468829
-0.19070281 -0.027576169 -0.14024493 -0.13211197 -0.064105235 0.03781396 0.015102748 0.14921513
-0.04322134 -0.090361916 0.13161711 0.19007696 -0.06382235 0.12658902 -0.135886 0.027330223
-0.0016398529 -0.18254195 -0.026591362 0.11040064 -0.10469047 0.09497417 -0.14173551 0.027321018
-0.1779019 -0.14020225 0.09067728 0.009800865 0.22368304 -0.059694167 0.07617573 0.11614848
0.12507339 0.13687499 -0.1480554 0.14308359 -0.012398641 0.08532789 -0.126287 -0.040755536
-0.118651204 0.10192544 0.03697252 -0.108026646 -0.0773542 -0.19818246 0.057331953 -0.073080495
0.06021428 -0.07640061 0.08459631 -0.0068487125 -0.18927372 -0.051342268 0.12881537 -0.062090643
0.06719783 -0.021329515 -0.09530591 0.10644638 0.019314697 -0.15693103 0.107934944 -0.08216411
-0.07815502 0.13551989 -0.22170086 0.09414958 -0.15818967 -0.092129745 -0.13000032 0.019705173
0.22399311 -0.18217859 0.11372652 0.0020927205 -0.06768797 -0.045457978 0.120277934 0.09503909
-0.17834982 0.06018266 -0.13346511 0.0018848984 0.023676436 -0.019462416 -0.07639113 0.013383894
0.087371506 -0.1860461 -0.067607574 0.0045144646 0.011592402 -0.11672462 0.17015591 0.05070622
-0.018974587 0.21191451 -0.07604492 0.10661538 0.119414814 -0.10298936 0.10576167 -0.11210978
-0.0729265 0.10030104 0.12597467 -0.011573871 0.059035208 0.04375393 -0.014198897 -0.015130337
-0.2375737 -0.07109827 -0.15821004 0.0464273 -0.08683564 -0.06496505 0.1742495 -0.30021825
-0.004181072 -0.14484078 0.4299106 -0.12947932 0.008743024 0.008262855 0.07665374 -0.029186606
0.048960716 -0.20120023 -0.039038353 0.107969075 0.011642147 -0.10975686 -0.057671536 0.12213715

bias_ih_l0_reverse f4 [192]
00000000: d85e 243e 2704 053d 0404 cc3d 3013 31bd
00000010: c88d 38bc 8a43 123e 36df e13a 1518 2dbc
00000020: 6d94 1f3e dc96 e8bd a6ce 0c3e f167 8d3d
00000030: 7536 b0bb 9fdd 32bd 6106 e93c 106d 0b3e
00000040: 1770 e13d cde5 f83c eb56 cb3d 2bb4 3c3e
00000050: 78f6 373d e29a 5d3d 8897 9abd 7ced 65bc
00000060: 717b d03d 31b3 d43c 910f 0abd ab23 f43c
00000070: e295 bb3d aeea 643c 60eb bfbd 5834 d63d
00000080: 417a fd3d c607 03bd 4ede 203e e002 373e
00000090: f3bb 4e3e 4175 a23d 43c7 de3d 502f 643e
000000a0: c02b 3c3e 47e1 0d3e 22f4 753d 7235 bd3d
000000b0: ff9a 9bbd 783a 343c 42cb 623e d249 8e3c
000000c0: 6517 42bd 73a1 c83d 0b67 47bd 7919 ad3d
000000d0: a2a6 2c3e 62c3 f13d 0640 e03d cff1 273e
000000e0: e8e7 163e 9533 8a3c 65e7 263e e982 8fbc
000000f0: 57f8 a13d 127d 17be 8109 183d 2511 183e
00000100: c716 043e 77b6 b93d 7f8b 1b3e 663a b03d
00000110: de36 623d 791f cf3d 50a4 693c 0b66 323e
00000120: 2af2 56bd e4a9 cd3d 908b a8bc 81f5 0bbe
00000130: 09de 533d 3dde 2e3d 9a50 aa3d 4176 3e3d
00000140: 5212 bdbd 5c29 bf3c aab7 46bd 18e1 e33d
00000150: 8213 22bd 5116 253d cb47 b7bd 50e6 083e
00000160: e872 103d 1a44 e33d 1a08 74bd 8a32 783c
00000170: 1090 91bd e41b ae3d 8554 593d 74ee 603d
00000180: d32a 763c 1dc3 11bd 1291 a7bd 5c1d edbc
00000190: 5fb6 b33c d429 87bd b891 253c 73ab 56bd
000001a0: 22d2 94bd ee44 ab38 4ab9 223c 539f f13c
000001b0: 198f 1cbd d264 c1bd 0f01 b23d d525 46ba
000001c0: 6d47 aabd 709a be3d 3bb1 993d 8d04 bd3c
000001d0: 7e93 93bc ba38 f13c c214 a63d 027a 2bbc
000001e0: 3761 1b3e 0de0 9abc b4e1 203e 3fa3 e43d
000001f0: 2b0c 19bd b091 4abc 6962 53bd 3de0 eebd
00000200: 4187 f43d b422 a73d 424f 6dbc 904c edbd
00000210: 3b8e dd3d d26a 0ebd 5976 e63d fe49 c1bd
00000220: 6d05 9abd f456 893d dcd2 153e e3e3 a0bc
00000230: aec9 223d 7a29 f6bd e3b1 613d c476 bcbd
00000240: d805 7e3d d250 cfbc 3afa e93c 8b59 01be
00000250: 3289 2fbb 749e a53c 6415 fabc 4849 e43d
00000260: 9e94 f9bd 1109 7dbd d92b 043e 4b16 4c3d
00000270: 3291 d53d 766c a2bd bb99 f03d c086 a8bd
00000280: a662 9a3c 7c0a 00be 7dfe c23d d3d8 1cbe
00000290: ba6c cf3d 8877 d23d 8d1f 05be df97 14bd
000002a0: 9c6d 573d 301d 51bd def9 283d f771 233e
000002b0: 6881 1ebe 8ce9 98bc 16a5 02be 802d 2cbd
000002c0: 0ee8 1f3d 04c4 083e 6052 a03d 0780 cc3d
000002d0: 9915 8f3d ab9d bfbb f31b 503d 62e0 8d3d
000002e0: d9c5 a6bd afee ecbd 0bfd d4bd bc64 81bc
000002f0: f7ff 26bc 0115 cdbd d3fe 1d3e 6731 333c
0.16051805 0.032474663 0.099617034 -0.04323119 -0.011264272 0.14283577 0.001723266 -0.010564824
0.15583964 -0.11356899 0.13750705 0.06904591 -0.0053775855 -0.043668386 0.028445425 0.13615823
0.110077076 0.030383015 0.09928688 0.18428104 0.044912785 0.054102786 -0.075484335 -0.0140336715
0.101797946 0.025964351 -0.03370625 0.029802164 0.09159447 0.013971968 -0.09371066 0.104592025
0.12376834 -0.031989835 0.15709803 0.1787219 0.20188884 0.07932521 0.1087785 0.22283673
0.18376064 0.13855468 0.060047276 0.092387095 -0.075979225 0.011000268 0.22147849 0.017369185
-0.047385592 0.09796419 -0.048682254 0.08452124 0.1686044 0.118048444 0.109497115 0.16400836
0.14736903 0.0168703 0.16299208 -0.017518478 0.07908695 -0.14793804 0.03711844 0.1485029
0.12899314 0.090680055 0.15189932 0.086048886 0.055228107 0.10113425 0.014260367 0.17421739
-0.05247704 0.1004217 -0.020574361 -0.13667871 0.05172542 0.04269241 0.08316155 0.046499494
-0.0923201 0.023335151 -0.048515 0.111269176 -0.039569385 0.040304486 -0.0894924 0.13369107
0.035265833 0.11096974 -0.05957804 0.015148768 -0.07107556 0.085014135 0.05305912 0.054914907
0.0150248585 -0.035586465 -0.08181967 -0.028944664 0.021937547 -0.06599775 0.010105543 -0.0524096
-0.07266642 8.1667546e-05 0.009931872 0.029494917 -0.038222406 -0.09443058 0.08691608 -0.0007558738
-0.08314405 0.093068 0.07504507 0.023073459 -0.018014666 0.029445995 0.08109428 -0.010466101
0.15173803 -0.018905664 0.15711099 0.11163949 -0.03736512 -0.012363836 -0.051607523 -0.11663864
0.1193986 0.08160916 -0.014484229 -0.11586869 0.10818144 -0.03476984 0.11253042 -0.09437941
-0.07520566 0.06706038 0.14631218 -0.019639915 0.039743118 -0.1201963 0.055101287 -0.0920234
0.06201729 -0.025307093 0.0285617 -0.12631814 -0.0026784656 0.020217158 -0.030527778 0.1114679
-0.121865496 -0.061776225 0.12907352 0.049825948 0.104280844 -0.079308435 0.11748072 -0.082288265
0.018845867 -0.12504 0.09521196 -0.15317087 0.1012816 0.10276705 -0.13000317 -0.036277648
0.052594766 -0.051053226 0.041253917 0.15961443 -0.15479052 -0.018666051 -0.12758288 -0.04203558
0.039039664 0.13356024 0.07828212 0.09985357 0.06986541 -0.005847653 0.050807904 0.06927563
-0.08143205 -0.11568963 -0.103998266 -0.015795104 -0.010192863 -0.10013772 0.15429239 0.010937071

bias_hh_l0_reverse f4 [192]
00000000: 8a7c 8b3c faeb a73d 625d ac3d 1b13 d93c
00000010: 9ebb c0bb 0a18 843d d46c 353d 5b15 c1bc
00000020: 41dd f93d e120 5cbd ce58 853d 9827 b2bd
00000030: 6015 113e 01f6 a23a 9546 15be cf07 71bc
00000040: 8da1 e8bd 7e32 a63d 9800 063e c18f 0a3e
00000050: ed0a 353e 6384 9f3d 4f84 b43d 78da d93c
00000060: d05e 093e e885 213e b9ef 9d3d 393d b53d
00000070: 4036 c0bd f937 1f3c 9d30 803a a798 dbbd
00000080: 332c 93bb fec1 f53c 09eb 6b3e 2cd7 ccbc
00000090: c276 eb3d a56c 883e f24c c93c 4a12 573c
000000a0: bf2f 463e 90aa 243c f726 81bc 843b 5a3c
000000b0: 7373 9f3d a7dc 943d 22e5 3b3e 9649 abbb
000000c0: 516b e83b 542f 083e 77aa df3c fa1e 103d
000000d0: 38fb a1bd a2bd 193e dcf3 45bc b1da 4b3d
000000e0: 6c48 e8bc 89ea b8bc b761 263e b45c aabd
000000f0: 7d6e 483e 01ee 1dbe 84d2 2b3d d4d5 113e
00000100: 0d5b 413d 9717 003e 7592 f63d 80cb b03d
00000110: 4132 053e 0e41 753d bafb 2a3e fae2 473e
00000120: 8fde 2c3a edea 6a3d 90e0 2bbd 2b47 debd
00000130: 72ad b2bd 7c1d 033d a1dd 6f3e 37ae 6abd
00000140: 708f 91bd 9d25 8a3e b703 ea3d 0352 f8bd
00000150: 0aec 98bd ada4 8d3d 47bc 5d3d d1a8 e03c
00000160: 0a5b 24bd 1b52 acbd e0b3 8e3b c2ef 263d
00000170: 8699 79bd a6c8 97bd ab27 57bb 6f97 a43d
00000180: 7645 2ebd d50f a23d 56ef 123e c06a 053d
00000190: 2ba3 5ebb 5381 0bbd bb0f bd3d 5c7d 54be
000001a0: 1675 393d 943e 193e 32a8 11bc 64b0 753d
000001b0: 07da 3a3e ea4e f03d bd82 833e 6cba 8d3d
000001c0: 7c55 e23d 24a5 f73d 613b d63c acfc e73d
000001d0: 75bf 2b3e 23aa e13d ec62 b63d 6c62 1b3c
000001e0: 1c2d 97bd f70f c73d 9d5e 113d aa31 983d
000001f0: b0ba 63bc 427d edbd e37b 3dbd 8dae 5f3c
00000200: 162e 0f3e 3c48 20be 2a0c 233d 55c6 eb3d
00000210: 38d0 093e 7aaa 5dbe 3e1f c3bd 9778 01bd
00000220: 631b bdbd 61e6 143e 755d 333e 5dfb ff3c
00000230: 6a2f 393d 004b 29be b10b 523d 0746 8f3c
00000240: 0916 98bd 4109 d53d 9c5a b03d 6b49 d13c
00000250: c2a3 763d 9b78 e2bd 8e1e e2bc cfb7 cc3a
00000260: 29c3 f4bd 2d97 94bd 8f0e e83d d629 6b3e
00000270: 7445 4b3d 132d febd 6b3b a7bd 996f 163e
00000280: 62a2 b5bb 27ae dbbc 5e07 ee3b 226d 86be
00000290: 2e7a 37bd 0f1e 3c3c c643 ddbd 24c5 14bd
000002a0: d54c 0a3e f5fe 88bd aebc 32be 3c81 2c3e
000002b0: cd54 093c 2e5d e03d 03e9 8a3c b64a 423e
000002c0: 0ea2 e13d 49d5 0f3e 6f9e aa3d e93b 133e
000002d0: 649c 633d 8c9f 2cbe 44e3 1b3e 3380 58be
000002e0: aaab 263d c56f 1c3d f013 cfbd f0ef c83d
000002f0: 5387 8ebd 4173 953d ea95 9b3b a05d 9abb
0.017027158 0.08199306 0.08416249 0.026498368 -0.0058817407 0.064498976 0.04429324 -0.023569753
0.12200404 -0.053742293 0.06511079 -0.08698958 0.1416831 0.0012432934 -0.14577706 -0.014711334
-0.11358938 0.08115099 0.13086164 0.135314 0.17679949 0.07788923 0.08814298 0.026593432
0.13415074 0.15773737 0.07711739 0.08849568 -0.09385347 0.009717935 0.0009780113 -0.107224755
-0.004491353 0.02999973 0.23038878 -0.025004946 0.11497261 0.2664539 0.024572823 0.013126919
0.19354151 0.010050431 -0.01576565 0.013319854 0.07785692 0.072686486 0.18349126 -0.005227278
0.0070928712 0.13299304 0.027302964 0.03518579 -0.07909244 0.15013745 -0.012082066 0.049769107
-0.028354846 -0.022572773 0.16248213 -0.08318463 0.19573398 -0.15422823 0.04194881 0.14241725
0.047205973 0.12508999 0.12039653 0.086325645 0.13007452 0.059876494 0.16697589 0.19520178
0.0006594443 0.05735295 -0.041962206 -0.10853418 -0.08724488 0.03201054 0.23424388 -0.05729505
-0.07107437 0.26981822 0.1142649 -0.121250175 -0.07466896 0.06916175 0.054134633 0.027424248
-0.040125884 -0.08414098 0.004354939 0.040755995 -0.060937427 -0.074113175 -0.003283004 0.08036696
-0.04254671 0.07913176 0.14349112 0.032572508 -0.0033971767 -0.03405888 0.09231516 -0.20750946
0.045277677 0.14965278 -0.008890199 0.059982672 0.18247233 0.11733802 0.25685683 0.06920323
0.11051461 0.12092045 0.026151361 0.1132749 0.16772254 0.11018779 0.089055866 0.009483915
-0.07381651 0.09719842 0.03549062 0.07431348 -0.01389949 -0.11596157 -0.046260726 0.013652456
0.13982424 -0.15652555 0.039806522 0.11512438 0.13458335 -0.21647063 -0.09527443 -0.031609144
-0.09233739 0.14541008 0.1751612 0.031247789 0.045211233 -0.16532516 0.05128068 0.017489446
-0.07426078 0.10402156 0.08611032 0.025547704 0.060214765 -0.1105816 -0.02760246 0.0015618744
-0.11951286 -0.07255397 0.11330902 0.22965178 0.049626783 -0.12410941 -0.0816563 0.14691009
-0.005543039 -0.02681644 0.007264062 -0.26255137 -0.044794254 0.011481776 -0.108039424 -0.03632082
0.13505872 -0.06689254 -0.17454788 0.16846174 0.0083820345 0.109552726 0.016956812 0.18973812
0.110172376 0.14046206 0.08331 0.14378323 0.055569068 -0.16857737 0.15223414 -0.21142654
0.040691055 0.03819253 -0.10111225 0.098113894 -0.06959405 0.072973736 0.0047480958 -0.004710868

weight f4 [4, 128]
00000000: 4074 3abe 51d1 b4bd 411c 43bd 8e62 313e
00000010: ecbb 13be e8b4 173e de65 3ebe a2f3 8ebd
00000020: 62d2 f3bd 7494 a13e 3e9e 27be ff2a 253d
00000030: dabb 6abd c101 213e 2122 7dbd 8f3f a23c
00000040: 9a9d 9abd c304 9dbc dc95 39be d92f d43c
00000050: 8e9a 473e 9940 273e 877f 74bd 02ab 75bc
00000060: 379e cd3c c3e6 1fbe 1335 ce3c f788 b03e
00000070: e797 e03d 8b2b e8bc 3ff1 94be 4d52 79be
00000080: 2e85 353e 93df 2ebe 8942 56bd 5920 cdbc
00000090: f9d5 5b3d bbbe be3d 7556 013e bb6a 06be
000000a0: 3f93 14bc 60e8 68bd c2e7 e63d 37f8 a5bd
000000b0: fd19 24be b047 263d 2b4f 043e fab9 143e
000000c0: 10c3 8bbe 46db d53d d4fa b9bd 706e af3e
000000d0: 34b1 cb3c d31f 34bd df62 cbbd 2460 6e3d
000000e0: 4a1b ccbd ffac 37bd cae2 2a3e c2d2 02be
000000f0: 45c2 1f3e 070e 9fbd adb3 95bc 53e7 f8bd
00000100: 8694 05be cb4e 193e 0892 f4bd 4f47 a0bd
00000110: 4073 c33e c05b e3bd b4b0 bf3d a705 e8b9
00000120: 019f 5e3e f7be 1ebd a9b2 b23c 4f59 b13d
00000130: a451 573d 0d99 28be 05ff 59be 4393 1abb
00000140: 6296 2ebe 9116 d1bd b108 463d 4afb 473c
00000150: a77c 393c 1175 28bc 5c24 afbc c316 fc3c
00000160: ecf7 6a3c 7d6c bd3d 6ca6 13be 8b50 f7bc
00000170: df14 a8bd d358 68bb e1ee 46bd 7d7b 0d3e
00000180: b8f2 7e3d c61f a03c 36fc babd dc31 6ebe
00000190: 7275 80bd 6b4f ffbc 4393 bbbd b10d 903d
000001a0: 4220 e13d 18e3 283e 4ed0 203e c202 45bd
000001b0: a167 1e3d 9e26 0abe cee8 903c c03e 133e
000001c0: 060f 7b3c faa2 ab3d 8c94 babe ebdb 99be
000001d0: b4fc 93bc b6bc d9bd 5841 a23d 3ff3 c3bc
000001e0: 6d6c 3a3e 99cb 8a3c a214 b13d 70ca 863e
000001f0: dfe9 3fbd 1ad8 25bd f784 183c 6b71 d3bd
00000200: 3d5b 3e3d 1e44 00be 691b 043e 08a0 c43d
00000210: 1cc9 fdbd a492 07be 9b21 cbbd 9b0d 2d3e
00000220: 375e cdbe c7d5 68bd 1d36 75bb 6910 9ebd
00000230: 94e8 a53e b7c3 ff3d 8e58 333e 08d2 323e
00000240: 655c a13d 5f24 e3bd a5f6 033e 561a e4bd
00000250: 0f63 90be 7ed1 cabd b7ab 673c 074b a6be
00000260: 9347 f3bd 4e82 af3d 6e32 253d 06f9 f93d
00000270: e633 413e 8124 8ebe 2e13 933e ee0e 05be
00000280: 6110 3dbe 2023 d23c 4b6c 863e a4b2 823d
00000290: 513f 32be 2108 7b3c 5747 edbd 8a5b 9a3e
000002a0: 277b 02be 91fb ae3d 8f06 8dbe 0235 d7bc
000002b0: cb0a 563f b661 1ebd acd1 10be 9cff 8b3d
000002c0: 7c45 773e b839 ce3d d46d 293d c384 c73d
000002d0: 0298 01be 1586 a43d ca62 463e 6c49 183e
000002e0: 01ef a0be 0249 45bd 62f5 c83d 77e4 86be
000002f0: f17a 95be 3ef6 f13d 4e63 a5bd 9d66 8dbd
00000300: 2db0 bf3e e379 4d3d 8647 443f ffbf fa3d
00000310: e85a 8d3e 07d6 01be d6ed 1e3e b21d ad3e
00000320: 37a9 453e c0d9 0bbe 4782 70be 6cf5 083d
00000330: d727 ebbd 9366 d6bd edaa 21bd 6892 893e
00000340: 2e44 3bbe 4ca4 c4be d462 4abd ff56 72bd
00000350: e522 de3d b484 53be b403 213e 0889 433e
00000360: 3a6f bdbd a454 be3d 2cf8 ca3c 7a04 03bd
00000370: f8b4 dabc e07a 963d c557 54bb b981 31bd
00000380: 92db 8ebd 757d 75bd dc91 d43d ba36 6cbe
00000390: 3e7f 1abe 4c6d f7bd 9b56 cb3d 8f2b 96bd
000003a0: 0187 113e 5087 a2be 1234 8fbd 03ea f83d
000003b0: 69b6 5ebe 303e f0bd 91e8 033f 8c6d 87be
000003c0: b593 133e c60d e6bd 5d98 aa3e 6f39 2dbe
000003d0: 37d7 c43d 2728 e0bd f36b 493e 0ecc 92be
000003e0: 33c2 b93e fb0d cfbd d9de b4bd 60b7 a23e
000003f0: bac6 60be a028 cdbd 66d6 8fbd 392f f53d
-0.18208408 -0.088289864 -0.047634367 0.17322752 -0.14427155 0.14815104 -0.18593547 -0.06980063
-0.11905362 0.31558573 -0.16368958 0.040324207 -0.057308055 0.15723325 -0.061800126 0.019805698
-0.07549591 -0.01916731 -0.18123573 0.025901722 0.19492552 0.16333236 -0.059691932 -0.014994385
0.025099857 -0.15615372 0.025171792 0.34479496 0.10966473 -0.028341075 -0.29090306 -0.24347802
0.17726585 -0.17077474 -0.052309547 -0.025039839 0.053670857 0.09313723 0.12630637 -0.13126652
-0.009068309 -0.056862235 0.11274673 -0.08103984 -0.16025539 0.04059571 0.12920825 0.1452407
-0.27297258 0.10442214 -0.09081045 0.34263945 0.02486477 -0.043975662 -0.099309675 0.058197156
-0.099661425 -0.044842716 0.16688076 -0.1277571 0.15601452 -0.077663474 -0.018274153 -0.121534966
-0.13044938 0.14971463 -0.11941916 -0.07826101 0.38173866 -0.11101484 0.09359875 -0.000442547
0.21740343 -0.038756337 0.021813707 0.086596124 0.052568093 -0.16464634 -0.21288688 -0.002358631
-0.17049554 -0.10209382 0.048348133 0.012205908 0.011321223 -0.010281817 -0.021379642 0.030772572
0.014341336 0.09249208 -0.14418954 -0.030189773 -0.08207106 -0.0035453334 -0.048567656 0.13816638
0.062243193 0.0195464 -0.09130137 -0.23261207 -0.06272401 -0.0311658 -0.09158947 0.070338614
0.10992481 0.1649288 0.15704462 -0.048098333 0.038673047 -0.13491294 0.017689135 0.14379406
0.015323406 0.08380695 -0.36441457 -0.30050597 -0.018064834 -0.10631697 0.079226196 -0.0239197
0.18205424 0.016942786 0.086465135 0.26326323 -0.046853896 -0.040489294 0.009309045 -0.10324367
0.04647373 -0.12525985 0.12901081 0.09600836 -0.12391874 -0.13239533 -0.09918519 0.16899721
-0.40110943 -0.0568445 -0.0037416287 -0.07717974 0.32404006 0.124885015 0.1751425 0.17462933
0.07878951 -0.110909216 0.12887056 -0.11137836 -0.28200576 -0.09903239 0.014140061 -0.32479116
-0.11878886 0.085697755 0.040331297 0.122057006 0.18867454 -0.27762225 0.2872557 -0.12993976
-0.1846328 0.025651515 0.26254496 0.06381729 -0.17406966 0.015321762 -0.115858726 0.30147964
-0.12742291 0.08544076 -0.27544066 -0.026270393 0.8361022 -0.038667403 -0.14142483 0.06835863
0.241476 0.10069603 0.041364506 0.09742119 -0.12655643 0.080333866 0.19373623 0.14871758
-0.31432346 -0.04816533 0.09812428 -0.2634618 -0.2919536 0.11814545 -0.080755815 -0.069043376
0.374391 0.05016507 0.76671636 0.122436516 0.27608418 -0.12679301 0.15520415 0.33811718
0.19302832 -0.13657284 -0.23487197 0.033437178 -0.11482208 -0.10468783 -0.03946965 0.26869512
-0.18287727 -0.384066 -0.049410656 -0.059164997 0.10846499 -0.20656091 0.15724069 0.19095242
-0.092497304 0.09293488 0.02477654 -0.03198669 -0.02669762 0.07347655 -0.0032400948 -0.043336604
-0.069754735 -0.0599341 0.10379383 -0.23067752 -0.15087602 -0.120813936 0.09928628 -0.07332527
0.14211656 -0.3174386 -0.069923535 0.12154009 -0.21749271 -0.11730611 0.51526743 -0.26450765
0.14411815 -0.11233096 0.3331937 -0.1691644 0.096113615 -0.109451585 0.19670086 -0.28671306
0.36280975 -0.101100884 -0.08831567 0.3178053 -0.21950808 -0.10017514 -0.07023315 0.11971898

bias f4 [4]
00000000: 4d05 dfbd d0ae 543d 9975 443d e557 843d
-0.10889683 0.051924527 0.047963712 0.06462077
