reports/training_DEAM_VA_2026-01-04_14-02-26/model.pth (torch, 504732 bytes, 10 tensors)

weight_ih_l0 f4 [384, 32]
0.033081513 -0.031502184 0.08396492 -0.06323218 -0.031368554 0.082618095 0.013351947 0.14509119
-0.04681105 0.024790648 -0.02344997 0.1007451 -0.004861319 -0.02218739 -0.15259017 -0.027548555
0.024488876 0.09894553 0.038719263 -0.028272288 0.031437717 -0.08030521 0.061943844 0.010374006
-0.0691919 -0.11418937 0.008198135 -0.064624526 -0.07626405 0.011679497 0.0024383995 -0.07172709
-0.10649779 0.058844488 0.091228135 -0.020112084 -0.024951955 -0.0020084635 0.06692784 0.038572077
0.11529702 -0.03607439 -0.03855258 0.028856317 -0.007009959 -0.016932756 0.031974345 0.0072811753
0.025784137 -0.05951775 -0.1084345 -0.028354295 -0.0036330493 0.0577833 0.04869909 -0.09357199
-0.046947736 0.018612852 0.047462948 -0.02602271 -0.08357766 -0.040637873 0.07199874 -0.09002333
0.022364728 0.03798758 0.009387033 -0.10884394 0.059980806 -0.014524681 0.0060226447 0.022051232
-0.014568965 -0.11751432 0.056376155 0.007813634 -0.004555829 0.06928921 -0.039108206 0.096492946
0.07381616 -0.015747586 -0.0037889185 -0.084926724 0.036225237 0.024826948 0.026865458 0.05374002
0.051897567 -0.088934496 0.032156024 -0.02319078 -0.012244095 0.014360881 -0.07725866 -0.018382004
-0.009929169 0.0014886484 0.06484167 0.0072002676 0.024104595 0.09207487 -0.06982772 0.05528674
-0.120192245 0.009030721 0.01220013 -0.1178718 -0.062430847 -0.06468871 -0.0705321 -0.05728415
-0.092316076 0.06738151 -0.019171396 0.07722909 0.01610028 0.06029388 0.13495533 0.08325605
0.09641515 0.10241518 0.051447015 0.08714085 -0.03746125 0.07024494 0.09135481 0.09084753
0.035405274 -0.050179183 -0.013118126 0.029598223 -0.07918614 0.018581392 0.02728299 -0.015175036
0.0148571925 -0.104602575 0.04604478 0.037957873 -0.091708526 -0.0010860144 -0.06988535 -0.076379366
-0.0051092925 -0.029105568 -0.019511662 0.021025985 0.030839188 -0.06844888 -0.060310367 0.074765064
0.115855925 0.08328482 0.02799809 0.028037382 0.05530334 0.038434256 -0.003702739 -0.016677687
-0.08871689 -0.059614185 -0.016328197 0.08028474 -0.09587135 -0.10686965 -0.039014403 -0.0383828
-0.08639246 0.08057062 0.08287297 0.076283656 0.055633012 0.09697046 -0.043432407 -0.017041102
0.012101476 -0.033097524 0.03446102 0.09563753 0.043861784 -0.029257808 0.0019988446 0.07735388
-0.020998942 0.011676131 -0.0020978234 0.06736483 -0.051246654 0.07901848 0.055486612 0.07720008
0.08984382 -0.039829668 -0.061586875 -0.08680048 -0.01064877 -0.089525625 0.013913924 -0.07056079
-0.004721051 0.048807766 -0.0024569468 -0.0022002338 0.061445706 0.012112938 -0.040795807 -0.032100428
0.048948135 0.021813514 0.05789147 0.042737298 0.012071326 -0.07751181 0.017587287 -0.07737119
-0.014348946 -0.019570015 -0.050461188 0.05210576 -0.07480862 0.043181423 0.036288757 -0.013534049
-0.046945203 0.06961492 0.016830904 0.054049756 -0.014534843 -0.070691004 0.06826417 0.07378911
0.007069698 0.037625924 -0.0654998 -0.044528626 -0.102335155 -0.08058538 -0.08537788 0.10072799
0.03319372 0.082821846 -0.07923832 0.054631423 0.032971248 -8.864235e-05 0.08072079 -0.037927322
0.11477376 -0.029113235 0.033230316 0.005750344 -0.03365285 0.08649021 0.098621376 0.025953088
00000000: 7b80 073d 6f08 01bd cdf5 ab3d e07f 81bd
00000010: 507c 00bd ad33 a93d 20c2 5a3c c992 143e
00000020: f2bc 3fbd c215 cb3c 271a c0bc 7253 ce3d
00000030: b34b 9fbb 54c2 b5bc 9940 1cbe 82ad e1bc
00000040: e59c c83c f4a3 ca3d 1798 1e3d 499b e7bc
00000050: d6c4 003d 0f77 a4bd d4b8 7d3d bcf7 293c
00000060: 7cb4 8dbd 1edc e9bd 7851 063c dd59 84bd
00000070: 5430 9cbd 5c5b 3f3c 8ecd 1f3b a7e5 92bd
00000080: 831b dabd eb06 713d d1d5 ba3d 19c2 a4bc
00000090: 0b68 ccbc 6da0 03bb 7711 893d c1fd 1d3d
000000a0: d820 ec3d bdc2 13bd 4fe9 1dbd 1564 ec3c
000000b0: ccb3 e5bb 90b6 8abc 88f7 023d ed96 ee3b
000000c0: 4139 d33c e2c8 73bd e812 debd 4447 e8bc
000000d0: 7418 6ebb 2eae 6c3d b278 473d aca2 bfbd
000000e0: 454c 40bd fb79 983c 8268 423d 942d d5bc
000000f0: c42a abbd e673 26bd 1374 933d 275e b8bd
00000100: 3c36 b73c dd98 1b3d 12cc 193c 92e9 debd
00000110: 6fae 753d edf8 6dbc 9b59 c53b c9a4 b43c
00000120: abb2 6ebc 59ab f0bd afea 663d c204 003c
00000130: 1049 95bb 80e7 8d3d ed2f 20bd 189e c53d
00000140: ed2c 973d 1501 81bc 814f 78bb 10ee adbd
00000150: ea60 143d e261 cb3c f314 dc3c 7f1e 5c3d
00000160: 8b92 543d 4a23 b6bd 09b6 033d 97fa bdbc
00000170: 759b 48bc e749 6b3c ca39 9ebd db95 96bc
00000180: f4ad 22bc c01e c33a b6cb 843d 39f0 eb3b
00000190: 0077 c53c c091 bc3d d601 8fbd 5974 623d
000001a0: 5a27 f6bd 97f5 133c 0ee3 473c c566 f1bd
000001b0: 7db7 7fbd 847b 84bd 2273 90bd c9a2 6abd
000001c0: 3610 bdbd 51ff 893d 550d 9dbc 492a 9e3d
000001d0: bce4 833c b7f6 763d bb31 0a3e 2682 aa3d
000001e0: 4e75 c53d 0dbf d13d 1bba 523d e776 b23d
000001f0: f870 19bd 94dc 8f3d 3b18 bb3d 450e ba3d
00000200: 1f05 113d b088 4dbd 69ed 56bc f977 f23c
00000210: 582c a2bd 0138 983c 9480 df3c b7a0 78bc
00000220: 956b 733c e039 d6bd 7499 3c3d b779 1b3d
00000230: aed1 bbbd 9958 8eba 0d20 8fbd c96c 9cbd
00000240: da6b a7bb cd6e eebc ecd6 9fbc b03e ac3c
00000250: 77a2 fc3c ed2e 8cbd 0108 77bd 6d1e 993d
00000260: df45 ed3d 3b91 aa3d 405c e53c a7ae e53c
00000270: c185 623d 3d6d 1d3d a7a9 72bb a59f 88bc
00000280: 33b1 b5bd 012e 74bd b6c2 85bc 536c a43d
00000290: 3358 c4bd 7ade dabd 91cd 1fbd 4837 1dbd
000002a0: 88ee b0bd 3602 a53d 4eb9 a93d 9b3a 9c3d
000002b0: 71df 633d 7398 c63d 2ee6 31bd c899 8bbc
000002c0: 4545 463c 4591 07bd 0027 0d3d 9cdd c33d
000002d0: 6aa8 333d 12ae efbc 0cff 023b b66b 9e3d
000002e0: f905 acbc 3e4d 3f3c a37b 09bb 92f6 893d
000002f0: 03e8 51bd 71d4 a13d ee45 633d 131b 9e3d
00000300: 0900 b83d 6f24 23bd 8542 7cbd 73c4 b1bd
00000310: 2e78 2ebc 3659 b7bd 3af7 633c 2d82 90bd
00000320: 0cb3 9abb a7ea 473d ba04 21bb cc31 10bb
00000330: 7eae 7b3d 5875 463c 8119 27bd bd7b 03bd
00000340: d77d 483d 41b2 b23c 9b1f 6d3d 4e0d 2f3d
00000350: d0c6 453c 83be 9ebd 3713 903c c974 9ebd
00000360: d717 6bbc 4c51 a0bc 64b0 4ebd d96c 553d
00000370: 4335 99bd 01df 303d 85a3 143d eabd 5dbc
00000380: 9d49 40bd 4492 8e3d f7e0 893c 4763 5d3d
00000390: 8d23 6ebc 72c6 90bd 16ce 8b3d bf1e 973d
000003a0: eda8 e73b a41d 1a3d c224 86bd a663 36bd
000003b0: 1895 d1bd f309 a5bd 99da aebd 7a4a ce3d
000003c0: 23f6 073d 809e a93d b347 a2bd 33c5 5f3d
000003d0: dc0c 073d 80e5 b9b8 f150 a53d ae59 1bbd
000003e0: 810e eb3d e17e eebc 831c 083d 626d bc3b
000003f0: 92d7 09bd c721 b13d 01fa c93d 929b d43c

weight_hh_l0 f4 [384, 128]
-0.002381708 0.04707496 -0.04117458 -0.074768625 -0.088852815 -0.01545261 0.03095759 -0.01298289
-0.02023036 -0.10588471 0.03474773 0.091591746 -0.06744221 -0.043534048 0.06872306 -0.040779978
0.1440074 0.03627088 0.082314126 0.03458948 -0.043268837 0.0233066 0.07285707 0.04095491
-0.017944995 -0.03299291 0.03655522 -0.009725751 0.019806338 -0.020072514 0.006881065 -0.09266212
-0.10680146 0.0061026956 -0.09575227 0.043027308 0.124169014 0.06598164 0.03594427 -0.054554388
-0.01061744 -0.024642041 -0.07434311 0.03343543 0.09675335 -0.022960354 0.073636234 0.09620433
0.013436653 -0.110107966 -0.0119884 -0.042735253 -0.073156 0.030098187 0.06554958 0.04146722
-0.055928353 0.03721101 0.017788755 -0.020920694 -0.022404565 0.03637229 0.062459543 0.10781297
-0.05195639 0.060507435 0.027680814 -0.0051554064 0.1711847 0.10059004 -0.07142428 -0.13107501
-0.0039802142 -0.14543791 -0.018379658 -0.0033869182 0.059167217 0.0230286 0.07463413 0.10599676
0.013225487 -0.035304323 0.12584592 0.031679578 0.05903138 -0.0087296385 -0.014288547 0.07985233
-0.11024022 0.12434637 -0.100203186 -0.050657626 0.058046177 0.023439828 -0.06831244 -0.08942038
-0.065220825 -0.026000846 -0.031532247 0.08223765 0.0010086399 -0.018346753 0.05541989 0.06820436
-0.028290201 0.0834756 0.007823312 -0.08475686 -0.03912625 -0.084190354 0.042363852 0.030318068
0.038921658 0.034291334 0.059617504 0.12693892 0.026722198 0.08114807 0.20753273 0.117454514
-0.07562724 -0.016848 -0.027938532 -0.06412075 -0.084832065 -0.012666981 0.084743045 0.009703367
-0.032573175 0.06626786 0.07745407 -0.07829319 -0.014349399 -0.036292437 -0.01014849 0.045291536
-0.050292 0.0435948 0.07643143 0.0014396647 -0.043818127 0.02068851 -0.051514044 0.0075798254
-0.043635722 -0.07982779 0.115794145 0.02711687 -0.007010517 -0.044010814 -0.016699726 0.010460333
-0.017067632 -0.004390729 -0.037220757 0.11195693 0.041772638 0.045140404 -0.09971434 -0.032902747
-0.038200546 0.0810819 -0.059657674 -0.030183112 -0.024831241 0.09007935 -0.01758156 -0.058951396
0.03912719 -0.012389792 0.12628675 -0.008183862 -0.0065649045 -0.037766792 -0.046993632 -0.088664494
-0.002862842 0.055288658 -0.06323458 0.02490588 -0.0040206206 -0.010146394 0.09129025 0.013533517
-0.06646709 -0.05506744 -0.0106830755 -0.061282728 -0.09847463 0.003626444 0.026306704 -0.018566318
-0.07967427 -0.059585966 -0.023646548 -0.0017442825 0.010982632 0.07449428 0.06311486 -0.07854908
-0.0195501 -0.03195066 -0.060941827 -0.0014304398 -0.09704219 0.0635787 0.02622066 0.08611759
0.024861945 -0.05226438 -0.1157376 -0.031674646 0.0036363343 0.025317855 -0.032157216 -0.058745608
0.018842556 -0.044505335 -0.011460553 0.033354066 0.13059652 -0.08489288 0.012575383 -0.08039352
0.0936701 0.0540397 0.07634069 -0.052051473 -0.06520786 5.9038386e-05 0.025957568 -0.05049986
-0.13460623 0.010220912 0.074084155 -0.0880985 0.07118589 0.104069196 -0.032733675 0.008712151
-0.10205259 0.077909835 -0.057572655 0.08620541 0.00905572 0.04424818 0.06806891 0.057013772
0.08896417 0.097791865 -0.092124075 -0.019106911 -0.06783044 -0.026356138 -0.11002059 0.06375353
00000000: 6e16 1cbb acd1 403d ada6 28bd 4b20 99bd
00000010: 77f8 b5bd f22c 7dbc c69a fd3c 30b6 54bc
00000020: 24ba a5bc 15da d8bd a353 0e3d 7494 bb3d
00000030: 241f 8abd c250 32bd adbe 8c3d e808 27bd
00000040: ad76 133e c690 143d 4f94 a83d b3ad 0d3d
00000050: aa3a 31bd 7ced be3c 1636 953d 56c0 273d
00000060: 6201 93bc 9323 07bd edba 153d c258 1fbc
00000070: e740 a23c 1d6f a4bc 8f7a e13b a3c5 bdbd
00000080: b9ba dabd 1ff9 c73b c419 c4bd 673d 303d
00000090: 534c fe3d 6221 873d 4d3a 133d 6c74 5fbd
000000a0: c5f4 2dbc 1bde c9bc 3341 98bd 97f3 083d
000000b0: 9f26 c63d 5a17 bcbc 98ce 963d c706 c53d
000000c0: 6825 5c3c 4980 e1bd fe6a 44bc 290b 2fbd
000000d0: d0d2 95bd 7990 f63c dc3e 863d 88d9 293d
000000e0: 2115 65bd 926a 183d b9b9 913c e061 abbc
000000f0: c789 b7bc 1cfb 143d 94d5 7f3d 0ccd dc3d
00000100: 39d0 54bd a5d6 773d e0c2 e23c afee a8bb
00000110: 0b4b 2f3e 2702 ce3d e546 92bd 8738 06be
00000120: 756c 82bb aded 14be f090 96bc 0ff7 5dbb
00000130: 5359 723d 79a6 bc3c c7d9 983d d414 d93d
00000140: b7af 583c 449b 10bd c1dd 003e 72c2 013d
00000150: e3ca 713d c206 0fbc 831a 6abc 9e89 a33d
00000160: a0c5 e1bd 4fa9 fe3d 5437 cdbd 5f7e 4fbd
00000170: d4c1 6d3d e204 c03c 64e7 8bbd 0822 b7bd
00000180: 7f92 85bd baff d4bc f527 01bd 376c a83d
00000190: 5734 843a ee4b 96bc f7ff 623d baae 8b3d
000001a0: dac0 e7bc 41f5 aa3d 592d 003c 0195 adbd
000001b0: d942 20bd fe6b acbd b885 2d3d 995d f83c
000001c0: 516c 1f3d 1275 0c3d 7c31 743d 47fc 013e
000001d0: 83e8 da3c f630 a63d 7683 543e fe8b f03d
000001e0: 74e2 9abd d104 8abc 59df e4bc bd51 83bd
000001f0: 6fbc adbd 2b89 4fbc c38d ad3d dffa 1e3c
00000200: 736b 05bd 72b7 873d 3da0 9e3d 2e58 a0bd
00000210: be19 6bbc 61a7 14bd da45 26bc 9e83 393d
00000220: fcfe 4dbd 7690 323d 1588 9c3d 22b3 bc3a
00000230: a37a 33bd f37a a93c 6400 53bd 2f60 f83b
00000240: 5fbb 32bd c17c a3bd 7b25 ed3d 3324 de3c
00000250: 7bb8 e5bb af44 34bd ddcd 88bc d161 2b3c
00000260: 6bd1 8bbc 1be0 8fbb cb74 18bd ad49 e53d
00000270: c919 2b3d 25e5 383d 0837 ccbd 08c5 06bd
00000280: 2d78 1cbd 440e a63d 9b5b 74bd 9342 f7bc
00000290: e36a cbbc 867b b83d 3407 90bc 0577 71bd
000002a0: d543 203d 8efe 4abc 5051 013e 9b15 06bc
000002b0: 691e d7bb 5ab1 1abd 657c 40bd bb95 b5bd
000002c0: 859e 3bbb 5c76 623d 2281 81bd 6b07 cc3c
000002d0: 69bf 83bb 103d 26bc 62f6 ba3d afbb 5d3c
000002e0: e61f 88bd 658e 61bd 1108 2fbc 9903 7bbd
000002f0: 11ad c9bd a2a9 6d3b 2881 d73c 6418 98bc
00000300: 432c a3bd 6a10 74bd 68b6 c1bc 69a0 e4ba
00000310: 7ff0 333c 7590 983d 5d42 813d 57de a0bd
00000320: 8827 a0bc b2de 02bd 239e 79bd 987d bbba
00000330: 0ebe c6bd 8d35 823d b6cc d63c 6b5e b03d
00000340: 47ab cb3c 2d13 56bd d607 edbd 46bd 01bd
00000350: 914f 6e3b 6467 cf3c 49b7 03bd 3c9f 70bd
00000360: b45b 9a3c 3a4b 36bd 0bc5 3bbc 469e 083d
00000370: 18bb 053e 51dc adbd fb08 4e3c 5ca5 a4bd
00000380: 1cd6 bf3d bc58 5d3d 8258 9c3d ed33 55bd
00000390: b38b 85bd fc9f 7738 f7a4 d43c f1d8 4ebd
000003a0: 37d6 09be 9d75 273c 6fb9 973d fd6c b4bd
000003b0: e8c9 913d 3b22 d53d bf13 06bd 69bd 0e3c
000003c0: f300 d1bd 318f 9f3d 4ed1 6bbd 768c b03d
000003d0: 715e 143c 943d 353d b667 8b3d 4687 693d
000003e0: d932 b63d 1a47 c83d 8cab bcbd 1986 9cbc
000003f0: b0ea 8abd d4e8 d7bc 7a52 e1bd 3691 823d

bias_ih_l0 f4 [384]
0.018559417 0.0497426 0.009288691 0.05652788 0.027890839 0.069762245 -0.036738764 0.061815597
-0.06887403 -0.08779488 0.08218969 -0.07188205 -0.01717196 -0.03995756 0.038075488 -0.04882582
0.05763153 -0.10580762 0.013853189 0.09130642 -0.012193833 0.11597983 -0.020921402 0.042401906
-0.10804829 0.05911274 0.10088585 -0.07478939 -0.07145053 0.09379131 -0.024687752 -0.0019445856
0.09179225 0.015220817 -0.00042984646 -0.042968057 0.10311463 0.0048152325 0.086858 0.07282736
0.11036945 -0.038081136 -0.013623181 -0.052307583 0.010106561 0.12793984 0.03256181 -0.07965022
0.012009229 -0.03284339 -0.06396868 -0.07146795 0.02862593 0.011773157 -0.07321194 -0.036360104
0.0750499 -0.052832197 0.11613033 0.000859159 0.08111447 0.016501514 0.046939764 0.019429566
0.021970414 0.013325351 -0.017489288 0.07609582 0.0064076427 0.10968685 0.024117291 -0.06827121
0.061678912 0.0129297245 0.08490869 0.01170618 0.025304548 -0.07011784 0.024390347 -0.004368894
0.010447608 0.017905561 -0.006872209 0.07215829 0.0029580642 -0.008746171 -0.08198077 0.04103026
0.008518126 0.026611352 0.06693389 0.109674424 -0.06442122 0.06405361 0.00453496 0.1610932
0.117748365 -0.009508917 -0.0645972 0.07864248 0.007862924 0.018440226 0.09469698 -0.07563786
-0.09765193 0.069728754 -0.09077143 -0.051643815 -0.06332772 0.058824215 -0.08898781 -0.059404366
0.099523485 0.083257444 -0.03727479 -0.043414395 -0.020061772 0.06316841 0.016929759 0.010703013
0.012348535 0.1375134 0.044295114 0.061496645 0.03675087 -0.053057827 0.024327291 0.06355663
0.011897451 0.0058887834 0.029960344 -0.015702888 0.074050955 0.029866256 0.022045726 0.055807088
-0.020848589 0.0017297968 0.044136565 0.0155811105 0.03462986 0.089063354 0.12387031 0.15520534
-0.024025716 0.010298509 0.0927886 0.006431027 -0.046906658 -0.023339504 0.029547764 0.11426558
0.161978 0.062608816 -0.02468256 -0.100212246 -0.049436696 -0.0975085 0.1858101 0.023631139
-0.005649206 -0.028096937 -0.036132004 0.006336674 0.06980219 -0.060308114 -0.034254577 0.06681764
0.009046556 0.027716128 -0.048170645 0.016793204 -0.041630685 -0.025710702 0.13916948 0.037004683
0.008582252 -0.11002681 -0.119295925 0.013114242 0.057135157 0.044761408 0.00292144 -0.043962836
-0.05438437 0.11399903 0.088919036 -0.050241414 0.094384134 -0.034195866 0.016839406 0.030846845
-0.0038946988 0.064571194 -0.02203468 0.05073673 0.060795836 -0.003929273 -0.088195086 -0.028030854
-0.04746023 0.105164 0.12639174 0.09982992 0.06220256 0.053773362 0.03969991 0.05365947
0.09297259 0.117224656 0.00953321 -0.036288403 -0.00488947 0.070632786 0.0857297 0.08752508
0.022958072 0.122645654 0.17761877 -0.01772612 -0.047067415 0.0030367773 -0.04420599 -0.08161126
0.096305385 -0.0214944 -0.0031819816 0.0092907455 -0.03500946 0.11629297 -0.029074231 0.06444921
-0.038021028 -0.001233632 0.055857964 0.02305153 -0.10886872 -0.029535368 0.034704104 0.08436948
-0.06612719 -0.07575399 0.05063045 0.08923953 0.14179796 0.06958502 0.08619905 0.15028413
-0.042365354 -0.03382615 0.026758136 0.04881951 0.020059034 0.045641474 0.043759435 -0.054178692
00000000: eb09 983c e6be 4b3d 982f 183c c789 673d
00000010: 547b e43c 82df 8e3d 637b 16bd 5a32 7d3d
00000020: d40d 8dbd cdcd b3bd 1153 a83d e536 93bd
00000030: 36ac 8cbc 8aaa 23bd 0bf5 1b3d 95fd 47bd
00000040: 0a0f 6c3d aab1 d8bd 7cf8 623c dcfe ba3d
00000050: a4c8 47bc d586 ed3d 5c63 abbc 9fad 2d3d
00000060: 6c48 ddbd 3320 723d 3e9d ce3d 2e2b 99bd
00000070: a854 92bd a915 c03d f83d cabc 77e1 feba
00000080: 93fd bb3d bc60 793c 045d e1b9 46ff 2fbd
00000090: c32d d33d 19c9 9d3b 9be2 b13d 8326 953d
000000a0: 6109 e23d f7fa 1bbd c333 5fbc 7a40 56bd
000000b0: fd95 253c a902 033e 885f 053d a81f a3bd
000000c0: 5bc2 443c ca86 06bd 0302 83bd ca5d 92bd
000000d0: ed80 ea3c 33e4 403c 24f0 95bd 55ee 14bd
000000e0: c3b3 993d 9366 58bd bdd5 ed3d 2f39 613a
000000f0: 581f a63d 2f2e 873c e943 403d c12a 9f3c
00000100: 4cfb b33c 9352 5a3c b245 8fbc 20d8 9b3d
00000110: 34f7 d13b 80a3 e03d a091 c53c c7d1 8bbd
00000120: 07a3 7c3d 32d7 533c 9be4 ad3d 47cb 3f3c
00000130: 7c4b cf3c f199 8fbd 44ce c73c f028 8fbb
00000140: 722c 2b3c afae 923c 4430 e1bb bac7 933d
00000150: 15dc 413b 1a4c 0fbc 89e5 a7bd 590f 283d
00000160: 9c8f 0b3c 0d00 da3c a314 893d fc9c e03d
00000170: 46ef 83bd 8a2e 833d 009a 943b 9ef5 243e
00000180: 0e26 f13d 4acb 1bbc 894b 84bd 4f0f a13d
00000190: 7ed3 003c f50f 973c 7ef0 c13d 06e8 9abd
000001a0: bcfd c7bd f3cd 8e3d 5fe6 b9bd 7788 53bd
000001b0: f7b1 81bd a9f1 703d 3e3f b6bd fe51 73bd
000001c0: f8d2 cb3d e182 aa3d 73ad 18bd 4bd3 31bd
000001d0: 9658 a4bc 705e 813d 47b0 8a3c b15b 2f3c
000001e0: 8251 4a3c 50d0 0c3e cb6e 353d e8e3 7b3d
000001f0: 1588 163d 2a53 59bd 074a c73c fa29 823d
00000200: 87ed 423c b2f6 c03b 656f f53c 58a3 80bc
00000210: 07a8 973d 14aa f43c 3d99 b43c f995 643d
00000220: a9ca aabc 59ba e23a 8bc8 343d ea47 7f3c
00000230: 0ad8 0d3d d966 b63d b8af fd3d 26ee 1e3e
00000240: 94d1 c4bc 14bb 283c f307 be3d 5dbb d23b
00000250: 3221 40bd 7d32 bfbc 270e f23c 1304 ea3d
00000260: 90dd 253e 0d39 803d 1433 cabc 143c cdbd
00000270: 227e 4abd 89b2 c7bd 0145 3e3e 1796 c13c
00000280: fa1c b9bb 8c2b e6bc 27ff 13bd e0a3 cf3b
00000290: 73f4 8e3d a405 77bd 874e 0cbd b0d7 883d
000002a0: 0238 143c ef0c e33c 954e 45bd e791 893c
000002b0: f084 2abd 409f d2bc 7282 0e3e 3992 173d
000002c0: 939c 0c3c bc55 e1bd 6c51 f4bd 1edd 563c
000002d0: 8e06 6a3d bd57 373d a175 3f3b 6012 34bd
000002e0: 25c2 5ebd 5378 e93d 2f1b b63d f1c9 4dbd
000002f0: 784c c13d f710 0cbd cbf2 893c 86b2 fc3c
00000300: 343e 7fbb e73d 843d 1382 b4bc 51d1 4f3d
00000310: 0e05 793d 22c1 80bb a09f b4bd f6a0 e5bc
00000320: a865 42bd 3960 d73d d66c 013e a173 cc3d
00000330: 1dc8 7e3d 7541 5c3d 5f9c 223d 08ca 5b3d
00000340: 6a68 be3d 7b13 f03d 2e31 1c3c 26a3 14bd
00000350: d937 a0bb eca7 903d 0e93 af3d 5940 b33d
00000360: 9112 bc3c a52d fb3d b2e1 353e 5e36 91bc
00000370: c3c9 40bd ab04 473b 5711 35bd ce23 a7bd
00000380: c23b c53d 0615 b0bc cb88 50bb 3638 183c
00000390: 1466 0fbd 022b ee3d 152d eebc f3fd 833d
000003a0: f0bb 1bbd d2b1 a1ba 52cb 643d 90d6 bc3c
000003b0: 90f6 debd 28f4 f1bc e425 0e3d e8c9 ac3d
000003c0: b16d 87bd e824 9bbd e061 4f3d 37c3 b63d
000003d0: 7c33 113e 9782 8e3d 2189 b03d 15e4 193e
000003e0: 4b87 2dbd 4a8d 0abd e133 db3c f7f6 473d
000003f0: d852 a43c 8ef2 3a3d 183d 333d 7aea 5dbd

bias_hh_l0 f4 [384]
-0.045819823 0.017845266 0.011835976 0.005391509 0.05513991 0.035656292 -0.007923323 0.10495522
-0.10288829 -0.0013355109 -0.010940651 0.07987815 0.0364766 -0.016899563 0.09681086 0.10512087
-0.071752705 -0.029766506 0.106255494 0.017376384 0.065311514 -0.01007587 0.021844978 0.022848062
-0.030658094 -0.09394077 -0.007183984 -0.10674026 -0.070932835 -0.034619756 -0.029176718 -0.014275006
0.061719265 -0.048694532 -0.033849124 -0.047474127 0.06326909 -0.035944544 0.013157409 0.055783737
0.073291324 -0.10564353 0.034841575 -0.08216349 0.07837546 -0.02474311 -0.028768733 0.011779921
0.019513667 -0.021927364 -0.08632389 0.0039213495 -0.030063929 0.0071356343 -0.056760397 -0.02364998
0.015021795 0.0033855236 0.055049833 0.067946 0.034453433 -0.08396237 -0.05738126 0.017363843
0.110532 0.06407115 0.06841429 0.01765754 -0.0652542 0.078300826 0.07580344 0.0051794657
-0.02519299 0.0042389366 0.07169194 -0.04274334 0.028535945 -0.014398864 0.039887156 0.0068449005
-0.048773143 -0.03206112 0.10159986 0.012310182 -0.028124318 0.075091206 -0.042538714 0.12317567
-0.0011504104 0.04259944 -0.04271601 0.08130337 0.035068147 -0.059944723 -0.06688585 0.060772717
-0.028562963 0.09352649 -0.00831783 0.048658624 -0.019682972 0.0045979354 -0.05119693 -0.094565526
-0.05315354 0.014202721 0.03078803 0.050557286 0.029302793 -0.10147778 -0.01392472 0.007232533
-0.013519354 -0.015081465 0.02909511 -0.010518108 0.08274889 -0.042257544 0.07131107 -0.079103455
0.05015843 0.03578044 -0.031737257 0.010103119 0.08708447 -0.05625768 -0.096262224 0.09334864
0.07056766 0.05827213 0.039643202 -0.03770741 0.13774653 0.044405576 0.06857499 0.080145344
0.093997076 -0.062832326 0.012459467 0.030085143 -0.062354736 -0.03610641 0.09886698 0.09505256
0.025360337 0.14902397 0.078974314 -0.032894865 0.03723601 -0.042572573 0.008052654 0.08841573
0.08035312 0.0008255774 -0.1108906 -0.037493803 0.035410598 -0.08404982 0.05527914 -0.0071746926
0.012481021 0.012069139 0.07218131 -0.0124593405 -0.03938096 0.076591924 0.05303235 0.07519636
-0.049853336 -0.023651406 0.08316522 -0.050736684 -0.0065372945 -0.03435978 0.11918205 0.06842565
0.03386286 0.031305224 -0.1188336 0.040577173 0.07799621 0.10406059 -0.07642575 0.05837699
-0.0839557 0.035403553 -0.006729919 -0.083011 -0.050357964 0.05129765 -0.04044073 -0.027808418
-0.010156971 0.069467284 -0.06792786 -0.057369314 0.054301698 0.085621506 -0.018086419 0.052022737
-0.018223127 0.04572763 0.03897789 0.020777388 0.054232147 -0.036497388 -0.059096135 0.14284147
0.1410107 0.06188432 0.04719163 0.00066642155 0.10477807 -0.0010227679 0.102048226 0.12832548
0.09323952 0.10199323 0.17774612 -0.0046214215 0.032872435 0.122803666 -0.10665569 -0.002282981
-0.03379368 0.03079022 0.06302497 -0.037821125 0.09442177 -0.027231965 0.1135982 -0.0075748498
-0.085068 0.013340122 0.09829751 -0.04463619 -0.078667045 0.062121723 0.040098157 -0.023932584
0.056216307 -0.013050876 -0.02242921 0.076014705 0.09074998 -0.010923021 -0.046090096 0.18988132
-0.09352288 -0.016446749 0.09305925 0.09948227 0.10492773 0.13240713 -0.05226683 0.028038293
00000000: 91ad 3bbd 3c30 923c aeeb 413c 41ab b03b
00000010: 63da 613d 550c 123d d3d0 01bc c3f2 d63d
00000020: 19b7 d2bd 4f0c afba 6b40 33bc 2897 a33d
00000030: 7d68 153d f470 8abc c644 c63d 9c49 d73d
00000040: 15f3 92bd e3d8 f3bc 7b9c d93d eb58 8e3c
00000050: 0bc2 853d 4315 25bc 3df4 b23c dc2b bb3c
00000060: af26 fbbc 0564 c0bd a067 ebbb a39a dabd
00000070: 3c45 91bd 72cd 0dbd 0304 efbc b7e1 69bc
00000080: 57cd 7c3d eb73 47bd 61a5 0abd 3b74 42bd
00000090: 3a93 813d 963a 13bd 2c92 573c 7d7d 643d
000000a0: c319 963d a35b d8bd 0ab6 0e3d 5545 a8bd
000000b0: 5083 a03d 10b2 cabc 68ac ebbc 9200 413c
000000c0: 20db 9f3c 04a1 b3bc 94ca b0bd aa7e 803b
000000d0: a148 f6bc 0ad2 e93b 977d 68bd 9abd c1bc
000000e0: fa1d 763c a9df 5d3b ef7b 613d 4627 8b3d
000000f0: 0b1f 0d3d 77f4 abbd 9d08 6bbd 9e3e 8e3c
00000100: 9a5e e23d bc37 833d cb1c 8c3d 8ca6 903c
00000110: fea3 85bd 2f5c a03d d53e 9b3d 82b8 a93b
00000120: 8861 cebc c7e6 8a3b 39d3 923d a413 2fbd
00000130: 37c4 e93c 36e9 6bbc b760 233d 304b e03b
00000140: 59c6 47bd 8552 03bd 9613 d03d a5b0 493c
00000150: f864 e6bc 6bc9 993d 133d 2ebd 8743 fc3d
00000160: 5ec9 96ba c07c 2e3d fcf6 2ebd 6282 a63d
00000170: 9ea3 0f3d 9988 75bd 73fb 88bd d0ec 783d
00000180: e0fc e9bc d18a bf3d 8247 08bc 444e 473d
00000190: 2f3e a1bc 47aa 963b dfb3 51bd 92ab c1bd
000001a0: 87b7 59bd 88b2 683c 2e37 fc3c 2815 4f3d
000001b0: 690c f03c 95d3 cfbd 8224 64bc e2fe ec3b
000001c0: 4880 5dbc 4018 77bc de58 ee3c 2454 2cbc
000001d0: 4078 a93d 3f16 2dbd 8a0b 923d fe00 a2bd
000001e0: ed72 4d3d 838e 123d edfe 01bd 8d87 253c
000001f0: 5859 b23d 746e 66bd 2125 c5bd 922d bf3d
00000200: c785 903d c2ae 6e3d e960 223d 1673 1abd
00000210: 6d0d 0d3e 9fe2 353d 0b71 8c3d 3e23 a43d
00000220: 8a81 c03d 3cae 80bd cb22 4c3c 1e75 f63c
00000230: ae67 7fbd 51e4 13bd c57a ca3d ebaa c23d
00000240: 7bc0 cf3c bd99 183e 49bd a13d c4bc 06bd
00000250: c984 183d 9460 2ebd 47ef 033c 4e13 b53d
00000260: 2d90 a43d 906b 583a 9c1a e3bd 1a93 19bd
00000270: b40a 113d 5022 acbd 616c 623d af19 ebbb
00000280: 327d 4c3c a3bd 453c cbd3 933d 4322 4cbc
00000290: ee4d 21bd 3adc 9c3d 7338 593d 8d00 9a3d
000002a0: 0333 4cbd 98c0 c1bc 8752 aa3d 45d1 4fbd
000002b0: cd36 d6bb d7bc 0cbd b815 f43d bf22 8c3d
000002c0: c8b3 0a3d e839 003d 085f f3bd 4034 263d
000002d0: 7abc 9f3d b81d d53d 1b85 9cbd b61c 6f3d
000002e0: f7f0 abbd 5103 113d a786 dcbb ac01 aabd
000002f0: 2744 4ebd 7c1d 523d 2ea5 25bd 7bce e3bc
00000300: 6d69 26bc dd44 8e3d c31d 8bbd 16fc 6abd
00000310: 756b 5e3d 545a af3d f829 94bc cb15 553d
00000320: ab48 95bc e54c 3b3d 48a7 1f3d 5735 aa3c
00000330: 8722 5e3d 497e 15bd ca0e 72bd 0945 123e
00000340: 1c65 103e 6a7a 7d3d 034c 413d cbb2 2e3a
00000350: e295 d63d 650e 86ba a9fe d03d c167 033e
00000360: 5df4 be3d d4e1 d03d 1403 363e 4b6f 97bb
00000370: 3fa5 063d 7d80 fb3d 4c6e dabd 119e 15bb
00000380: 3e6b 0abd c53b fc3c 3c13 813d 53ea 1abd
00000390: 3360 c13d 9215 dfbc 2ca6 e83d 7236 f8bb
000003a0: 2238 aebd 8790 5a3c 3450 c93d 70d4 36bd
000003b0: 301c a1bd 5973 7e3d f73d 243d 440e c4bc
000003c0: 1243 663d 57d3 55bc 76bd b7bc 99ad 9b3d
000003d0: 20db b93d 78f6 32bc f8c8 3cbd 4070 423e
000003e0: ec88 bfbd 55bb 86bc d995 be3d 5cbd cb3d
000003f0: 5ae4 d63d bc95 073e be15 56bd 90b0 e53c

weight_ih_l0_reverse f4 [384, 32]
-0.013978374 -0.008664791 -0.099746145 0.039916806 0.031120157 0.029931579 -0.018851211 -0.06984666
-0.08655162 0.012043803 0.08192937 -0.055696968 0.023583816 -0.04618475 -0.030317642 0.036117557
0.05760917 0.024946569 -0.0047530476 0.029930428 0.08568028 -0.00968249 -0.01666671 -0.030471249
0.07464915 -0.049101103 0.094347686 -0.020447118 0.022887064 0.034140423 0.008616485 -0.013578141
-0.04475558 0.04629551 -0.07179699 0.05279047 0.011945878 0.09767717 -0.048225097 0.061368242
-0.085973054 -0.05345176 -0.05009422 0.03276102 -0.06205649 -0.044217955 -0.015401072 -0.06328122
-0.06394558 0.079955384 0.065070875 0.07689185 0.11661978 -0.06177482 0.0048783184 0.03483679
0.015021071 0.08486237 0.089364104 -0.015768865 -0.058078807 0.008228795 0.12119846 0.055814624
0.10401903 -0.0724548 0.06310301 -0.033864204 -0.0625476 -0.07633564 0.019626597 0.028357059
-0.13034108 0.033079978 0.036472276 0.031748753 0.06790632 0.059034564 -0.017809091 0.058278624
0.08010192 0.10064027 0.00087160117 0.04696616 0.018804492 0.008009001 0.06401139 0.040027782
0.14983812 0.007010964 0.13698116 0.025488442 0.036711305 0.06328706 0.12573305 -0.011325608
-0.013943722 -0.039558586 0.008278099 -0.055527776 0.029958855 0.054360542 -0.043903403 -0.04669423
-0.090506956 0.11242591 0.106554955 0.046739303 0.0061784135 -0.08693503 0.15842927 -0.06580489
-0.004840703 0.13336787 0.06077032 0.09684385 0.04164893 0.065240204 0.060137488 -0.061222274
0.031041 0.042185374 0.025128243 0.06279836 0.0776192 -0.0068321587 0.066299655 0.0028248406
-0.1375821 0.024030548 0.013106957 -0.015851356 0.07236776 0.044344 0.075871274 0.013134023
0.025209907 -0.017153647 0.013834247 -0.10394302 -0.059065748 0.104975045 0.019309286 0.046794303
-0.08079701 0.06282207 -0.04357047 -0.051495228 0.015111018 -0.13216901 -0.07078329 -0.11633469
-0.12055633 0.0060637207 -0.010251556 -0.04763136 -0.07504144 -0.07621552 -0.0047904924 -0.007541243
-0.11183506 -0.013214127 -0.044877633 0.046067856 -0.01855631 0.017944274 0.047278844 -0.052371282
0.04907828 -0.01345416 -0.09796247 -0.06354025 -0.081041194 0.06240779 -0.06449808 0.07120779
0.023262706 0.0134012485 0.023671586 -0.06248877 -0.015574168 0.10581041 0.05608829 -0.024679441
-0.00284373 0.08761704 -0.013138123 -0.034633797 -0.019777985 0.025121206 0.08897403 0.07639195
-0.07282126 0.017609954 -0.093612336 0.07177031 0.020210775 0.05665915 0.10873773 -0.0855044
-0.012420607 0.03038205 0.09734098 0.020111566 0.087285005 -0.08630391 0.00030486466 0.04070078
-0.03937027 -0.027250003 -0.05402937 -0.020754827 0.08546879 0.13302267 -0.0038586825 0.122370765
0.11573838 -0.0015303377 -0.0154595915 -0.026541993 0.048932 -0.035697743 0.067180894 0.022723539
0.08318257 0.03724797 -0.021890715 0.035180915 -0.038055703 0.13255216 -0.040363 -0.1395129
0.04785958 0.045868374 0.0691979 0.077519864 0.030031316 -0.11691862 -0.13298713 0.059349492
0.016627813 -0.01091506 -0.02978082 -0.09333685 -0.059219602 0.005038606 -0.09625398 0.049165245
0.0671383 0.009708556 0.07011826 0.03376348 -0.08203808 -0.05427346 0.036981035 0.0295601
00000000: 8d05 65bc c4f6 0dbc b547 ccbd ce7f 233d
00000010: b3ef fe3c 1233 f53c db6d 9abc c40b 8fbd
00000020: fa41 b1bd 5f53 453c 96ca a73d 8122 64bd
00000030: d932 c13c 382c 3dbd b45c f8bc 01f0 133d
00000040: 98f7 6b3d bf5c cc3c 74bf 9bbb a830 f53c
00000050: 2579 af3d 4ea3 1ebc a088 88bc d79e f9bc
00000060: a7e1 983d 3d1e 49bd 5c39 c13d b780 a7bc
00000070: a77d bb3c d4d6 0b3d 282c 0d3c da76 5ebc
00000080: a151 37bd 5ca0 3d3d 4d0a 93bd d23a 583d
00000090: a5b8 433c f80a c83d ae87 45bd 445d 7b3d
000000a0: a412 b0bd 3cf0 5abd 992f 4dbd 6b30 063d
000000b0: f22e 7ebd e31d 35bd c754 7cbc 9699 81bd
000000c0: e6f5 82bd a6bf a33d e143 853d 7979 9d3d
000000d0: 5ad6 ee3d 9807 7dbd 4dda 9f3b 06b1 0e3d
000000e0: f01a 763c 52cc ad3d 8704 b73d b52d 81bc
000000f0: 0be4 6dbd 11d2 063c e636 f83d e09d 643d
00000100: ee07 d53d 2f63 94bd 273c 813d 31b5 0abd
00000110: f518 80bd dc55 9cbd f5c7 a03c 104d e83c
00000120: 2278 05be df7e 073d f463 153d fb0a 023d
00000130: 7812 8b3d 3ace 713d 5fe4 91bc 91b5 6e3d
00000140: 7a0c a43d 7c1c ce3d 2a7c 643a 975f 403d
00000150: e10b 9a3c 2f38 033c 6718 833d 2cf4 233d
00000160: 2a6f 193e 3bbc e53b ca44 0c3e 23cd d03c
00000170: 985e 163d a59c 813d 2ac0 003e 0b8f 39bc
00000180: 3574 64bc 2f08 22bd dda0 073c 1871 63bd
00000190: 466c f53c 29a9 5e3d 0ed4 33bd 7342 3fbd
000001a0: b65b b9bd 8e3f e63d 7c39 da3d b671 3f3d
000001b0: 4a74 ca3b fe0a b2bd 483b 223e b7c4 86bd
000001c0: c39e 9ebb 9691 083e 4dea 783d 1256 c63d
000001d0: 1298 2a3d a89c 853d ba52 763d 35c4 7abd
000001e0: b249 fe3c 92ca 2c3d bfd9 cd3c 6d9c 803d
000001f0: d1f6 9e3d 4de0 dfbb 1dc8 873d f620 393b
00000200: 52e2 0cbe b6db c43c 90be 563c b4da 81bc
00000210: 8c35 943d 0ea2 353d 6662 9b3d 1630 573c
00000220: 0285 ce3c ce85 8cbc 0aa9 623c 14e0 d4bd
00000230: edee 71bd 28fd d63d 822e 9e3c 62ab 3f3d
00000240: e778 a5bd dca8 803d f376 32bd a9ec 52bd
00000250: 3494 773c 5057 07be d4f6 90bd e240 eebd
00000260: 3de6 f6bd 2db2 c63b 24f6 27bc 1a19 43bd
00000270: 54af 99bd e216 9cbd 90f9 9cbb 881c f7bb
00000280: c809 e5bd 1180 58bc 9cd1 37bd a6b1 3c3d
00000290: 6703 98bc dfff 923c 76a7 413d 4583 56bd
000002a0: 4e06 493d d66e 5cbc 8ca0 c8bd 6421 82bd
000002b0: edf8 a5bd 509f 7f3d 9217 84bd 64d5 913d
000002c0: 6e91 be3c e990 5b3c eaea c13c 39f4 7fbd
000002d0: cc2a 7fbc 21b3 d83d d6bc 653d 8a2c cabc
000002e0: df5d 3abb 9070 b33d 4841 57bc 2bdc 0dbd
000002f0: 7105 a2bc fdca cd3c 0438 b63d 6273 9c3d
00000300: 5023 95bd c042 903c d3b7 bfbd 50fc 923d
00000310: 1191 a53c 6d13 683d e3b1 de3d ee1c afbd
00000320: cd7f 4bbc c7e3 f83c b55a c73d 03c1 a43c
00000330: 7bc2 b23d 1bc0 b0bd 3ed6 9f39 dcb5 263d
00000340: b842 21bd 663b dfbc e74d 5dbd 0706 aabc
00000350: 430a af3d 1837 083e f3e1 7cbb 869d fa3d
00000360: 3e08 ed3d 9d95 c8ba 3a4a 7dbc 986e d9bc
00000370: ec6c 483d cc37 12bd 2396 893d b726 ba3c
00000380: a05b aa3d 5491 183d 2854 b3bc dd19 103d
00000390: 4ce0 1bbd c1bb 073e ac53 25bd 78dc 0ebe
000003a0: 6808 443d 7ae0 3b3d a1b7 8d3d bcc2 9e3d
000003b0: 3c04 f63c 0873 efbd c72d 08be 7418 733d
000003c0: 0d37 883c 14d5 32bc e8f6 f3bc 6427 bfbd
000003d0: 4190 72bd e41a a53b cf20 c5bd 7f61 493d
000003e0: ce7f 893d a310 1f3c 2a9a 8f3d 934b 0a3d
000003f0: 9503 a8bd d94d 5ebd 6d79 173d 0628 f23c

weight_hh_l0_reverse f4 [384, 128]
-0.020398896 -0.05937873 0.03707817 0.056732316 0.03527251 -0.08270784 0.012560934 0.02266224
0.10522346 0.0026713419 -0.023250783 0.06847265 0.08405514 0.101266325 0.06865814 -0.0021821249
-0.0693248 0.02967426 0.03536777 -0.021771206 -0.095585965 0.0019862049 -0.035510767 -0.091782324
0.073420934 -0.06389681 0.0322374 0.09805649 -0.0025161535 -0.06433252 -0.016112294 0.08887147
0.09853201 0.082116455 -0.058562353 0.0809634 0.015204778 -0.086348295 -0.08021477 -0.10699541
0.039988946 -0.041587945 -0.0057220594 0.050547544 -0.011458366 0.06445773 0.03853615 0.018384997
0.063574106 0.08772089 -0.038577747 -0.053273182 0.10528728 0.0011014633 0.101957686 0.09141187
-0.058987003 0.072488666 0.062198818 0.07306385 -0.032484002 -0.08793438 0.036837295 0.018204099
-0.10674997 -0.004459538 0.028159168 0.016528428 0.0002392107 0.0913576 0.0097463 0.11474747
0.053555783 0.037061878 -0.084459096 -0.021457003 0.0052443244 0.043341346 -0.04234519 -0.035571832
-0.084662184 0.08464647 -0.07871161 0.0861928 -0.04070604 0.016507765 -0.062544815 -0.05907019
-0.026199277 0.08816427 -0.041999172 -0.09479952 0.007863209 -0.015488953 -0.09854489 -0.08610844
-0.045069903 -0.008062719 0.061834197 -0.0054070284 -0.030615322 0.033818156 -0.054925594 -0.065918
-0.026681323 0.10585299 -0.08003358 -0.045222905 -0.052553706 -0.08151967 0.030460497 -0.06838327
0.0013526904 0.026612546 -0.029428586 -0.03144557 0.10066769 -0.029694177 0.08592892 -0.044770576
-0.046528976 -0.005817513 -0.052514046 -0.0077174525 0.08642727 -0.02036283 0.02831421 0.0003800523
0.030196127 0.034559403 0.05637533 0.07972925 0.012388483 -0.035137504 0.02578436 0.05073229
-0.025670359 0.004369743 0.020419164 0.03346705 -0.05202757 -0.06822423 0.039573465 -0.03862833
-0.0069202506 0.062486075 0.07991918 0.08380954 0.0467241 0.096031055 -0.03823271 -0.031175619
-0.06118247 -0.07394523 -0.037910074 0.13359891 -0.07824294 0.053810325 0.0047146757 0.020392224
-0.0015519053 -0.050350804 0.048757773 -0.060898345 -0.115514986 0.042126298 0.07464679 0.04144054
-0.03988503 0.0009683097 -0.12534094 -0.022929175 -0.051719416 0.02728839 0.01810194 -0.10620901
-0.04514289 0.10890515 0.08269807 -0.06824209 0.004899567 0.04226909 0.018225415 -0.07237316
-0.0781979 0.025742428 -0.032541636 -0.00576249 -0.031561002 -0.0065187714 -0.08595251 -0.103652336
-0.08493527 -0.06776386 -0.038332805 0.0076637696 0.0068591544 0.12018029 0.006605412 0.04359262
0.059186026 -0.059834428 -0.038882554 0.08262374 0.01105391 0.036786463 -0.032626897 0.00811765
-0.058315895 0.07084774 -0.079005115 0.012723357 0.041049547 -0.0431335 -0.09804039 0.039407283
-0.09233425 0.0671607 0.06890453 0.10749593 -0.122305356 0.05279694 0.07817308 -0.058456913
0.011189 -0.027233932 0.075854436 -0.06141309 0.016051222 0.06213343 0.06910739 -0.10630088
0.05574456 -0.032922775 0.055868585 -0.015585013 0.02288399 -0.017023334 0.018386574 -0.07156743
-0.05418932 0.009577989 -0.037369072 -0.075417735 0.023128565 0.023243504 0.078419805 -0.046078645
0.048742924 0.00656083 -0.023201441 -0.08181074 0.0850345 0.08023071 -0.02778363 -0.009164799
00000000: 961b a7bc 1c37 73bd 47df 173d 2560 683d
00000010: e879 103d ba62 a9bd 60cc 4d3c 29a6 b93c
00000020: 667f d73d ae11 2f3b 6d78 bebc 643b 8c3d
00000030: 1a25 ac3d b864 cf3d a49c 8c3d fb01 0fbb
00000040: 29fa 8dbd 6f17 f33c cbdd 103d 8759 b2bc
00000050: 93c2 c3bd fd2a 023b bd73 11bd 5ff8 bbbd
00000060: b75d 963d 55dc 82bd 5d0b 043d d7d1 c83d
00000070: 0de6 24bb c5c0 83bd eefd 83bc 3f02 b63d
00000080: 27cb c93d ac2c a83d 14df 6fbd 24d0 a53d
00000090: 761d 793c 60d7 b0bd a447 a4bd 6920 dbbd
000000a0: 73cb 233d 1f58 2abd 1d80 bbbb f10a 4f3d
000000b0: dfbb 3bbc 6a02 843d 15d8 1d3d 229c 963c
000000c0: 2433 823d 03a7 b33d b303 1ebd fb34 5abd
000000d0: dca0 d73d fa5e 903a 31cf d03d 2636 bb3d
000000e0: 5b9c 71bd f074 943d 30c4 7e3d 80a2 953d
000000f0: f20d 05bd f116 b4bd b4e2 163d c320 953c
00000100: ba9f dabd 5121 92bb 0eae e63c a066 873c
00000110: a2d4 7a39 b219 bb3d f2ae 1f3c b900 eb3d
00000120: 4f5d 5b3d 32ce 173d e4f8 acbd 99c6 afbc
00000130: 95d8 ab3b b286 313d 2672 2dbd c5b3 11bd
00000140: 5e63 adbd 215b ad3d 8d33 a1bd da85 b03d
00000150: 60bb 26bd 4b3b 873c 7f17 80bd 95f3 71bd
00000160: de9f d6bc 788f b43d 5307 2cbd 4026 c2bd
00000170: b0d4 003c 61c5 7dbc e7d1 c9bd 9f59 b0bd
00000180: 389b 38bd 7f19 04bc db45 7d3d 712d b1bb
00000190: fccc fabc e884 0a3d a9f9 60bd 0400 87bd
000001a0: ca92 dabc 74c9 d83d a5e8 a3bd a73b 39bd
000001b0: 8e42 57bd c9f3 a6bd 4b88 f93c 870c 8cbd
000001c0: c24c b13a 8e02 da3c 3814 f1bc 12cd 00bd
000001d0: dd2a ce3d 3441 f3bc 80fb af3d 5a61 37bd
000001e0: 2b95 3ebd d6a0 bebb f818 57bd afe2 fcbb
000001f0: c800 b13d f3cf a6bc 34f3 e73c c241 c739
00000200: de5d f73c 298e 0d3d d1e9 663d 1749 a33d
00000210: 10f9 4a3c 58ec 0fbd b939 d33c a9cc 4f3d
00000220: a54a d2bc 1030 8f3b 1746 a73c bf14 093d
00000230: dc1a 55bd 25b9 8bbd c917 223d bd38 1ebd
00000240: 45c3 e2bb 66f1 7f3d abac a33d 56a4 ab3d
00000250: c561 3f3d eeab c43d e799 1cbd 0364 ffbc
00000260: 789a 7abd 9970 97bd 9847 1bbd 27ce 083e
00000270: d63d a0bd 3768 5c3d 917d 9a3b 980d a73c
00000280: 4d69 cbba a53c 4ebd 3bb6 473d 8b70 79bd
00000290: 1f93 ecbd a08c 2c3d 6be0 983d 8ebd 293d
000002a0: 7c5e 23bd 2ad6 7d3a 6059 00be f7d5 bbbc
000002b0: bdd7 53bd e78b df3c 854a 943c 1c84 d9bd
000002c0: c0e7 38bd aa09 df3d 9b5d a93d 82c2 8bbd
000002d0: 8c8c a03b 5a22 2d3d 774d 953c 6138 94bd
000002e0: 3826 a0bd c9e1 d23c 614a 05bd 45d3 bcbb
000002f0: 1c46 01bd 6b9b d5bb df07 b0bd ad47 d4bd
00000300: 8bf2 adbd c7c7 8abd dc02 1dbd 5c20 fb3b
00000310: c2c2 e03b 1521 f63d 3672 d83b 2d8e 323d
00000320: 0c6d 723d f214 75bd 5043 1fbd a336 a93d
00000330: 751b 353c 67ad 163d c8a3 05bd e4ff 043c
00000340: a6dc 6ebd 9f18 913d 6fcd a1bd a175 503c
00000350: 9223 283d c1ac 30bd 66c9 c8bd 8869 213d
00000360: bd19 bdbd 8d8b 893d d11d 8d3d d326 dc3d
00000370: 3b7b fabd 9b41 583d 3519 a03d 8470 6fbd
00000380: 1152 373c b219 dfbc 9259 9b3d 4b8c 7bbd
00000390: da7d 833c a07f 7e3d 2d88 8d3d 47b4 d9bd
000003a0: 6854 643d 08da 06bd 75d6 643d 4858 7fbc
000003b0: 3577 bb3c 8574 8bbc 719f 963c f291 92bd
000003c0: 9ff5 5dbd ffec 1c3c 5010 19bd 9d74 9abd
000003d0: 1e78 bd3c 2969 be3c 909a a03d f6bc 3cbd
000003e0: a9a6 473d 3bfc d63b f310 bebc 648c a7bd
000003f0: 9126 ae3d 0050 a43d 7f9a e3bc f427 16bc

bias_ih_l0_reverse f4 [384]
0.048428483 0.11295276 0.10470442 0.039855238 -0.08963451 0.00784603 0.0069625457 -0.042062875
0.077014 0.067241326 0.024872452 -0.050328545 0.028566575 0.020594923 0.07495802 -0.07515898
0.047860388 -0.059241462 0.093952335 -0.046593208 -0.051402193 -0.04644744 0.054629963 0.07882805
0.021853764 -0.007567708 -0.09175357 0.06595997 0.012225688 0.078742035 1.4625344e-05 -0.011756479
-0.020352572 0.05225818 -0.039123703 -0.05035514 -0.008066415 -0.022383748 0.004154847 -0.028606832
-0.040246107 0.089164674 -0.03568362 -0.030478891 -0.05557652 -0.026577959 -0.07466681 0.020766987
-0.080474414 0.059583925 -0.026794352 0.0022764916 0.016369717 0.031141754 0.07998997 0.022600256
0.032783005 -0.004188018 0.02142058 -0.06481999 -0.04277325 0.07579883 0.060184628 -0.015256141
0.0070626093 -0.075009644 -0.014565522 -0.04448453 0.050686665 -0.085634716 0.075929075 0.0736349
0.051181395 0.109362006 -0.020644424 -0.0029195305 -0.0837246 0.08254846 0.073062 0.10872879
0.025422512 0.025045684 -0.050903987 -0.015933586 0.039078444 -0.09077485 -0.024663253 -0.015014344
0.06413838 -0.0411851 0.05193459 -0.086133786 -0.06538179 -0.06318878 0.010494102 -0.03438321
0.04268832 0.09852384 0.059441734 0.064009316 -0.08727422 -0.012023169 0.07529789 -0.044126645
-0.08209038 -0.10513944 -0.07128313 -0.009230258 -0.11164728 0.012856606 -0.031504385 -0.033712372
0.016314026 -0.022086808 -0.082137994 0.04463268 0.06959054 0.07099435 0.10520186 -0.020710446
0.041032847 0.08609481 0.037829828 -0.053075977 0.05452189 0.0031146118 0.06900897 -0.08357406
-0.06563031 0.053316675 -0.013220353 -0.08835968 -0.03840086 0.011599208 0.007121154 -0.058778286
-0.08933811 0.02812555 0.089279905 -0.07224361 0.0014814744 0.04202296 0.021514663 0.0141086
0.044962212 0.052780177 0.0065845647 0.09393986 -0.010227599 -0.07927017 0.024377547 0.048598412
-0.058740683 0.001952994 -0.10322258 0.08330958 -0.12127845 -0.01024945 0.071216606 0.1321486
0.084719226 0.052390285 -0.06948174 -0.012604535 0.05261695 0.12452205 0.07107609 0.061769597
-0.0032752077 -0.06240355 0.03193267 -0.11458566 0.048002347 0.083322115 -0.0629975 -0.056368742
0.05416901 -0.1259142 -0.028540995 0.12763873 -0.042816583 -0.008529977 -0.08412617 0.043139946
0.13196546 -0.016311552 -0.060605995 -0.08063009 0.023079652 0.13497584 -0.057570394 -0.00035338473
0.06048269 -0.01869604 -0.016805366 -0.0056717396 0.107913405 0.023785993 -0.010612253 -0.005035268
-0.08307205 0.08896249 0.082577355 0.07028923 0.05575116 0.026074404 0.054066774 0.143706
0.0014857737 -0.025216902 0.02553972 -0.06959974 -0.05733369 -0.075905025 0.022459287 -0.025647445
0.09264597 0.028401047 0.020027438 -0.002101675 0.06367919 0.05599057 0.005850834 0.016078614
0.07171671 0.047817778 0.0072007165 0.0020575 -0.019735107 0.06423294 0.018015014 -0.043275803
0.0039961142 0.013808729 -0.060287822 0.06016645 -0.005501128 -0.021338014 0.06300982 -0.07096776
0.030289909 0.04883673 -0.0031759872 0.013074113 0.018412413 -0.09388211 -0.06760729 0.0685568
0.020819781 -0.119759634 -0.03271965 0.04584783 -0.021838626 -0.15866278 0.04539217 0.029042484
00000000: f25c 463d c753 e73d 456f d63d 3f3f 233d
00000010: 4c92 b7bd a38c 003c 1126 e43b 1f4a 2cbd
00000020: 84b9 9d3d d2b5 893d 50c1 cb3c 4e25 4ebd
00000030: 7304 ea3c afb6 a83c 9783 993d f4ec 99bd
00000040: 4109 443d 2da7 72bd 156a c03d 85d8 3ebd
00000050: 1b8b 52bd ac3f 3ebd abc3 5f3d 9a70 a13d
00000060: aa06 b33c 89fa f7bb 4ce9 bbbd 0516 873d
00000070: 414e 483c 8143 a13d 605f 7537 3f9e 40bc
00000080: 70ba a6bc ac0c 563d 2d40 20bd 3141 4ebd
00000090: ff28 04bc 1f5e b7bc 6225 883b e058 eabc
000000a0: 1ad9 24bd f89b b63d fd28 12bd deae f9bc
000000b0: 34a4 63bd 05ba d9bc eaea 98bd 871f aa3c
000000c0: c5cf a4bd 460e 743d d47f dbbc 3131 153b
000000d0: c919 863c fe1c ff3c c8d1 a33d 2c24 b93c
000000e0: 7947 063d a43b 89bb 367a af3c 58c0 84bd
000000f0: 0133 2fbd 6b3c 9b3d 2884 763d e5f4 79bc
00000100: 766d e73b a89e 99bd 3aa4 6ebc 6935 36bd
00000110: d29c 4f3d 4161 afbd b480 9b3d e5cd 963d
00000120: 95a3 513d 30f9 df3d 7f1e a9bc 9855 3fbb
00000130: ce77 abbd 2b0f a93d 88a1 953d 33ad de3d
00000140: df42 d03c 9b2c cd3c b380 50bd 2787 82bc
00000150: b810 203d 2ae8 b9bd 970a cabc b9fe 75bc
00000160: fc5a 833d b5b1 28bd 5db9 543d e966 b0bd
00000170: e3e6 85bd 1e69 81bd 74ef 2b3c 69d5 0cbd
00000180: f3d9 2e3d dec6 c93d 2d79 733d 5117 833d
00000190: d4bc b2bd d3fc 44bc c835 9a3d 24be 34bd
000001a0: 001f a8bd 5953 d7bd e4fc 91bd 823a 17bc
000001b0: 54a7 e4bd 84a4 523c be0a 01bd fc15 0abd
000001c0: fea4 853c 65ef b4bc f737 a8bd c2d0 363d
000001d0: 7c85 8e3d 7c65 913d 1374 d73d f4a8 a9bc
000001e0: 0f12 283d 7a52 b03d 73f3 1a3d 3266 59bd
000001f0: 5852 5f3d 841e 4c3b 9354 8d3d e028 abbd
00000200: 2f69 86bd 9662 5a3d 2e9a 58bc ebf5 b4bd
00000210: 384a 1dbd 9b0a 3e3c 9258 e93b 80c1 70bd
00000220: e6f6 b6bd 8e67 e63c 62d8 b63d 75f4 93bd
00000230: 082e c23a 4420 2c3d 853f b03c c227 673c
00000240: 4c2a 383d 0730 583d 55c3 d73b 8b63 c03d
00000250: a991 27bc 6658 a2bd 6cb3 c73c 210f 473d
00000260: 129a 70bd 9bfb ff3a 5c66 d3bd 379e aa3d
00000270: d660 f8bd 4fed 27bc 03da 913d f651 073e
00000280: 4681 ad3d 3297 563d 714c 8ebd 4083 4ebc
00000290: df84 573d 6b05 ff3d 5790 913d 1e02 7d3d
000002a0: dea4 56bb dd9a 7fbd d5cb 023d e3ab eabd
000002b0: 1c9e 443d c9a4 aa3d d504 81bd e9e2 66bd
000002c0: 53e0 5d3d a7ef 00be cece e9bc bab3 023e
000002d0: 7160 2fbd 51c1 0bbc 574a acbd 83b3 303d
000002e0: f421 073e ce9f 85bc fe3d 78bd 6321 a5bd
000002f0: 8a11 bd3c 1b37 0a3e efce 6bbd 7f46 b9b9
00000300: b2bc 773d 7028 99bc 68ab 89bc 00da b9bb
00000310: b401 dd3d d8da c23c 04df 2dbc e4fe a4bb
00000320: ae21 aabd f731 b63d 511e a93d cdf3 8f3d
00000330: 545b 643d fd99 d53c 1f75 5d3d aa27 133e
00000340: 4bbe c23a ad93 cebc ad38 d13c 4f8a 8ebd
00000350: bbd6 6abd 1874 9bbd 8afc b73c 971a d2bc
00000360: 2cbd bd3d 50a9 e83c 9510 a43c 41bc 09bb
00000370: 3c6a 823d 5e56 653d 5ab8 bf3b 4cb7 833c
00000380: 36e0 923d 93dc 433d fdf3 eb3b 1fd7 063b
00000390: 85ab a1bc 8f8c 833d 3994 933c f841 31bd
000003a0: d6f1 823b 023e 623c 5df0 76bd 1871 763d
000003b0: ce42 b4bb 0fcd aebc 4b0b 813d 8c57 91bd
000003c0: 8b22 f83c 0609 483d 3924 50bb ce34 563c
000003d0: a1d5 963c 4445 c0bd b175 8abd 8267 8c3d
000003e0: 3f8e aa3c 8a44 f5bd 0a05 06bd efca 3b3d
000003f0: ebe6 b2bc 7f78 22be 24ed 393d 81ea ed3c
