reports/training_PMEmo_Russell4Q_gain_shift_gain_reverb_lowpass_highpass_bandpass_pitch_shift_2026-01-09_06-55-06/training_PMEmo_Russell4Q_gain_shift_gain_reverb_lowpass_highpass_bandpass_pitch_shift_2026-01-09_06-55-06.pth (torch, 157404 bytes, 10 tensors)

weight_ih_l0 f4 [192, 32]
0	0x3cc37235	0.02385817
1	0xbd0bc3e5	-0.034122366
2	0x3e54bca1	0.20775081
3	0x3c8c2401	0.017107012
4	0xbd4aa126	-0.04947009
5	0x3d27bf8c	0.040954158
6	0x3cf63f35	0.030059436
7	0xbd76ba20	-0.060236096
8	0x3dd9f5bd	0.10642574
9	0x3d1424be	0.036167853
10	0x3d932e5b	0.07186576
11	0x3dd16bd2	0.10225643
12	0xbc87f1e0	-0.016594827
13	0x3cb30d32	0.021856878
14	0x3d2081ae	0.039186172
15	0x3daf5da2	0.08562781
16	0x3df0b5c5	0.1175342
17	0x3e06902c	0.13140935
18	0x3da119d4	0.078662544
19	0x39b52a34	0.00034554454
20	0xbcf95555	-0.030436197
21	0x3da7967a	0.08182998
22	0x3d84309c	0.06454584
23	0x3cdd9dd8	0.027052805
24	0xbc4970da	-0.012294972
25	0x3db20ee1	0.08694244
26	0xbb3e75ba	-0.002906187
27	0x3da83cd6	0.082147285
28	0x3dbcc94f	0.09218084
29	0x3db86529	0.0900367
30	0x3dcacf63	0.09902837
31	0x3d835b58	0.06413907
32	0xbc99bce9	-0.018766837
33	0x3df4faf5	0.11961929
34	0xbd042b74	-0.032268003
35	0x3d7a2cbf	0.06107783
36	0x3d0be1be	0.03415083
37	0xbd2a709d	-0.041611303
38	0xbdc686be	-0.09693669
39	0xbcb8ba5a	-0.022549797
40	0xbe309c0d	-0.17247029
41	0xbc999b47	-0.0187508
42	0xbdf9fbfb	-0.122062646
43	0xbdbf0f89	-0.09329135
44	0xbdca3c4e	-0.098747835
45	0xbdb7f18c	-0.08981618
46	0xbd8bde94	-0.06829563
47	0x3e1f883e	0.15579316
48	0xbd62d2f3	-0.055376958
49	0x3d5dd09b	0.05415402
50	0xbc387665	-0.011258696
51	0x3df8d10e	0.12149249
52	0xbbf3ed37	-0.0074440497
53	0x3dcd3af6	0.100210115
54	0xbd4d1ad7	-0.050074425
55	0xbca22def	-0.019797293
56	0xbcd8ab3b	-0.026448837
57	0x3db50120	0.08838105
58	0xbc9fa458	-0.019487545
59	0x3e0d7ed2	0.1381791
60	0xbcf2490d	-0.029575849
61	0x3ddf203f	0.10894822
62	0x3cc82b2e	0.024434652
63	0x3e4ad625	0.19808252
64	0xbd8470eb	-0.0646685
65	0x3d11d519	0.035603616
66	0xbd760230	-0.06006068
67	0xbd4f307c	-0.050583348
68	0x3d3e6543	0.04648329
69	0xbd798659	-0.06091914
70	0x3a0315c1	0.0005000495
71	0xbc730e7f	-0.014834999
72	0x3c82efa1	0.015983405
73	0x3bfefad9	0.007781368
74	0xbe55f885	-0.20895584
75	0xba65efbc	-0.000877138
76	0x3daf90dc	0.085725516
77	0x3d75d767	0.060019877
78	0x3c7c598a	0.015402207
79	0xbdf6db9b	-0.12053605
80	0xbd4280a6	-0.04748597
81	0x3cd4e708	0.02598907
82	0xbe07053d	-0.13185592
83	0x3d738581	0.05945349
84	0x3e01ab0c	0.12662905
85	0x3c2b2668	0.0104461685
86	0x3d38081f	0.04492962
87	0x3e3a5af5	0.1819876
88	0xb98715cb	-0.00025765444
89	0x3d29304d	0.04130583
90	0xbd68ecf3	-0.056866597
91	0x3e4832e5	0.19550665
92	0xbd16189f	-0.036644574
93	0x3e2996e0	0.1656146
94	0x3e123dbe	0.14281365
95	0x3e18125b	0.14850752
96	0xbc37bbe0	-0.0112142265
97	0x3d99f921	0.07518221
98	0x3d1b526f	0.03792041
99	0x3dc80f33	0.09768524
100	0x3d4782db	0.048708778
101	0xbd571eec	-0.052519724
102	0xbdf3d19a	-0.11905213
103	0x3d8a9768	0.0676716
104	0xbc14d10e	-0.009083046
105	0xbdf2ca5f	-0.118550055
106	0xbd8691e4	-0.06570795
107	0xbe052d43	-0.13005547
108	0xbccf3523	-0.025293892
109	0x3bd3e0af	0.0064659934
110	0xbc762189	-0.015022644
111	0xbc78dd19	-0.015189433
112	0xbc4ac568	-0.012376167
113	0x3d0bf422	0.03416837
114	0x3da7c209	0.08191306
115	0x3db81898	0.08989066
116	0x3d983d80	0.07433605
117	0x3cddbbed	0.027067149
118	0xbc7c8f02	-0.015414955
119	0x3e34c359	0.17652644
120	0xbd438ac7	-0.04773977
121	0x3e476938	0.19473732
122	0xbcd49c9a	-0.02595358
123	0x3e45d8e0	0.19321012
124	0x3d857480	0.06516361
125	0xbd2e8db9	-0.042615626
126	0x3e08caf7	0.13358675
127	0xbce0a7a8	-0.027423695
128	0x3ce385e1	0.0277738
129	0x3c68b101	0.014202357
130	0xbd470365	-0.04858722
131	0x3df3c0db	0.11902019
132	0x3d305a4c	0.043054864
133	0xbd3459d5	-0.044030983
134	0xbdc0675d	-0.09394715
135	0x3d176993	0.036965918
136	0xbd507c38	-0.050899714
137	0xbdb1f6de	-0.08689664
138	0x3dff186a	0.124558285
139	0x3ba28d2c	0.0049606767
140	0x3e097d0a	0.13426605
141	0x3da32ad1	0.07967151
142	0xbd1a0d45	-0.03761031
143	0xba7260a6	-0.0009245969
144	0x3cb11e80	0.021620989
145	0xbd22bd06	-0.039731048
146	0xba1d3b40	-0.00059979036
147	0x3dbc8627	0.09205275
148	0xbde3bf1c	-0.111204356
149	0xbcc2000c	-0.023681663
150	0x3d48f544	0.04906203
151	0x3c846d7a	0.016165484
152	0x3dee6dc9	0.116420336
153	0x3daa9be5	0.08330516
154	0x3d74daad	0.059778858
155	0x3d94b51e	0.07261108
156	0x3d0e7e41	0.034788374
157	0x3cdddb5a	0.027082134
158	0x3cfce9f1	0.03087327
159	0x3e1eef87	0.1552106
160	0xbcea3889	-0.028591411
161	0xbd92d7ef	-0.07170092
162	0x3df8667b	0.121289216
163	0x3d955da9	0.07293255
164	0x3db2d70d	0.08732424
165	0x3cbdc704	0.023166187
166	0xbcca5ac2	-0.02470148
167	0xbdc3615c	-0.09540054
168	0xbd24ed91	-0.040265623
169	0xbc2c5024	-0.010517154
170	0xbda1fa94	-0.07909122
171	0x3d98a26c	0.074528545
172	0xbc848035	-0.016174415
173	0x3d1e8fca	0.038711347
174	0x3de2b3df	0.11069464
175	0xbd581cda	-0.05276189
176	0xbcb7ef09	-0.022452848
177	0xbcd12b78	-0.025533423
178	0xbdb138a6	-0.08653383
179	0xbd3990fd	-0.045304287
180	0x3d92b3ea	0.07163222
181	0x3dc39ee9	0.09551794
182	0xbd8e6bf6	-0.06954186
183	0xbd4be2f9	-0.049777005
184	0x3e26e267	0.16297303
185	0xbd7f92de	-0.062395923
186	0xbdbce447	-0.09223228
187	0xbdcc8bcc	-0.09987602
188	0x3da53082	0.08065893
189	0x3d58b5b7	0.05290767
190	0x3d878219	0.06616611
191	0x3d782fca	0.06059245
192	0xbd632e16	-0.055463873
193	0x3e0602d5	0.13087018
194	0x3c4d004f	0.012512281
195	0x3bd38981	0.0064556007
196	0x3cd30f31	0.02576408
197	0xbd78dd24	-0.06075777
198	0xbc924b30	-0.017858118
199	0x3ded5a05	0.115894355
200	0xbded0f6c	-0.11575207
201	0xbcff5b16	-0.031171363
202	0xbafcdadd	-0.00192913
203	0x3cb78ea0	0.022406876
204	0xbc6d05a5	-0.014466678
205	0x3d4d8abf	0.050181147
206	0x3dce3880	0.1006937
207	0xbdbcd866	-0.09220962
208	0xbc5ca755	-0.013467629
209	0x3e282c62	0.1642318
210	0xbe23a05a	-0.15979138
211	0x3bae2077	0.0053139287
212	0xbd851ffa	-0.0650024
213	0xbc7a7dcb	-0.01528878
214	0xbce8e83a	-0.028431047
215	0x3de5861c	0.1120722
216	0xbb8d1bfe	-0.0043063154
217	0xbdd83a70	-0.10558021
218	0x3dda6244	0.10663274
219	0x3b90d109	0.00441945
220	0x3d7c1b4f	0.06154948
221	0x3dfeb2e1	0.12436462
222	0x3e045452	0.1292279
223	0xba871a3a	-0.0010307499
224	0x3d821257	0.06351154
225	0x3d3f971b	0.046774965
226	0xbda9d0d0	-0.08291781
227	0x3cba9a10	0.02277854
228	0xbdd27d00	-0.10277748
229	0x3db8efb4	0.09030095
230	0xbd929c17	-0.07158678
231	0xbd2d8e20	-0.04237187
232	0xbd02878d	-0.031867553
233	0x3cc1650b	0.023607751
234	0xbc99a79f	-0.018756686
235	0x3d4e1247	0.0503104
236	0x3c738bf1	0.014864908
237	0x3d2607cb	0.040534776
238	0xbc0788e7	-0.008272386
239	0xbe0b533a	-0.13605967
240	0xbd15031b	-0.036379915
241	0x3debad81	0.115077026
242	0xbcb405dc	-0.02197545
243	0x3d89af3e	0.06722878
244	0xbd4e4d14	-0.050366476
245	0x3e106926	0.14102611
246	0x3d34748e	0.044056468
247	0x3d6dac9c	0.05802594
248	0x3e60f52c	0.21968526
249	0x3d926b8e	0.07149421
250	0xbaea8221	-0.0017891565
251	0x3db40d4c	0.08791599
252	0x3e40850e	0.18800756
253	0xbc15e58e	-0.009148968
254	0x3d761e8e	0.060087733
255	0xbd53444b	-0.0515788

weight_hh_l0 f4 [192, 64]
0	0x3d9f44a2	0.077767625
1	0xbd12ab53	-0.03580792
2	0xbd50284e	-0.050819688
3	0xbdab08b8	-0.08351272
4	0xbd239795	-0.03993948
5	0xbde161fb	-0.110050164
6	0x3dc99c38	0.098442495
7	0x3cb48448	0.022035733
8	0xbe2cfa90	-0.16892457
9	0xbdc5a0a1	-0.09649778
10	0x3d73f2a3	0.05955757
11	0x3d39be0d	0.045347262
12	0xbc4c8bdf	-0.01248452
13	0xbe28b4e7	-0.16475259
14	0xbe00254d	-0.12514229
15	0xbd863c88	-0.06554514
16	0xbb95ae05	-0.004567864
17	0xbdd8e8f0	-0.10591304
18	0xbe0b3324	-0.13593727
19	0x3d8a3258	0.067478836
20	0xbdd992a8	-0.106236756
21	0xbcf47996	-0.029843133
22	0x3d01c8af	0.031685527
23	0x3c3888d2	0.011263089
24	0xbd50f4d4	-0.051014736
25	0x3cabc37e	0.020967241
26	0x3dc3ebd5	0.09566466
27	0x3cfe85f8	0.03106974
28	0x3d3608d1	0.044442
29	0x3cb002d9	0.021485733
30	0xbd1382a0	-0.036013246
31	0xbd9f0b41	-0.077658184
32	0x3d18fd36	0.037350856
33	0x3cd2bbf1	0.025724383
34	0x3c603496	0.013684412
35	0x3d59a1a5	0.053132672
36	0x3cd02e9b	0.025412848
37	0x3a2451f8	0.0006268318
38	0xbd84b171	-0.06479157
39	0x3d4e1742	0.05031515
40	0xbb2c197e	-0.0026260312
41	0xbd7ef123	-0.062241685
42	0xbd76b203	-0.06022836
43	0x3e0a5318	0.1350826
44	0xbdcf525f	-0.10123133
45	0x3e034742	0.12820151
46	0xbe2fca4b	-0.17167012
47	0xbca293ea	-0.019845922
48	0x3e34d562	0.17659524
49	0xbdf79405	-0.12088779
50	0xbdc472a1	-0.09592176
51	0xbdfb1f2f	-0.12261807
52	0x3e14244a	0.14466968
53	0xbe2895f2	-0.1646345
54	0x3e095703	0.13412099
55	0xbe0aab1d	-0.13541837
56	0x3d882d6d	0.06649289
57	0xbcaa8634	-0.020815946
58	0xbcdbb0c6	-0.02681769
59	0xbd85eac1	-0.065389164
60	0x3d2589ff	0.040414806
61	0x3e0eb429	0.13935913
62	0xbcbc6a53	-0.022999918
63	0xbdad12f0	-0.08450878
64	0x3c759c3b	0.0149908615
65	0x3df5ead2	0.12007679
66	0x3db77db3	0.08959522
67	0xbe2c9104	-0.16852194
68	0x3c9aba35	0.018887619
69	0xbcfa6dc0	-0.030569911
70	0x3d0c8ce2	0.034314044
71	0xbdcd9b57	-0.10039394
72	0xbdac6974	-0.08418551
73	0x3c397c7f	0.011321186
74	0xbc413a04	-0.011793617
75	0xbd7ed2fc	-0.06221293
76	0x3e1d4188	0.1535703
77	0x3d9d0e2f	0.07668721
78	0xbd774740	-0.060370684
79	0xbc036ab1	-0.008021043
80	0xbe422a17	-0.18961369
81	0x3c10f840	0.00884825
82	0xbdeb343c	-0.11484572
83	0x3c91cb04	0.017797
84	0x3d770b3c	0.06031345
85	0x3ccf8a43	0.025334483
86	0xbca6312c	-0.020287119
87	0xbd10b6af	-0.03533047
88	0xbdf8f550	-0.12156165
89	0x3c3eabea	0.011637667
90	0xbc87f283	-0.01659513
91	0xbd3a4c1b	-0.045482736
92	0x3a2fe378	0.00067096157
93	0xbcc511b4	-0.024056293
94	0x3dcd0d0b	0.100122534
95	0xbde39150	-0.111117005
96	0xbc1035d8	-0.0088019
97	0xbca48eb6	-0.020087581
98	0xbd4bcc7d	-0.049755562
99	0xbce63372	-0.028100703
100	0xbd5c478e	-0.053779177
101	0xbd9dd8c6	-0.07707362
102	0xbe1e313d	-0.1544847
103	0xbc25b00f	-0.010112776
104	0xbc185ed2	-0.009299951
105	0xbbd49ccf	-0.0064884196
106	0x3d212e6c	0.039350912
107	0x3cf16ed9	0.029471802
108	0x3dc18fca	0.09451254
109	0x3d2a00a1	0.041504506
110	0xbd6ac931	-0.057320777
111	0x3dbf1db6	0.09331839
112	0x3d60b92c	0.054864094
113	0x3c9caa84	0.019124277
114	0xbdda0ba2	-0.1064675
115	0xbe3bcb00	-0.18339157
116	0x3b4a1bd6	0.0030839345
117	0xbda1aba3	-0.07894065
118	0xbdd1f224	-0.10251263
119	0xbdf7f8de	-0.121080145
120	0xbe258f0f	-0.16167854
121	0xbdf340fb	-0.118776284
122	0x3e392eaa	0.18084207
123	0xbdb94f29	-0.09048302
124	0x3c9a576d	0.018840516
125	0xbcae0a4f	-0.02124515
126	0x3dc8c50c	0.09803209
127	0x3b5daad5	0.0033823748
128	0xbe183ff7	-0.1486815
129	0xbe410fab	-0.18853633
130	0x3d527a48	0.051386148
131	0xbe2fef10	-0.17181039
132	0xbb846d93	-0.0040413826
133	0xbd94010d	-0.07226763
134	0x3d268e95	0.04066332
135	0x3dcc4c18	0.09975451
136	0x3b88ea43	0.004178317
137	0xbdebd082	-0.11514379
138	0xbdb2eb03	-0.08736231
139	0xbcfd58ac	-0.030926071
140	0x3de1c17f	0.110232346
141	0xbcb62235	-0.022233108
142	0x3d5ec432	0.054386325
143	0x3dabfe8e	0.08398162
144	0xbd8aeed0	-0.06783831
145	0x3ddff13a	0.10934682
146	0x3c826dbe	0.01592147
147	0x3ca5b439	0.020227538
148	0x3c51fa88	0.012816079
149	0x3c43284b	0.011911462
150	0x3dda9822	0.10673548
151	0xbb5d4904	-0.0033765445
152	0x3ca5bec7	0.020232571
153	0xbdc812fb	-0.09769245
154	0xbd82b149	-0.06381471
155	0x3c757568	0.014981605
156	0xbdd2599e	-0.10270999
157	0xbe07481c	-0.13211101
158	0x3caeec3d	0.021352882
159	0x3d3bb5d5	0.045827705
160	0xbda4167e	-0.080121025
161	0xbc7f8615	-0.0155959325
162	0xbe353610	-0.17696404
163	0x3da5fc79	0.08104796
164	0xbe1b795a	-0.1518301
165	0x3c224cd9	0.009906017
166	0xbd95ef6a	-0.07321055
167	0xbd96813d	-0.07348869
168	0x3e02728b	0.12739007
169	0x3dc6a8cd	0.09700165
170	0x3d8e5494	0.06949726
171	0xbcf53a43	-0.029935008
172	0xbd5e9bc7	-0.05434778
173	0x3d22c44d	0.03973799
174	0xbdca4691	-0.09876741
175	0x3c868554	0.016420998
176	0xbae7c253	-0.0017681814
177	0x3d9e5cf8	0.07732576
178	0xbd962e7b	-0.07333084
179	0xbcc3e409	-0.023912447
180	0xbd5abf0e	-0.05340486
181	0x3d06d9c8	0.032922536
182	0xbd39742a	-0.0452768
183	0x3da36a97	0.07979315
184	0xbca106eb	-0.019656619
185	0x3dba564d	0.09098492
186	0x3e021940	0.12704945
187	0x3bbde826	0.0057954965
188	0xbc3036bd	-0.010755238
189	0xbd9389b8	-0.07204002
190	0x3c31e0d4	0.010856826
191	0x3e00667a	0.12539092
192	0x3cd2adab	0.025717577
193	0x3cd7c1f1	0.026337596
194	0xbc9f382e	-0.019435968
195	0xbdc1d663	-0.09464719
196	0x3dbac6dd	0.091199614
197	0x3df543ac	0.11975798
198	0xbd95f6d0	-0.073224664
199	0xbb8b964a	-0.004259859
200	0xbc8d960a	-0.017283458
201	0xbcf13da9	-0.029448347
202	0xbd7f1fd8	-0.062286228
203	0xbd4eff57	-0.05053648
204	0xbdb00d71	-0.08596314
205	0x3d898962	0.06715657
206	0xbe017c9b	-0.1264519
207	0xbe19cdb6	-0.15019879
208	0x3c1881cf	0.0093082925
209	0xbcc14d80	-0.023596525
210	0x3db00e41	0.08596469
211	0xbd1ed546	-0.038777612
212	0xbdc29dd8	-0.095027626
213	0x3d331f4f	0.04373103
214	0x3cffafa4	0.031211682
215	0x3d1cb3ee	0.03825753
216	0xbe25c45b	-0.16188185
217	0x3dee4c30	0.11635625
218	0xbe1af5e7	-0.15132867
219	0xbd69088c	-0.056892917
220	0x3c9551ea	0.018227536
221	0xbd7b01a3	-0.061280858
222	0x3d94fcf5	0.0727481
223	0x3d2addad	0.041715313
224	0x3d85d365	0.06534461
225	0xbcfdb508	-0.030970111
226	0xbd9f85f8	-0.077892244
227	0xbd143629	-0.036184464
228	0xbdf33d57	-0.11876934
229	0xbd314aae	-0.04328411
230	0xbd413bc6	-0.047176145
231	0x3da4e9a2	0.080523744
232	0x3e2f9e68	0.17150271
233	0x3d7c4888	0.06159261
234	0xbcda920e	-0.026680972
235	0xbc583901	-0.013197185
236	0xbd21a5a9	-0.039464626
237	0xbd24e630	-0.040258586
238	0xbb543835	-0.0032382135
239	0x3cd3f2a9	0.025872545
240	0xbce54313	-0.027986085
241	0xbe4f0b35	-0.20219119
242	0xbd8747ff	-0.06605529
243	0xbbb6aae7	-0.0055745724
244	0xbc9be767	-0.01903124
245	0xbbc5f028	-0.0060405917
246	0x3c094948	0.008379288
247	0x3d773f60	0.060363173
248	0x3df101d7	0.11767929
249	0xbdbb03e9	-0.09131605
250	0x3e0c8744	0.13723475
251	0xbdbd67d4	-0.09248319
252	0x3e0a81fb	0.13526146
253	0x3ddfeb94	0.10933605
254	0xbd3d5a50	-0.046228707
255	0xbc394969	-0.011309006

bias_ih_l0 f4 [192]
0	0x3c14e689	0.009088167
1	0xbd5e7b2c	-0.054316685
2	0xbcbf31a8	-0.023339108
3	0x3cf2dd8a	0.029646654
4	0x3d9ec303	0.07752039
5	0x3d89b747	0.067244105
6	0x3e310eb2	0.17290762
7	0x3e276b01	0.16349413
8	0x3e030fcc	0.12798995
9	0xbd231b5b	-0.03982101
10	0xbd097774	-0.033561185
11	0x3e1a3573	0.15059452
12	0x3df97c78	0.12181944
13	0x3da392e3	0.07987001
14	0x3e2f8e5b	0.17144148
15	0x3de65103	0.112459205
16	0x3d9335d1	0.07187999
17	0x3cf03ab1	0.029324861
18	0x3e11f82c	0.14254826
19	0x3be2afad	0.006917915
20	0x3e1fb439	0.15596093
21	0x3d9efaee	0.07762705
22	0x3cfa0f93	0.030525004
23	0x3d43efef	0.04783624
24	0x3c2af402	0.010434153
25	0xbd052d39	-0.03251383
26	0x3d8f02bd	0.06982944
27	0x3e60430a	0.21900573
28	0xba6a62b3	-0.0008941099
29	0x3d9341e0	0.07190299
30	0xbc045f45	-0.008079355
31	0x3db0f5fb	0.08640667
32	0x3e1e52d9	0.15461291
33	0x3dbf0b2d	0.093283035
34	0x3e2a36b9	0.16622438
35	0xbc219c38	-0.009863906
36	0x3d41dde3	0.04733075
37	0x3bac7041	0.005262405
38	0x3d3b96a0	0.045797944
39	0xbc16428e	-0.009171141
40	0x3e1942cc	0.14966887
41	0xbd878eae	-0.06619011
42	0x3de6089a	0.11232109
43	0xbd0e6c1a	-0.034771062
44	0x3cd83986	0.026394617
45	0x3dd85ed0	0.10564959
46	0x3e09cb6a	0.13456503
47	0x3d1dc19b	0.038514715
48	0x3d0cb81f	0.03435528
49	0x3da977aa	0.08274777
50	0xbd0826d9	-0.033240173
51	0xbd69bae8	-0.057063013
52	0xbd51ee2a	-0.05125252
53	0x3d9ca212	0.076481
54	0xbd4eadcf	-0.050458726
55	0x3de64770	0.11244094
56	0xbc8d1938	-0.01722394
57	0x3d38ba64	0.04509963
58	0x3d9d9cf7	0.07695954
59	0x3e0e50c6	0.13898
60	0x3db509bc	0.08839747
61	0x3d593e37	0.05303785
62	0x3d31d623	0.043417107
63	0xbd04ab22	-0.032389767
64	0xbdc566b9	-0.096387334
65	0xbcb07601	-0.021540644
66	0xbd22a859	-0.03971133
67	0xbe2ba944	-0.16763788
68	0xbd941c10	-0.07231915
69	0xbbfb665e	-0.007672115
70	0x3df67973	0.12034883
71	0xbc819b7f	-0.015821217
72	0x3d3eca10	0.04657942
73	0x3daecc9d	0.08535121
74	0x3d0c1f79	0.034209702
75	0x3e1399e6	0.14414176
76	0xbd962bcb	-0.073325716
77	0xbdabf59e	-0.08396457
78	0x3c7a4d82	0.015277268
79	0x3dcc4569	0.099741764
80	0x3da707cb	0.08155783
81	0x3ca52615	0.02015976
82	0x3e063004	0.13104254
83	0x3d6f4703	0.05841733
84	0xbd3e1815	-0.046409685
85	0xbb6ed9b9	-0.003644569
86	0xbc120dda	-0.008914435
87	0x3d6d8d5e	0.057996146
88	0x3d727fad	0.059203792
89	0xbc8450f4	-0.016151883
90	0x3d699a45	0.05703189
91	0x3dca1a2f	0.098682754
92	0xbd510bbe	-0.05103659
93	0xbd85040b	-0.06494912
94	0xbd1fc723	-0.03900827
95	0xbd7eacee	-0.062176637
96	0xbd9a150f	-0.07523548
97	0x3d8e6609	0.069530554
98	0x3e24bd00	0.16087723
99	0x3de63619	0.11240787
100	0x3d93af0b	0.07211121
101	0xbd88488f	-0.066544645
102	0x3cfe80fd	0.031067366
103	0x3ce056bd	0.02738511
104	0xbb49d339	-0.0030796065
105	0x3deff7aa	0.1171716
106	0x3e41f463	0.18940882
107	0x3da72466	0.08161239
108	0x3d59db35	0.053187568
109	0x3e2c2194	0.16809684
110	0xbcab5d23	-0.020918434
111	0x3d584aa2	0.05280555
112	0x3e091ff4	0.13391095
113	0x3d3c65c0	0.045995474
114	0x3dafb3bb	0.08579203
115	0x3c408c3e	0.011752186
116	0x3d9b75b5	0.0759081
117	0x3dc4b7f6	0.096054
118	0x3d091843	0.033470403
119	0x3d8accab	0.067773186
120	0x3d78e608	0.06076625
121	0xbd2c8786	-0.042121433
122	0xbd83d0b6	-0.06436293
123	0x3d8d20a2	0.0689099
124	0x3d817719	0.06321544
125	0xbc56fda4	-0.013121996
126	0xbb2a1f93	-0.002595876
127	0x3c9b9d64	0.018995948
128	0x3da3dbcf	0.080009095
129	0xbda92141	-0.08258296
130	0xbc557314	-0.013027925
131	0xbb8a2366	-0.0042156456
132	0x3de853d2	0.113441125
133	0xbdb969d9	-0.09053392
134	0xbe182c62	-0.1486068
135	0x3c1c753c	0.009549435
136	0xbdef636e	-0.116888866
137	0xbdcef1a7	-0.10104685
138	0xbdd84e05	-0.10561756
139	0xbd502f95	-0.050826628
140	0x3d68d5aa	0.05684439
141	0xbc3049fb	-0.010759826
142	0x3bf4628d	0.007458037
143	0xbe02df72	-0.1278055
144	0xbdcc12d1	-0.099645264
145	0xbcea59ef	-0.028607337
146	0x3e2a7bd6	0.16648802
147	0xbc3b4759	-0.011430585
148	0x3d9a35cb	0.075297914
149	0xbd774734	-0.06037064
150	0xbdf7d908	-0.12101942
151	0xbd74d936	-0.05977746
152	0x3d68aa6a	0.056803145
153	0x3c7226fd	0.014779803
154	0xbced5b2e	-0.028974142
155	0x3e2e374c	0.17013282
156	0x3cda2abb	0.026631704
157	0x3b53f462	0.0032341708
158	0x3da5c710	0.08094609
159	0xbd6e8ae5	-0.05823793
160	0xbd8d4039	-0.06897015
161	0x3dae4dad	0.08510909
162	0x3db3488e	0.08754073
163	0xbdc684d0	-0.09693301
164	0x3d727e02	0.0592022
165	0x3d577a0e	0.052606635
166	0xbe17739b	-0.14790194
167	0xbd8b7285	-0.06808952
168	0xbd76ccfc	-0.060254082
169	0xbdb07320	-0.08615708
170	0xbcc45256	-0.023965042
171	0xbda851d0	-0.082187295
172	0xbcc26ded	-0.023734057
173	0x3e147920	0.1449933
174	0x3ccf0ef4	0.025275685
175	0xbc8e8d63	-0.017401403
176	0xbd330937	-0.04370996
177	0x3b861f07	0.004093054
178	0xbde3831b	-0.11108991
179	0xbca95da0	-0.020674527
180	0x3ddfcdb5	0.109279074
181	0xbda7e723	-0.08198383
182	0x3c453acb	0.012037943
183	0xbae101f2	-0.0017166717
184	0x3d75328a	0.05986265
185	0x3dca4e0a	0.09878166
186	0x3de84a3d	0.11342285
187	0xbd720d5b	-0.059094768
188	0xbddaddaa	-0.1068681
189	0xbcc6bf05	-0.024261007
190	0xbca61a41	-0.02027619
191	0xbc967f7b	-0.018371334

bias_hh_l0 f4 [192]
0	0x3d8a4511	0.067514546
1	0xbd06a270	-0.032869756
2	0x3e29893c	0.16556257
3	0x3e0e5887	0.13900958
4	0xbd20a012	-0.039215155
5	0x3cc6b9cb	0.024258515
6	0x3dea4656	0.11439197
7	0x3d3cd425	0.046100754
8	0x3e07fc76	0.132799
9	0x3df5ef58	0.12008542
10	0x3e249477	0.1607226
11	0x3df5a940	0.119951725
12	0x3d8638e6	0.06553821
13	0xbd0bac90	-0.034100115
14	0x3e2789df	0.16361187
15	0x3d5194e1	0.051167373
16	0x3db31065	0.087433614
17	0x3dcde61f	0.10053658
18	0xbbdcabe7	-0.0067343595
19	0x3d6f75d1	0.058461968
20	0x3d8807d4	0.06642118
21	0xbd064201	-0.03277779
22	0x3dfd3f7c	0.12365624
23	0x3e212b25	0.15739115
24	0xbcdc2f7d	-0.026878113
25	0xbc85b74a	-0.01632275
26	0xbd9929aa	-0.0747865
27	0x3e24a19a	0.16077271
28	0x3b819a28	0.0039551444
29	0x3e70179b	0.23446505
30	0x3ce5952d	0.028025234
31	0x3e0dff8b	0.13867013
32	0x3dd5ded7	0.10442894
33	0xbcfbbb8f	-0.030729083
34	0x3e2cd14c	0.16876715
35	0x3d78238c	0.060580775
36	0xbd25af62	-0.04045046
37	0x3df5fde7	0.12011319
38	0xbddacd4c	-0.106836885
39	0x3da29cf3	0.07940092
40	0x3e021067	0.1270157
41	0x3c5ddf51	0.013542012
42	0x3c0fd63f	0.008779108
43	0x3c882cc2	0.016622905
44	0xbcdd220e	-0.026993778
45	0x3d2891b7	0.04115459
46	0x3e23e3d1	0.16004874
47	0xbd53af4a	-0.05168084
48	0xbc923b75	-0.017850617
49	0x3dc0b9bf	0.09410428
50	0xbd1031eb	-0.035203855
51	0x3dfb57c5	0.122726
52	0x3df3c05d	0.11901925
53	0x3d7c2bf5	0.06156536
54	0x3dd5e7c6	0.10444598
55	0x3e429474	0.19001943
56	0x3ce3dd3d	0.027815456
57	0x3e1560e9	0.1458775
58	0x3d366d51	0.044537846
59	0x3ca7bc8a	0.020475645
60	0x3ad88cc8	0.0016521448
61	0x3da10c99	0.07863731
62	0x3e20f6c6	0.15719137
63	0xbdc7b32d	-0.09750972
64	0xbc73bcdd	-0.0148765715
65	0x3e20aa46	0.15689954
66	0x3b13b07a	0.0022535608
67	0xbe0d3ac5	-0.1379195
68	0xbb938985	-0.0045024776
69	0xbdd2ffa7	-0.10302668
70	0x3dabc846	0.083878085
71	0xbd3b2302	-0.045687683
72	0x3e07a6b7	0.1324719
73	0xbcae3284	-0.021264322
74	0xbd5614a0	-0.052265763
75	0xbd65d26f	-0.05610889
76	0xbdec8f24	-0.115507394
77	0xbcddb129	-0.027062016
78	0x3bd1e028	0.0064048953
79	0x3c4da7d8	0.012552224
80	0xbc3ec75a	-0.011644209
81	0x3dc8bfca	0.09802206
82	0x3e03e4ce	0.12880251
83	0x3db5ec53	0.08882966
84	0x3e1efc8c	0.15526026
85	0x3dc36a38	0.09541744
86	0xbdafc3e8	-0.08582288
87	0x3d8152dc	0.06314632
88	0x3d2b6e11	0.041853014
89	0xbd26fc34	-0.040767863
90	0xbd9363d9	-0.07196779
91	0x3dfb122d	0.12259326
92	0x3d870ae4	0.06593874
93	0x3e28d3cd	0.16487046
94	0x3d8ab412	0.06772627
95	0x3d40f81c	0.047111616
96	0xbcd5157b	-0.02601122
97	0x3dc77c49	0.097405024
98	0x3e2b02eb	0.16700332
99	0xbcfb6a5f	-0.03069037
100	0x3e0ca507	0.13734828
101	0x3d4012ff	0.046893116
102	0xbd88f16c	-0.066866726
103	0x3e481146	0.1953784
104	0x3e1b1844	0.15145975
105	0x3ab98650	0.0014154408
106	0x3e54ed44	0.20793635
107	0x3c63aa8c	0.013895642
108	0xbc8b484f	-0.017002253
109	0x3e228b1c	0.15873379
110	0x3d00dee1	0.031462554
111	0x3e13db04	0.14439017
112	0xbd4081ca	-0.046998776
113	0x3c5d90bf	0.01352328
114	0xbb80585e	-0.003916784
115	0x3d55cb73	0.052195977
116	0x3e3470e0	0.17621183
117	0xbd914f50	-0.07095206
118	0xbdc2ea23	-0.09517314
119	0x3db41268	0.08792573
120	0x3d955b0b	0.07292756
121	0x3da9bc5b	0.08287879
122	0xbda85ca0	-0.08220792
123	0x3dc44bf6	0.09584801
124	0x3d86557a	0.06559272
125	0x3d428174	0.047486737
126	0xbc9b2bac	-0.018941723
127	0x3e5119c4	0.20419985
128	0xbcf42a08	-0.029805198
129	0xbd2c3775	-0.042045075
130	0x3d9d9aef	0.07695567
131	0x3d29c5ab	0.041448276
132	0xbdede4d6	-0.116159126
133	0xbe041e67	-0.12902223
134	0x3d1a5a53	0.037683796
135	0x3d8eafe5	0.06967143
136	0xbdf23d0e	-0.118280515
137	0xbe1c6861	-0.15274192
138	0x3cadf269	0.021233754
139	0x3d5e0128	0.05420032
140	0x3cf2c518	0.029634997
141	0xbdb28a24	-0.087177545
142	0xbcc31d5c	-0.02381771
143	0xbde290eb	-0.11062797
144	0xbe31ec3a	-0.1737527
145	0xbdf88f28	-0.1213668
146	0x3d06ef1c	0.032942876
147	0xbdddbc27	-0.10826903
148	0xbd08b4f5	-0.0333757
149	0xbd4b9dcf	-0.049711045
150	0xbdc42240	-0.09576845
151	0xbd028ffb	-0.03187559
152	0x3d6aff19	0.057372186
153	0x3e5789db	0.21048681
154	0xbdab9228	-0.083774865
155	0x3e099cb6	0.13438687
156	0xbc32a69f	-0.010903983
157	0xbe17e1ba	-0.14832202
158	0xbe331941	-0.17490102
159	0xbe4a2f23	-0.19744544
160	0xbd0c8e7a	-0.034315564
161	0x3d6a4422	0.057193883
162	0x3deb7d72	0.11498536
163	0x3db21767	0.0869587
164	0xbcb03fb4	-0.021514751
165	0xbda76348	-0.08173233
166	0xbd9ce53d	-0.07660911
167	0x3dcd0b31	0.100119
168	0x3e0e2b6d	0.13883753
169	0x3d231b43	0.03982092
170	0xbaa9eb96	-0.0012963887
171	0xbcf3af0f	-0.02974656
172	0x3bcc1bd1	0.006228902
173	0x3c273359	0.010205113
174	0xbe1203e2	-0.14259294
175	0xbd329803	-0.043602
176	0x3dc903ce	0.09815179
177	0xbd0998ac	-0.033592865
178	0xbdce4bdb	-0.10073062
179	0xbd091d3f	-0.033475157
180	0xbcdb8c4b	-0.026800295
181	0xbcc53fbd	-0.024078244
182	0x3e458e42	0.19292548
183	0xbdaf331c	-0.0855467
184	0x3e23e449	0.16005053
185	0xbe3d53a6	-0.1848894
186	0xbb4ace3e	-0.0030945684
187	0x3dc7498f	0.09730827
188	0xbc056027	-0.0081406
189	0xbbee3980	-0.007270038
190	0xbe133747	-0.14376555
191	0xbdae761a	-0.0851862

weight_ih_l0_reverse f4 [192, 32]
0	0xbd423e8c	-0.04742293
1	0x3de4ad0f	0.11165821
2	0x3d76764b	0.060171407
3	0x3dd44a61	0.10365749
4	0xbda03dae	-0.078242645
5	0xbde20a1f	-0.11037087
6	0x3d6adfa9	0.057342205
7	0x3dd72c2d	0.10506473
8	0xbcb370fe	-0.021904465
9	0x3d7f566f	0.06233829
10	0xba3bb336	-0.00071601884
11	0x3cfd97ab	0.03095611
12	0x3d45d68b	0.048300307
13	0x3d5406ee	0.05176442
14	0xbc477b7f	-0.01217544
15	0x3db0517c	0.08609292
16	0xbd57ef8e	-0.05271869
17	0x3e0bfd04	0.13670737
18	0x3d889126	0.0666831
19	0x3bd6abbf	0.0065512354
20	0x3d9d6afd	0.07686422
21	0xbcfc7e6a	-0.030821998
22	0xbd1a95cc	-0.037740514
23	0xbd0a9fe8	-0.033843905
24	0x3dad8730	0.084730506
25	0xbd7f4c34	-0.062328532
26	0x3ce8c42e	0.028413858
27	0x3d434a87	0.047678497
28	0xbd590d8b	-0.05299143
29	0xbda285c4	-0.0793567
30	0x3e03211d	0.128056
31	0x3cd4cb1c	0.025975756
32	0xbd8e59af	-0.069506995
33	0xbc30926a	-0.010777095
34	0x3de99862	0.11406018
35	0xbd8739cb	-0.0660282
36	0xbdcc6783	-0.09980681
37	0x3d7917b0	0.060813606
38	0x3d714fb7	0.058913913
39	0x3d125fd8	0.035735935
40	0x3c289b84	0.010290984
41	0xbd9f9d20	-0.07793641
42	0xbd7b5981	-0.061364654
43	0xbd3af049	-0.04563931
44	0xbd69b61e	-0.057058446
45	0xbe1aa5a0	-0.15102243
46	0xbde61afa	-0.11235614
47	0x3dec611c	0.1154196
48	0x3c88c5a2	0.016695801
49	0x3e4ae0f8	0.19812381
50	0x3d4e0b9d	0.050304044
51	0x3b43ce8c	0.002987775
52	0xbc063b53	-0.008192855
53	0x3deebc60	0.116570234
54	0xbd2f5a1c	-0.042810544
55	0xbd7480a9	-0.059693012
56	0x3d82ddfa	0.06389995
57	0x3c92e1f8	0.017930016
58	0xbb7ec6e4	-0.0038875872
59	0x3dbb71bd	0.09152553
60	0xbd0a9fcc	-0.0338438
61	0x3c446ae5	0.011988376
62	0xbbdfbf80	-0.0068282485
63	0xbbab3ac7	-0.0052255127
64	0x3b9ccce3	0.0047851666
65	0x3e06a261	0.1314788
66	0x3d8db9ae	0.06920181
67	0x3e02be00	0.12767792
68	0xbd30bc0b	-0.04314808
69	0xbceec530	-0.02914676
70	0x3d9474bb	0.07248827
71	0xbd6a0d46	-0.057141565
72	0xbe18495b	-0.14871733
73	0x3d82b82a	0.06382783
74	0x3c4167ab	0.0118045015
75	0xbd6f2e8f	-0.05839401
76	0x3da207ee	0.07911669
77	0x3c35758b	0.011075388
78	0xbcb48487	-0.02203585
79	0x3da045cd	0.078258134
80	0x3d257296	0.04039248
81	0x3df5c979	0.120013185
82	0xbb344038	-0.0027504098
83	0x3dd82616	0.10554139
84	0x3d951ec2	0.07281257
85	0x3dc5f668	0.09666139
86	0xbdb1c79e	-0.08680652
87	0x3b567442	0.0032723104
88	0x3e0bcc3d	0.1365213
89	0x3de3f3cd	0.11130486
90	0x3de86e34	0.113491446
91	0x3de0e033	0.109802626
92	0x3d2c1658	0.042013496
93	0xbd80b3ae	-0.06284271
94	0x3cb34e14	0.021887816
95	0x3e095857	0.13412605
96	0xbd6979d4	-0.05700095
97	0x3d905fc2	0.07049514
98	0x3da24922	0.07924105
99	0x3cf291a7	0.029610468
100	0xbc421816	-0.011846563
101	0xbe12a059	-0.1431898
102	0x3d843bbb	0.06456705
103	0xbe086158	-0.13318384
104	0xbd055771	-0.032554094
105	0x3d45e935	0.048318107
106	0xbdb40135	-0.08789293
107	0x3dddb137	0.10824817
108	0xbde53568	-0.11191827
109	0x3d1efd02	0.038815506
110	0x3c08978b	0.008336912
111	0x3d5c8124	0.053834096
112	0x3d262b6d	0.040568758
113	0x3e048de9	0.1294476
114	0xbd31be54	-0.0433944
115	0xbddfe9d9	-0.10933275
116	0xbce070ed	-0.027397597
117	0x3e1fa2bf	0.15589426
118	0x3e5c20af	0.21496843
119	0xbc892a67	-0.016743852
120	0x3e195797	0.14974819
121	0x3ca79a35	0.020459274
122	0x3d264331	0.040591422
123	0x3e645c6c	0.22300881
124	0xbbc04141	-0.005867154
125	0xbcf2f106	-0.029655945
126	0x3e2a4503	0.16627888
127	0x3d944427	0.072395615
128	0x3cc90ae3	0.024541324
129	0x3d537084	0.051620975
130	0xbcbb6239	-0.022873985
131	0xbd50b836	-0.050956927
132	0xbdf71708	-0.1206494
133	0x3d897ad0	0.06712878
134	0x3d2824d8	0.041050762
135	0xbcbc32de	-0.022973474
136	0xbc9086d8	-0.017642424
137	0x3c8625bb	0.016375413
138	0xbe07ebdd	-0.13273568
139	0x3d82b7d8	0.06382722
140	0x3c34646e	0.011010272
141	0x3d82695c	0.06367752
142	0x3d153752	0.03642971
143	0xbd04b300	-0.03239727
144	0x3d5e0b4d	0.054209996
145	0x3db99567	0.09061699
146	0xbca7d6f5	-0.020488242
147	0xba5cbb79	-0.00084202696
148	0x3d59d74f	0.05318385
149	0xbd429a74	-0.04751058
150	0xbb911d0c	-0.0044285115
151	0x3de029f6	0.109455034
152	0x3d0608dd	0.032723296
153	0xbd455ef7	-0.04818627
154	0x3d992293	0.07477298
155	0x3d349fa6	0.044097565
156	0x3adcfe04	0.001686037
157	0x3d2162cd	0.039400864
158	0x3d8221bb	0.0635409
159	0x3e2c4450	0.16822934
160	0x3d1c578d	0.038169432
161	0x3caedd50	0.021345764
162	0xbd20c648	-0.039251596
163	0x3e2affa9	0.16699089
164	0x3de36bb0	0.11104524
165	0x3bbf4b16	0.0058378084
166	0x3d769501	0.060200695
167	0x3ddbf7fb	0.10740658
168	0xbd190ed2	-0.03736765
169	0x3db7abfc	0.0896835
170	0x3d20214e	0.03909426
171	0xbc6bdb2b	-0.014395515
172	0xbd4dfa57	-0.05028757
173	0xbde4d73f	-0.111738674
174	0x3d69373d	0.056937445
175	0xbd8d2dff	-0.06893539
176	0x3cbff9e0	0.02343458
177	0x3d979105	0.07400707
178	0x3dbc6486	0.09198861
179	0x3dac5bf0	0.08415973
180	0xbc5d7c1b	-0.013518359
181	0xbd2a7465	-0.04161491
182	0x3db2ce39	0.0873074
183	0xbdac984c	-0.08427486
184	0xbc214a8a	-0.009844432
185	0xbd3b5071	-0.04573101
186	0x3c914a9f	0.017735777
187	0x3e185a3f	0.14878176
188	0xbd30f204	-0.043199554
189	0x3e02c13c	0.12769026
190	0x3cc5dadb	0.02415221
191	0x3d5a85c3	0.05335022
192	0x3d2e330a	0.042529143
193	0xbcd40ef2	-0.025886033
194	0x3c112b8c	0.00886048
195	0x3d2b4f7d	0.041823853
196	0xbe0f81aa	-0.14014307
197	0x3dfb4160	0.12268329
198	0x3da7080e	0.08155833
199	0xbe001930	-0.12509608
200	0x3d95ba5d	0.073109366
201	0xbdade40a	-0.084907606
202	0xbe108d15	-0.14116319
203	0x3dda99d8	0.106738746
204	0xbce499c1	-0.027905347
205	0xbde10bf5	-0.10988609
206	0x3ddcf987	0.10789781
207	0x3a313bab	0.00067609054
208	0xbddb4a79	-0.10707564
209	0xbdd24dc6	-0.1026874
210	0x3dc01e84	0.093808204
211	0x3d7de38f	0.061984595
212	0xbdef5be3	-0.11687448
213	0x3d1eb106	0.03874304
214	0x3d280931	0.04102439
215	0xbde9321e	-0.11386512
216	0xbd8b57ee	-0.06803881
217	0xbcdbb347	-0.026818885
218	0xbdb30c4a	-0.08742578
219	0xbd0e052d	-0.034672905
220	0x3bac1540	0.0052515566
221	0xbd53955e	-0.05165612
222	0x3c72402e	0.014785809
223	0xbd790df6	-0.06080433
224	0x3dc7ce02	0.0975609
225	0xbc8d251c	-0.01722961
226	0x3db405a6	0.0879014
227	0x3dd5b9a1	0.104357965
228	0xbdb21f47	-0.08697372
229	0xbdd31856	-0.10307376
230	0xbd9d1f96	-0.0767204
231	0x3daa3fdc	0.083129615
232	0xbca4a772	-0.020099375
233	0x3df00f75	0.11721698
234	0xbca98a45	-0.020695815
235	0x3dd0f1a9	0.10202343
236	0xbd639347	-0.055560376
237	0xbe01df6b	-0.12682883
238	0x3b216384	0.0024625966
239	0x3d9e3ecf	0.077268235
240	0xbd598601	-0.05310631
241	0x3d952335	0.07282106
242	0x3d546f39	0.051863883
243	0x3dc6948c	0.09696302
244	0x3d90dfa1	0.07073904
245	0x3d9ab28d	0.07553587
246	0x3dbb4e3d	0.09145782
247	0x3c293cd2	0.010329442
248	0xbd939fb9	-0.07208199
249	0xbdd28107	-0.10278516
250	0xbd3a7ddf	-0.045530196
251	0xbb91f77e	-0.004454552
252	0x3e13a222	0.14417318
253	0x3ba55d14	0.005046496
254	0x3c45212a	0.012031833
255	0x3e06a30e	0.13148138

weight_hh_l0_reverse f4 [192, 64]
0	0x3d63e209	0.055635486
1	0x3e05e3ce	0.13075182
2	0x3d3f99ee	0.04677766
3	0x3dc1a68a	0.09455593
4	0x3df634a8	0.12021762
5	0x3d9a444e	0.07532559
6	0xbda13497	-0.07871359
7	0x3e18a10c	0.14905185
8	0x3e35b596	0.17745051
9	0xbcb0c6ce	-0.021579172
10	0xbd972653	-0.07380357
11	0x3d9b1a32	0.07573356
12	0xbc9b33ce	-0.0189456
13	0x3dc6b12b	0.09701761
14	0xbdf09296	-0.11746709
15	0x3dad73e5	0.08469371
16	0x3e23d7c0	0.16000271
17	0xbdbeffd1	-0.09326137
18	0x3cdcbc23	0.02694518
19	0x3d067729	0.032828484
20	0x3e0a29b6	0.13492474
21	0x3d83c3d5	0.06433836
22	0xbd1d7e3e	-0.038450472
23	0xbd1f0411	-0.038822237
24	0x3c0ba4a7	0.008523143
25	0x3c107c86	0.008818751
26	0xbe26e35e	-0.16297671
27	0x3d5da3a4	0.054111138
28	0xbe078b8b	-0.13236825
29	0xbda4828e	-0.08032714
30	0xbd773963	-0.060357463
31	0xbd459e10	-0.048246443
32	0xbdab2f18	-0.08358592
33	0x3c2256e6	0.0099084135
34	0xbd2a1b23	-0.041529786
35	0xbe03fa1b	-0.12888376
36	0xbe336bfb	-0.1752166
37	0xbc66d549	-0.014088937
38	0x3dd790e4	0.105256826
39	0xbc1e3094	-0.009655137
40	0x3d776035	0.060394485
41	0xbdb12c9e	-0.08651088
42	0x3dcd2778	0.10017294
43	0x3e628172	0.22119692
44	0xbd0bcdaa	-0.034131683
45	0xbe15adc1	-0.14617063
46	0xbd0eda5c	-0.034876212
47	0x3d680bcf	0.056651887
48	0xbea9a47f	-0.33133313
49	0x3dc745bc	0.09730098
50	0xbbcd1c8b	-0.006259506
51	0xbd03cb48	-0.032176286
52	0x3db94fcf	0.090484254
53	0x3da2f2bd	0.07956455
54	0x3ce6e54c	0.02818551
55	0xbd777d83	-0.06042243
56	0xbdb77ac9	-0.08958966
57	0xbcb95cc0	-0.022627234
58	0x3d481574	0.048848584
59	0x3d474fc3	0.04866005
60	0xbd8e3808	-0.06944281
61	0xbe185e61	-0.14879753
62	0x3e2bef91	0.16790606
63	0x3e4f7d1a	0.20262566
64	0xbc3160dd	-0.010826317
65	0xbc9892e9	-0.01862474
66	0x3dabcdbb	0.08388849
67	0xbdac7580	-0.08420849
68	0x3c4fd8e7	0.012685991
69	0x3da3ac66	0.07991867
70	0xbdca2ce1	-0.09871841
71	0x3ddedf04	0.108823806
72	0xbd720469	-0.059086237
73	0x3c705c18	0.014670394
74	0xbda6d1dd	-0.08145497
75	0xbd93bff9	-0.0721435
76	0xbe19b45b	-0.15010206
77	0x3d09c678	0.03363654
78	0x3d87cc37	0.06630748
79	0xbca1129a	-0.01966219
80	0x3e08d2ef	0.13361715
81	0xbdb3d019	-0.08779926
82	0x3bde984c	0.0067930575
83	0x3cdb8ad2	0.026799593
84	0xbdaa306b	-0.08310016
85	0x3df7b05b	0.12094184
86	0x3e38fa23	0.1806417
87	0x3dd50624	0.10401562
88	0xbc0cd8dc	-0.008596625
89	0x3dd2a6db	0.102857314
90	0xbcd82909	-0.026386755
91	0xbd397b04	-0.045283332
92	0xbd5eb128	-0.054368168
93	0xbb64f4ab	-0.0034935873
94	0xbcfd71e5	-0.030938098
95	0x3e037fda	0.1284174
96	0x3e016ad9	0.12638415
97	0x3d5637e5	0.0522994
98	0xbd0b63f5	-0.034030873
99	0x3d338dde	0.043836467
100	0x3df652d4	0.12027517
101	0xbd298384	-0.04138519
102	0xbcddf00d	-0.027092004
103	0x3dd6fec5	0.10497812
104	0xbd1b3f20	-0.037901998
105	0x3d718e7b	0.05897377
106	0x3c9527be	0.018207427
107	0xbdaf9323	-0.08572986
108	0x3bd7d495	0.006586621
109	0xbdcbb50b	-0.099466406
110	0xbd25d441	-0.040485624
111	0x3b98c179	0.0046617356
112	0xbe361ec3	-0.17785172
113	0xbd732832	-0.059364505
114	0x3dba28d9	0.09089822
115	0x3dd2220b	0.102603994
116	0xbc7c3e23	-0.015395674
117	0x3c1b01e8	0.009460904
118	0x3da464a1	0.08027006
119	0xbc45f90e	-0.012083305
120	0xbe1e0488	-0.15431416
121	0x3e1ea62d	0.15493079
122	0xbcf22213	-0.029557263
123	0xbd014213	-0.031557154
124	0xbdcc1d80	-0.09966564
125	0xbe29d4db	-0.16585104
126	0x3e8e4052	0.27783448
127	0xbd6750e6	-0.056473635
128	0xbd426b8a	-0.04746584
129	0x3de39081	0.11111546
130	0xbdead03f	-0.11465501
131	0xbcbe2cf0	-0.023214787
132	0x3e3c8cba	0.18413058
133	0x3e0d55c4	0.13802248
134	0x3cf71ad5	0.030164162
135	0xbd5c8498	-0.05383739
136	0x3e0c4458	0.13697946
137	0xbd59856a	-0.05310575
138	0xbe0bf912	-0.13669232
139	0x3cf22276	0.029557448
140	0xbe4af15c	-0.19818634
141	0x3d101feb	0.03518669
142	0xbd97e025	-0.07415799
143	0x3e0772e9	0.13227428
144	0x3d170e81	0.036879066
145	0xbe12b779	-0.14327802
146	0x3bf194db	0.0073724813
147	0xbc3cb853	-0.011518556
148	0x3d9ce100	0.07660103
149	0xbd2ce8ae	-0.04221409
150	0xbdb951c2	-0.09048797
151	0xbd2d03ef	-0.04224008
152	0xbe08a705	-0.13344963
153	0x3df89c9f	0.12139248
154	0x3e20ec96	0.1571525
155	0xbd6f1c16	-0.058376394
156	0x3d3749ff	0.044748303
157	0xbdb3b9f0	-0.08775699
158	0xbda28267	-0.079350285
159	0xbda146e4	-0.078748494
160	0xbc2f8d26	-0.010714805
161	0xbdce69f9	-0.100788064
162	0x3da84c56	0.08217685
163	0xbc97ca1f	-0.018528996
164	0xbdd8f2da	-0.10593195
165	0x3d4b41d6	0.049623333
166	0xbdf5f6ba	-0.1200995
167	0x3d8693bc	0.06571147
168	0xbd86d892	-0.06584276
169	0xbe2bfe0f	-0.16796134
170	0xbc91cc60	-0.017797649
171	0xbc138adf	-0.009005277
172	0x3de2c69d	0.11073039
173	0xbe1ce603	-0.15322118
174	0x3d9fd3a9	0.07804043
175	0x3e0d1a5b	0.13779585
176	0x3d9b0d3f	0.07570886
177	0x3d3730f6	0.044724427
178	0xbda1a226	-0.078922555
179	0xbdd2f14d	-0.10299931
180	0x3dd0aeb4	0.10189572
181	0x3d4ad03f	0.049515005
182	0x3ca64939	0.020298587
183	0xbd2811be	-0.041032545
184	0xbdfb5d6b	-0.122736774
185	0x3d341554	0.043965653
186	0x3e1222ac	0.14271039
187	0x3d9dc1e2	0.07702996
188	0x3d93be6c	0.072140545
189	0xbc8fc5ab	-0.01755031
190	0xbe1ebfb6	-0.1550282
191	0x3d1c5526	0.03816714
192	0xbdc2b36d	-0.09506879
193	0x3d605d1d	0.0547763
194	0xbd2adf66	-0.041716956
195	0x3d850e34	0.0649685
196	0x3e0d5010	0.13800073
197	0x3e711ec3	0.23546891
198	0xbbdb0d1b	-0.006684912
199	0xbde1aeae	-0.11019646
200	0x3e328168	0.17432177
201	0xbd0ee8f4	-0.03489013
202	0x3c1bf519	0.009518885
203	0xbebbf80c	-0.36712682
204	0xbe324c84	-0.17412001
205	0x3d8effc2	0.06982376
206	0xbdf88bb2	-0.1213602
207	0x3e8b81cd	0.27247468
208	0xbd45ea17	-0.04831895
209	0xbe20c77a	-0.15701094
210	0xbe52ffd0	-0.20605397
211	0x3d4f56ee	0.050620012
212	0x3d9b0d79	0.07570929
213	0x3e1aecb6	0.1512936
214	0x3e31e31b	0.1737179
215	0x3db701f1	0.08935917
216	0xbd4097d7	-0.047019806
217	0x3d27eb2c	0.04099576
218	0x3e7d2e66	0.24724731
219	0x3e0e447b	0.1389331
220	0xbe2a930f	-0.16657661
221	0xbdf32b62	-0.11873509
222	0x3dadd1a1	0.08487249
223	0x3ded8f9f	0.11599659
224	0x3d74423b	0.059633475
225	0xbd97d775	-0.07414142
226	0x3e730f47	0.23736297
227	0x3df6cbe1	0.120506056
228	0x3d689790	0.056785166
229	0x3e15530e	0.14582464
230	0x3ce1aeb3	0.027549123
231	0xbe8d00c4	-0.27539647
232	0xbe0a74f3	-0.13521175
233	0xbd48a14f	-0.04898196
234	0x3de20f05	0.11038021
235	0xbb5b8d81	-0.003350109
236	0x3dd37624	0.10325268
237	0xbe463c5d	-0.19358964
238	0x3cfb050c	0.030642055
239	0x3a506873	0.00079501345
240	0xbd8b4e29	-0.06802017
241	0xbcb37ca2	-0.021910015
242	0x3cccbe12	0.024992976
243	0x3d94da6e	0.07268225
244	0xbcc031c6	-0.023461234
245	0x3aaa6e46	0.0013002835
246	0x3cd60b6b	0.026128491
247	0xbbaa82d0	-0.0052035823
248	0xbd881f28	-0.066465676
249	0x3de2e939	0.1107964
250	0x3e6fe47c	0.23427004
251	0x3e9b912d	0.30384198
252	0xbd905b69	-0.07048685
253	0xbd52ee1c	-0.05149661
254	0xbd7450e7	-0.059647467
255	0xbd5e633c	-0.054293856

bias_ih_l0_reverse f4 [192]
0	0x3e247633	0.16060714
1	0xbd13b31b	-0.03605948
2	0x3d98438f	0.07434761
3	0x3dce128c	0.10062131
4	0x3c11788a	0.008878836
5	0x3de5b6b4	0.112164885
6	0xbe10a299	-0.14124526
7	0xbc94beda	-0.018157411
8	0x3db9807e	0.09057711
9	0x3c158e09	0.009128102
10	0x3ca27b3a	0.01983415
11	0x3c9cc9a1	0.019139113
12	0x3d8cd606	0.06876759
13	0x3de1eec8	0.11031872
14	0xbc2568d6	-0.010095796
15	0x3c19ae33	0.009379911
16	0xbd526cb8	-0.051373214
17	0xbc36fa91	-0.011168138
18	0x3d355993	0.044274878
19	0xbd346b63	-0.044047724
20	0x3da858ae	0.08220039
21	0x3dae02ef	0.08496653
22	0x3dfe219b	0.124087535
23	0x3c8681f7	0.016419394
24	0x3e1dabb0	0.15397525
25	0xbd1594ed	-0.03651898
26	0x3dcd48ea	0.10023673
27	0xbcdaceff	-0.026710032
28	0xbc5c3207	-0.013439662
29	0xbcf3a7be	-0.029743072
30	0x3cfb862c	0.030703627
31	0xbdcd6b19	-0.10030193
32	0x3d64fbcb	0.05590419
33	0xbce14bcb	-0.027501961
34	0x3e0a4c35	0.13505633
35	0xbca4d4fb	-0.020121088
36	0xbddd8619	-0.10816593
37	0x3e00f32a	0.1259276
38	0x3dbe6112	0.092958584
39	0x3cdff88b	0.027340194
40	0x3dc7fb5a	0.097647384
41	0x3c62d789	0.013845333
42	0x3e5dd992	0.21665028
43	0xbc40e5d5	-0.011773546
44	0xbc0ba882	-0.008524062
45	0x3dce8e65	0.10085753
46	0xbd55550b	-0.052083056
47	0x3dcc8c14	0.09987655
48	0xbdb0accb	-0.08626708
49	0xbd85fd5a	-0.065424636
50	0xbcea1ff4	-0.02857969
51	0x3c7a8961	0.015291543
52	0xbde6b1f1	-0.112644084
53	0x3ce0032b	0.02734526
54	0xbc072bd8	-0.008250199
55	0xbd1f40a3	-0.03888
56	0x3e083d6b	0.13304679
57	0x3da6f3c1	0.08151961
58	0xbdb270e2	-0.08712937
59	0x3de20188	0.11035448
60	0x3e07a619	0.13246955
61	0x3e4f6f7e	0.20257375
62	0x3e169677	0.14705835
63	0xbd570563	-0.05249537
64	0x3e0a8ace	0.13529512
65	0xbc875b43	-0.01652301
66	0x3dc84abd	0.0977988
67	0x3deaf1c8	0.11471897
68	0x3e234b63	0.15946727
69	0xbd990a91	-0.074727185
70	0xb954facc	-0.00020311325
71	0x3dfa24b1	0.122140296
72	0x3e2c1113	0.16803388
73	0x3e21bebb	0.15795414
74	0x3e037fb7	0.12841688
75	0x3e4439b1	0.19162633
76	0xbc9ba615	-0.019000093
77	0xbcc77534	-0.024347879
78	0xbdd10a52	-0.102070466
79	0x3cfe1750	0.031016976
80	0x3d799c51	0.06094009
81	0xbd285678	-0.041098088
82	0x3de1c4f0	0.11023891
83	0x3e1115de	0.14168498
84	0x3dcb70f4	0.099336535
85	0x3d13d142	0.036088236
86	0xbde9d1c6	-0.11416964
87	0xbce3db92	-0.02781466
88	0xbce85ab8	-0.02836357
89	0xbd91cbec	-0.07118973
90	0x3d1f8b1b	0.03895102
91	0x3d622775	0.05521341
92	0x3e366f08	0.17815793
93	0xbd6eba20	-0.05828297
94	0xbdd1d563	-0.102457784
95	0xbd9447d4	-0.07240263
96	0x3e5849fe	0.21121976
97	0x3c82edd8	0.015982553
98	0x3e10da18	0.14145696
99	0x3e0fe4f0	0.14052176
100	0x3da905a7	0.08253031
101	0x3b8218ec	0.003970256
102	0xbcdfc518	-0.027315661
103	0x3daacfc6	0.08340411
104	0x3d5221d5	0.051301796
105	0xbd984bd3	-0.07436337
106	0x3dbfa682	0.09357931
107	0x3e5e31e1	0.21698715
108	0xbdd76cb0	-0.10518777
109	0xbd9322f1	-0.07184399
110	0x3ddc72cb	0.107640825
111	0x3c12b040	0.008953154
112	0xbd8d34b1	-0.06894816
113	0x3d593c11	0.0530358
114	0xbdb53009	-0.088470526
115	0xbdf3c6bd	-0.11903141
116	0x3cd49b81	0.025953056
117	0x3d5e6930	0.054299533
118	0xbdb0d8f2	-0.08635129
119	0xbcc8ae9f	-0.024497328
120	0x3d9c7229	0.07638962
121	0x3dd9b638	0.106304586
122	0x3d6ee9a5	0.05832829
123	0x3d7a29b5	0.06107493
124	0x3e09573b	0.13412182
125	0x3b3c9dfb	0.0028780687
126	0x3d9dab3b	0.07698675
127	0xbb763535	-0.0037568335
128	0x3cd2d6b3	0.025737142
129	0x3d9e6a6f	0.07735144
130	0xbe0efb2d	-0.13963003
131	0x3de7abf2	0.11312093
132	0x3cc0d20d	0.02353766
133	0x3cd417e6	0.025890302
134	0xbd690afd	-0.056895245
135	0x3dcd3177	0.100192
136	0x3cef1c88	0.02918841
137	0xbdc5d940	-0.09660578
138	0x3d615fe3	0.055023085
139	0xbcadc1c5	-0.02121056
140	0x3d6bc602	0.05756188
141	0x3d39e45d	0.0453838
142	0xbe335d15	-0.17515977
143	0xbc14e240	-0.009087145
144	0x3db0e3f7	0.08637231
145	0x3c281843	0.010259691
146	0xbdbff387	-0.09372621
147	0xbbe9fb88	-0.0071405806
148	0x3c7136a0	0.014722496
149	0x3e091109	0.13385405
150	0xbd3f2ab2	-0.046671577
151	0x3dccf17e	0.100069985
152	0x3d8a01dc	0.06738636
153	0xbd9c530f	-0.0763303
154	0xbb7cb215	-0.0038558294
155	0x3daed799	0.08537216
156	0x3b61bd22	0.0034445007
157	0x3d7a20a4	0.061066285
158	0x3df3ffd1	0.119140275
159	0x3e0c9a9e	0.13730857
160	0xbd76edf2	-0.060285516
161	0xbba24469	-0.004952003
162	0xbd155384	-0.0364566
163	0xbc50c505	-0.012742286
164	0xbd5dbb12	-0.054133482
165	0xbd3306f1	-0.04370779
166	0x3cc8cf49	0.024512904
167	0x3dc37143	0.09543087
168	0xbce211a3	-0.0275963
169	0xbdffaca8	-0.124841034
170	0x3d912e2d	0.070888855
171	0x3d56f2fe	0.05247783
172	0xbc8b0f23	-0.016974991
173	0xbe0efa6f	-0.1396272
174	0x3d0910c4	0.033463255
175	0x3df5365f	0.11973261
176	0xbc4dcfd2	-0.012561755
177	0xbe3010d8	-0.17193925
178	0xbe044760	-0.12917852
179	0x3d075f72	0.033050008
180	0xbc8f68ff	-0.01750612
181	0x3db71dcd	0.08941231
182	0xbd64deb5	-0.055876452
183	0x3df29bf7	0.11846154
184	0x3dce4bf0	0.10073078
185	0xbc4c2e75	-0.012462248
186	0x3df7d56a	0.121012524
187	0xbbf871d2	-0.007581928
188	0xbd06a9fc	-0.032876953
189	0xbde9901c	-0.1140444
190	0xbbfd2d0a	-0.0077263163
191	0xbcf5bf04	-0.02999831

bias_hh_l0_reverse f4 [192]
0	0x3ceb3ef1	0.028716536
1	0x3dab6b20	0.08370042
2	0x3d8ae2d3	0.067815445
3	0x3e1feca1	0.1561761
4	0xbd292be1	-0.04130161
5	0x3e25c53c	0.1618852
6	0xbdfd4091	-0.12365831
7	0x3e223493	0.15840368
8	0x3d91610c	0.07098588
9	0xbd76f090	-0.060288012
10	0xbd5a39f7	-0.053277936
11	0xbc88c1d7	-0.016693993
12	0xbd0a5248	-0.033769876
13	0xbcb524d9	-0.022112297
14	0x3d9b740e	0.07590495
15	0xbd08039e	-0.033206575
16	0x3d00529d	0.031328786
17	0x3d188f21	0.037245873
18	0x3b7acc80	0.0038268864
19	0x3da0831c	0.07837507
20	0x3db69981	0.08915997
21	0x3bac62bf	0.005260795
22	0xbd9e39b6	-0.07725851
23	0xbd805aab	-0.062672935
24	0x3d8a57c9	0.06755025
25	0xbdbb4d18	-0.09145564
26	0x3e122d04	0.14274985
27	0x3d38bf9d	0.04510461
28	0xbd439cf4	-0.047757104
29	0x3da8c44d	0.082405664
30	0x3e0339b0	0.12814975
31	0xbdacf525	-0.08445195
32	0x3d7dca8f	0.061960753
33	0x3e137e85	0.14403732
34	0x3e5e5d4d	0.21715279
35	0x3dd382ce	0.103276834
36	0x3ca59334	0.020211793
37	0x3db8d270	0.09024513
38	0x3c9d3f5f	0.019195257
39	0x3e1d87f0	0.15383887
40	0x3d967a03	0.07347491
41	0x3e155043	0.14581399
42	0xbc949a25	-0.018139908
43	0x3d44b189	0.048020873
44	0x3c9dfaff	0.019284723
45	0x3d90cb38	0.07070011
46	0x3dbf80c7	0.09350734
47	0x3dad5112	0.084627286
48	0xbd708527	-0.058720734
49	0x3c36b301	0.011151076
50	0x3dba4e77	0.09096997
51	0x3e0835c3	0.13301758
52	0xbd35afce	-0.044357114
53	0xbd1c01f0	-0.038087785
54	0x3db1fb16	0.08690469
55	0x3c8bb264	0.017052837
56	0x3e186464	0.14882046
57	0x3a3da0e5	0.0007233753
58	0x3d77bcc9	0.060482774
59	0x3d909364	0.070593625
60	0xbc9e4a47	-0.019322528
61	0x3c8ea844	0.01741422
62	0x3de4bf64	0.11169317
63	0xba6c65c6	-0.0009017851
64	0x3e0ae97c	0.1356563
65	0xbdb97385	-0.09055237
66	0xbd71df0f	-0.059050616
67	0x3d324fa7	0.043532994
68	0x3ca21bc1	0.019788625
69	0xbdd78b6c	-0.105246395
70	0xbdf35813	-0.11882033
71	0x3d85c709	0.065321036
72	0x3da914f4	0.082559496
73	0x3e03de6e	0.12877819
74	0x3e1f4dc6	0.15557012
75	0x3dcd61d4	0.10028425
76	0xbd473f6c	-0.04864447
77	0xbe155fce	-0.14587328
78	0xbdc3cadc	-0.09560177
79	0x3df7cfc3	0.12100174
80	0x3e52581e	0.20541427
81	0x3d18ad74	0.037274793
82	0xbdd41a4c	-0.10356578
83	0xbd98ed06	-0.07467084
84	0x3d97ade3	0.07406213
85	0x3d6d60fb	0.057953816
86	0xbd84d98b	-0.064868055
87	0x3d84ea95	0.064900555
88	0x3e4668af	0.19375871
89	0xbcf9d80b	-0.030498525
90	0xbb4a46d0	-0.0030864961
91	0x3cb05849	0.021526473
92	0x3d2e3589	0.042531524
93	0x3db5c713	0.08875861
94	0x3d2cadee	0.04215806
95	0x3a9cb9a4	0.0011957181
96	0x3bee5fff	0.007274627
97	0xbd774c35	-0.06037541
98	0x3da5c0b7	0.08093398
99	0x3e0e28e9	0.13882793
100	0x3e4799a9	0.1949221
101	0x3dcae63c	0.09907195
102	0x3dbf41fc	0.093387574
103	0x3cd74b16	0.026280921
104	0x3c8eff0d	0.017455602
105	0x3dc8bbfe	0.09801482
106	0x3d53b601	0.051687244
107	0x3e456853	0.19278078
108	0x3defa103	0.117006324
109	0xbbbed6fa	-0.005823967
110	0x3cce09df	0.025151191
111	0x3db11e35	0.0864834
112	0xbd8a66e4	-0.06757906
113	0xbcf0a98c	-0.029377721
114	0x3cab9374	0.020944335
115	0xbb9ae71c	-0.0047272574
116	0x3da452c7	0.08023601
117	0xbd95cbaa	-0.073142365
118	0x3d3d0315	0.046145517
119	0x3d2d3887	0.042290237
120	0x3e0a1a73	0.13486652
121	0x3d04fa09	0.032465015
122	0x3dcdc8c7	0.10048061
123	0x3dd16cc8	0.102258265
124	0x3e0b0f0c	0.13579959
125	0x3d958740	0.073011875
126	0x3d43f67d	0.04784249
127	0x3e212157	0.15735374
128	0xbdb02bd0	-0.086021066
129	0x3cfdebd6	0.030996244
130	0x3d8a441c	0.06751272
131	0xbd9eb401	-0.07749177
132	0xbd69257c	-0.056920514
133	0xbe3b05d2	-0.18263939
134	0xbd50b5cc	-0.050954625
135	0xbe37450d	-0.17897435
136	0x3e100f39	0.14068307
137	0x3d538da2	0.051648743
138	0x3de1c4c5	0.11023859
139	0xbdda4904	-0.10658458
140	0xbdc0f1e7	-0.09421139
141	0x3ce91ac8	0.028455153
142	0xbdddd12e	-0.108309135
143	0x3d85222d	0.06500659
144	0x3d6eaddc	0.058271274
145	0xbe57cc26	-0.2107397
146	0xbd99200e	-0.07476817
147	0xbe010ba9	-0.12602104
148	0x3e64dcf5	0.22349913
149	0xbd9bbbd4	-0.07604185
150	0x3db42927	0.08796912
151	0xbb4f09e1	-0.0031591582
152	0xbdc323f8	-0.09528345
153	0x3dc2dfdd	0.09515355
154	0xbd06e846	-0.032936357
155	0xbe3b1617	-0.18270145
156	0xbd4f3fa7	-0.050597813
157	0xbe2e4d65	-0.17021711
158	0x3de52012	0.111877576
159	0x3d728a05	0.059213657
160	0xbe025cb9	-0.12730683
161	0x3dac1b59	0.08403654
162	0x3d8823fb	0.06647488
163	0xbe0a7635	-0.13521655
164	0x3dc473f7	0.09592431
165	0x3d651f52	0.055938073
166	0x3d015789	0.03157762
167	0xbe5d4ea8	-0.21612036
168	0xbe085931	-0.13315274
169	0xbe26e930	-0.16299891
170	0xbc98ad0c	-0.018637203
171	0x3d74be2e	0.059751682
172	0xbd592691	-0.053015295
173	0xbdc425f2	-0.0957755
174	0xbdd3261c	-0.10310003
175	0x3bb24251	0.0054400344
176	0x3b3d3dd0	0.0028875954
177	0xbd6b9d17	-0.05752286
178	0xbdf266d4	-0.11836019
179	0xbe3203e4	-0.17384297
180	0xbd91ecd4	-0.071252495
181	0xbe27d444	-0.16389567
182	0xbe1fba7a	-0.15598479
183	0x3cc1ced3	0.023658192
184	0x3de1cf9e	0.11025928
185	0x3e0679a1	0.13132335
186	0x3e7d5a00	0.24741364
187	0x3df512f6	0.11966507
188	0xbe0d7d78	-0.13817394
189	0xbdd83f2c	-0.10558924
190	0x3deaa384	0.114569694
191	0x3e03dc2c	0.12876958
