reports/optimize_MERGE_Russell4Q_2026-01-07_10-13-27/best_model/model.pth (torch, 157340 bytes, 10 tensors)

weight_ih_l0 f4 [192, 32]
000000 9e 75 ac bd 84 30 d9 3c 81 07 0a be c3 c1 53 3d
       -0.08420871 0.026512392 -0.13479425 0.051698457
000010 56 57 7f 3c 9f 71 e2 bd a5 fc 0f bc 56 b9 df bc
       0.015584787 -0.11056828 -0.0087882625 -0.027310055
000020 ab a7 bb bd e6 e5 28 3d 12 83 6c 3c 4d ed 88 bd
       -0.091628395 0.041234873 0.0144355465 -0.066858865
000030 08 88 a0 bd fe f7 61 bc 39 ae 6b bd 00 15 6d 3d
       -0.07838446 -0.013792036 -0.0575392 0.057881355
000040 56 ac 0b bd cc 7a e9 3c d1 1b 29 3d b7 73 9b 3c
       -0.0340999 0.028500937 0.041286293 0.018976076
000050 12 8c c2 bd 5d 55 d8 bd 33 76 c3 3d ca 3e d1 bd
       -0.094993725 -0.10563157 0.09544029 -0.10217054
000060 69 15 1f 3d d9 7b 4c 3d 7c 4f 2f 3c 30 71 03 3e
       0.038838778 0.049922798 0.010700103 0.12836146
000070 63 8b 3c 3d e5 04 c7 3d c9 97 1d 3d f4 52 4b bd
       0.046031367 0.097177304 0.03847483 -0.049639657
000080 22 4e a9 bd f8 df 80 3d eb bf 1a be 85 45 71 3c
       -0.08266856 0.06292719 -0.15112273 0.014726047
000090 3f 7c b2 3d 42 49 d6 bb 0b a8 16 3e 81 ff 02 3d
       0.08715104 -0.0065394947 0.14712541 0.03198195
0000a0 e5 a8 c5 bd 4d 27 f2 3d fa e1 5c bd ed f7 03 3d
       -0.09651355 0.11823902 -0.053926446 0.032218862
0000b0 da f9 70 3a 96 91 4b ba 25 3f 16 be ce 5b 01 be
       0.0009192504 -0.00077655294 -0.14672525 -0.12632677
0000c0 57 cb 0b 3d ef 73 82 3d 80 76 19 be 43 2b c4 3d
       0.034129467 0.06369769 -0.1498661 0.09578564
0000d0 11 42 ec bc c3 60 af bd 6f 6b 89 bb cc 2f 92 bd
       -0.028840097 -0.08563378 -0.0041937153 -0.07138023
0000e0 88 12 89 bd 7c ed ad 3c 42 a9 d2 3c 84 ce ed bd
       -0.06692988 0.021231405 0.025715474 -0.11611655
0000f0 ac 5e 08 3e 80 0b c6 3c e4 c5 c1 3d cb 5a fb bd
       0.13317364 0.024175406 0.09461573 -0.12273177
000100 0c 42 a3 bd 2e 52 f1 b9 ab c0 b0 bd 7a 8b 73 bd
       -0.07971582 -0.0004602833 -0.086304985 -0.059459187
000110 6d 35 f0 3d 80 19 55 bd cc 0c b8 3d 9d bf bf 3a
       0.1172894 -0.05202627 0.08986816 0.0014629249
000120 30 fc 93 bc e0 43 85 3d 99 03 5c bd d5 f6 15 be
       -0.018064588 0.06507087 -0.05371437 -0.1464494
000130 f0 1a b5 3d 02 c1 de 3c 0b c4 a8 3c 0d a6 31 be
       0.088430285 0.027191643 0.020601293 -0.173485
000140 ea 37 e9 bd 93 ca dc 3b dd 41 84 3d 79 7d 03 bd
       -0.11387618 0.006738016 0.06457875 -0.032102082
000150 bd 1b b8 bd e8 8f 82 bc d1 3f ce bb a3 99 9e 3d
       -0.08989666 -0.01593776 -0.0062942286 0.07744148
000160 1a d4 d1 3d cc 4d 93 bc 82 fa 10 3e 1c f7 93 bd
       0.10245533 -0.017981432 0.14158061 -0.07224867
000170 b9 be b2 3d c6 48 15 bd 7a 62 4b 3d 2f 5d 98 bd
       0.08727784 -0.036446355 0.04965446 -0.07439648
000180 b0 7a 62 3c 24 ba 4f 3d 27 a9 f1 bc 81 78 0e 3e
       0.013823196 0.050714627 -0.029499603 0.13913156
000190 fc a1 80 bd b4 ce 8c 3d 60 14 2a bd 18 1a 15 bd
       -0.06280896 0.06875363 -0.041523337 -0.036401838
0001a0 5b c7 b1 bd 4c e4 79 3c 74 d3 87 3d c0 9f b7 bd
       -0.08680602 0.015252184 0.06632128 -0.08966017
0001b0 30 99 b6 bd 10 60 fd bc 3e da 01 3d 2f 8e 95 bc
       -0.08915937 -0.030929595 0.031702273 -0.018256275
0001c0 fa 99 95 bd 1d 2f c0 bc b6 c8 1b be 4f ee 26 bd
       -0.07304759 -0.023459965 -0.15213284 -0.040754613
0001d0 75 5c 7c 3d c4 50 d1 3d a5 bd 30 3e 42 ab a4 3d
       0.06161161 0.10220483 0.17259844 0.08040477
0001e0 b5 f4 68 3d 4d 0b 8b 3e 8c 76 d1 3d 69 81 e3 3d
       0.056873996 0.2715706 0.10227689 0.111086674
0001f0 df 9f 5f 3d 7b 6c 71 3c 15 f0 da 3d 83 68 22 3e
       0.054595824 0.014735336 0.10690323 0.1586018
000200 55 d1 ec 3d 95 8a e1 bc fe e7 fc 3c 61 c4 ca bd
       0.115633644 -0.027531901 0.030872341 -0.099007376
000210 38 ac 4c 3d a5 bf 2b be 52 8f 22 bd 9b 82 6c 3c
       0.049968928 -0.16772325 -0.039687462 0.014435436
000220 a4 cf 13 3d 4c 1c b2 3d 79 f9 91 bd d6 e5 b4 3d
       0.036086693 0.086968035 -0.07127661 0.088329
000230 04 67 a4 3d cf 61 f7 3c 5b 74 4f 3d 41 24 08 be
       0.08027461 0.030198006 0.050648075 -0.1329508
000240 96 46 73 bd 60 8d 24 3e c1 f1 d8 3d 37 93 58 3d
       -0.059393488 0.16069555 0.10592986 0.05287477
000250 80 2d 82 bd d5 8c da bd 33 09 b6 bb 26 15 d7 bd
       -0.06356335 -0.10671393 -0.005555296 -0.105020806
000260 65 e2 7e bc cf 6f f0 3d 3a fb b2 bc 59 ff 91 bc
       -0.015556906 0.11740076 -0.02184831 -0.017821955
000270 79 40 02 3e 90 18 14 bd fa 20 87 bb 50 37 82 bd
       0.12719907 -0.036156237 -0.004123804 -0.06358206
000280 d0 27 1c 3d b1 40 ca 3d 27 dc 45 bd 0f 19 86 bd
       0.038123906 0.0987562 -0.048305657 -0.06547748
000290 2d 42 51 3d d6 81 87 bd 1c 55 2b 3e 78 b8 42 3e
       0.0510885 -0.06616561 0.16731685 0.19015682
0002a0 30 98 02 be e6 10 ee 3c 4d 39 88 bb b9 13 ea 3d
       -0.12753367 0.029060792 -0.0041572214 0.11429543
0002b0 d0 21 2d bd ab e0 93 3c 3f 89 84 bc 9b e9 ea bd
       -0.042268574 0.018051466 -0.016178725 -0.11470338
0002c0 b4 87 e3 3d 62 83 75 3b 44 15 af bc aa 7b a8 3d
       0.11109868 0.0037462343 -0.021372445 0.08226712
0002d0 c3 e8 9e 3c 33 78 52 3e b0 30 20 3e 8f 87 4b 3e
       0.019398099 0.20553665 0.15643573 0.1987593
0002e0 38 14 39 bd fe 85 48 bd 50 6d f5 3d b7 50 30 3e
       -0.045185298 -0.04895591 0.1198374 0.1721829
0002f0 f3 4f 64 bc d0 7a 08 3e 7a 96 02 3e ee c0 e4 bb
       -0.013935077 0.13328099 0.12752715 -0.006981007
000300 69 a7 d5 bd a8 cf 81 bd bc 4c 92 bc 87 a0 c0 bd
       -0.104323216 -0.063384354 -0.017858855 -0.09405618
000310 bf 91 01 3d 5e fa 02 3e 90 1a db bd 49 75 53 3d
       0.031633135 0.1279082 -0.10698426 0.051625524
000320 1b 7a a3 3d 62 6b 80 3c 38 bf be 3d 59 cf 0d 3e
       0.07982274 0.015676204 0.09313816 0.13848628
000330 98 0c 70 bd c1 69 b7 bb 87 f0 7c 3d f0 dc 48 bd
       -0.05860576 -0.0055973236 0.061752822 -0.049038827
000340 19 c9 ee 3c 0a 25 17 3d 44 51 aa 3c e3 04 36 3b
       0.029148625 0.036900558 0.020790704 0.0027773909
000350 28 8c 2e 3d 4f dd 20 3e 0e ca 89 3d 0d 41 45 3e
       0.042614132 0.15709423 0.06727992 0.19263096
000360 98 c4 44 3e 55 47 c0 3d ff 08 5d bd da 26 10 3e
       0.1921562 0.093886055 -0.053963657 0.1407732
000370 f2 c1 90 3e f5 30 61 3d 9f e0 90 3d 77 08 20 3e
       0.2827297 0.05497833 0.07074093 0.15628229
000380 15 cb e6 3d ae aa c8 bc 71 06 e3 bd c2 ca 89 bd
       0.112692036 -0.024495449 -0.11085213 -0.06728126
000390 d0 6c 8a bd 0a de 17 3e 10 0f 08 be 59 72 e4 3c
       -0.067590356 0.14830795 -0.13286996 0.027886556
0003a0 11 37 4f 3d 4c c9 6d 3d 40 7d af bd 0a 91 a7 3b
       0.050589625 0.0580533 -0.085688114 0.0051137256
0003b0 b0 d5 02 3d f9 32 0d be 62 1e b0 3d c3 c0 fe bd
       0.03194207 -0.13788976 0.08599545 -0.1243911
0003c0 67 a0 9f bd 69 95 9b bd 02 07 12 3e 50 70 91 bb
       -0.07794266 -0.07596857 0.14260486 -0.0044384375
0003d0 c4 c7 a0 3c 37 ef ab bd ac a3 a5 3d 0a 0c 63 3d
       0.019626506 -0.08395236 0.080878586 0.055431403
0003e0 02 d6 0c 3e b6 4f 27 bd b7 84 e6 bd 5a 85 a5 3d
       0.13753513 -0.040847503 -0.11255782 0.080820754
0003f0 9d 8c 9e 3d 18 da b3 bd f9 dd 5a bd 66 db 80 bd
       0.077416636 -0.087818325 -0.053434346 -0.06291847

weight_hh_l0 f4 [192, 64]
000000 1d b4 2f bc a4 59 85 be b5 25 f8 bd d4 7f 66 3d
       -0.010724095 -0.26044953 -0.12116567 0.05627425
000010 b8 b9 c8 3d 75 df bd 3d 6e 35 e9 bd 84 de ab 3d
       0.09801048 0.09271137 -0.11387144 0.08392051
000020 af 48 25 bd a5 e6 59 3c 2f 04 31 3d a2 26 33 bd
       -0.04035252 0.013299619 0.04321688 -0.043738015
000030 1a 5c 00 3e 5e 89 24 3d be ea 9b bd 55 ff ff bd
       0.12535134 0.040170066 -0.07613133 -0.124998726
000040 29 56 ad 3d 8b 78 a0 bb 07 8c 80 bb 32 a5 4a bd
       0.08463699 -0.0048971823 -0.0039229426 -0.04947395
000050 c7 f8 87 bd 1c e5 49 3d 01 f5 f7 bc 64 01 b5 bd
       -0.066392474 0.04929076 -0.030268194 -0.08838156
000060 52 22 82 3e 83 98 c7 bc 7a 29 bf 3d ff e8 23 be
       0.2541681 -0.024364715 0.09334083 -0.1600685
000070 54 ba 22 bd ee dd e6 bd ed 35 04 be 14 08 10 3e
       -0.039728478 -0.112727985 -0.12911196 0.14065582
000080 e6 9e 00 b9 e2 24 a5 bc 92 76 09 3e 95 96 d2 bb
       -0.00012266226 -0.020159189 0.13424137 -0.006426642
000090 7b 31 2e 3e 96 b7 52 bd 23 8e 1d 3d ad c3 7e 3d
       0.17011063 -0.051444612 0.03846563 0.06219833
0000a0 72 91 13 3e 10 69 33 bd c4 22 cc bd 37 75 9a bd
       0.14410952 -0.043801367 -0.099675685 -0.07541888
0000b0 81 e9 83 bd b5 ab 76 3d 90 d0 7b 3d 13 32 88 bd
       -0.06441022 0.060222346 0.061478198 -0.06650176
0000c0 b1 1b 60 3d fa b0 36 bd d8 9a 7f bc 05 e6 0d 3b
       0.05471391 -0.04460237 -0.0156008825 0.0021651995
0000d0 f9 8a b3 bd 5c 44 35 3d 6d 3b 11 be b4 91 8a 3d
       -0.08766741 0.044254646 -0.14182825 0.06766072
0000e0 ed 57 8e bd 40 c3 12 3e 2c c0 b4 3d 85 2f 24 3e
       -0.06950364 0.14332294 0.088257164 0.16033752
0000f0 cb 30 11 bd f9 ad 0d bd 85 56 26 3e 42 ff 88 bd
       -0.035446923 -0.03458974 0.16243942 -0.066893116
000100 eb 35 5e bd b8 3f b2 bc eb ee e7 bd 7e b1 8d 3d
       -0.05425064 -0.0217589 -0.11324867 0.069186196
000110 9c 25 71 bd 0a 19 be 3d 40 07 11 be 00 a6 32 be
       -0.058873758 0.092821196 -0.14162922 -0.17446136
000120 6c dd eb 3d 7e 9c 37 3a 67 84 37 bc 8a 7a aa 3b
       0.11516842 0.0007004215 -0.011201001 0.005202596
000130 55 2f 6f 3e da fa 0d be cd e6 03 bd ba 81 a1 bd
       0.233579 -0.13865224 -0.03220253 -0.078860715
000140 20 ec 72 3d 88 00 7c bd b1 c6 be b9 4f 7c 2f 3b
       0.059307218 -0.061523944 -0.0003638766 0.0026776975
000150 53 af ca 3d 52 a2 f1 3d 79 4a ca bd b4 1a 21 3d
       0.09896722 0.11798538 -0.09877486 0.039332107
000160 ed 5c 88 3d d7 b4 dc ba 95 52 04 3e a7 e9 b7 bc
       0.06658349 -0.0016838562 0.12922128 -0.022450281
000170 42 ba 19 3d 0a c9 51 3c 61 a0 b5 bd 31 2a 0c 3d
       0.037531145 0.012804279 -0.088684805 0.034219924
000180 db b2 cd 3d 46 34 b5 bd 03 0b 11 3e f6 96 9d 3d
       0.100438796 -0.08847861 0.14164357 0.07694809
000190 e4 af 71 bc a7 82 20 be 3f 45 b4 3d 0c ab 85 bd
       -0.014751408 -0.1567484 0.0880227 -0.06526765
0001a0 a1 d1 a6 3d 44 10 03 3e 55 32 02 3d 98 ac c3 bd
       0.08145452 0.12799174 0.03178628 -0.09554404
0001b0 27 b2 ac 3c 54 00 a6 bd 79 46 88 3d a6 9a a1 3d
       0.021081043 -0.08105531 0.066540666 0.07890825
0001c0 6c f5 32 3c 70 2d 06 3e db 56 9e bc 23 cd 6e 3d
       0.010922771 0.1310327 -0.019328525 0.058301102
0001d0 be db 8a 3d dd d5 26 be 28 a2 ad bb 53 1a 17 bd
       0.06780194 -0.1629252 -0.0052988715 -0.03689034
0001e0 43 09 ff bd 98 5f 88 3d 22 e3 94 bd a8 70 03 3c
       -0.124529384 0.06658858 -0.07269885 0.008022465
0001f0 48 cf ae 3c 3e 7e 06 3e a2 f5 79 3d a9 3e 9c 3c
       0.021339074 0.13134095 0.06102527 0.019072847
000200 da a7 4c 3d 1d e9 8b 3d 86 f1 f0 3d 67 9d 22 3b
       0.049964763 0.06831572 0.11764817 0.0024813057
000210 2d 10 41 bd 75 9f 53 3e 47 9f eb bd 80 ce 34 3d
       -0.047134567 0.20666297 -0.11504989 0.044142246
000220 ac c7 56 3e bd 5e 5f 3c 60 6a 10 be 7f 00 f4 3c
       0.20974606 0.013633427 -0.14103079 0.029785393
000230 5c 10 87 3b 74 7e 88 3d 51 22 c7 3d 13 ec be bd
       0.0041218232 0.06664744 0.09723342 -0.09322371
000240 e8 2b f4 bd e3 b4 4e bd 7a 8f 1f 3d 33 40 53 3c
       -0.11922437 -0.050465476 0.03895519 0.012893724
000250 e1 c3 60 bd c0 16 1c 3e f0 00 ec 3d f0 7f a1 3c
       -0.054874305 0.15243053 0.11523616 0.019714326
000260 6f 70 ca 3d 1e eb 0c 3d 4f a0 3c 3e 16 e9 b2 3d
       0.09884726 0.034403913 0.18420528 0.08735864
000270 4f e7 d8 3d a9 77 80 3d 86 81 95 bd bf b5 9c 3d
       0.105909936 0.06272823 -0.07300095 0.07651853
000280 c7 2a 10 bd ff 05 09 be 9b 02 99 3d 1a c9 12 3e
       -0.035197046 -0.13381194 0.074712 0.14334527
000290 22 04 03 bd 5a b6 c7 bd b3 f0 53 3b 17 53 9c 3d
       -0.031986363 -0.09751578 0.0032339513 0.07633036
0002a0 b2 bc 35 3e 29 f3 b0 3d e5 24 aa 3c 3f af fa bd
       0.17747763 0.08640129 0.020769546 -0.12240457
0002b0 b3 de b0 3d 4b a1 9f bd 3d 7e 57 3d d7 14 92 bd
       0.086362265 -0.07794436 0.052610625 -0.07132881
0002c0 99 42 ed 3d 3e 05 f6 3d 29 01 bf bd 3c a8 9c bc
       0.11584968 0.120127186 -0.09326393 -0.01912319
0002d0 c2 f4 86 bd 8e 6c 6a bd b0 80 1e 3c ab 07 65 be
       -0.065896526 -0.057232432 0.009674236 -0.22366206
0002e0 c8 c9 82 3d c2 be 97 3d 01 cc 8f 3d b8 9a 0e be
       0.06386143 0.07409431 0.070213325 -0.13926208
0002f0 e3 36 f6 bd 8c dd a8 bd 20 0c 5a 3e 4e 7a 7c bc
       -0.120221876 -0.08245382 0.21293688 -0.015410019
000300 56 a9 31 3e 71 eb 64 3c 73 e7 2a 3b 45 9a 2d be
       0.17349753 0.013972149 0.0026077896 -0.1695338
000310 9b bd 10 3d b2 06 f4 3c f1 50 a2 bd 6f d0 e4 3d
       0.035337072 0.029788349 -0.079255946 0.11172568
000320 e4 1a 13 3e 96 08 03 be 98 8f e5 bd de 69 a0 3d
       0.14365727 -0.12796244 -0.11209029 0.078326926
000330 85 28 0e bd 0a 6f c9 bc 10 81 f8 bc 02 76 ba bc
       -0.03470661 -0.02458908 -0.03033498 -0.022761349
000340 18 ed c8 bb c6 0d 8b 3d ad d3 65 3d 83 88 b1 bd
       -0.0061317794 0.067897364 0.056110073 -0.08668616
000350 ca 7d 63 be 6f 09 af 3d f3 a3 87 bc 18 33 28 bd
       -0.22215953 0.08546721 -0.01655767 -0.04106435
000360 c2 6a 45 3c d0 10 0a 3b 69 c0 87 3c 1f 92 a5 bd
       0.012049379 0.002106715 0.01657124 -0.08084511
000370 95 4b 60 3e 68 ae ff 3c d9 12 21 3d 3c e4 2a be
       0.21903832 0.031211093 0.039324615 -0.16688627
000380 39 ca e7 bd b9 a9 6d be be 89 76 3c 1f 87 7b 3d
       -0.11317868 -0.23209275 0.015047489 0.06140816
000390 93 28 5e bb 4f a1 77 3d f7 f6 e9 bd 21 a6 aa 3c
       -0.0033898696 0.06045657 -0.11424058 0.02083117
0003a0 3b 43 c1 3d 4f a1 b8 3d 42 2a 39 3e 74 6c 00 3e
       0.09436651 0.09015142 0.18082526 0.12541372
0003b0 ea 1a 0a bc cb ff 05 3e 72 99 ec 3c 18 49 8d 3b
       -0.008429268 0.13085859 0.028881762 0.004311692
0003c0 e6 9f 30 3e ad 91 35 be 94 16 71 be f3 1d 76 3d
       0.17248496 -0.17731352 -0.23543769 0.060087156
0003d0 02 18 93 bc f7 b9 47 3d d4 d1 35 be 27 1e 2d be
       -0.017955784 0.048761334 -0.17755824 -0.16906033
0003e0 4f dd 07 3d 0d e6 03 be 9c 0f 83 bc ed ef 38 3d
       0.03317004 -0.12880726 -0.015998654 0.045150686
0003f0 94 a6 d1 bd 4b a5 6b 3e a1 36 8c 3c 78 c6 29 bd
       -0.102368504 0.23012273 0.017115893 -0.04144904

bias_ih_l0 f4 [192]
000000 fd 44 0f 3d 7e b8 b5 3c 02 95 90 bd 73 28 a8 bc
       0.0349779 0.0221827 -0.07059671 -0.0205271
000010 26 77 cf 3d ec f5 a4 3d 3e f3 7a bd 49 07 c3 3d
       0.10130148 0.080547184 -0.06126713 0.09522874
000020 71 41 a4 3d 7d a6 38 3c 43 74 20 3e a5 36 0e 3e
       0.080202945 0.011270163 0.1566935 0.13888033
000030 c8 02 95 3d 86 d2 0f bb 3b a1 c4 3d 22 d3 97 39
       0.07275921 -0.002194555 0.09601065 0.0002895827
000040 9e f9 da bd a8 31 c1 3d 5f 59 e7 3d 29 9c 06 3e
       -0.10692142 0.09433299 0.11296343 0.13145508
000050 81 78 b1 3d e3 05 be 3d 97 3f 17 3e 79 d7 19 3e
       0.086655624 0.092784666 0.14770351 0.15023603
000060 4a 3a 97 3d 0f b5 9b bd ae fa c2 3c 6a 2f 76 bb
       0.07384165 -0.076028936 0.023801174 -0.0037564882
000070 ba 90 57 bd e9 75 1c 3e b1 14 bf 3c b7 3a 0e bc
       -0.052628256 0.15279354 0.023325296 -0.008680991
000080 f9 8f e0 bd 44 2c 29 bd 1f a2 24 3e 66 cd 2b 3e
       -0.109649606 -0.04130198 0.1607747 0.16777572
000090 1c 8c 6b bc e3 a2 e1 3d b7 41 23 3d 2f 88 19 3e
       -0.014376666 0.11017396 0.039857592 0.14993356
0000a0 a7 06 4d bd 3b f7 a2 3d 58 7c 8d 3d b4 d5 c6 3d
       -0.050055172 0.07957312 0.06908482 0.097087294
0000b0 c6 bb b8 3d ed fe f1 3d a0 1e 78 ba a7 5a 42 bd
       0.0902019 0.11816201 -0.00094650127 -0.047449734
0000c0 78 ff 9e 3d d4 1f 89 3d df 82 36 bd 18 49 e2 3d
       0.077635705 0.06695524 -0.044558402 0.11049098
0000d0 e2 9d 13 bc bd 6c 54 bd 19 73 06 3e af 4b 63 3d
       -0.00900981 -0.051861513 0.13129844 0.0554921
0000e0 8b b5 5b 3d 51 53 5d 3c 01 65 d2 3d 1f 2a 30 bd
       0.05363993 0.013508634 0.10273171 -0.04300892
0000f0 b3 6c 90 3d 3b c7 bb 3d aa 34 83 3d f0 ea a9 bc
       0.07051983 0.091688596 0.06406529 -0.02074191
000100 a4 b6 73 bd 81 d3 a3 bd 96 46 08 bd ee ae 00 3e
       -0.05950035 -0.079993255 -0.03327044 0.1256673
000110 61 46 ad 3c ee 23 11 3e 4e 89 02 bd 7c c5 b2 bb
       0.021151723 0.14173862 -0.031869225 -0.005455671
000120 06 a6 e7 bd 89 73 80 bc 99 cb d5 3d 18 ce 8b bd
       -0.11310963 -0.015680091 0.10439224 -0.06826419
000130 59 c3 85 3c 89 48 03 3e 2d 4f 95 3d a3 c0 b8 3d
       0.0163285 0.12820639 0.07290492 0.090211175
000140 6a e5 59 3d d2 09 68 3d f9 a7 6a 3d 3f a5 0c 3d
       0.053197302 0.05664999 0.057289097 0.03433728
000150 ca 24 ce bd c1 1d 29 3e 52 f8 74 3d ce d3 a7 3c
       -0.10065611 0.16515256 0.05980713 0.020486739
000160 99 c6 9c 3d f4 02 29 3d 60 67 b1 3d 03 d2 4b 3c
       0.07655067 0.041262582 0.08662295 0.012440207
000170 80 48 11 be 89 02 02 bd c5 fe a1 3d 4d 7e 55 bd
       -0.14187813 -0.0317407 0.079099216 -0.052122403
000180 b0 57 e5 3d dd 77 e4 bc 74 9c f2 bc 50 20 0f 3e
       0.11198366 -0.027889187 -0.029615618 0.1397717
000190 89 9b b8 3d 4f cf ae b9 0c fa 94 ba b5 3e 9f bd
       0.09014041 -0.00033342323 -0.0011366024 -0.07775632
0001a0 05 49 9f 3c 79 fb 43 bd ec 68 f7 3d 69 0e 55 3d
       0.019443998 -0.047847245 0.12080559 0.052015696
0001b0 da ef 89 bd 98 74 8c bd fe 64 4c 3d a0 a5 40 3d
       -0.06735201 -0.06858176 0.049901 0.047032952
0001c0 31 ea 24 3e e8 34 90 3c fb 21 a4 3c c0 c5 0a bd
       0.16104962 0.017603353 0.020035734 -0.033879995
0001d0 9f 3d a3 bd 1f 38 bf 3d 58 ed d3 3d 61 4e 54 3e
       -0.07970738 0.09336876 0.10348004 0.20733024
0001e0 0c 96 21 3e 7f 85 d1 bc f1 44 e9 bd 0e bb aa 3d
       0.15779895 -0.025576351 -0.11390103 0.08336459
0001f0 df b7 cf bc 3e 3c 08 3e 31 b5 12 3e 18 80 1d bd
       -0.025356231 0.1330423 0.14326932 -0.038452238
000200 a0 93 d9 bc 63 0d 29 bd 4c 44 1e bd 32 a8 01 be
       -0.02655965 -0.041272532 -0.03863935 -0.12661818
000210 ee 11 d5 3d 6d 02 df 3b 31 32 ea 3c ac 7b f3 bc
       0.104038104 0.006805709 0.028588386 -0.029722057
000220 4e 3a 35 bd 99 b4 9c bd 33 ec 88 bd 96 a0 db bd
       -0.044245057 -0.07651634 -0.066856764 -0.10723989
000230 19 3f 3d 3d b3 47 c5 3d d2 c9 bf bd ff 61 06 be
       0.046202753 0.09632816 -0.09364666 -0.1312332
000240 07 5c 62 bc f7 2b 75 bd 30 9f cb 3d 66 1e ef 3d
       -0.013815886 -0.05985638 0.09942472 0.1167572
000250 47 5f 94 3d ba 19 da bd 27 0a 9a bd 7c f8 47 3d
       0.07244735 -0.10649438 -0.07521468 0.048820958
000260 6f d9 19 3c ae ce fd bd d4 63 c9 bd 35 e6 c1 bd
       0.009390219 -0.12392937 -0.09833494 -0.09467737
000270 03 e5 44 3b d1 6a bd 3d 79 69 f8 3c 08 9e 60 bd
       0.0030043728 0.09248889 0.03032373 -0.05483821
000280 44 96 4a bd 0d e0 84 3d fe 21 1f bd 6e 7b bd 3d
       -0.04945971 0.06488047 -0.038850777 0.09252058
000290 e0 d2 97 3c 78 d9 09 be c8 3c f5 3d f6 04 07 bd
       0.01853317 -0.13461864 0.11974484 -0.032963715
0002a0 a3 31 0f 3d 22 2a 0c 3e 13 81 79 3c a3 a6 40 3d
       0.034959447 0.13687947 0.015228528 0.047033917
0002b0 ff 43 80 3d 28 6e 09 bc 9b 2b 07 bd 74 41 99 bd
       0.06262969 -0.00838808 -0.03300057 -0.07483187
0002c0 79 d2 14 bd bc de a2 3d b4 d9 ae bd f8 02 e2 3d
       -0.036333535 0.079526395 -0.08537617 0.110357225
0002d0 b8 9f fd bc e8 d0 15 3d 70 24 d8 bd 7a c6 a3 bd
       -0.030959949 0.03657618 -0.10553825 -0.07996841
0002e0 ce d7 a6 3d 2f 9c 5a 3d 05 52 e1 3d 9e 36 d6 bc
       0.0814663 0.053371605 0.11001972 -0.02614909
0002f0 17 00 b6 bc a6 b0 87 bc 5e b1 d6 3d d7 f8 ba bc
       -0.02221684 -0.016563725 0.10483049 -0.022823734

bias_hh_l0 f4 [192]
000000 e2 eb c6 3d 9c e0 96 3c 84 b5 9d bd 1d 6d 64 3d
       0.0971296 0.018417649 -0.07700637 0.05576812
000010 a8 f8 62 3d ee 57 85 bd ac f9 1d 3e ce 9f ee 3d
       0.05541292 -0.06510912 0.15427274 0.11651574
000020 2e 85 6f bd f3 a9 ac bc 01 e5 8e 3c 5b 7c 59 3d
       -0.05847662 -0.021077132 0.017443182 0.05309711
000030 03 c1 81 3c 2f 9b 9a bd 89 41 8f bd 33 4d e6 bc
       0.015839105 -0.0754913 -0.06994922 -0.028112983
000040 26 ef c9 3b e8 50 0a 3e 88 6b ce bc 41 05 14 3e
       0.006162542 0.13507426 -0.02519776 0.14455129
000050 ca 3b 37 bd 5f cb 7c 3d 8e 20 05 bc a1 f0 01 3e
       -0.044734754 0.061717387 -0.008125437 0.12689449
000060 92 2d 8d bd 13 cf f6 3d 1f 51 c2 3d 3f 08 47 bc
       -0.068934575 0.12051215 0.09488129 -0.012147962
000070 5e 0c 77 3d ff bf 1e bd 6e c0 73 3d 96 37 ec bd
       0.06031453 -0.03875732 0.059509687 -0.1153404
000080 4d 07 97 3d b4 cf a3 3d e8 7f 7a 3d 4a ca 56 bc
       0.073744394 0.079986006 0.061157137 -0.013109753
000090 a9 6f 38 3e 23 c5 7e bd f3 b6 5d 3d 47 f7 77 bd
       0.18011345 -0.062199723 0.054129552 -0.060538556
0000a0 23 4c 0c 3e b7 59 d3 bc 60 5f 79 bd f3 51 32 3d
       0.13700919 -0.025799615 -0.060881972 0.043535184
0000b0 55 0c 86 3c 76 17 db 3d 3a 8e a7 3d d7 eb b1 3d
       0.016363302 0.10697834 0.081814244 0.08687561
0000c0 a2 6f a3 bd 70 05 e4 3d c6 79 af bd 23 e5 6e bd
       -0.07980277 0.111338496 -0.08568148 -0.05832399
0000d0 38 79 9f 3d cb b0 1b 3e bb 46 05 3e ab 9f 26 3d
       0.077867925 0.1520416 0.13015263 0.040679615
0000e0 43 46 7d bd 30 2a ff 3d 98 6b 8f 3d 8d d0 df 3d
       -0.061834585 0.124592185 0.07002944 0.1092845
0000f0 fc 51 30 3d f9 04 04 3e 9f 3c 0f 3d 71 bc 2c 3e
       0.043046936 0.12892522 0.034969922 0.1686876
000100 4e 77 84 bc 47 6b e3 bc 6a 4d 9f bc b2 31 37 3d
       -0.01617017 -0.027761115 -0.019446094 0.044725128
000110 f1 21 5c bd 6d a4 2b bd 01 7c ca 3c dd c9 e3 3d
       -0.053743307 -0.041904856 0.024717333 0.11122487
000120 c2 2c 7d 3d 50 9c 80 bd 19 f2 5f 3d 77 90 3d 3c
       0.061810263 -0.06279814 0.05467424 0.011570088
000130 46 35 1b 3d d7 55 96 bd fe db 97 bd d9 e3 c4 3c
       0.037892602 -0.073405914 -0.07415007 0.024034427
000140 bf 10 bd 3d 26 60 f5 3d 90 a3 91 3d 84 4e 81 3d
       0.0923171 0.119812295 0.07111275 0.06313804
000150 22 46 0a be 74 19 80 3d 9a ee 7b bd 39 42 a1 3d
       -0.13503316 0.06254855 -0.061506845 0.07873959
000160 37 f1 d7 bb 7f 94 e7 bd 41 c5 0a 3e 9c 76 0c 3d
       -0.0065900343 -0.1130762 0.13551809 0.034292802
000170 9b 80 0b be ca e1 15 bc 0c ce 11 bd d2 8f 97 3d
       -0.13623278 -0.009148071 -0.035596892 0.074004784
000180 9d 0d ec bb 56 48 92 bd 1f 6a ba 3c 62 d3 82 3d
       -0.0072037713 -0.07142703 0.02275568 0.06387974
000190 87 0c fb bd d6 05 29 3e ee 74 06 3d 26 95 d0 bc
       -0.12258249 0.16506132 0.032826357 -0.025461745
0001a0 42 61 a7 3d c0 64 73 3d a6 bf af 3c 33 7c 47 3d
       0.08172847 0.059422255 0.02145369 0.04870243
0001b0 64 0f fb 3c 4b b0 a6 bd ec 31 c5 bd 69 a1 a3 3d
       0.030646987 -0.08139094 -0.096286625 0.07989771
0001c0 0f 91 33 3e 98 94 db 3c d8 48 1f be 48 d1 13 bc
       0.17535804 0.026804253 -0.15555131 -0.0090220645
0001d0 d5 6a ac 3d 1c e8 b2 3c 89 b3 af bd ee ae e1 3d
       0.08418814 0.021839194 -0.085791655 0.11019693
0001e0 76 56 96 3d 6d b4 83 3d db 11 11 3c a6 13 95 3c
       0.0734071 0.06430898 0.008854355 0.018197846
0001f0 9e b3 96 3d 0c 0a be bc ca 20 5f bd b5 d4 5c bd
       0.07358478 -0.02319815 -0.05447463 -0.05391379
000200 55 fd 99 3d cf 50 21 be 17 ae 36 3e 66 cc 85 3c
       0.075190224 -0.15753482 0.17839848 0.016332816
000210 3b 4b 81 3c 7f 9c ce 3d c2 16 0e be 37 d0 1c 3e
       0.015782943 0.10088443 -0.13875869 0.15313803
000220 c8 5a 43 be 1c 75 9d 3d 33 c3 f8 3c e5 cf 84 bd
       -0.19077599 0.076883525 0.030366516 -0.06484965
000230 64 69 0b bd 5d f8 81 bd 6a ed 36 3b 97 d4 82 3d
       -0.034036055 -0.063462 0.0027912506 0.063882045
000240 98 44 d1 3d c3 dd 97 bd 80 c5 c2 3d 37 5c 9a bd
       0.10218161 -0.074153446 0.095103264 -0.0753712
000250 8d 12 15 bd ca f9 a6 3d d8 b1 d0 bd 3d 13 fe 3a
       -0.036394645 0.08153112 -0.10190171 0.0019384396
000260 31 57 08 be 49 b7 0c be f0 e1 da bc 33 b5 2b 3e
       -0.13314511 -0.13741793 -0.026719064 0.16768341
000270 5b 73 f8 3d 5f 56 2a 3d 52 d5 22 3e e6 a2 b2 3d
       0.12131377 0.041586276 0.15901688 0.08722477
000280 d5 f1 11 bd 50 f2 33 be f4 d5 06 3d 70 85 66 3d
       -0.03563102 -0.17572904 0.032918885 0.0562796
000290 c9 2f 84 3d 54 14 fa bd 1d 83 fd 3d a3 a4 e0 3d
       0.06454427 -0.122109085 0.123785235 0.10968902
0002a0 0b b7 1b 3c c0 6e a5 bd a1 92 f5 3c 14 0b c5 bd
       0.00950409 -0.080777645 0.029977145 -0.096212536
0002b0 f5 c0 7e bc 26 2d 6d 3d e6 6d f5 bd 39 d1 b7 3d
       -0.015548934 0.057904385 -0.11983852 0.08975453
0002c0 02 45 9b 3d 83 de fb 3d d2 0b 90 bd 46 4c 72 3d
       0.075815216 0.122983 -0.070335045 0.05915477
0002d0 12 b9 b8 bd 24 d1 38 be e6 72 0e be 62 2d ca bd
       -0.09019674 -0.18048531 -0.13911018 -0.09871937
0002e0 cc bb 9e bd fe f4 c4 3d b1 0d 26 be 48 4c 1e 3e
       -0.07750663 0.09617041 -0.1621616 0.15458786
0002f0 dd 48 e6 3d 67 07 cd bc f0 1a 78 bd 9e 89 2b 3e
       0.11244366 -0.025027944 -0.060572565 0.16751716

weight_ih_l0_reverse f4 [192, 32]
000000 dd d0 8c bd 59 74 13 bd 8c ad 64 be e3 cc f8 3c
       -0.06875775 -0.03599963 -0.22331828 0.030371135
000010 77 8a 8d bd 1d a1 0a bd 18 32 df 3d b3 4f 9b 3c
       -0.06911176 -0.033845056 0.108982265 0.018958902
000020 b4 05 8f 3d cb 00 03 3d 63 dc 9f bb cc 12 a2 3d
       0.0698351 0.031983178 -0.004878567 0.079137415
000030 d8 2f a8 bd c9 1f b0 bd ae 66 0b bd 08 9e 22 be
       -0.082122505 -0.085998125 -0.03403347 -0.15880597
000040 53 fc 60 3d 89 e1 84 3c ee 60 3c 3d a8 86 ee bc
       0.054928135 0.016220825 0.045990877 -0.029116943
000050 8c f0 1f 3e 2c 29 cc 3b 2c 0a 8f bd 18 87 1d 3e
       0.15619105 0.006230494 -0.06984362 0.15383565
000060 ce cd 26 3e 8c 86 91 bd ec 38 56 3e 17 cf 21 3e
       0.16289446 -0.07105741 0.20920151 0.15801655
000070 15 2a 2d 3e 71 f6 57 bd 08 9c 00 3d a9 0a 50 3e
       0.16910584 -0.05272526 0.031398803 0.20316567
000080 98 24 de bd c5 7f 9e 3c 68 f4 8e 3d 60 e2 65 3d
       -0.108468235 0.019348035 0.069802105 0.05612409
000090 63 71 1b 3c 51 d0 97 3c 4a 15 29 bc 0a 26 3a bd
       0.009487483 0.01853195 -0.010320017 -0.045446433
0000a0 1d 1e 04 3d a6 6a d4 3a 4c f7 3e be e7 48 cc bb
       0.03225528 0.00162061 -0.18649024 -0.0062342766
0000b0 08 0f 47 3d 03 1f 8e 3b 4e e4 65 bb 04 87 28 bd
       0.04859832 0.004337193 -0.0035078707 -0.041144386
0000c0 8c b0 9a ba 6a e9 aa 3c 8f 42 9a 3d 10 49 d6 3d
       -0.0011801883 0.020863254 0.07532226 0.10463154
0000d0 8e fd e7 bc 7f 18 4c bb 06 d0 05 3e 8a c0 c8 3d
       -0.028319146 -0.003114253 0.13067636 0.09802349
0000e0 6d 7b 0f 3e 52 28 27 bd 29 9b 9a bc f3 55 0c 3e
       0.14011927 -0.040809937 -0.018872814 0.13704662
0000f0 06 09 ac 3d 1c e8 15 3d 0b 09 b0 3d 8c 00 5a bc
       0.084001586 0.03659831 0.08595475 -0.013305794
000100 f9 db bf bd 17 26 2a 3d e1 ba f7 bb 02 20 2a 3c
       -0.09368128 0.04154023 -0.0075601195 0.010383608
000110 44 2d 8b 3c 33 e1 13 3e f9 1a 33 3b 47 d1 23 3e
       0.016989358 0.14441375 0.002732931 0.15997802
000120 67 7a 7c 3d d3 13 36 3d 19 5a a1 3d 12 8b 91 3d
       0.06164017 0.0444525 0.07878513 0.07106604
000130 8c 98 2e be 33 77 15 bc e2 54 9e bb ca ff 09 bd
       -0.1705038 -0.009122658 -0.004831896 -0.033691205
000140 fb 52 10 be a7 2e a8 3d 40 12 c1 bc 1b 08 6c bd
       -0.14094155 0.08212023 -0.023568273 -0.057624917
000150 06 7f b7 3d 7a 80 8a bd 18 66 85 3b ea b3 ea 3d
       0.08959775 -0.06762786 0.0040710084 0.11460097
000160 8c c3 80 3d df 16 22 3e f8 5f 4a 3e e8 9d ef 3d
       0.062872976 0.15829037 0.19763172 0.1170004
000170 f5 00 1b 3d 65 14 38 3e 10 3c 3c bb f6 2a 42 bc
       0.03784271 0.1797653 -0.0028722323 -0.011851063
000180 ec ab 4f bd 20 1c ba 3d 65 0a 0c be 5e 96 12 bc
       -0.050701067 0.09087396 -0.1367584 -0.008946983
000190 f9 39 8c 3c b4 e6 6d bd 47 f6 e9 3d a8 e2 63 3e
       0.017117487 -0.058081344 0.11423927 0.22254431
0001a0 5b fb 5d bd be 20 9a 3c b7 c1 6c 3d 22 be 6e 3c
       -0.05419479 0.01881444 0.05780193 0.014571698
0001b0 7f 1e 63 bd 59 bb 1c 3d 86 81 98 bc e9 8f 94 3d
       -0.055449005 0.038264606 -0.01861645 0.07254011
0001c0 19 61 2d bc 76 f9 60 bd 52 b3 16 3b ab a2 a7 bd
       -0.010582232 -0.054925404 0.0022995067 -0.08185323
0001d0 ef 0b 00 bd d2 35 2d 3e 1e fd 87 3d 08 30 0b 3e
       -0.03126138 0.16915062 0.06640075 0.13592541
0001e0 a9 1b e7 3d a2 e9 0e 3e 88 6b 32 3e 31 37 15 3e
       0.11284573 0.13956311 0.17423832 0.14571835
0001f0 b3 8d 2d 3d 5f 25 c5 3d 9f e8 bc 3d 5b ca 9f bc
       0.042371463 0.096262686 0.092240565 -0.01950567
000200 14 e8 1f be b2 6b b7 bd 58 b2 02 3e 97 88 b8 3d
       -0.15615875 -0.08956088 0.12763345 0.090104274
000210 42 27 6e bd 21 ec 55 3d 88 0b 0f be 24 93 e8 bc
       -0.058142908 0.052227143 -0.13969243 -0.028390475
000220 ec ec 2b 3c b2 38 2f bd 49 41 9e bc 6c 41 b4 bd
       0.010493498 -0.04277868 -0.01931824 -0.08801541
000230 23 a2 05 bb 0e d0 d8 bd 59 7d 38 bd 8e b5 05 bd
       -0.002039083 -0.10586558 -0.045041416 -0.032643847
000240 9a 10 86 3c f0 be 81 bd 15 d7 f8 3d f6 e0 50 bd
       0.016365338 -0.063352466 0.12150399 -0.05099579
000250 d1 5d da 3d 6f c3 db 3d f4 c0 be 3d 7f 51 56 3d
       0.10662425 0.107306354 0.09314147 0.052323814
000260 0e 8a 2d 3d d8 40 82 3d cb 9b f2 bd af 46 92 3d
       0.042367987 0.06360024 -0.118461214 0.07142388
000270 80 b3 3b 3c 94 2d 75 bd ad 1e 89 3b 84 b9 f4 3d
       0.01145637 -0.05985792 0.004184565 0.11949447
000280 49 86 6f bd ba bb ce 3c 96 72 45 3c 03 cc 10 bd
       -0.058477674 0.025236 0.012051245 -0.03535081
000290 4c 2f dd 3d 8d 9b 9d 3d b3 f9 e3 bd cf 6f 59 bd
       0.10800037 0.076956846 -0.11131611 -0.053085145
0002a0 af 1f 43 bc b8 2d d2 3d 61 4e 3b bd a0 2f cd bc
       -0.011909409 0.102626264 -0.045729045 -0.025047123
0002b0 5a 83 3b 3d d4 35 d1 3d 2b 84 0e be e1 d0 89 bd
       0.045779563 0.10215345 -0.13917606 -0.067292936
0002c0 8e 19 fc 3d fd 62 81 bd ea cc 8f bd 81 bc 23 be
       0.12309562 -0.06317709 -0.07021506 -0.15989877
0002d0 bc e7 ab 3d bd b2 86 3d 0c 37 95 3d af 7e 98 3b
       0.08393809 0.0657706 0.0728589 0.0046537737
0002e0 6c e1 89 bc 96 59 a6 3d 46 30 95 3d d1 9d dc 3d
       -0.016831122 0.08122556 0.07284598 0.107722886
0002f0 e6 ba bd bc d3 7b 1b 3d 98 e8 20 3e a4 a3 96 3d
       -0.02316041 0.037959885 0.15713727 0.07355431
000300 23 01 c7 bd 95 48 10 bd 00 7c 41 3d 6e 73 4b bd
       -0.09717014 -0.03522547 0.047237396 -0.04967063
000310 80 01 22 bd 9d db ef 3c e4 df f4 3d 7b 73 6f bd
       -0.03955221 0.029279524 0.11956766 -0.05845974
000320 09 c9 b9 3c d3 26 26 3d 38 34 a5 bc 7b 1f 14 3e
       0.022678869 0.04056437 -0.020166501 0.14465134
000330 32 8c 3b bd 2c 1a a9 3d 98 59 fe 3d 3b d4 a4 3b
       -0.045787998 0.08256945 0.124194324 0.0050301827
000340 99 af 12 3e b4 2a 22 ba 78 df f8 3d 25 1d 18 bd
       0.14324798 -0.0006186173 0.12151998 -0.03713717
000350 01 81 a5 bd 1a 5c 99 3d 9b 12 9d bc 1e 13 0a be
       -0.08081246 0.0748827 -0.01917391 -0.13483855
000360 22 18 f2 3c a8 d3 94 bd d0 ec e7 3d f8 a9 91 bd
       0.029552523 -0.07266933 0.11324465 -0.07112497
000370 bf bf 27 bd 62 37 2b 3d 3b df d8 bd aa 11 f6 bd
       -0.040954348 0.041800864 -0.10589453 -0.12015088
000380 3f 9c 2d bb 87 6e c5 bc de 05 ec bc ba 10 ef 3d
       -0.0026490835 -0.024100555 -0.028811391 0.11673112
000390 1e 2c 0a 3d 70 45 52 bd ed 95 08 be 04 ac e4 3d
       0.03373348 -0.051335752 -0.13338442 0.11165622
0003a0 73 ed be bd 91 a5 37 3d 83 54 35 be d5 c5 76 3d
       -0.093226336 0.04483563 -0.1770802 0.06024726
0003b0 eb 59 96 3b 2d 8e e7 3d ab bd 0a 3d 6e 67 20 be
       0.004588356 0.11306415 0.033872288 -0.15664455
0003c0 64 0f 12 3d 14 79 18 3d 88 51 86 bd 92 d0 e0 3b
       0.03565921 0.037224844 -0.065585196 0.006860801
0003d0 39 30 b7 bc b3 d6 39 3d 97 de 0d bd f2 ef 4c 3d
       -0.022361862 0.04537077 -0.034636106 0.050033517
0003e0 63 cc bb 3d 14 36 21 bd fc ee 8e 3c 49 14 33 3c
       0.09169843 -0.039358214 0.017447941 0.010930129
0003f0 61 ea dd 3d ff 90 d3 3d 01 ed 48 3d d3 3c b0 bd
       0.1083572 0.1033039 0.04905415 -0.08605351

weight_hh_l0_reverse f4 [192, 64]
000000 df 13 ee bc 54 ba 4c 3d ea 10 b9 bc 72 59 e2 bd
       -0.02906221 0.049982384 -0.022591073 -0.110522166
000010 39 6d 2d 3e c7 2a 8c 3c c2 34 8f 3d 49 c6 8f bc
       0.16936196 0.017110242 0.06992485 -0.017550604
000020 d5 3c 1c bd b4 65 ec 3d f9 1d 55 bc bd 28 96 bd
       -0.03814395 0.11542836 -0.013007634 -0.07331989
000030 4c ff 42 3e df 80 be bd 09 d6 16 3d 4a b5 1f 3d
       0.190427 -0.09301924 0.036825214 0.03899125
000040 7e fe 83 3e 36 28 3d be ce cf 6e bd e4 c3 cd 3d
       0.257801 -0.1847237 -0.058303647 0.10047129
000050 9a 57 a4 3d a6 3d 9c bd d7 5e 87 bd 30 60 0d be
       0.08024521 -0.07628946 -0.06609886 -0.13806224
000060 ca 3f a4 bd 07 ac dc bc 41 b1 5d 3d 01 be 86 bd
       -0.08019979 -0.026937498 0.05412412 -0.06579209
000070 ab af 10 3d 17 5f c4 bb d4 a0 95 3d 92 5e d6 3d
       0.03532378 -0.005992781 0.07306066 0.104672566
000080 4d ab 2e bd 8e 52 97 3d 5b 97 18 bc 97 fe e9 3d
       -0.042643834 0.07388793 -0.00931343 0.11425512
000090 6c fd a7 bc 4a 03 47 3b a0 2f 10 be 1c cb d8 3c
       -0.020506583 0.003036695 -0.14080667 0.026464038
0000a0 03 9d 0b 3e 29 21 18 bd 36 1a 8e bc 50 ca 2f 3d
       0.13634114 -0.037141 -0.017346483 0.04291755
0000b0 60 bd e4 bc 9a a1 46 bc 3d a8 08 bd be 40 95 3d
       -0.027922332 -0.01212349 -0.03336357 0.07287739
0000c0 2e 3c 19 bd cf 93 97 bc 77 2c 04 3e b7 5e 2c 3e
       -0.037410907 -0.018503098 0.12907587 0.16833006
0000d0 e7 9b 3e bd e1 ad 91 bd c2 0b d2 bd ec 74 25 3d
       -0.0465354 -0.07113243 -0.10256149 0.04039471
0000e0 8b 08 a0 3d 5d 9d 99 3d 81 5a b0 bd 47 74 e6 3d
       0.078141294 0.07500718 -0.08611012 0.11252647
0000f0 23 42 c3 3d a8 e9 83 bd 90 15 0f bc ab de c0 bd
       0.09534099 -0.06441051 -0.008733168 -0.094174705
000100 74 c9 b5 3d 8e 02 c8 3d 25 d6 f1 bc e8 37 c5 3d
       0.08876315 0.09766112 -0.029521057 0.09629804
000110 d5 a8 01 3e 11 d8 d8 3d e2 5f c3 bd 50 4e 62 3d
       0.1266206 0.105880864 -0.095397726 0.055250466
000120 24 aa 0b 3e 8b 5f 0b be 9a 9b 0e be 63 e9 56 3d
       0.13639122 -0.13610666 -0.13926545 0.05246867
000130 ed 8b 00 3e 3d 08 7a be 9d 58 ba bd 2f 6c 5d 3e
       0.12553377 -0.24417205 -0.09098933 0.216233
000140 7b 0c a9 3d 4f b2 bb 3d b4 82 1f 3e df 4b 60 be
       0.082543336 0.09164869 0.15577203 -0.21903943
000150 2e a4 02 be 56 bf 8d bd ae 2d 50 3d aa 7b 52 bd
       -0.12757942 -0.0692126 0.050824814 -0.051387466
000160 74 95 c1 3d 60 2e 45 3c 82 b8 8a 3d d2 4d 9a bd
       0.09452334 0.012034982 0.06773473 -0.07534374
000170 e7 7c 2f bd 91 4a 63 bc fa 22 f1 bd 8d 5c 74 3d
       -0.042843726 -0.0138727585 -0.117742494 0.059658576
000180 82 df 46 bd d2 19 ab 3d 79 37 d4 3d 9b cc 1b 3e
       -0.048552997 0.08354534 0.10362143 0.1521477
000190 d2 39 49 bd f8 25 81 bd 13 1c 50 bd 0e 38 d7 3c
       -0.049127407 -0.0630607 -0.050808024 0.026271846
0001a0 15 a4 19 bc 4a 21 af bd bb 46 cc bd d1 71 ad bd
       -0.009377499 -0.08551271 -0.09974428 -0.084689744
0001b0 2a cf ce bd ff 98 33 3d 69 60 b8 bc 69 e1 c2 bd
       -0.10098107 0.04384708 -0.02250691 -0.0951565
0001c0 1b 3a bd bc fc 47 68 3d 33 fa e2 3c 8e d3 2a 3d
       -0.023098996 0.056709275 0.027707195 0.04170566
0001d0 0d c8 83 bc fe b0 49 bd ea e8 3e be e0 69 17 be
       -0.016086603 -0.04924106 -0.18643537 -0.14786482
0001e0 ed 9b 9f 3c 2d 67 b3 3d d0 d4 87 3c 38 37 15 bd
       0.01948353 0.087599136 0.01658097 -0.036429614
0001f0 65 0a 43 3d 11 00 fb bd dd 31 f8 3d e8 c1 05 3e
       0.047617335 -0.12255872 0.12118886 0.1306225
000200 03 17 7e 3e 14 13 39 3e 60 d4 1f 3e fe c9 28 bd
       0.24813466 0.18073684 0.15608358 -0.04120826
000210 e6 97 98 3b 8c e9 fb 3c f6 f3 dd 3d f6 1b 9e 3d
       0.0046567796 0.030751012 0.108375475 0.07720177
000220 8b 66 6b bc 64 e9 cf bd 52 e3 31 bd b0 03 bc 3c
       -0.01436771 -0.101519376 -0.04342968 0.022950977
000230 89 ed f0 bd 51 be 0b 3d 68 b4 3b 3d 63 be e1 3c
       -0.11764056 0.034117047 0.045826346 0.027556604
000240 74 2a 92 3d b9 53 96 bd fa ce 81 3c 80 cb d2 3c
       0.071370035 -0.073401876 0.015845764 0.025731802
000250 a0 72 ae bd 20 0b 1a 3c 41 10 9b 3c bd cb fe bd
       -0.08517957 0.0094020665 0.018928649 -0.12441204
000260 1f 1b 99 bd c3 ce 53 3e a6 3d 18 3d ad c8 86 bd
       -0.07475876 0.20684342 0.037168168 -0.065812446
000270 e1 dc 24 3c d9 af b5 3b bc 5c 29 be 6c 0d 48 3d
       0.010062427 0.0055446443 -0.16539282 0.048840925
000280 68 39 5c 3d 0c a7 ea 38 2c 48 b8 3d 99 5a 02 bb
       0.053765684 0.000111891044 0.08998141 -0.0019890426
000290 7b 17 b4 3c 01 59 b3 3d 05 e0 e6 bd a6 60 d9 3d
       0.021983853 0.087572105 -0.11273197 0.10614137
0002a0 95 ec 1f 3c e1 78 0f bd 01 64 97 3c 54 88 8c bc
       0.009760995 -0.03502739 0.018480303 -0.01715485
0002b0 d0 5a f9 bd 9b 11 08 be f5 fe de bb 03 d6 29 be
       -0.12175524 -0.13287966 -0.0068052956 -0.16585545
0002c0 97 62 a5 bd c0 6a 9d bd d1 19 92 3c b4 c7 1f be
       -0.08075445 -0.076863766 0.017834576 -0.15603524
0002d0 a5 bb 57 bd b3 34 c3 bd b8 c0 1d 3a 11 a4 56 3b
       -0.052669186 -0.09531536 0.0006017792 0.00327516
0002e0 17 12 9a 3d a4 56 09 be 84 e2 fd bd 8c cd 91 bd
       0.075229816 -0.13411957 -0.1239672 -0.07119283
0002f0 01 50 3c 3d fd 13 aa 3d 80 27 28 3e 05 cc a1 bd
       0.045974735 0.08304594 0.16421318 -0.07900242
000300 7e 04 30 3e 28 d3 5d 3e 61 ec 66 3d c6 1f 04 bd
       0.17189214 0.21662581 0.056377772 -0.032256864
000310 fd c4 00 bd 36 90 e1 bd da e3 dc bd a7 2d 2b bd
       -0.031437863 -0.11013834 -0.10785647 -0.041791584
000320 9d 3f c9 3c 70 f3 27 3d 33 c9 f3 bd ad ac 81 3e
       0.024566466 0.041003644 -0.1190361 0.25327054
000330 73 c3 e9 bd da 5e b2 bd a4 5d 3b 3e c1 ed 99 bd
       -0.11414232 -0.08709498 0.1829744 -0.07516051
000340 86 09 20 3e 96 ef 5f be 15 58 dd bc 9a 7a 33 be
       0.15628633 -0.21868739 -0.02701954 -0.17527238
000350 73 29 15 bd 41 37 1f be df e0 56 3d 0f cc e6 bd
       -0.036416482 -0.15548421 0.052460548 -0.1126939
000360 1c 0c 03 3e f7 87 8d bc 7d 69 dc 3d 2a 0b 42 be
       0.12797588 -0.017276747 0.10762308 -0.18949571
000370 7a 4a 84 be db 35 2e 3e 06 3f 09 be d6 99 29 3d
       -0.2583807 0.17012732 -0.13402948 0.041406475
000380 b4 ef a4 bd 7c 72 77 3d b9 38 f9 3c 2d ae 29 bc
       -0.08053532 0.060411915 0.030422555 -0.010356468
000390 ba a6 42 3e f4 6e b2 3d 1d 32 12 bd 4f 94 c2 bd
       0.19008914 0.08712569 -0.035692323 -0.09500944
0003a0 d5 11 6e bd a4 89 a3 bc f3 3b 2b bd 95 ae 86 3b
       -0.058122475 -0.019963093 -0.04180522 0.0041101673
0003b0 ee 77 82 be 28 21 3d 3c 95 d0 46 3e 7e 4c a0 3d
       -0.25482124 0.01154355 0.19415505 0.0782709
0003c0 11 08 11 be e3 ee 65 be 8e af 15 3e a7 13 af 3d
       -0.14163233 -0.2245441 0.1461775 0.0854867
0003d0 2d 81 3f bc 21 36 ba bd 8c 9c cf bd ca 92 72 3e
       -0.011688513 -0.090923555 -0.10137281 0.23688808
0003e0 10 c9 3c 3e 4d aa 7d bc a5 3e 3f be 25 a6 46 bd
       0.18436074 -0.015482497 -0.1867624 -0.04849829
0003f0 5b be 08 be fd ae 9f 3d c5 47 2d bd 20 15 66 3c
       -0.13353865 0.07797048 -0.042304773 0.0140431225

bias_ih_l0_reverse f4 [192]
000000 f4 01 00 37 0e 52 13 3e 4b ed c4 3d 67 45 00 3e
       7.629849e-06 0.1438677 0.096155725 0.12526475
000010 32 f5 11 bd 0c 49 a4 3b da ca e1 bd a1 fa a7 3d
       -0.035634227 0.0050135907 -0.11025019 0.082021005
000020 2c 86 39 3d 08 d8 13 3e ea 9c a6 3d 8d 09 8a 3c
       0.045293972 0.14437878 0.08135398 0.016850257
000030 1c 80 e3 3d 19 56 0d 3e 21 22 26 3e d6 a8 d6 3d
       0.11108419 0.13802375 0.16223957 0.10481422
000040 30 c8 ac 3d 7a 91 d9 3d b0 7c 90 bd 8a 29 95 3c
       0.0843662 0.106234506 -0.07055032 0.018208284
000050 ba d1 e8 3d 4b 99 76 3d 13 4b bd 3c 30 84 e5 3d
       0.11368127 0.060204785 0.023107087 0.112068534
000060 1a 13 a2 3c c5 9d cf bc e3 b4 62 3c 21 c7 9b 3d
       0.019784499 -0.025343785 0.013837072 0.0760634
000070 72 71 82 3d 61 ab 0d 3d b4 4d 18 be e6 73 0f 3c
       0.06369294 0.034587268 -0.14873391 0.00875566
000080 7b b7 81 bd 6a dd 49 bd c3 c6 48 bd 8f cc 1c 3d
       -0.06333824 -0.049283423 -0.04901768 0.03828102
000090 43 cc 00 bd 08 25 17 bd 9c d9 17 3e 09 c8 b5 bd
       -0.0314448 -0.03690055 0.14829105 -0.08876044
0000a0 42 5b ad ba 49 00 d2 bc 1d b8 91 bc 5b 92 d7 bd
       -0.001322605 -0.025634902 -0.017787987 -0.10525962
0000b0 15 a4 bb bd 99 86 62 3c 14 a6 49 3d 93 ec 70 3d
       -0.091621555 0.013826036 0.04923065 0.058819365
0000c0 2b b8 d4 3c c8 0f d3 3d 41 53 1e 3e 99 4b 2b 3e
       0.025966724 0.103057444 0.15461446 0.16728057
0000d0 e0 5a 8a bd d7 63 9b 3d 97 64 65 bd 34 f3 fb 3d
       -0.06755614 0.07587402 -0.056004133 0.12302247
0000e0 3b de 2e 3d aa e6 37 3e c9 70 28 3e 0c 3b 1f 3e
       0.042692404 0.17959085 0.16449274 0.15549868
0000f0 3c 6e 27 3c 6f ab 7b bd 3e 47 c4 bd 21 7f b1 3d
       0.010219153 -0.06144279 -0.09583901 0.08666826
000100 87 f1 d1 3d 6e 23 20 3e 8c 57 b4 bd 35 eb a8 bd
       0.10251146 0.15638515 -0.08805761 -0.08247987
000110 59 99 fb bd de 50 a5 bd 08 cc 11 3e 7d e6 21 bd
       -0.12285108 -0.08072065 0.14237988 -0.03952645
000120 9b 2f bd 3b 80 63 96 3d 61 6f 8a 3c 3c 02 24 3d
       0.0057734973 0.07343197 0.016898813 0.040041193
000130 56 e5 1d 3d 5b 30 c0 bd ca 55 a3 3c af 8d 2c bd
       0.03854879 -0.09384223 0.019938368 -0.042127308
000140 d7 e7 ae 3b 6e a0 d2 3d ed d7 fe bd 75 71 14 bd
       0.005337696 0.10284506 -0.12443528 -0.036241014
000150 45 8c 8f 3d 78 24 62 bc 51 5e 01 bd 34 9b 98 bc
       0.07009176 -0.01380264 -0.031584088 -0.018628694
000160 d9 b8 07 3e d2 e3 b8 bd 11 d9 d3 3d f9 54 0e 3e
       0.13254108 -0.09027828 0.103441365 0.13899602
000170 e0 4f 03 bd 6e 83 a1 3d 2b 57 77 bd 92 03 04 bd
       -0.032058597 0.07886396 -0.060385864 -0.032229967
000180 58 85 2f 3e 7b 3b 89 bd e9 81 6c bc 7c 25 97 bb
       0.1714071 -0.06700798 -0.01443527 -0.004612623
000190 53 3a 28 be fa 70 e9 3d e8 43 7b 3d 71 0b 22 bd
       -0.16428499 0.11398502 0.061344057 -0.039561693
0001a0 cd 4d 03 be bf e9 be 3c 3b ab c6 bd f9 4b d1 bd
       -0.12822647 0.023304818 -0.09700628 -0.10219569
0001b0 a9 5a bc bd c1 28 7b bd 19 2e 18 3e a9 8c 6f bd
       -0.091969796 -0.061318163 0.14861335 -0.058483753
0001c0 62 01 cb 3d 10 d5 53 3d 81 d1 40 bc 4b 5a 34 3b
       0.09912373 0.051716864 -0.0117687 0.002751964
0001d0 18 48 18 be 8f d1 51 bc 5d 41 09 3d f0 21 ba 3d
       -0.14871252 -0.01280631 0.0335096 0.09088504
0001e0 9d c6 20 3d 1d c9 3a 3d 34 27 cf 3c 3b e6 62 3d
       0.039251912 0.045601953 0.025287248 0.055395346
0001f0 d0 4b fe 3d b3 21 dd 3d e2 00 4d b9 0c a8 d7 3d
       0.12416804 0.10797443 -0.00019550652 0.10530099
000200 c0 e6 01 3e cb e8 0e 3e a2 39 74 3d 3f 60 b3 bd
       0.1268568 0.13955991 0.059625275 -0.08758592
000210 3b f8 59 3d b4 f8 62 3d 93 b0 e0 3d b2 a2 9b bc
       0.053215247 0.055412963 0.10971179 -0.018998478
000220 74 6a e2 bd de 55 78 3d 11 f5 df bd 70 ad bb 3d
       -0.110554606 0.060628764 -0.109354146 0.0916394
000230 83 4e 5b 3d 26 9a ce bd 00 17 be bc de 01 27 3d
       0.05354167 -0.10087995 -0.023204327 0.040773265
000240 78 4d 88 bd b7 50 2d 3c 3b 00 83 bb f9 6f f1 bd
       -0.06655401 0.010578326 -0.00399783 -0.11788935
000250 2a 5e a9 3d 50 f0 09 3e 66 a4 a6 bd fe 2a 82 bd
       0.082699135 0.13470578 -0.08136825 -0.06355856
000260 9a cd 00 3e 18 59 63 bd 32 39 ce 3d db aa f1 3d
       0.12578431 -0.05550489 0.10069503 0.11800166
000270 57 1f 6e bd 6e 30 aa bd e6 71 87 3d 84 c0 ad 3d
       -0.058135357 -0.083100185 0.06613521 0.08483985
000280 f1 23 2c bd 64 8f de bc 66 44 54 bc 84 16 9c 3d
       -0.042026464 -0.027167983 -0.012955761 0.07621482
000290 6a 4b 94 bd b9 09 22 3d 80 15 3b 3d c6 fb 0a 3e
       -0.072409466 0.039560053 0.0456748 0.13572606
0002a0 78 50 38 3d dc 73 71 bd 88 03 e8 bc c2 9b 1e 3d
       0.044998616 -0.058948383 -0.028321996 0.03872276
0002b0 f3 d1 99 3d 52 78 38 3d f6 3f c6 bd fa 64 58 3d
       0.07510748 0.04503662 -0.09680168 0.052830674
0002c0 98 cf a5 bd 16 3e c4 bd 99 60 90 3c 2f d3 2b 3e
       -0.08096236 -0.095821545 0.017624186 0.16779779
0002d0 35 2f 47 3d e3 0e f6 3d ce fd 91 ba 6e 6d e6 bd
       0.048629005 0.12014558 -0.0011138262 -0.11251341
0002e0 68 35 2d bc cd 12 fd 3b 7f 05 d1 bd e8 e7 7c bc
       -0.010571815 0.0077231885 -0.102061264 -0.01543615
0002f0 81 a7 8c 3c d5 8f ec 3d 7a bf 99 bd fb 99 86 3d
       0.017169716 0.11550871 -0.075072244 0.06572338

bias_hh_l0_reverse f4 [192]
000000 a2 2a 04 bd a7 6a 86 3b 70 f0 11 3e 10 2a 72 3c
       -0.03226722 0.0041020694 0.14251876 0.014780536
000010 18 46 77 bd a9 78 59 bd 84 8f 8f 3d 9f f9 04 3e
       -0.06036958 -0.053093586 0.07009795 0.12985848
000020 89 04 c4 bd fd e2 05 3b 37 96 bd 3c 67 96 c0 bd
       -0.095711775 0.0020429485 0.023142917 -0.09403687
000030 64 0d b9 3d 87 6c 80 bd df 8c 10 3d 69 d0 f0 bc
       0.09035757 -0.062707 0.035290595 -0.029396253
000040 bc 0e c6 bd 0c 25 fd bc 37 17 0c 3c cc 44 d9 3d
       -0.09670779 -0.030901454 0.008550457 0.10608825
000050 f3 6c b8 3d 2b e1 0c bc 6c 62 e6 bd 96 b0 3c bd
       0.090051554 -0.008598606 -0.11249241 -0.046066843
000060 46 08 69 3d ee b9 1c bc d9 59 82 3d 5e bb 83 bd
       0.056892656 -0.0095658135 0.06364793 -0.06432222
000070 5a 6c f1 3d 72 3d 86 bd 77 56 61 bd f3 83 e3 3d
       0.117882445 -0.065546885 -0.0550141 0.11109152
000080 59 33 8c 3d 57 79 b4 3c 94 d2 5b 3d 74 e3 f0 bd
       0.06845731 0.022030516 0.05366762 -0.11762133
000090 80 81 c9 3d cb a2 ec 3d d9 8e 80 bd bc 8a 40 bb
       0.09839153 0.11554488 -0.06277246 -0.0029379567
0000a0 f7 c4 62 bd 07 c1 16 3e 3f 67 16 3e 47 cf 9a bd
       -0.05536362 0.14722072 0.14687823 -0.07559066
0000b0 9d 49 bf bd a7 c0 97 bd b7 3e 0d 3e eb fc 97 3d
       -0.093402125 -0.074097924 0.13793455 0.07421287
0000c0 c1 5b 07 3e 77 81 b5 3d 70 68 25 3e 2a 86 09 bc
       0.13218595 0.08862584 0.16153121 -0.008393804
0000d0 47 8e 18 3d 7c 89 c1 3d ba bf c0 bd a9 fd 6c bd
       0.03724506 0.09450051 -0.09411569 -0.057859097
0000e0 01 14 e4 3d f4 3b 22 3b 91 33 93 3d 43 28 ad bc
       0.11136628 0.0024754973 0.0718757 -0.021137362
0000f0 04 c4 27 bd 24 6a 3a bd 17 7e fa bc 95 43 3e 3d
       -0.04095842 -0.04551138 -0.030577702 0.04645117
000100 bc 07 63 bd fb ab ad 3d 76 8c ad 3d 58 61 c8 3c
       -0.055427298 0.08480068 0.084740564 0.02446048
000110 11 e0 86 3d 93 c7 06 3e 02 50 7d 3d 65 34 5d bc
       0.06585706 0.13162069 0.06184388 -0.013501261
000120 e4 e8 b8 bd 27 98 44 bd 44 f0 75 bd 61 72 b6 bd
       -0.09028795 -0.047996666 -0.06004359 -0.08908535
000130 e7 25 87 bc 0c d2 e1 3d 93 f1 16 3e d7 5c 11 3d
       -0.016497565 0.110263914 0.14740591 0.03548893
000140 75 ce 11 3e bc 42 17 3e bb ba b9 3d dc 2c cf 3b
       0.14238913 0.14771551 0.09068819 0.0063224863
000150 3f 5c 57 bd 2c 09 a8 bd 74 74 96 3d 25 f7 2f bd
       -0.052578207 -0.082048744 0.073464304 -0.042960305
000160 17 4e 28 bc 1a ca e5 3d 19 09 17 3d 47 b6 ac 3d
       -0.010272524 0.112201884 0.03687391 0.08433204
000170 52 b2 af bd 80 23 9f 3d 51 78 5b bd df f4 97 3d
       -0.08578934 0.07770443 -0.05358154 0.07419752
000180 a8 c1 31 3c fb 19 bb 3d 79 7b b7 bd 26 1f 00 3d
       0.010849394 0.09135815 -0.089590974 0.031279705
000190 46 31 44 3d f9 0f 96 bc ee 5e ae bd 3b ad 31 bd
       0.047898553 -0.018318163 -0.085142 -0.043378096
0001a0 c0 df 98 bd b9 0b a5 bd 9a ce 14 be 51 72 a4 3d
       -0.07464552 -0.080588765 -0.14531937 0.080296166
0001b0 0d 98 90 3d 96 c4 29 3d db 7e 5e 3d 32 26 5a bd
       0.070602514 0.041447245 0.054320198 -0.053259082
0001c0 20 0b 0a bd 12 12 0a be 55 e4 02 3d 0c 76 73 3c
       -0.033702016 -0.13483456 0.031956036 0.014859688
0001d0 47 ae 1a bd 33 cf a1 bd 86 2a e1 3d ba f9 b2 bd
       -0.03776386 -0.07900848 0.10994439 -0.08739038
0001e0 10 d4 74 3d 3c 03 7e bb 54 f5 3b 3d 6c c4 ab 3d
       0.05977255 -0.0038759252 0.04588826 0.08387074
0001f0 a2 23 e3 3d b6 2f 7e 3d b7 41 40 3c 94 1d 19 bd
       0.11090781 0.06205722 0.011734418 -0.037381724
000200 47 08 04 3e 1b f4 26 3d 7f 90 de 3b b4 11 0b 3e
       0.12893783 0.04076014 0.0067921276 0.13580972
000210 37 b3 aa 3c c3 74 32 be b0 b3 06 3c cd 74 8d 3d
       0.02083741 -0.17427354 0.008221552 0.069070436
000220 a3 63 05 be 56 d8 b0 3c 14 bb 80 bd e3 18 5a bd
       -0.1302629 0.021587532 -0.06285682 -0.05324639
000230 0f ea 05 3d 6b ee c9 bc 71 01 16 3e 93 b2 80 3d
       0.03269392 -0.02464982 0.14648987 0.0628406
000240 de 2c a1 bd 59 04 62 3d 1c 18 0a 3e 52 d3 5f bc
       -0.07869886 0.055179927 0.1348576 -0.0136612225
000250 3c b7 39 3e a9 33 b5 bd 26 81 91 ba c5 bd 0e bd
       0.18136305 -0.08847744 -0.0011101111 -0.034848947
000260 74 8a 24 3e be eb ed bc 08 5b f7 3d 97 55 5f bd
       0.1606844 -0.029043075 0.1207791 -0.054524984
000270 dc a0 6c 3d 4e 28 83 bd 7e 70 1d 3e 3b a9 38 3e
       0.057770595 -0.06404172 0.15374944 0.18033306
000280 95 9b 0c 3e d2 1f ff 3d 88 a4 d1 3d a7 fd 20 3d
       0.13731225 0.12457241 0.1023646 0.0393044
000290 32 b9 fa 3d 6d 94 28 be c1 db fe bd 27 f8 19 bd
       0.122423545 -0.1646287 -0.124442585 -0.037590172
0002a0 d4 db 41 3e 0f b8 d2 3c c3 ec 0e 3e 4f cc e0 3c
       0.18931514 0.025722532 0.13957505 0.027441172
0002b0 5d dd 00 3e ef 46 85 bc c8 72 6c 3d 9f fd c9 3d
       0.12584443 -0.016269175 0.05772665 0.098628275
0002c0 25 1e b8 bd 97 38 85 bd 1b c5 3c 3d d5 5f db 3c
       -0.089901246 -0.06504934 0.046086412 0.026779095
0002d0 86 3f f0 bb a5 9a 82 bd 4a bb 69 bd a8 9a 07 be
       -0.0073317913 -0.06377152 -0.05706338 -0.1324259
0002e0 ef 53 2a 3e 0b b3 8a 3d 35 2d a8 3d 38 49 2d bc
       0.1663358 0.06772431 0.082117476 -0.010576539
0002f0 a8 03 83 bd ed 89 6f 3d b9 cb f3 3d f8 fd aa 3c
       -0.06397182 0.058481146 0.119040914 0.020873055
