models/model_pmemo_russell4q.pth (torch, 506588 bytes, 10 tensors)

weight_ih_l0 f4 [384, 32]
000000 0a b5 7b 3d b0 e3 70 3d 57 05 e0 3d 4a 28 af 3d
       0.06145195 0.05881089 0.109385185 0.085526064
000010 1b e8 60 bd bd 7a 81 3c dc ce 03 3d be 67 56 3c
       -0.054908853 0.015805596 0.0321797 0.0130862575
000020 e3 30 25 bb 66 84 b8 bd db 40 82 3c 5c 22 99 3d
       -0.002520614 -0.09009628 0.015900066 0.07477257
000030 7f 4e b9 bd 53 d7 90 bd 1f a1 27 be 29 20 88 bd
       -0.09048175 -0.0707232 -0.16370057 -0.06646759
000040 95 d9 5d bd a9 2b a3 3d 22 56 37 3d 60 30 b2 3c
       -0.05416258 0.07967312 0.044759877 0.021751583
000050 08 95 f7 bc 9c b6 c3 3d e9 54 10 bd f7 65 86 3d
       -0.03022243 0.09556314 -0.035237227 0.06562417
000060 26 76 66 3d c6 66 9d 3c 0f e4 cd 3d c6 77 a7 3c
       0.05626502 0.019214045 0.10053264 0.020442855
000070 d4 cf 46 bc 46 d1 40 bd e4 69 9e bd 10 8b 15 3d
       -0.012134511 -0.04707458 -0.07735041 0.036509573
000080 40 6f 89 bd 0a 36 89 bb 4d b5 61 3d 46 d7 e9 3d
       -0.067106724 -0.00418735 0.055104543 0.11418013
000090 48 87 3a bd df c4 8c 3c a1 ab 8f 3d 05 d3 19 bc
       -0.04553917 0.01718372 0.070151575 -0.00938869
0000a0 56 23 7d 3d fc 48 10 3d 38 e5 0f be 33 89 05 3d
       0.061801277 0.035225853 -0.14052284 0.032601546
0000b0 78 1b 6e bd cb e3 36 bd 60 00 17 be 5c bc d0 3d
       -0.058131665 -0.044650834 -0.14746237 0.10192177
0000c0 99 c9 2e 3d 7e 30 af bb 3c f6 0b bd 09 72 00 3e
       0.042672727 -0.005346357 -0.034170374 0.12543501
0000d0 3d 55 5d 3d 2c 9e a9 b9 a4 69 8c 3c 3a de 5c 3d
       0.054036368 -0.0003235204 0.017140217 0.05392287
0000e0 0b 0a 17 3e 12 05 44 3c 14 44 b0 3c 5c f8 e9 3d
       0.14749925 0.0119640995 0.021516837 0.11424324
0000f0 41 f2 ff 3d 7e 54 97 ba be b2 bc bb 22 ca 28 bd
       0.12497378 -0.0011545566 -0.0057586124 -0.041208394
000100 f2 c1 89 3d fd d4 5d bc e3 b3 bb bd 09 1f 9c bb
       0.06726445 -0.01353955 -0.0916517 -0.004764442
000110 97 d4 11 bd 75 bd f7 3c ad bd 99 bd ea d3 06 be
       -0.035603132 0.030241707 -0.07506881 -0.13166776
000120 a7 f7 89 3d 14 88 1a bd db 3f 28 3d 5e 21 e1 bd
       0.06736689 -0.03772743 0.041076522 -0.109926924
000130 d2 da 00 be e6 8b 1f be 76 85 2b bd 5a fc c7 3d
       -0.12583473 -0.15580711 -0.041875325 0.09764929
000140 4a 50 c4 3d ee 36 fa 3d b5 fc de bd f3 7c 1a bd
       0.095856264 0.12217508 -0.10888044 -0.037716817
000150 1b b6 e1 bd 0a a3 fe bc 1a 76 85 bd ea de c6 bc
       -0.11021062 -0.031083602 -0.06516667 -0.024276216
000160 4d b3 46 bd ee 01 2f bd c8 76 50 3d ba c5 22 bd
       -0.04851084 -0.04272645 0.05089453 -0.039739348
000170 40 f4 98 3b 77 ec 9f bd 8a 71 c3 bd a4 d3 c1 bd
       0.0046677887 -0.07808774 -0.0954314 -0.09464195
000180 ff 45 48 3c 1d 2d 86 bd a4 3f d9 3c fe 64 87 3d
       0.01222372 -0.065515734 0.026519604 0.066110596
000190 31 ea 18 bc cb 0f b5 3d 91 72 e0 3c bb 39 75 3d
       -0.009333179 0.08840903 0.02739838 0.05986951
0001a0 c1 5f be 3d 29 1f 0f 3d c3 d8 a1 bc 7c 17 8b 3d
       0.09295607 0.034941826 -0.01975668 0.06791589
0001b0 c1 d3 86 bd e8 fe 37 3b 06 7b 47 bd c2 92 22 3d
       -0.065833576 0.002807552 -0.04870131 0.03969074
0001c0 b5 f4 d9 3d 51 be 0e 3e 1a a0 c8 bb f6 17 c2 bd
       0.10642377 0.13939787 -0.006122601 -0.094772264
0001d0 a8 a4 40 3e 2e f7 8f 3d 9e 64 58 3e 44 6a d5 3d
       0.18812811 0.07029568 0.21132132 0.10420659
0001e0 f3 4a 56 3d 4a 30 1a 3e 21 2a 05 3e d9 5a 37 3e
       0.05231757 0.15057483 0.13004352 0.1790575
0001f0 02 8d 39 3e 34 a1 65 3e 3a 0a 81 3d e2 0f 31 3e
       0.18120196 0.22424775 0.06300779 0.17291215
000200 bc bd b2 bc b3 e5 36 3d 17 18 66 bc 65 c0 05 bd
       -0.021818988 0.044652652 -0.014043829 -0.032654185
000210 d6 8e ed 3c 92 1d a1 3d dd 42 81 bc 02 14 a6 b9
       0.028998774 0.07866968 -0.015778953 -0.00031676894
000220 e9 47 fb bc dd 8e 41 3d 0d 32 a8 3c 11 98 34 3d
       -0.030673938 0.047255386 0.020531679 0.044090334
000230 45 47 2f bd 26 3f 67 3d d5 48 b5 3d f0 7b b1 3d
       -0.042792577 0.056456707 0.08851782 0.08666217
000240 52 de 79 3c 86 72 c1 3b ad a8 67 bd 37 bb 87 3c
       0.015250759 0.005903545 -0.056557346 0.016568763
000250 20 5e d5 3c ee 9e 08 bc db 7b 94 3d 23 60 9f 3d
       0.026045859 -0.008338673 0.07250186 0.077820085
000260 fa 3e 13 3d cd 82 e7 3d 23 dc 65 3d 5a 03 f3 3d
       0.03594873 0.11304245 0.05611814 0.11865874
000270 16 a0 05 3e 17 2e 0b 3e bc f0 78 3d a6 9a 29 3c
       0.13049349 0.135918 0.060776457 0.0103518125
000280 32 f0 44 bd 35 f5 f3 3b ab e5 8d bd 32 4a ac 3d
       -0.04808063 0.0074450024 -0.06928571 0.08412589
000290 a3 fe a1 bd c4 3b 65 3c ba 74 47 bd 01 65 6b bd
       -0.07909896 0.0139913 -0.048695303 -0.05746937
0002a0 84 43 f7 3c f4 67 5c bd 82 3f ac bd cb e3 b5 3d
       0.030183561 -0.053810075 -0.08410551 0.08881339
0002b0 e1 d9 57 bd 76 52 c6 b9 47 54 6d 3d 7f 5c 82 3a
       -0.05269802 -0.0003782694 0.0579417 0.0009945779
0002c0 fa 06 e5 3c 42 60 86 3d f2 a3 06 3c 70 60 1e 3c
       0.027957428 0.065613285 0.008217799 0.009666547
0002d0 2c b3 c7 3d c1 2b 1a 3c b6 b9 ca 3c ca d7 20 3e
       0.09750971 0.009409846 0.024746757 0.15707317
0002e0 e5 90 94 3d dc 5c 23 3e 6a 5b 04 3e 3c 70 0d 3e
       0.07254199 0.15953392 0.12925497 0.13812345
0002f0 ec 81 c0 3d a4 34 b1 3d e0 cf 0a 3d cb d7 ae 3c
       0.09399781 0.086526185 0.03388965 0.021343132
000300 89 39 03 3d 15 ac fd 3c 3f 1a b8 3d fb 6f 88 bc
       0.03203729 0.030965844 0.08989381 -0.016654959
000310 d0 64 65 3d eb 25 ad bc 22 fc ba 3d c0 85 ad 3d
       0.056004345 -0.021136245 0.09130122 0.084727764
000320 97 bf 48 3d 43 5b 87 3b 28 55 14 bd 28 4f 0e 3e
       0.04901084 0.0041307523 -0.036214024 0.13897383
000330 38 26 c8 3a 9b 19 c7 3d 57 a3 f1 3c 84 09 21 3e
       0.0015270179 0.09721681 0.029496832 0.15726286
000340 7e 7c e0 3d 6c 2e 4b 3c 59 51 94 bd 86 59 5b 3d
       0.10961245 0.012401205 -0.07242078 0.053552173
000350 f6 60 28 bd ee ad 39 3d 16 f0 ef 3d 96 17 2d bb
       -0.041108094 0.045331888 0.11715715 -0.0026411763
000360 ef df 5f 3d 1f f2 92 bb 8b 57 b0 bd 72 fd 0f bd
       0.05465692 -0.0044844295 -0.086104475 -0.035153814
000370 2b b0 9d 3c f7 a8 26 3c 1d 8c f0 3b d5 79 97 3d
       0.019249042 0.01017212 0.0073409216 0.073962845
000380 c4 6a bd 3c 38 bc 79 3d d7 87 c3 bd bd c2 f8 3b
       0.023122199 0.060970515 -0.09547394 0.007591574
000390 eb 4c 90 3b 80 f1 87 bb db 47 ff bb c6 1c 08 3c
       0.0044037006 -0.004148662 -0.0077905483 0.008307641
0003a0 54 ad 4e bd 11 a7 c7 3c fe f2 ef bd 64 e0 79 3d
       -0.050458267 0.024371656 -0.11716269 0.06100501
0003b0 3c aa 61 3d 41 4a 77 3b 34 f4 86 bb 48 f8 a9 3d
       0.05509399 0.0037733468 -0.0041184667 0.08299309
0003c0 96 a0 76 bd 35 96 15 3e f5 e7 50 bc 33 c8 3f bd
       -0.06021174 0.1460808 -0.012750615 -0.046821784
0003d0 86 13 30 3d 9a 8b 2e bd 9e 15 3d bd 17 97 e4 bc
       0.04298737 -0.042613603 -0.046163194 -0.027904077
0003e0 cc ba 64 3d db ac bc 3d c8 d2 1a bd ca 10 cd 3d
       0.055842206 0.09212657 -0.037798673 0.10012968
0003f0 fa e5 de 3d 53 a2 39 bc 19 2d 3d bd 83 3e 44 3b
       0.10883708 -0.011330205 -0.046185587 0.0029944486

weight_hh_l0 f4 [384, 128]
000000 ce a8 a1 3d d6 5e 17 3e c1 dd 5b bd 54 d9 24 3e
       0.07893525 0.14782271 -0.053678278 0.16098529
000010 2c 19 e3 bd ed b1 a5 bd 84 4b 0e bd d2 6e 9c bd
       -0.110887855 -0.08090577 -0.034739986 -0.07638325
000020 fe 30 e5 bc 24 86 28 be ea f6 93 3d 92 58 75 bd
       -0.027977463 -0.1645742 0.072248295 -0.05989892
000030 dc 5b 6f 3d c0 53 2a bd 8f 10 73 bc d0 24 da 3c
       0.058437213 -0.041583776 -0.014835491 0.026628882
000040 6d d3 d8 3d af 63 93 3d ca ac d8 3d 23 16 26 bd
       0.10587201 0.071967475 0.10579832 -0.040548455
000050 a9 d5 ea 3c 33 e3 14 3d 86 52 02 bd 55 d9 8c 3d
       0.028666334 0.036349487 -0.03181698 0.0687739
000060 28 ee 11 3d 40 89 5c 3d cd 7b 68 bd 54 cc 22 be
       0.035627514 0.05384183 -0.05675869 -0.15898257
000070 f3 bd 91 bc 00 2b d3 3c aa 3e 62 3d 68 44 b5 3c
       -0.01779077 0.02577734 0.055235542 0.022127345
000080 3d 2b 9e bd 3e 89 ae 3c 74 0f 13 bd 00 5a 17 3d
       -0.07723091 0.021305677 -0.03590341 0.036951065
000090 26 ba d4 bd f5 42 55 bc be 93 7b 3d 20 d4 33 bc
       -0.103870675 -0.013016452 0.061420195 -0.0109758675
0000a0 f8 04 4e bd 18 6e c7 3d 79 1b 99 3d 3b 31 4e be
       -0.050297707 0.097377956 0.07475943 -0.20135967
0000b0 57 03 35 bd 26 ab 11 be c3 bd 3c bd e3 c9 17 3d
       -0.04419264 -0.14225444 -0.04607941 0.03705777
0000c0 7c bd 21 3d 53 93 00 3e 5f 6d 79 3d c4 1f 4b 3d
       0.039487347 0.125562 0.06089532 0.04959084
0000d0 06 2d 94 bd 49 43 bc bd c3 f4 a6 3c 4d 50 22 bc
       -0.0723515 -0.09192521 0.020380383 -0.0099068405
0000e0 90 91 7d 3d a2 87 ad bc 8c 98 2b 3d 38 5c 93 bd
       0.061906397 -0.021182839 0.041893527 -0.07195324
0000f0 74 bc 9f 3d 7b 6c 50 3d 8d a3 d5 3c 0c 31 1d bc
       0.077996165 0.050884705 0.026078964 -0.009594213
000100 8b 4f b1 bd d5 1c e5 3d 21 e8 02 bd fa a0 01 bd
       -0.0865775 0.1118714 -0.031959657 -0.03164766
000110 89 ad 78 3d d3 71 e1 bc 48 f2 ba bd 08 f9 19 3e
       0.06071237 -0.027520096 -0.09128243 0.15036404
000120 dc b3 84 bd 98 7a 29 3e 84 4e 15 bd b0 c6 8b 3c
       -0.06479618 0.16550672 -0.03645183 0.017062515
000130 46 eb 27 3d ee 8d 38 3d 67 79 06 3d 99 c6 98 bd
       0.04099586 0.04505723 0.032830622 -0.074597545
000140 02 28 8a bd fc 89 0d be 78 98 b4 bc 16 98 97 bc
       -0.06745912 -0.13822168 -0.022045359 -0.018505137
000150 b7 e8 d5 3d 78 49 97 3c 84 d4 5a 3d 62 cc 4b be
       0.104447775 0.01846765 0.053425327 -0.19902185
000160 1d 85 95 bd 17 96 1c 3c b7 5a 97 bd ba e1 89 3d
       -0.0730078 0.009557269 -0.07390349 0.06732507
000170 99 65 20 3d b6 45 4a 3d a5 52 d3 3d ac 32 28 3d
       0.03915939 0.049382888 0.103184976 0.04106395
000180 e8 6f 1c 3d b2 77 45 bd a2 c2 7b 3d 9e 72 ff bd
       0.03819266 -0.048209853 0.061464913 -0.12473033
000190 85 70 c6 3c 40 a6 f6 bd 96 c6 ce bd 02 0b f1 bb
       0.024223575 -0.120434284 -0.10096471 -0.0073560486
0001a0 65 98 a8 bc 14 5b e1 3d cc 45 30 3e c1 e4 98 3d
       -0.02058048 0.110037 0.17214125 0.07465506
0001b0 8d 50 a1 3d ed 78 18 bd dc 98 cb 3a 8c a0 c6 bd
       0.07876692 -0.0372247 0.0015533227 -0.09698591
0001c0 c6 d9 44 3d 69 35 c2 bd e1 7b b7 3c e3 78 a0 bb
       0.048059247 -0.094828434 0.022397937 -0.0048972233
0001d0 c8 8f 5a 3c 1f 9c 2c 3d 97 75 80 3d 7e f8 12 3e
       0.013339944 0.042141076 0.062724285 0.14352605
0001e0 09 a6 30 bd d1 43 e6 bd bf 41 83 3d 1a 23 f9 bd
       -0.043127093 -0.11243404 0.064090244 -0.12164898
0001f0 81 a5 aa 3d 7f 54 4c bd c1 8e b9 3d 25 f0 51 bd
       0.083323486 -0.04988527 0.09060431 -0.05125441
000200 8e b1 ac 3d ad c4 eb 3d 39 11 e6 bd 2b 85 cc 3d
       0.08432303 0.11512122 -0.11233754 0.09986337
000210 67 6c b1 3c f5 8f cf 3b cc d3 41 3c 10 6e 1b 3d
       0.021658136 0.0063342997 0.0118302815 0.03794676
000220 de c6 40 3d 93 fb 86 3c 9a 0f c8 3d eb 63 ae 3c
       0.047064655 0.016477382 0.09768601 0.021287879
000230 f2 c7 e8 3d 57 7d 6f bd 98 50 dd 3c 6b 96 ab 3c
       0.113662615 -0.058469143 0.02701597 0.020945748
000240 0c 0b 4b 3e bf c3 13 be 41 83 14 be 43 e0 cd 3d
       0.19828433 -0.1443014 -0.14503194 0.1005254
000250 1d 4c 44 3d 1b d9 d7 3c 9e d9 12 bd 28 a0 82 bd
       0.04792415 0.026348641 -0.035852067 -0.06378204
000260 0b a9 17 3d f1 3d b0 bd 95 1d 4e bd e8 b8 72 bd
       0.037026446 -0.086055644 -0.05032118 -0.05925837
000270 f3 39 9c bd 0e ba 22 3e eb 94 83 3d 80 1b d3 3d
       -0.076282404 0.15891287 0.06424888 0.103079796
000280 47 90 b4 3d a7 7f b9 3c 3a ad db bd ed 73 22 3d
       0.08816581 0.022643877 -0.107264 0.039661337
000290 97 99 57 bd 66 8a 76 3c 72 e9 d9 bc 74 0b b2 3c
       -0.05263671 0.015047645 -0.026600573 0.021733977
0002a0 e6 ad e7 bd 5a c9 77 3d 95 df e1 3d 4a fd 39 bd
       -0.11312465 0.06049476 0.11028973 -0.04540757
0002b0 4c 6e c0 bd 09 fe 41 3d 2f 22 22 3d 6b 4b 12 3d
       -0.093960375 0.047361407 0.03958338 0.035716455
0002c0 6d 52 9f 3d 3e 7d 89 3d 05 c8 82 bd 80 55 90 3c
       0.07779393 0.06713341 -0.06385807 0.017618895
0002d0 eb 4f e8 bd 09 f4 b3 3d d8 cd 92 3d 87 4d c5 3d
       -0.11343368 0.087867804 0.07168168 0.09633928
0002e0 85 23 61 bc dd de 5e 3b 18 56 69 3d ed 6d 58 bd
       -0.013741379 0.0034007349 0.05696687 -0.05283921
0002f0 b6 52 e3 bd c9 2b bb 3d 8f c0 1e be 66 a1 6c bd
       -0.1109976 0.09139211 -0.15503143 -0.05777111
000300 e1 34 4e bd 2e 11 69 3d 23 f9 8a 3d 3c d9 1f 3d
       -0.050343398 0.05690115 0.067858 0.03902553
000310 d1 e1 60 3c 2b 16 bb 3d 5c 6e 2b 3d 23 59 38 bd
       0.013725714 0.091350876 0.041853294 -0.045006882
000320 df c7 fc 3c a6 1a c4 3d 58 61 30 3b d8 3e 65 3d
       0.030857025 0.09575395 0.002691349 0.055968136
000330 1c 57 f9 3c 88 51 e5 3c 35 46 4e 3d ca be a0 bc
       0.030437045 0.027992979 0.050359923 -0.019622225
000340 79 de 44 bc 5d 34 44 bd df 1d 26 bd 58 83 15 bd
       -0.012015932 -0.0479015 -0.04055583 -0.036502212
000350 07 8f a2 3d f5 5b 88 3d 5d 19 ea 3d 05 23 e6 bc
       0.079374366 0.066581644 0.11430619 -0.02809287
000360 ba 07 5e 3d d7 fc fc 3c 20 e8 72 bb 58 db 07 3c
       0.054206587 0.030882282 -0.0037064627 0.008292042
000370 ad 4d c9 3d c9 69 83 bd 98 fb 83 3d d0 c2 56 3b
       0.098292686 -0.06416661 0.06444472 0.0032769926
000380 fd c3 ab 3d a7 07 d7 bc e6 7b 12 3e 6c 14 04 bc
       0.08386991 -0.026248766 0.14305076 -0.00806151
000390 fd 7c 2d 3e 74 4f 10 bd e8 c3 84 bd 66 cc e0 bd
       0.1694221 -0.035232022 -0.06482679 -0.10976486
0003a0 9c 9a bc bb 93 9b c9 3b 53 f1 fc 3d 42 21 04 3e
       -0.0057557356 0.006152579 0.123507164 0.12903312
0003b0 63 5f 04 3d 53 c9 fe 3c 15 70 15 be 5c 69 e3 bc
       0.03231753 0.031101858 -0.14593537 -0.0277602
0003c0 56 73 91 bc ee c0 98 3c be ee 0f 3d 2a d9 ba 3d
       -0.017755192 0.018646684 0.03513979 0.09123452
0003d0 e8 1a 26 3d ab 57 00 be a9 c3 8a bd 57 64 07 3c
       0.040553004 -0.12533443 -0.067756005 0.008263669
0003e0 5a 0c 57 3c ae 99 88 bd c1 89 b8 3a 17 f6 b7 bb
       0.013125503 -0.06669937 0.001407914 -0.005614053
0003f0 92 92 fe 3d 58 db 10 bd a4 04 a6 3d 80 60 c7 bd
       0.124303 -0.035365433 0.08106354 -0.09735203

bias_ih_l0 f4 [384]
000000 49 ab c5 3d f7 b6 82 bc 72 82 7b bb c7 61 b5 3d
       0.09651811 -0.015956385 -0.0038377312 0.0885654
000010 11 18 38 bd 68 1f 07 3d c0 8c 33 3c 82 0e a6 3d
       -0.044944827 0.032988936 0.01095885 0.08108236
000020 e6 d2 b3 3d db 60 c8 3d 5b 0c 87 3d f9 01 3b 3d
       0.0878046 0.09784099 0.065941535 0.04565618
000030 92 40 91 3d f7 20 d1 bc 61 0f dc 3d c9 84 99 3c
       0.07092394 -0.025528414 0.10745121 0.018740075
000040 94 d5 aa 3c 3d 88 13 3e 78 41 5a bd 07 69 c1 3c
       0.020853795 0.1440744 -0.053285092 0.023609651
000050 f4 9e ee bc 54 1b b0 3d 48 49 cc 3d 35 ce 66 bc
       -0.02912853 0.085989624 0.09974915 -0.0140872495
000060 d8 e6 0d 3e 7c 30 51 3d c4 2e 98 3c 7c 66 5f bd
       0.13857591 0.05107163 0.018576987 -0.054541096
000070 79 d9 22 3e f5 0d 83 3d ba ee b2 bc e3 e6 bb 3d
       0.15903272 0.063991465 -0.02184235 0.091748975
000080 c3 98 27 bc c0 4a 1f b8 f1 bc 4b 3d 50 a7 40 bd
       -0.010229292 -3.797817e-05 0.049740735 -0.04703456
000090 67 a2 13 bc 8e 59 4e bd 66 dd 83 3d 48 9c 80 3d
       -0.009010888 -0.050378375 0.06438713 0.06279808
0000a0 0b 5c 45 3d 33 34 57 bd 3e 7d af 3c 33 ce b3 3d
       0.048183482 -0.052540015 0.021422025 0.08779564
0000b0 42 f5 82 3d 24 56 11 3c 2a 56 85 3d 33 2c 9d 3d
       0.063944355 0.008870635 0.06510575 0.07674446
0000c0 da c2 93 bc 75 ec 49 3d eb e6 e0 3d 03 f0 84 3d
       -0.018037248 0.04929777 0.10981544 0.06491091
0000d0 75 b6 fe 3d e5 31 52 bc 11 14 3d bc 8e be 52 3d
       0.12437145 -0.012829279 -0.011540429 0.05145126
0000e0 c8 dd c1 3d a7 2f cd 3d eb 6a f9 3d 6c 37 04 3e
       0.094661295 0.100188546 0.12178596 0.12911767
0000f0 c3 02 b7 3d 48 13 cd bc 48 90 0e 3d 51 ef eb 3d
       0.08936074 -0.025033608 0.034805566 0.11520255
000100 dd 0e 8b 3d 6f 0f a4 bd 18 34 0c 3c 9e 23 47 bd
       0.06789944 -0.08010756 0.008557342 -0.04861795
000110 90 b0 ee 3d b2 32 df bc 29 61 46 3d 21 f8 c5 3d
       0.116547704 -0.027245853 0.048432503 0.096664675
000120 ed e5 9d bb 05 36 36 bd b1 4b a3 3d bd 5f af 3b
       -0.004818669 -0.04448511 0.07973421 0.005351989
000130 f0 46 dd bc 5e dc b4 bc ae ff e1 3d c0 41 1d 3c
       -0.027011365 -0.022077736 0.11035095 0.009598196
000140 a0 6d ac bc f9 7d d3 3d 87 d1 2f 3d 17 43 0f bd
       -0.021048367 0.10326762 0.04292443 -0.03497609
000150 e8 74 6f bc 75 14 84 3d 28 0d 8a 3d fb a7 dc 3d
       -0.014615275 0.06449214 0.067407906 0.10774227
000160 0c af 54 3d 84 d6 70 bb 70 f9 1c 3d 11 48 33 3d
       0.05192475 -0.0036748955 0.03832382 0.0437699
000170 21 3d f7 ba b9 24 39 bc e2 6a be 3d 71 e5 1a bd
       -0.0018862822 -0.011300259 0.0929773 -0.03781647
000180 98 06 37 3d 31 9b fb 3c c5 fd d7 3d 4f c2 0a bb
       0.044684023 0.03071365 0.105464496 -0.0021172946
000190 c9 f3 8d 3d 28 e9 98 bb 04 62 45 bd 39 e0 72 bd
       0.06931264 -0.0046664663 -0.048189178 -0.059295867
0001a0 12 83 0a 3b 48 1a 00 3e 1f e7 a6 3d cc 91 7b 3d
       0.0021135253 0.12510026 0.081495516 0.06141834
0001b0 2a 86 81 3d 97 fc 98 3d 4e 06 29 3d 8b 9a 8c bb
       0.06324418 0.07470053 0.04126578 -0.004290884
0001c0 22 42 21 bd 95 d0 4b 3d bd 43 a0 3d 8d 11 c3 3d
       -0.03936971 0.049759466 0.0782542 0.09524832
0001d0 51 8f b6 3d 75 96 b4 3c f2 fb ab 3b 89 65 97 3b
       0.08914054 0.0220444 0.00524854 0.004620258
0001e0 4c e0 8c 3d 7c c8 98 3c c9 08 cc 3d da 66 74 3d
       0.06878719 0.018650286 0.09962613 0.0596684
0001f0 1b 43 46 bd 08 b8 59 3d 0c a2 19 3e e1 fd 6c 3d
       -0.04840384 0.05315402 0.15003222 0.057859305
000200 e6 2c bf 3d 7c e1 23 3d 64 e1 e6 3d 95 56 90 3d
       0.093347356 0.04000996 0.112734586 0.07047764
000210 4f d8 6c bc ac 56 b7 3c c8 a3 56 3d de f6 16 bc
       -0.014455869 0.022380196 0.052402288 -0.009214131
000220 f1 d6 d7 bb 3b f1 83 3d 38 72 76 bb 90 75 94 bb
       -0.0065869023 0.064424954 -0.00376047 -0.004530616
000230 39 db a1 bd ac 02 f8 bb cf dd 1b bd 8d 99 19 3c
       -0.079031415 -0.007568678 -0.03805333 0.009374988
000240 58 a8 41 bd f5 57 d3 3d 2e f7 71 3d fc a3 9a 3d
       -0.047279686 0.10319511 0.05907362 0.07550809
000250 9a c9 26 3d 1f 11 1b 3c 56 a6 aa 3d a2 0d 93 3d
       0.040719606 0.009464531 0.08332507 0.07180335
000260 2d c5 f8 3c d8 06 06 3d c4 de 1c 3d b5 31 47 bd
       0.030367458 0.03272137 0.038298383 -0.04863139
000270 43 9b 7e bd ef 7a 92 3c 22 e4 ed 3d a7 a1 27 3d
       -0.062159788 0.017880885 0.116157785 0.040925648
000280 2a c3 83 3b 94 47 a6 3d 32 40 87 3b 6a e9 20 3d
       0.004021068 0.08119121 0.0041275257 0.0392851
000290 f5 9a 81 3d 7a 6d 14 bb 3f e9 3d 3d 49 50 ed 3c
       0.06328384 -0.002264826 0.04636502 0.028968947
0002a0 9c 00 16 3e 9c 9d 90 3d ec 1b 74 bd e8 f6 b4 3c
       0.1464867 0.070613116 -0.05959694 0.02209039
0002b0 54 4a 8d bd b2 f8 05 bd c6 af 44 bd 52 f6 19 3d
       -0.068989426 -0.032707877 -0.048019193 0.037588425
0002c0 68 9e b5 bd 9a bc 7f 3d 3b 01 61 3c f9 52 55 3b
       -0.08868104 0.062435724 0.0137332035 0.0032550676
0002d0 4a 1f 94 bb 81 ec 42 bd d3 51 6b 3d 6c c7 a0 3d
       -0.0045203315 -0.04758883 0.05745108 0.07850537
0002e0 5e 80 b0 bd da 83 2d 3d c1 c0 3c 3d 56 87 8d 3d
       -0.08618234 0.04236207 0.046082262 0.06910579
0002f0 c9 0c 10 3d 68 6f 97 3d 20 39 4e 3d 7e 63 8f 3d
       0.035168443 0.07394296 0.050347447 0.070013985
000300 7f 06 cf ba 5e 5a ba 3d 5f e5 df 39 ef 95 25 3c
       -0.0015794783 0.090992674 0.0004270477 0.010106548
000310 51 8c 57 bd e9 60 bf 3d 7a af 3d 3d db 7b 7c 3c
       -0.05262405 0.09344656 0.046309926 0.015410389
000320 63 dc 93 bc c5 94 88 3c 04 58 9f 3d e3 31 fb 3c
       -0.018049425 0.016672501 0.077804595 0.030663436
000330 e8 08 25 bb 3e 1b 06 3d 21 2e bc bd 87 34 b3 bd
       -0.002518231 0.032740824 -0.09188486 -0.08750253
000340 12 25 a1 3d 36 1a 75 bd 35 ab 77 bc df 61 b7 3c
       0.07868399 -0.05983945 -0.0151165025 0.022385536
000350 d3 b5 a1 3d 85 e8 fc 39 6a d7 98 3d c4 a5 50 3c
       0.07896008 0.00048238426 0.07462962 0.012734834
000360 58 9f 44 bd a4 35 b7 3d ca 78 fa bc 7a 2a 19 bd
       -0.048003525 0.08945778 -0.030575175 -0.037394024
000370 e4 60 42 bd 59 ee 72 3c e1 53 c4 bc f8 11 f2 3d
       -0.047455683 0.014827334 -0.023965778 0.118198335
000380 80 ae 6d 3d 1a b8 39 3d fb dd c5 bd 44 fb 3b bd
       0.058027744 0.04534159 -0.0966148 -0.045893922
000390 0c 71 b8 3d d4 ce 82 3c cf 0d 31 3d 29 be 5a bd
       0.09005937 0.015967764 0.04322606 -0.053404007
0003a0 e7 1d ec 3c c4 8f c9 3d 66 fa 87 3d cf 92 91 bb
       0.028822852 0.09841874 0.066395566 -0.00444255
0003b0 db 22 9c bc 2d 79 d8 3d 01 99 20 bd 00 2f 16 bc
       -0.01905959 0.105699874 -0.039208416 -0.009166479
0003c0 19 41 0c 3d 2f 47 30 3d aa e2 64 bd b5 1c 88 3d
       0.03424177 0.043036636 -0.055880226 0.066461004
0003d0 48 1a a4 3d 4c 11 09 3d 9e 99 85 3c 38 c1 79 bd
       0.08012825 0.03346376 0.016308602 -0.060975283
0003e0 ff 41 8b 3d 79 ff a7 bd c1 45 e4 3d 5b 9d a1 bd
       0.06799697 -0.082030244 0.11146117 -0.07891341
0003f0 ca 7f c5 bc 93 18 a3 3d a7 55 68 bc 42 02 de bc
       -0.024108786 0.079636715 -0.014180577 -0.027100686

bias_hh_l0 f4 [384]
000000 a0 b7 67 bd 3d 99 e3 3d f9 e8 77 3d e7 2c 7f 3d
       -0.056571603 0.11113212 0.060524914 0.06229868
000010 6b df 0d 3d e2 8e 09 3e f2 3a 27 3d cd 8e 3e bb
       0.034636896 0.13433412 0.0408277 -0.0029076815
000020 b5 c4 cf 3d b6 29 ba 3c da ae 6c bd c4 1b 46 3d
       0.10144941 0.022724967 -0.05778394 0.048366323
000030 02 11 d3 3d 11 a5 6a 3d e3 4f fd 3c 5d 7a 68 bd
       0.10305978 0.057286326 0.030921882 -0.05675732
000040 7a a1 92 3c 07 42 0b 3e 8d 65 3f 3d cd 9f 49 3d
       0.017899264 0.13599406 0.046727706 0.049224664
000050 ab 97 37 3c 71 50 f4 3b 47 b4 1a ba 34 fd e1 3d
       0.011205594 0.0074558784 -0.0005901497 0.11034623
000060 1e 36 bb 3d 80 cc af bd ad 27 b5 3d 42 f7 79 3d
       0.091411814 -0.08583927 0.08845458 0.06102682
000070 c8 e0 08 3e 1c a4 82 bd 9e 68 eb bc 0f a0 90 3d
       0.13366997 -0.06378958 -0.028736409 0.07061779
000080 5a 95 bb 3c a1 39 f2 3d 2d f7 b8 3d 84 dc f1 3d
       0.022898365 0.11827398 0.0903152 0.11809638
000090 0e ca 61 3d fa ca 33 bd 40 d3 fc 3b 4b f3 ea 3d
       0.055124335 -0.043894745 0.0077156126 0.11472186
0000a0 d9 92 16 3d b9 dd 10 bd b8 49 4f 3d 15 da 52 3c
       0.03676114 -0.0353677 0.050607413 0.012869378
0000b0 0e 56 e4 3d ee 93 a2 3c 63 6f 3c 3c ab e8 04 3e
       0.11149226 0.019845929 0.011501166 0.12979381
0000c0 c4 8a fa bc 8b 78 0d 3e 38 95 03 bd 61 ec 93 3d
       -0.030583747 0.13815515 -0.032124728 0.0722282
0000d0 2c 8d 4f 3c 59 46 b1 3d 8a f2 cb bb 18 46 32 bc
       0.012667935 0.08655996 -0.0062239813 -0.010880969
0000e0 03 03 bd 3c 01 a2 ea 3c 60 cd 2f 3d 09 7d 10 3d
       0.023072725 0.028641703 0.04292047 0.035275493
0000f0 30 e8 bb bc f6 65 91 3c df 4b 5d bb 7b aa 4f bd
       -0.022937864 0.017748814 -0.0033767147 -0.050699692
000100 36 89 92 3d 71 f3 13 3d b8 d9 ba bc 4d 47 88 3c
       0.07155077 0.036120836 -0.022808895 0.016635561
000110 b2 bb 7f 3d 37 51 51 3d 4e 11 e3 3d de 4c 23 3d
       0.06243486 0.051102843 0.11087285 0.03986823
000120 b6 c3 8b 3d a1 c7 5e bc 84 46 de 3d 4a d2 26 bd
       0.06824438 -0.0135974 0.108532935 -0.04072789
000130 b1 ac ba 3d 72 94 83 bc c4 57 1b bc 82 22 0b 3e
       0.091149695 -0.016061995 -0.009481374 0.13587382
000140 a1 00 c7 3d 96 06 90 3d d0 27 6c 3d 15 1e 74 3d
       0.09716917 0.07032506 0.057655156 0.059599
000150 1d e1 50 bd e0 00 9d 3d 4a ae 51 bd 86 a5 16 3d
       -0.050995935 0.076661825 -0.051191606 0.03677895
000160 60 8d 10 bc 58 df a5 3d a7 7a 8c 3d 37 3b 46 3b
       -0.008822769 0.0809924 0.068593316 0.0030247697
000170 32 c4 18 3d 48 90 44 3d e6 9c b1 3d ff a6 01 3e
       0.03729648 0.04798916 0.08672504 0.1266136
000180 df 8a 70 3c 63 7e 35 bd 3a 7c fb 3d a9 e7 d4 3d
       0.014681547 -0.044309985 0.12279554 0.10395748
000190 cc 14 e6 3d 51 41 ce bb aa 87 31 bd 85 0b 85 bd
       0.112344354 -0.0062944074 -0.04334227 -0.06496338
0001a0 66 17 09 3d 9e a9 43 3d c2 81 87 3d 8a 5a 75 3d
       0.03346958 0.04776918 0.06616546 0.059900798
0001b0 ce 23 e6 3d a4 e4 8a bc fd 50 70 bc 45 a9 9a bd
       0.11237298 -0.016954727 -0.014667747 -0.07551817
0001c0 d1 8d 82 3d b6 b7 33 bb e7 9f 81 bc 8a 1f 9e bc
       0.063747056 -0.0027422733 -0.015823318 -0.019302148
0001d0 b0 b4 a6 3d 4b 99 b3 3d af f4 21 3d b5 d7 42 3b
       0.08139932 0.08769473 0.03953999 0.0029730622
0001e0 da fe ce 3b 69 4f fb bb 27 e5 23 bc 5a 61 39 3d
       0.006317002 -0.0076693785 -0.010003365 0.045258857
0001f0 93 09 ba ba 34 39 84 3d 58 ce 55 3b a5 de 04 3e
       -0.0014193527 0.06456223 0.003262421 0.12975557
000200 78 d3 b8 3d 07 02 76 3d f6 2f 70 3c 85 01 8a bd
       0.090247095 0.060060527 0.014659872 -0.06738571
000210 86 78 3d bd fb 60 f0 3d fc 2e 90 bd a8 8f 2d bb
       -0.04625752 0.117372476 -0.070402116 -0.002648333
000220 6b 6b ec bd 7f 84 bf 3c 26 82 f9 3c 84 c9 24 3d
       -0.11543926 0.023378609 0.030457567 0.040231243
000230 79 b1 6e 3d 96 39 b8 bc 87 9b fa bd fb 59 d1 bb
       0.05827472 -0.022488397 -0.12236696 -0.0063889003
000240 ed 76 4f bd 7f 02 24 3d 81 7b b8 3c 3d 08 ae bd
       -0.050650526 0.040041443 0.022519829 -0.08497665
000250 11 7c 02 bd 5a bf f8 3c 42 6e 0e bc e1 21 3e bc
       -0.0318566 0.030364681 -0.00869328 -0.011604757
000260 46 56 a6 bc 10 f9 dc bc 3f e7 0f 3d 6f da ae bd
       -0.02030481 -0.026974231 0.035132643 -0.08537757
000270 0e 0b af 3d df 19 2e bd 69 ae 0b bd d9 18 8e 3d
       0.085470304 -0.04250514 -0.034101877 0.06938333
000280 a2 0e da 3b 61 e4 d1 bc a4 2e 8e 3d 8f 1f 66 bd
       0.0066545764 -0.025621595 0.0694249 -0.05618244
000290 b7 9c e5 3a a7 f8 d5 bc 82 7e 6c bc a3 88 03 3e
       0.0017518018 -0.026119543 -0.014434459 0.12845092
0002a0 17 54 b9 3d 50 57 3b bb bc 21 b6 3d e9 22 89 3d
       0.09049242 -0.0028585978 0.08893153 0.06696112
0002b0 08 67 c3 bd 74 84 72 3c 5a ee f8 bd 7c fd aa bd
       -0.09541136 0.014802087 -0.12154837 -0.083491296
0002c0 62 5a 7a bd 61 42 0c 3e b2 b0 b6 3c 23 d3 09 3e
       -0.061121352 0.13697197 0.022301052 0.13459449
0002d0 44 36 c6 bb 7f 55 45 bc c2 c8 c4 bd cd c4 a0 3d
       -0.0060489494 -0.01204431 -0.09608604 0.07850037
0002e0 85 51 74 bd 7b 7f 5c 3d 9c fb 9d bd d3 53 45 bd
       -0.059648056 0.053832512 -0.07714006 -0.048175644
0002f0 73 88 06 3e 03 67 a0 3d da e4 cf 3c 1a 09 99 bc
       0.13137989 0.07832148 0.02537768 -0.018681098
000300 9d 1d 09 3e 20 65 1e bd 16 45 49 3d 90 cb 25 bd
       0.13390203 -0.03867066 0.04913815 -0.040477335
000310 c2 12 99 3c fe ab be 3c db 2e d4 3d 4f f2 b8 bd
       0.018685702 0.023275372 0.103604995 -0.09030592
000320 dc 89 ca bc f2 a7 d0 bd 0f a4 8f 3d a8 0c 42 3d
       -0.02472394 -0.10188283 0.070137136 0.04737535
000330 e2 07 1c 3d c4 44 7c 3d f6 18 8c 3d bd 63 82 bd
       0.038093455 0.061589018 0.068406984 -0.0636668
000340 a6 53 49 bd 62 1b 1e bb 6e 0c 1f 3c ac c4 ed 3c
       -0.04915204 -0.0024125208 0.009707553 0.029024445
000350 e5 9b b1 bb 8e 3c ef bd 39 c0 a7 bb 21 21 69 3d
       -0.0054201954 -0.11681472 -0.0051193503 0.05691636
000360 ad 28 a1 bc c0 a9 0c 3b 41 cb 00 bd 38 13 cd bd
       -0.019672716 0.0021463484 -0.031443838 -0.10013431
000370 1f dc 80 bd 92 3e 77 bd e1 b6 55 3d 20 62 aa 3d
       -0.06291985 -0.060362406 0.05217636 0.08319497
000380 6f ac b7 bd 3b a6 ed 3a 95 15 27 3d f4 3d 96 bc
       -0.08968436 0.0018131206 0.040792067 -0.018340088
000390 b9 f1 7f bb 78 eb 71 38 0d 01 ab 3a 92 83 97 bd
       -0.003905399 5.7678175e-05 0.0013046578 -0.07398142
0003a0 00 c9 92 bb 52 47 26 bd ac 3c 84 bc e1 e5 2f 3d
       -0.0044795275 -0.04059536 -0.016142212 0.04294384
0003b0 3c 96 8b 3d 13 2a 15 bc 1d 4c 90 bd 82 9d 45 bd
       0.06815764 -0.00910427 -0.070457675 -0.048245914
0003c0 17 ee b9 3d 9a 2a 52 bc e5 5b 58 bd 08 f9 83 bc
       0.09078615 -0.01282754 -0.052822012 -0.016109958
0003d0 35 26 99 bc 32 78 86 3d fb 83 04 bb 4a 46 87 bd
       -0.018694976 0.06565894 -0.0020220268 -0.066052034
0003e0 68 0c b6 3d bf e4 c0 3d ff ee 35 bc ad ad c4 bc
       0.08889085 0.0941863 -0.011104344 -0.024008596
0003f0 7f 24 e8 bd c0 6f 83 3c 92 7d 80 3d 4d ce 68 3d
       -0.11335086 0.016044497 0.06273951 0.05683737

weight_ih_l0_reverse f4 [384, 32]
000000 6f 84 36 bd 43 27 ff 3b aa cd 32 3c 58 9b 9b 3c
       -0.044559892 0.007786663 0.010913292 0.018994972
000010 4a 11 a0 bd d8 ca 92 bd 54 6e 2b 3d 39 4c 89 bd
       -0.078157976 -0.071675956 0.041853264 -0.067039914
000020 07 dc 80 bd 67 e9 88 3d 9a ed 27 bd 1c f1 c7 bd
       -0.06291967 0.06685143 -0.04099808 -0.09762785
000030 cb db 68 bd 60 82 88 b9 07 1c 80 bd 77 d9 41 bd
       -0.056850236 -0.00026037078 -0.06255346 -0.04732653
000040 ed 33 92 3d cb e6 b9 bd 5e c0 ab 3c 56 01 7e bd
       0.0713881 -0.090772234 0.020965751 -0.062012993
000050 1b 86 0b 3d 1a 65 c6 3c 62 5a 1b bd 66 08 34 3d
       0.03406344 0.02421813 -0.037927993 0.043953322
000060 e4 37 ba bd a8 aa 7a bc b9 91 79 bd f1 53 d7 3d
       -0.090926915 -0.015299477 -0.060929988 0.105140574
000070 52 72 0c 3d 32 8e 6d 3d 61 5c 03 3e cd e2 81 bc
       0.03428871 0.057996936 0.12828209 -0.015855217
000080 e4 ad b5 bd 54 d9 37 bd 24 af d6 bd 91 34 cd 3d
       -0.08871058 -0.044884995 -0.10482624 0.10019792
000090 f6 36 29 bd 1e d7 4e bc 57 07 a0 bd 14 13 a5 bc
       -0.04131218 -0.01262453 -0.078139 -0.020150699
0000a0 b1 0d 58 bc 59 48 0f be 14 f0 dd 3d d1 53 33 3d
       -0.013186858 -0.13992442 0.10836807 0.043781105
0000b0 19 4d b2 3c 15 83 7d bd 84 8d 91 ba c8 4d 9e 3c
       0.021765279 -0.061892588 -0.0011104797 0.019324198
0000c0 b5 0a 40 3c 3f 79 88 3b ef 4d 16 bd 58 6d a2 3d
       0.011721303 0.0041648443 -0.036695417 0.07931012
0000d0 3f 1c b9 3d 31 9e ac bc c7 9b 3e 3b d7 bd 50 3b
       0.09038591 -0.021071525 0.002908455 0.0031851435
0000e0 70 26 9a 3d ac 77 46 3c 5f 79 6a 3d c2 29 01 bd
       0.075268626 0.012113493 0.057244655 -0.031533964
0000f0 96 37 e1 3d de cf 21 3d 38 fd eb 3c 07 b8 76 3b
       0.1099693 0.03950488 0.028807268 0.003764631
000100 bd 6a 3c bb 3c 26 34 3d a4 79 33 bd 3c 92 c8 3d
       -0.0028750144 0.043981776 -0.043817177 0.09793517
000110 bf a1 98 3d e6 fc d0 bb 9f 1b b4 3d 0e f2 a6 3d
       0.074527256 -0.006377804 0.08794331 0.08151637
000120 3b d6 70 3d 5b 75 86 3c e3 dc 09 bb c4 45 9c 3d
       0.058798056 0.016413381 -0.00210362 0.07630494
000130 fa ae 65 3c 2b 2c c0 3d 12 f4 1a bb 46 f3 89 3d
       0.014018768 0.09383424 -0.0023644012 0.06735854
000140 f7 39 4b bd e2 17 b5 3c f9 9e 5b 3d e7 2d 5d 3c
       -0.049615826 0.022106115 0.053618405 0.0134997135
000150 c0 ed 99 3c 76 08 46 3d 42 0d 09 3d 9e e5 28 3d
       0.018790126 0.048347913 0.03345991 0.041234605
000160 54 e8 42 3d 9b 5e 6e bc f5 bb 78 3d 1e e7 a7 3d
       0.047584847 -0.014548923 0.060726125 0.08198379
000170 8f d5 89 3d 38 6e 52 bd 45 73 56 3d 6a aa 73 bd
       0.06730186 -0.051374644 0.052356023 -0.05948869
000180 d1 fc 6c bd 0d 3f be 3d 90 c2 75 bd 93 e8 e9 3d
       -0.057858292 0.0928937 -0.060000002 0.11421313
000190 10 56 3e bc af a2 2c 3d 87 4e 99 bc 91 72 0e 3d
       -0.011617199 0.042147335 -0.018714203 0.034777228
0001a0 a2 16 86 bc 43 74 93 bc 07 c4 a2 bb 6e 64 95 bd
       -0.016368214 -0.017999774 -0.004967216 -0.07294546
0001b0 58 48 2e bd 2b 3b 83 bd 88 4c b3 bc 1f 10 a7 bd
       -0.04254946 -0.0640777 -0.021887079 -0.08157372
0001c0 8a 9f 45 bc e6 c5 9a 3c 9b 42 85 bc f8 42 62 3d
       -0.012061963 0.018893193 -0.016267112 0.055239648
0001d0 75 2f 99 3c 96 25 e9 bc 63 21 6c 3c 63 ef 90 3d
       0.018699387 -0.028460305 0.014412257 0.070769094
0001e0 a6 30 99 3d 70 ab aa 3d a1 7d a8 3c 21 4d 4f bd
       0.07479982 0.0833348 0.020567717 -0.050610665
0001f0 3f d3 2b 3c 75 82 6a 3c 5d bf 85 3b a2 72 b9 3d
       0.010487377 0.01431333 0.00408165 0.090550676
000200 81 9a a6 bd 12 b4 80 bd 01 09 24 bd a3 c8 8e bc
       -0.08134938 -0.06284346 -0.04004765 -0.017429655
000210 8a 70 e6 bb 1f 28 29 bd 5e a2 e8 3d 43 7a c1 3d
       -0.0070324587 -0.041298028 0.11359094 0.09447148
000220 8f 95 d2 3d d9 09 76 bd 4e a5 8a 3d 4e 13 86 bd
       0.10282432 -0.060067985 0.067698106 -0.06546651
000230 b5 81 13 bc 68 58 22 3e 4f 8d 11 bc 75 61 ee 3d
       -0.009003093 0.15854037 -0.008883788 0.11639682
000240 fb 98 47 bd 98 fd 7d 39 76 4a 13 3d 58 e3 c5 3d
       -0.048729878 0.00024222431 0.035959683 0.09662503
000250 b2 b4 97 bd a9 20 4e bd 1a a7 98 bb 5a 9d 4f 3b
       -0.07407512 -0.050324116 -0.004658592 0.0031679482
000260 87 c4 a7 3d 77 42 8f bc 39 33 93 bd 27 59 e5 bc
       0.081917815 -0.017487748 -0.07187504 -0.027996613
000270 e3 c2 5b 3d 9b 79 ea bc 5a 72 7f bc a2 7c 77 bd
       0.053652655 -0.02862244 -0.015591228 -0.060421593
000280 f5 64 5b bd 7c bf 77 bc 70 dd 85 3d 92 23 ed 3c
       -0.053563077 -0.015121337 0.065363765 0.028947625
000290 42 30 01 3e 0a f0 db 3d 74 2a 8c 3c 4d 1c 41 3d
       0.12616065 0.10739143 0.017110087 0.04714613
0002a0 7e 21 42 3d 9c 99 81 3a 00 54 cb bd 92 7f d5 bd
       0.047395222 0.0009887698 -0.09928131 -0.10424723
0002b0 0c 9f 43 be 09 27 67 bd 74 d1 b1 3b 36 ef 70 bc
       -0.1910364 -0.05643371 0.00542658 -0.01470547
0002c0 08 6f 72 bd b1 97 16 bd 7b 5e 3c 3d cd 7e ce 3d
       -0.05918792 -0.036765758 0.04598854 0.10082779
0002d0 49 9a 35 bd fe 83 4a bd a3 3c b7 3d 0f 9c ae 3d
       -0.04433659 -0.049442284 0.089471124 0.085258596
0002e0 1e d8 ca 3c 60 7b 90 3b 9b 4c ee 3b 50 91 c5 3d
       0.024761256 0.0044092387 0.0072723157 0.09646857
0002f0 73 aa dc bc dc 91 97 bd 68 a4 5f bd 9f 25 86 bb
       -0.026936745 -0.07400867 -0.05460015 -0.0040938403
000300 76 be 1a bd 76 4e 62 3d 88 04 42 bc 6d d7 4b bd
       -0.037779294 0.055250607 -0.011841901 -0.049765993
000310 c6 17 f3 bc e8 28 1c 3b 68 0a 16 3d 0f b6 94 3d
       -0.029674422 0.0023828093 0.036631018 0.072612874
000320 f7 00 d4 3d be 24 cb 3d bc a9 1f 3c ca 43 fc 3c
       0.103517465 0.099191174 0.009745058 0.030794043
000330 58 8d c5 3b da 2d fd 3d 39 2c 5e 3d c4 45 64 bc
       0.0060288124 0.12362261 0.054241393 -0.013932649
000340 05 0e 06 be e8 04 c6 bd ba 4b ed bd 6a 10 b5 bd
       -0.13091286 -0.096689045 -0.11586709 -0.08841021
000350 78 49 ab bb 95 55 2e 3d d7 c6 8a 3d cd 93 f2 3c
       -0.005227264 0.042562086 0.06776207 0.029611493
000360 bc ec 45 3d 60 98 f3 bb df 6a 32 3c b7 c3 c6 3d
       0.04832147 -0.007433936 0.010889738 0.097052984
000370 2b 15 cf 3c 4a d2 a5 3d b9 f3 f4 bc 16 13 ca bc
       0.025278648 0.0809675 -0.029901372 -0.024667304
000380 8e b9 eb bd 57 ee 0f 3c 0e e5 cc 3c 54 24 a2 3d
       -0.11510001 0.008784852 0.025011566 0.07917085
000390 b0 7d b1 b7 78 ad a6 3d ef 9c bd bd 25 0a 8a bd
       -2.1158572e-05 0.08138555 -0.09258448 -0.06740216
0003a0 83 f0 b3 bd 86 a4 0e 3d 5e df cb 3d fb 26 f1 3b
       -0.08786108 0.03482487 0.09954713 0.007359383
0003b0 3b 7f 97 bd 92 2b 5d 3d 8c 2e ad bc 25 26 78 bd
       -0.07397314 0.05399663 -0.02114036 -0.060583252
0003c0 7d 0f e9 3d ac c1 44 bd b8 f0 bb 3c e2 c8 d2 bc
       0.11379907 -0.048036262 0.022941932 -0.025730554
0003d0 e3 6e ea 3c 82 67 0a bd 1d 34 2e 3d 8d e4 34 3c
       0.028617328 -0.03379012 0.042530168 0.011040819
0003e0 a3 d7 9d bd 6c 40 bd 3c cf 3b 63 3d 5b b9 23 3e
       -0.07707145 0.023102008 0.05547696 0.15988676
0003f0 3d 9c ec 3d f6 32 0d 3e e9 ab cb bc f6 b3 f3 bb
       0.115532376 0.13788971 -0.024862247 -0.0074372245

weight_hh_l0_reverse f4 [384, 128]
000000 f7 78 32 3d f3 3d 69 3d a0 69 42 3b 85 be 34 bd
       0.043572392 0.056943845 0.0029665008 -0.044127006
000010 0d ec a0 bd ba b4 c2 bd f8 48 1c be b8 9b 5c 3d
       -0.07857523 -0.09507127 -0.1526221 0.053859442
000020 92 81 ee 3d 2f 6c 8a 3d 67 b9 4a 3e 70 5b 90 bd
       0.11645807 0.06758916 0.19797288 -0.0704869
000030 14 b8 bf bd 6c a1 6e bc f3 17 7d 3c 86 2a 02 be
       -0.09361282 -0.014564853 0.0154476045 -0.12711534
000040 38 23 df 3c e2 a1 83 3c 53 73 37 3d 57 ab 25 bd
       0.027238473 0.016068403 0.044787716 -0.040446606
000050 a3 c9 9b 3c ac 32 84 3d 48 78 36 3e de 78 9e 3c
       0.019017046 0.064549774 0.17819321 0.019344743
000060 f4 67 31 3c 23 a9 31 bd 33 3c 09 be cc 19 0d 3d
       0.010828007 -0.043374192 -0.1340187 0.03444843
000070 8e 96 16 bd 45 a3 62 bd 8a ff 82 3d 8a ae 19 3d
       -0.036764674 -0.055331487 0.063963965 0.03751997
000080 14 f8 56 3b e1 27 ae 3d 52 12 8d bd 34 a3 9b 3d
       0.0032801675 0.085037 -0.0688826 0.07599488
000090 8b 3b a1 3d b2 04 13 3b 2d 49 88 3d bd dd df 3d
       0.07872685 0.0022433219 0.06654582 0.10930965
0000a0 e5 17 31 3d 4d 8e 0a bd d4 49 18 3d b7 5f 1d be
       0.04323568 -0.033827115 0.037179783 -0.15368544
0000b0 31 c7 6b 3d de 9b 81 3d 6c 1b ce 3d 47 9f 2f 3d
       0.05756301 0.063285574 0.10063824 0.042876508
0000c0 d4 87 ac 3c da 1f fa 3d 73 22 36 3d 5e da 44 3d
       0.021060862 0.122131065 0.044466447 0.048059814
0000d0 61 51 e0 3c 3a 86 7a bc 35 de b0 bd b2 16 8f 3d
       0.027382554 -0.015290791 -0.08636133 0.06986751
0000e0 08 01 35 bd cf a2 20 bd fa b9 41 bd a5 0c 19 3d
       -0.044190437 -0.039217766 -0.0472965 0.037365574
0000f0 43 7a d2 3d cb 9c 9b bd 41 02 98 3d 70 72 7c bd
       0.10277226 -0.07598265 0.07422305 -0.061632574
000100 79 e5 cc 3d 76 c2 01 bd d6 aa 0a be 1b f1 03 be
       0.10004706 -0.031679593 -0.13541731 -0.12884943
000110 df 44 56 3c 03 33 48 be 06 a3 18 bd 9c ce 26 bd
       0.013077944 -0.1955071 -0.037264846 -0.04072438
000120 02 bf 0d bc 1a 48 4c bd df 5e e6 3c de 9f 97 3d
       -0.008651497 -0.04987345 0.02812141 0.07403539
000130 7c 78 96 bb 7a e8 90 3c d1 39 8d 3d 09 c7 c3 3c
       -0.0045919996 0.017688978 0.06895793 0.023898618
000140 9d 01 61 bc e7 95 c4 3d fe df 63 3d 30 b4 4c bc
       -0.013733295 0.09598904 0.055633537 -0.012494132
000150 a9 c9 ce 3d f0 b1 a4 bd f7 0c 35 3c a1 7c 06 3e
       0.10097057 -0.080417514 0.011050454 0.1313348
000160 23 ab 3e bd e8 72 8a 3d f6 b5 20 3c 6f e6 0e 3d
       -0.046549927 0.06760198 0.009809008 0.034887727
000170 b4 1f 02 be fa ce c4 bb 1f 2c ca 3c b0 cf a4 bd
       -0.12707406 -0.006006119 0.024679242 -0.08047426
000180 47 e1 63 3c 17 9d 5f 3b 83 0e 24 bd bf 48 85 3c
       0.013908691 0.0034120732 -0.040052902 0.01627004
000190 09 4b fb 3c cf 91 b8 bd 23 86 dc 3d 72 dc 37 3b
       0.030675428 -0.09012186 0.10767772 0.002805498
0001a0 bb c3 ed 3d 71 f5 cc bc c3 ec 91 3d e3 82 90 3d
       0.11609598 -0.02501938 0.07125237 0.07056215
0001b0 1a 87 bb bd 72 ff 8c bd 5b 21 95 3d e2 30 4d 3d
       -0.09156628 -0.0688466 0.07281753 0.050095446
0001c0 c6 4d 7e 3d 31 72 c7 bc 3b 3f bf 3c 54 25 b1 3c
       0.06208589 -0.024346443 0.02334558 0.021624245
0001d0 84 c7 f3 3c 98 d9 3d 3e cd b3 80 3d 1a d5 34 3d
       0.029758222 0.18540037 0.06284294 0.044148542
0001e0 a0 f1 a9 3d 9a c4 b0 3c bf 7b f4 bd 65 1a 4f 3d
       0.082980394 0.021578122 -0.11937665 0.05056228
0001f0 90 f4 92 bd 8b 56 67 bc ac 39 bc 3d 57 69 02 bd
       -0.07175553 -0.014119755 0.091906875 -0.03183874
000200 dc 86 a2 bb e2 0a 88 3d e2 12 b3 3c f2 ff 72 3d
       -0.004959924 0.06642701 0.02185959 0.05932612
000210 9a 55 c9 3c a8 d3 73 bd 72 90 d0 3d 6d 11 ce 3d
       0.02457695 -0.059528023 0.10183801 0.100619175
000220 13 b7 bf 3d be 89 58 3d 48 64 11 3e df aa 62 3d
       0.093610905 0.052865736 0.1419841 0.055338737
000230 a7 57 d4 bc 98 10 84 bd 58 a9 ba bc ee a6 76 bd
       -0.025920702 -0.064484775 -0.022785828 -0.06021779
000240 de 27 15 3e 3b 6d d3 3d 85 84 73 3d 85 56 10 be
       0.1456599 0.103235684 0.059452552 -0.14095505
000250 bb 37 6c 3d 38 ed e4 bc f8 66 b9 bd e6 ab dc bb
       0.057670336 -0.027945146 -0.09052843 -0.006734359
000260 8b 0b e6 3c f9 00 58 3d ea c7 b1 bd 39 b9 b6 3c
       0.028081676 0.052735303 -0.08680709 0.022305118
000270 af 19 84 bd 4f 85 2e 3c cd eb 9d 3c a5 d6 98 bc
       -0.06450211 0.0106519 0.019277478 -0.018657038
000280 8b b5 b1 3d eb c2 b5 3d b5 a3 20 bd 1e d3 04 bd
       0.08677205 0.08875068 -0.039218623 -0.0324279
000290 82 3c f2 bc 4d 13 cc bd 0c d7 0a bd ba 45 ea bc
       -0.029569868 -0.09964619 -0.03389649 -0.028597701
0002a0 b7 63 62 bc d4 fe d3 bd 20 0f 01 bc 84 0a 09 3d
       -0.013817719 -0.10351339 -0.007877141 0.033457294
0002b0 03 a6 3a bd 4e 2d b0 bd cf 25 29 3d ad 0a 20 bd
       -0.045568477 -0.08602391 0.041295823 -0.03907268
0002c0 da d5 35 3e ed ca 7b 3a 4f de 9a bd 11 32 72 bb
       0.17757359 0.00096051284 -0.07561933 -0.0036956111
0002d0 6e ff 89 3d 89 fe b3 3b 1c 69 74 3d 1d 7c 9c 3d
       0.067381725 0.0054929894 0.059670553 0.0764086
0002e0 57 63 e6 bd 46 1b d3 bd f3 ca 1e 3d c4 58 b4 3b
       -0.11249416 -0.10307936 0.038767766 0.0055037457
0002f0 0d 6f 0d 3d dd 5a fd 3c 03 29 88 bd b8 37 c5 bd
       0.034529734 0.030927116 -0.06648447 -0.09629768
000300 39 89 4b bd 16 b6 ca bd 08 48 87 3b 10 b0 82 3d
       -0.049691413 -0.098980114 0.00412846 0.063812375
000310 f1 9e ca bd c1 6b 6a bc 7e 4b 38 3d 73 eb af bd
       -0.09893597 -0.014307917 0.04499387 -0.0858983
000320 c5 0d b4 bd 79 ed cf 3d 10 8b b2 bc e5 e6 c9 bc
       -0.08791689 0.10152716 -0.021794826 -0.024646232
000330 5e 65 2f be 08 ce eb bc 13 e1 80 bd f6 ac c2 3b
       -0.17128512 -0.028784767 -0.062929295 0.0059410287
000340 1a 72 a4 3d 36 ad af bd 10 e1 a6 bd 44 42 8c 3c
       0.08029576 -0.08577959 -0.08148396 0.017121442
000350 07 45 4b 3d 4c 99 89 3d 4d e5 4b 3d 28 e2 46 3d
       0.049626376 0.06718692 0.049779225 0.048555523
000360 c5 2c ce bc 69 ed cc 3d 7a 7b b3 bd d7 ce 38 3d
       -0.025167832 0.1000622 -0.08763786 0.045119133
000370 f1 bf 0c 3d e4 d4 19 be 9e ab 6d 3d 95 5e 4a 3d
       0.034362737 -0.15022618 0.058024995 0.049406607
000380 22 33 23 3d cd 74 c3 bc 99 26 fc 3c ab 9e cb bd
       0.039843686 -0.023859406 0.030780124 -0.09942373
000390 0a 3e 4d 3c 15 99 5f 3d 93 5b a1 bc e9 86 72 3c
       0.012526998 0.05458935 -0.019696986 0.014802673
0003a0 f8 50 18 3e a7 b3 b5 bc e5 b0 87 3d a5 4c b7 3d
       0.14874637 -0.022180391 0.06625537 0.08950166
0003b0 f4 68 4f bd 2e a5 9a bd 44 fb f4 3d 09 f6 56 3d
       -0.0506372 -0.07551037 0.119619876 0.05248073
0003c0 b4 c8 90 3d 7c 06 9b 3d 77 0c 9f bc 89 24 34 3d
       0.07069531 0.07569596 -0.019415123 0.043980155
0003d0 7e 80 3b 3d 5f a2 2a 3e 66 74 a9 bd f1 0c fa bb
       0.045776837 0.16663502 -0.08274154 -0.0076309373
0003e0 10 b4 be bd 73 10 03 3c a5 33 16 3d 09 a1 bf 3d
       -0.09311688 0.007999527 0.036670346 0.09356887
0003f0 fb 52 78 bc e9 6f 0c bd 9e 39 7e bc cb d4 9b 3d
       -0.015156503 -0.034286413 -0.015516667 0.076089464

bias_ih_l0_reverse f4 [384]
000000 f6 fa 11 3d b7 29 31 bd 32 f5 e4 3d 95 7c c1 3d
       0.035639726 -0.043252673 0.1117958 0.0944759
000010 cb 6e 85 3d 60 b6 0c bd 63 3c 64 3c 2c e9 5d bd
       0.06515273 -0.034353614 0.013930413 -0.05417745
000020 27 1a fe 3d 2d e6 a7 3d 77 7a 15 3e c6 6d f8 bb
       0.12407332 0.081981994 0.14597498 -0.0075814454
000030 07 e4 86 3d 0c f0 21 bb 9e 28 97 3d 8b e1 c5 3d
       0.065864615 -0.002470973 0.07380794 0.096621595
000040 85 46 3d 3d d1 45 6a bd 93 8a 0a 3d f3 21 77 bc
       0.04620983 -0.05719549 0.03382356 -0.015083778
000050 46 0a d5 3c 8b e3 b4 3c 14 a5 0b 3d 3b 7c df 3d
       0.026005875 0.022081157 0.034092978 0.10912367
000060 cb 8b f4 3c 91 4f 11 bc b6 2b 04 3e 7b 53 31 bc
       0.029851815 -0.008869068 0.129073 -0.010823126
000070 5e 05 ae 3c 28 5c 19 3e fc 55 e2 3d 0b 76 20 3d
       0.021242794 0.14976561 0.110515565 0.039175075
000080 29 ab 08 3e ac 3f 14 3e f7 cc cc 3d 42 e6 8f bc
       0.13346542 0.14477414 0.100000314 -0.01756585
000090 76 7b 06 3d c0 c9 8d bd 4d 5d bb 3d c1 0b 0c 3e
       0.032832585 -0.069232464 0.09148655 0.13676359
0000a0 74 1a 98 bb 8b 58 de 3c 74 b5 d5 3d df 55 58 bc
       -0.0046418253 0.02714183 0.10435 -0.013204067
0000b0 12 a6 b6 3d ee 3a c1 3d a7 14 e1 3d a7 32 20 bd
       0.08918394 0.09435068 0.10990267 -0.039110806
0000c0 61 3f 1d 3d 9e 16 06 bd c0 4d 05 bd f5 77 d2 3d
       0.03839052 -0.032736413 -0.03254485 0.10276786
0000d0 8d 7a 8d 3c 5a 0a 39 3c ff c8 a0 3d cf a0 8e 3d
       0.01727035 0.011293972 0.07850837 0.069642656
0000e0 e2 a6 c3 3c dc c4 15 3d ff e7 dd 3d d0 b7 97 bc
       0.023883287 0.036564693 0.10835265 -0.018520266
0000f0 be 0e 14 3e 5b 7c e9 3d 98 a1 48 3d c2 94 59 bd
       0.14458749 0.11400672 0.048982233 -0.053120382
000100 b3 a8 3d 3d f5 0a d9 3d 7e ce 17 3d b1 55 dc 3d
       0.046303462 0.10597793 0.03706216 0.10758532
000110 19 03 6f 3d 0e 10 fe 3c 47 22 80 3d 2b 8a 63 3c
       0.058352564 0.031013515 0.06256538 0.013887922
000120 e1 14 b8 bb fa 3d de 3a 48 19 0b bd 72 a6 73 3d
       -0.0056177233 0.0016955726 -0.033959657 0.059484906
000130 e2 23 05 3e 2a c1 81 3d 36 4e 81 bd 20 17 e3 3c
       0.1300197 0.06335671 -0.06313746 0.027720988
000140 8a a1 1d 3b 7b 3f cd 3d 5d 77 48 3d 1e 3b d5 39
       0.0024052584 0.100218736 0.04894196 0.00040670572
000150 d0 6c 30 bd 28 6a 57 bd 28 17 a8 3d 30 d8 f6 3d
       -0.04307252 -0.052591473 0.08207542 0.12052953
000160 8e a0 e1 3c 78 60 86 bd 49 a7 55 bd e4 46 f6 bc
       0.027542379 -0.06561369 -0.05216149 -0.0300631
000170 08 5e bb bc 98 be dd 3c 3a 2b f2 3d 6d 0b c4 bc
       -0.022871986 0.027068421 0.11824651 -0.02393123
000180 72 85 b7 3d 9c 95 36 3d 05 29 9d 3c 4e 9e ab 3d
       0.089609995 0.044576272 0.019184599 0.083798036
000190 57 cf eb 3c d4 28 ba 3d 98 3f 12 bd 56 ea ca 3d
       0.02878539 0.090898186 -0.03570518 0.09907977
0001a0 88 ed ae 3c e6 01 5b 3d f6 fd 9d bc ed 48 c9 3c
       0.021353498 0.053468607 -0.019286137 0.024570907
0001b0 40 a7 71 3d 75 48 b8 3d 5f a6 a8 bc b1 64 b0 3d
       0.058997393 0.08998195 -0.020587144 0.08612955
0001c0 3a 8e 32 3d a7 89 95 bc 5a c1 07 bd cf 16 31 3d
       0.04359267 -0.018254114 -0.03314338 0.043234643
0001d0 08 0f ea 3d 4f 4f fb 3d 70 3c 70 3b e6 bc 68 3d
       0.11428648 0.12270986 0.0036657117 0.056820773
0001e0 77 64 24 bb d0 8e 20 3e 6c 55 46 3d d1 89 3e 3c
       -0.0025084296 0.15679479 0.04842131 0.011629538
0001f0 4b 88 0c bd ac a9 e7 bc 29 0c 0d 3d ae 36 a8 3d
       -0.034309667 -0.028279148 0.034435425 0.08213554
000200 89 3a c7 3d 0f 6d e0 3c 53 2d b5 bc c5 77 5f bd
       0.097279616 0.027395753 -0.022116339 -0.05455758
000210 e5 87 ec bc 8f cc 25 bd 45 fc 7c 3d a4 cb f5 3c
       -0.028873393 -0.040478285 0.06176402 0.03000433
000220 1c fc fa bb 1b 43 5d bd 4a d6 a7 bc a7 f6 99 3d
       -0.0076594483 -0.054019075 -0.020487923 0.07517748
000230 56 85 be 3d 6f 59 9c bd af 52 d6 3d ae 90 92 3d
       0.093027756 -0.076342456 0.104649894 0.07156502
000240 7f b9 89 3d e5 b2 2c bd 6b 28 46 3c e8 b7 46 3c
       0.06724834 -0.042162795 0.012094597 0.012128808
000250 8e 2e 54 3d 67 f3 72 bc 75 e1 dc bc 46 4c b1 bc
       0.05180221 -0.014828539 -0.026962975 -0.021642815
000260 78 28 e8 bc 34 b3 91 bc 46 f9 a3 3d 7f 57 8b 3c
       -0.02833961 -0.017785646 0.080065295 0.017009495
000270 cf 30 ae 3d 0f 1f 50 bb 24 a3 85 3d a1 d5 bd 3d
       0.08505403 -0.0031756794 0.06525257 0.09269262
000280 5f 81 0d bc 6f d2 79 bc 61 4d 90 bc a5 c1 47 3d
       -0.0086368015 -0.015247925 -0.017615022 0.04876866
000290 0a 5b fa bc 77 df 3b bd 60 ad 83 bd 0d 50 fd bc
       -0.030560989 -0.04586741 -0.06429553 -0.03092196
0002a0 4b f5 d8 3c f0 0a 92 3a 8a 5a c7 bc 6c 6b 83 bd
       0.026484152 0.0011142176 -0.024335165 -0.064169735
0002b0 05 5d c1 bd df 03 df 3d 67 31 8d 3d 76 ca 8e 3c
       -0.0944157 0.1088941 0.068941884 0.017430525
0002c0 2e 67 55 bd 7a da 8d 3b 49 d1 81 3d 3f 0d ab 3d
       -0.052100353 0.004329023 0.06338746 0.08352136
0002d0 7f 33 8d 3d 7c e2 36 bc 0f 87 76 bb c6 ab a4 3a
       0.06894588 -0.0111623965 -0.0037617122 0.00125634
0002e0 a3 02 41 bd 5f 24 ba 3d 69 77 39 3d 57 69 99 3d
       -0.047121655 0.090889685 0.045279894 0.07490795
0002f0 82 b8 2f 3d 94 de 9c 3d 57 8d d6 3c 57 35 0d bd
       0.04290057 0.07659641 0.026190443 -0.034474697
000300 5d cb 72 3d c3 c7 bf 3d 5b de 08 3d cb 45 47 bd
       0.059275974 0.093642734 0.03341518 -0.048650544
000310 44 73 aa bd 8c a6 05 bd 13 45 6a 3d a8 ef 97 3d
       -0.083227664 -0.032629535 0.05719478 0.07418758
000320 99 d8 f8 3c db 00 ed bc 8a ba 06 bc ff ac 66 bd
       0.03037672 -0.028931072 -0.008223185 -0.056317326
000330 12 bb b3 bd 16 15 1b bd f4 eb 8c 38 20 70 f5 bc
       -0.08775915 -0.037861906 6.71967e-05 -0.029960692
000340 04 06 47 bc f1 5b ce 3d 76 f8 05 bb 74 fb 59 bb
       -0.01214743 0.1007613 -0.0020442284 -0.003326145
000350 ae 3c 00 bd 34 d6 17 bc e0 59 96 3c 5e a9 ad 3b
       -0.03130787 -0.009267379 0.018353403 0.005299731
000360 7b c1 3e b9 7a 7c e7 3d af 41 a2 3c dd 4f 9a 3c
       -0.00018191889 0.11303039 0.019806711 0.01883691
000370 30 aa 7c bc ef 31 d0 bb e0 de 4c bd 2b ca f7 3d
       -0.015421435 -0.006353609 -0.050017238 0.12099107
000380 12 6e 2b bd 98 41 f7 bc 94 9d a8 3d c5 43 d3 3d
       -0.041853018 -0.030182645 0.08233181 0.103156604
000390 1c d9 8d 3c cc a1 91 bd 7c ad 75 3c 4e 1f 95 3c
       0.01731544 -0.071109384 0.014994975 0.018203404
0003a0 c2 0f 4f 3d 9a 98 45 bc de 3e 8d bd 58 21 ba bd
       0.050552137 -0.012060309 -0.068967566 -0.09088391
0003b0 d8 ca 68 38 71 44 bd 3b 5a ff 46 3c 64 93 88 3d
       5.5502023e-05 0.005775981 0.0121458415 0.066687375
0003c0 05 a4 9d 3d df e3 c3 bc 50 b2 57 bc 45 f0 73 3d
       0.076973 -0.023912368 -0.013165072 0.05955531
0003d0 77 8e d1 bc 09 84 6a bd 13 dd 72 bd 05 e9 e1 3d
       -0.025580628 -0.057254825 -0.059292864 0.11030773
0003e0 fb 93 89 bc fc cc 70 bd 9a ee ee 3d b8 63 11 3a
       -0.016794195 -0.05878924 0.116666034 0.000554617
0003f0 72 d4 48 3d 56 bd ac 3d 31 ad 0a 3d 0a 1f 97 bb
       0.04903073 0.084345505 0.033856574 -0.0046118544
