models/model.pth (torch, 504540 bytes, 10 tensors)

weight_ih_l0 f4 [384, 32]
000000 b4 c7 e9 3b e1 64 a2 3c 07 53 99 3d c5 a2 c2 3b
       0.007134402 0.019823493 0.07486539 0.005939814
000010 2c 90 fc 3c b0 a3 d5 3d 00 91 a7 bd b7 17 90 3c
       0.030830465 0.104316115 -0.081819534 0.017589433
000020 0f 7b 18 bd 83 a3 7f bd 15 ce 10 bd 58 1a c5 3d
       -0.037226733 -0.062411796 -0.035352785 0.09624165
000030 5a 6e 84 3c c4 fd cf bc af 7b 32 3c 60 a9 d8 3d
       0.016165901 -0.02538956 0.010893746 0.10579181
000040 29 a0 1a bd 29 ef 7e b9 1f 15 e2 bd b6 0d 72 bd
       -0.037750397 -0.00024312422 -0.11039185 -0.059095107
000050 39 f4 41 bc c9 a5 c3 bc 3f 3a 6b bd 39 84 ec 3c
       -0.011838012 -0.023882763 -0.057428595 0.028871642
000060 19 a5 3a bd 92 f7 91 bd fc b7 e7 3d 73 9a a6 3d
       -0.045567606 -0.071272984 0.11314389 0.081349276
000070 e5 76 cf bc 42 6a e7 3d d4 92 c0 bc 66 79 8e bc
       -0.025325248 0.11299564 -0.023507513 -0.017391872
000080 9f 81 54 3c de db 1c bb ca 6b 94 bd 6b 39 c2 bb
       0.012970357 -0.0023934762 -0.07247122 -0.005927255
000090 27 4e 3b 3d d9 8c 92 3d 03 ca 4b bd ca 1e 2d 3d
       0.04572883 0.07155771 -0.0497532 0.04226569
0000a0 6a 8d 05 3d a4 cc 4f 3d c2 91 8b bd f5 3b a8 bc
       0.032605566 0.05073227 -0.068149105 -0.020536402
0000b0 eb 21 10 bd 54 1d ab 3d 75 dd 2a bd 34 0d 84 3c
       -0.035188597 0.08355203 -0.041715104 0.016119577
0000c0 28 b7 18 3d 96 ca 77 3d d3 b3 b2 bd f9 81 01 3d
       0.037284046 0.060495935 -0.08725705 0.031618092
0000d0 7a 19 9c 3c 25 29 f9 3c cc fe bd 3d fb 52 67 bc
       0.019055117 0.030415127 0.09277114 -0.014118905
0000e0 b5 5e df 3d ca e3 eb 3d cc 62 19 bd 23 c4 cb bc
       0.10906736 0.11518057 -0.037447736 -0.024873799
0000f0 5b 99 2c bd 8e 23 41 3d 36 37 67 bd 5a 6a 05 3d
       -0.04213844 0.04715305 -0.056449138 0.032572128
000100 51 bb e5 bc ff a8 71 bb 81 4f 98 3d 36 25 eb 3a
       -0.028043421 -0.003687441 0.07437039 0.0017940167
000110 84 85 78 bc 39 12 1d 3d 92 ab 57 bc 45 92 87 ba
       -0.015168551 0.038347457 -0.013163464 -0.0010343274
000120 de cb b2 bd a0 7a 24 3d fa 42 c0 bc e2 0b 6a 3d
       -0.08730291 0.040156007 -0.023469437 0.05714024
000130 ae e9 bc bd f8 94 58 3c 52 99 3c bd d7 c7 84 3d
       -0.09224258 0.013219111 -0.046044655 0.06483429
000140 b5 f5 ce 3d b6 8d 5e 3d a3 19 8f bd 66 9b 6d bd
       0.10105459 0.054334365 -0.06987312 -0.058009528
000150 a0 65 28 3d a4 24 1a 3d 25 79 9c 3d c6 ed 9c 3d
       0.041112542 0.0376326 0.07640294 0.07662539
000160 e6 be 30 bc 41 54 92 bc 42 54 3b 3d 68 c9 8e 3d
       -0.010787701 -0.017862441 0.04573465 0.06972009
000170 cb aa 41 3d 0b 66 86 3c 5c 7a 87 3d 37 2e 37 bc
       0.04728202 0.01640608 0.06615135 -0.011180452
000180 de e9 06 bd 92 4b b3 ba 57 32 9b 3d 39 14 4a bc
       -0.032937877 -0.0013679138 0.07577961 -0.012333923
000190 63 9e 68 3d 44 9c 61 bc 04 9f 6c 3d 1f 64 7f 3d
       0.056791674 -0.013770167 0.057768837 0.062351342
0001a0 f5 a2 af 3c ce 66 84 3d e9 ae 39 bd 32 4f 87 bc
       0.021440009 0.06464921 -0.045332823 -0.016517255
0001b0 0a f0 92 bd c1 ae 04 3d 8e 69 f2 3d 04 ad 41 bd
       -0.0717469 0.03239322 0.11836539 -0.04728414
0001c0 26 63 a7 3d c8 93 80 3d 97 c6 b2 bc c8 5f 5e 3d
       0.08173208 0.06278187 -0.02182321 0.054290563
0001d0 88 2d 26 3d 25 b5 10 3d a8 45 95 3d 08 09 45 3c
       0.040570766 0.035329003 0.072886765 0.012026079
0001e0 a7 b6 8a bd da a7 3b bc ad fc a1 3d 84 26 3b 3d
       -0.067731194 -0.011453593 0.07909522 0.04569103
0001f0 d5 77 52 bd 27 35 61 bd f2 ae 95 bd 1a d6 69 bc
       -0.051383812 -0.05498233 -0.07308759 -0.014272237
000200 4f 8a ef 3d 8d 9d 24 3d 6d 43 52 3d 13 5d 05 3a
       0.11696302 0.040189315 0.051333833 0.00050874165
000210 e5 d6 9b 3c 88 d4 6a 3d 0a 93 fa 3a e2 97 a0 bc
       0.019023368 0.05733159 0.0019117307 -0.019603673
000220 57 50 3d 3d 74 a2 5a bd 30 87 e2 3c f4 95 7f 3d
       0.046219196 -0.053377584 0.027652353 0.062398866
000230 d6 99 b0 bd 5e 7e b6 bd df d2 ad 3c 29 6c 40 3d
       -0.08623092 -0.089108214 0.021218715 0.04697815
000240 9d b9 56 3d af 2e ba bc e7 60 c2 3d 50 1b b8 3d
       0.05242311 -0.022727339 0.09491139 0.089895844
000250 ee 0c df 3b a7 4d 60 bc 09 40 7d bc 92 7f b1 3c
       0.0068069613 -0.013690389 -0.015457162 0.021667276
000260 14 c9 92 bd 3e 4f e2 3c 56 b5 0d 3d c5 12 ed bd
       -0.07167259 0.027625676 0.034596764 -0.11575846
000270 a9 b7 ae bd b6 f5 ea bd 1b ca df bd 18 97 aa bc
       -0.08531124 -0.11472647 -0.109272204 -0.020824
000280 9e 8e 18 bc a5 60 42 3d 6b ed a3 bd b1 5a f8 3c
       -0.009311346 0.04745545 -0.08004268 0.030316683
000290 60 d5 fd bd 76 14 7c bc ab fb ac 3d b2 a1 9e bd
       -0.12394214 -0.015385738 0.08446439 -0.07745685
0002a0 9f a9 23 3d 75 ba 01 bd 35 43 71 3d a2 93 99 3d
       0.039956685 -0.03167196 0.058901984 0.07498862
0002b0 b1 a9 b6 3c 87 e8 61 bd 63 76 a4 bb ba 8c fc bd
       0.022297712 -0.055153396 -0.0050189956 -0.12331529
0002c0 2b 5b 19 3d ac ec be bd 83 fa 60 3d f3 dd 7a bb
       0.03744046 -0.09322485 0.054926407 -0.0038279265
0002d0 2a d8 0a 3d d1 b5 a6 bd 67 cb e4 3c db 4f b8 bd
       0.033897556 -0.081401475 0.027929021 -0.08999606
0002e0 5e 39 51 3c c7 d9 41 3d ca 63 e8 bd 3d d6 7c 3d
       0.012770025 0.04732683 -0.11347158 0.06172775
0002f0 2c 92 8c bd 88 4c 81 bd c1 a1 06 bd 8f 6d 94 3c
       -0.068638176 -0.06313425 -0.032869104 0.018118648
000300 9e 45 92 3d 45 fa ad 3c 21 7e 01 bd ed 98 a1 3c
       0.07142185 0.021237502 -0.031614427 0.019726241
000310 1a 8a 11 3e 3a df 2a 3e ed 85 1a 3d 60 26 9b 3d
       0.14212838 0.16686717 0.037725378 0.07575679
000320 33 b0 82 3c f6 7d 08 3e 1d fc 89 3d 28 fa b1 bc
       0.015953159 0.133293 0.0673754 -0.02172573
000330 a4 03 71 bd 16 e1 47 bd e2 49 f8 bc 1d 39 39 3d
       -0.058841363 -0.048798643 -0.030308668 0.045220483
000340 ad 90 4e 3c 40 fc c9 bc 20 bc 7a bd 36 1f 1a bc
       0.012607736 -0.024656415 -0.061214566 -0.009406855
000350 af dd 91 3d 8d cc d6 3d 44 5d af 3d c3 2a da 3d
       0.07122361 0.10488234 0.08562711 0.106526874
000360 cd f5 67 3d 9d 7f 23 3d 34 f7 98 3d 1d 63 2c 3d
       0.0566309 0.039916623 0.07469025 0.04208671
000370 a9 8e 70 3d e4 1c 38 bd 5d 16 bc 3d 89 a7 e6 3d
       0.0587298 -0.044949427 0.09183953 0.112624235
000380 72 64 5f bd 18 73 63 3d a3 8a fe bd 47 e2 62 bc
       -0.05453915 0.055529684 -0.124287866 -0.013847894
000390 07 a8 bd bd ff 84 a1 bd 53 9a 32 bc 76 b6 e9 bd
       -0.09260564 -0.07886695 -0.010901052 -0.11411755
0003a0 d6 70 9f 3d 45 f6 11 bc be e3 b3 3b 2a 38 6e bd
       0.077851936 -0.008908813 0.0054897955 -0.05815903
0003b0 0c f1 17 bd 64 13 0e bd e9 94 7a bd 3e 14 16 3d
       -0.037095115 -0.03468646 -0.061177168 0.0366404
0003c0 c7 43 9b bb 2a 9d 14 bc 73 89 00 3d 89 4a 02 bc
       -0.0047383043 -0.009070674 0.03138108 -0.007952341
0003d0 d6 60 2f 3d 10 b1 2e bd f5 0d 6d 3d 27 1d 61 3d
       0.04281696 -0.04264933 0.05787464 0.054959442
0003e0 d3 54 20 3d 26 34 85 bd 9e f2 ae bc 90 42 1d bd
       0.039143395 -0.06504087 -0.021355923 -0.038393557
0003f0 ee a1 20 bc 37 e4 06 3d e3 2b 1a 3d 93 ba 88 bd
       -0.009804232 0.032932486 0.03763951 -0.06676211

weight_hh_l0 f4 [384, 128]
000000 aa 87 e1 3c c1 2c 80 bb a2 fa e0 bd 45 26 71 3d
       0.02753051 -0.003911585 -0.109853044 0.058874387
000010 1c 33 87 3c 65 8c 5c 3c bd d6 0d bd 7c 3b 3b bd
       0.016503863 0.013461207 -0.03462862 -0.045711026
000020 ef 91 ec 3c 9b bc 94 3d 7a ee 9b bd c3 25 5a bd
       0.02887818 0.07262536 -0.07613845 -0.05325867
000030 71 10 60 bc d6 30 46 3d 84 df 4f bc e8 ab a4 bd
       -0.013675795 0.048386417 -0.012687568 -0.08040601
000040 e9 51 b0 3d 37 f0 76 3d 4c 07 17 3d 3f 6a 7b bd
       0.08609373 0.06028768 0.036872193 -0.06138062
000050 c8 bc a3 bc 7e 5e 54 3c b8 d0 2d bd 6a a6 de bc
       -0.019987479 0.012961982 -0.042435378 -0.027178962
000060 a1 34 a4 bd ce 5e e3 bc 8a 60 2e bd d9 d5 1e 3c
       -0.08017851 -0.027755167 -0.042572536 0.00969454
000070 b6 54 96 bd e9 34 68 bd 13 cd 0e 3d 7e ac 42 3d
       -0.07340376 -0.056691084 0.034863543 0.047527783
000080 eb 68 49 3d c5 4a aa bd 25 f5 92 3d 1c 4e 51 3d
       0.049172323 -0.083150424 0.07175664 0.05109988
000090 31 36 c0 3c 34 11 d4 3d 97 21 a0 3c b2 3d c8 3b
       0.02346334 0.10354844 0.019547267 0.0061108703
0000a0 2b dd 2b bd a2 24 2b 3d c0 37 f1 ba cb 93 34 3d
       -0.04195897 0.041782983 -0.0018403456 0.04408626
0000b0 e8 85 40 bc dd 7f 93 3d c1 57 4b 3c 6b ca 48 3d
       -0.011750676 0.07202122 0.012411059 0.049021166
0000c0 0b 6c 0d 3d ae 85 ab bc d3 38 88 bc 76 5e 69 bd
       0.034526866 -0.020937767 -0.016628658 -0.05697485
0000d0 8d 72 15 be 72 40 b5 bd 75 5b 4f 3d 77 ff 9a 3c
       -0.14594479 -0.088501826 0.05062433 0.018920643
0000e0 0c 0a 53 bc 6a 9d 60 bd 1f d9 bb 3d 31 5b 8c bd
       -0.012880813 -0.05483762 0.09172272 -0.06853331
0000f0 a9 04 e5 bb 49 fb c8 bd 52 48 b0 bd 7e 72 85 bd
       -0.006989081 -0.09813554 -0.08607544 -0.06515978
000100 5c 91 fd bd a4 49 dd bc db 63 48 3d 69 b7 86 bd
       -0.12381241 -0.027012654 0.048923355 -0.065779515
000110 20 b1 c3 bb cf a7 32 bd 4c a0 64 bd 98 c1 a3 3b
       -0.0059720427 -0.043617066 -0.055816934 0.0049974434
000120 f5 0e d7 3c 5d 88 0e 3c e3 8f 28 3d 2d 1c c1 3c
       0.02625225 0.008699504 0.041152846 0.023573006
000130 e1 c6 85 3c af 67 de bd b6 70 1b bd 48 5f 92 3c
       0.016330184 -0.1085962 -0.037949286 0.0178677
000140 2e 9e 6d bd 37 e6 51 3d 09 3b 1f 3c 1e 50 c1 bc
       -0.05801218 0.05124494 0.009718665 -0.023597773
000150 2e bb 31 3c 21 a4 98 3a 6c f7 3d 3c 63 90 c9 3c
       0.01084785 0.0011645594 0.0115946345 0.024604982
000160 28 be c1 bc 24 51 4c bd a2 ff 4f bd 0a 33 87 3c
       -0.023650244 -0.04988207 -0.0507809 0.01650383
000170 07 24 a8 bd 1e 73 86 bd 5a 34 9f 3d 05 3c 7a bd
       -0.08209997 -0.065649256 0.07773657 -0.061092395
000180 66 ed cc bc 47 df 5d 3c 72 47 33 bd 9a a4 c1 3d
       -0.025015544 0.013542003 -0.043769307 0.094552234
000190 a4 be 41 3d e0 76 6f 3d c2 c1 81 bc 4e c7 3f bd
       0.04730095 0.058462977 -0.015839461 -0.04682093
0001a0 e8 33 46 bd c0 be 8b bd ba 6b 84 3b 1a 8d 40 3c
       -0.048389345 -0.06823492 0.0040411623 0.011752391
0001b0 07 eb a6 39 af a1 89 bd f8 7a 83 bd 4f 80 18 3d
       0.00031837096 -0.06720292 -0.06419939 0.03723174
0001c0 24 08 7c bd 9f 6c 09 bc 25 a6 93 bd e6 5d 1c 3d
       -0.0615312 -0.008387714 -0.07209424 0.038175486
0001d0 c2 0a ce bc 38 59 94 3c d1 1f 90 3c 87 b6 63 3d
       -0.025151614 0.018108949 0.017593296 0.055593994
0001e0 9c 14 67 3d 1c 9b 77 3d fa 4e e1 bb d1 b9 cd 3d
       0.05641614 0.06045066 -0.00687587 0.10045207
0001f0 94 6a 69 bd f8 23 19 3c be 5c 6c 3d 2f 44 57 3d
       -0.056986406 0.0093469545 0.057705633 0.05255526
000200 ea 33 c3 bb e6 03 93 3d 46 ba 25 bd e2 59 b1 3c
       -0.0059571164 0.07178478 -0.040460847 0.021649305
000210 a3 c2 a3 bd 4d de d2 bd ed d1 6e bd 81 1e 14 bd
       -0.079961084 -0.10296307 -0.05830567 -0.036161903
000220 61 f0 57 3d 70 dd 05 3d 47 1e d4 bd bc 4c 2f 3d
       0.052719478 0.032681882 -0.103573374 0.04279779
000230 ef 33 88 3d 8a 29 33 3d 81 34 8c bc fc 36 4b 3c
       0.066505305 0.043740787 -0.01711488 0.012403246
000240 19 24 24 3d 87 c9 e2 3d 63 07 48 3d 3f f7 e9 bd
       0.040073488 0.110735945 0.04883517 -0.114241116
000250 b0 92 a8 bc 95 57 3b bd 9c db 45 bc c4 0c d7 bc
       -0.020577759 -0.04573782 -0.012076285 -0.026251204
000260 fd 8e 50 bc c5 86 96 3c c4 42 ba 3d 9a d9 c6 bd
       -0.012729404 0.01837481 0.09094766 -0.09709473
000270 b5 df 88 bd 1a 5b e6 3c db 4e 53 bd 11 38 50 bd
       -0.06683294 0.028119612 -0.051588874 -0.05083472
000280 29 7b 6a 3d 00 d5 1b bd 42 ec a3 bd 63 00 c4 3c
       0.05724636 -0.03804493 -0.08004047 0.023925966
000290 12 ff 96 bd 02 10 6b bd d7 b6 46 bc 18 0d b2 bc
       -0.073728696 -0.057388313 -0.012128553 -0.02173476
0002a0 3d 3f b2 bd 3e a3 22 3d 69 d5 83 bd 05 66 80 3d
       -0.08703468 0.03970646 -0.06437189 0.06269459
0002b0 d8 99 52 bd ed bc 8c 3d 86 39 8b 3d 81 2d a3 3d
       -0.051416248 0.06871972 0.06798081 0.079676636
0002c0 eb a4 63 3d cd 54 38 3d 7d 12 02 3d f0 ef a7 bc
       0.0555772 0.045002747 0.031755913 -0.020500153
0002d0 0e 12 8a 3c c2 8d 68 3c 25 3c 98 bd 08 db c6 3c
       0.016854312 0.014193954 -0.07433347 0.024274364
0002e0 f5 94 5b 3d 41 4b 05 bd 1a fd db 3d d1 1f b7 3b
       0.053608853 -0.03254247 0.10741635 0.0055885096
0002f0 29 69 93 bd fa f2 0a bd 73 7c 8e bd 53 d1 97 bb
       -0.07197792 -0.033923127 -0.069573306 -0.0046331077
000300 ad 7b 11 3c 87 7e 19 3d 1b 8e b4 3d b4 a6 5d 3c
       0.008879584 0.03747418 0.08816167 0.013528515
000310 35 b8 bb bd 3f 8e b3 3d 8e d5 30 bd 44 4d 68 3b
       -0.09165994 0.08767366 -0.04317241 0.0035446445
000320 dd 69 1b bc 95 de 32 3d 25 a2 85 3d d7 84 77 3c
       -0.009485689 0.043669302 0.06525067 0.015107355
000330 ce 2c be 3b 70 09 fe 3b b5 de c7 3c 1a 5f 96 3d
       0.005803681 0.00775259 0.024398187 0.07342358
000340 e9 40 a6 3d 28 87 30 3d eb 11 25 bd e3 1a 9f bd
       0.081178494 0.043097645 -0.04030029 -0.077688
000350 b5 54 34 bd 43 20 9b 3d 32 0b 28 bb 9f d9 d7 3d
       -0.044026095 0.07574513 -0.0025641439 0.10539555
000360 4c 33 18 bd 1f 4b 70 3d 20 6d 8a 3b ac 16 98 bd
       -0.037158296 0.05866539 0.0042244345 -0.07426199
000370 85 14 bd 3d 52 cc ca bd 88 6c 1f 3d 65 65 5a 3d
       0.092324294 -0.09902252 0.038921863 0.053319354
000380 81 d7 87 3c f0 9d c2 3a 79 1b 26 3d cb 00 a3 bc
       0.016582252 0.0014848094 0.040553544 -0.019897839
000390 0a e8 d1 bd bb 25 2d 3c 96 75 78 3d 0e 58 bb 3c
       -0.10249336 0.010568078 0.060659014 0.022869136
0003a0 82 ae b8 bd 01 b7 37 bd 59 1a 04 bc 1d a8 61 bd
       -0.0901766 -0.04485226 -0.008062922 -0.055091966
0003b0 52 66 f1 3b 90 76 88 3c 81 96 dd 3d 99 bb 56 bc
       0.007366934 0.016658098 0.10819722 -0.01310625
0003c0 98 a4 a6 bd b6 95 c1 bb 0d 83 86 bd 7b c6 27 3d
       -0.081368625 -0.0059077395 -0.06567965 0.04096077
0003d0 c3 dd 0e bd d7 3c b2 bc 64 ae b2 3d 2e 80 71 3c
       -0.034879457 -0.021757526 0.087246686 0.014740033
0003e0 4b 3d 36 bd c8 db 67 3d 1f 36 e7 bb 39 17 8c bd
       -0.044492047 0.056606084 -0.0070560123 -0.06840367
0003f0 1c ae e8 3c d5 a0 b5 bd dc 48 94 bd bc 28 c8 bd
       0.028403334 -0.08868567 -0.07240459 -0.097733945

bias_ih_l0 f4 [384]
000000 0e 62 41 3d ba 6c 5b 3c b5 d9 48 3d d2 43 b8 3d
       0.047212653 0.013392622 0.049035747 0.08997311
000010 ac 93 52 bd 8e e1 33 bd b7 d2 35 3d f6 89 d0 bd
       -0.051410362 -0.043916278 0.044390406 -0.10182564
000020 27 b6 3c 3d eb 81 cf 3b 28 83 12 3d d0 7f 41 bd
       0.04607215 0.006332626 0.03576961 -0.047241032
000030 e0 c9 c4 3c bc d9 8c bd 39 74 ae bd 7e 9b 76 3d
       0.024022043 -0.06877467 -0.085182615 0.060206883
000040 a7 b1 85 3d 02 61 22 bd 57 1a d3 bc 6d b1 89 bd
       0.06528025 -0.039643295 -0.025769396 -0.067232944
000050 23 5d 1e bd e0 cc 8b bd e0 0a 91 bb c8 82 2e bd
       -0.03866304 -0.06826186 -0.004426345 -0.04260519
000060 8e 94 96 3b 4c e2 ec bc 60 f7 86 3d f5 e8 81 3d
       0.004595346 -0.0289165 0.06590152 0.06343261
000070 e6 d7 7d 3c ad 30 86 3b fd d9 ab 3d 28 ab 3a bc
       0.015493369 0.004095158 0.08391187 -0.011393346
000080 60 47 b4 3c 6a 42 b1 3c a2 83 3c bd 9e 99 a2 bd
       0.02200669 0.021638114 -0.046023972 -0.079394564
000090 21 cc 7a bd ee dc 6c 3d 35 a5 4d bd 3d 3a ee bb
       -0.06122983 0.057827882 -0.05020638 -0.007270126
0000a0 9a 89 dc 3c 52 4d 98 3d 65 ff 01 3d 87 d2 d2 3d
       0.026921082 0.07436623 0.031737704 0.10294061
0000b0 49 51 87 3d d5 47 ea bd 95 a2 23 3d 5d 59 d2 3c
       0.06607301 -0.11439482 0.039949972 0.025677377
0000c0 08 e4 e5 3c ee e4 20 3d 95 68 5e bd 7e a5 75 3d
       0.028062835 0.039280824 -0.054298956 0.05997228
0000d0 fa 6c 5a bd e1 a6 02 bd 1b 5d c2 3c aa b4 b7 3d
       -0.053326584 -0.03189743 0.023726037 0.08970006
0000e0 b4 06 c6 3c e3 d7 ba bd 1b 7e 29 bc 78 17 94 3b
       0.024173118 -0.091232084 -0.010345007 0.0045193993
0000f0 93 f8 29 3d ab 75 47 bd 75 68 22 3d 4d 93 5d 3d
       0.041496824 -0.0486962 0.0396504 0.054095555
000100 10 09 83 bc 34 1c 11 bd 72 61 8f bd b8 5c 04 be
       -0.015995532 -0.035427287 -0.07001008 -0.12925994
000110 09 f5 1f 3d 9d 14 8e bd c0 75 af 3d 53 a6 07 3d
       0.039052043 -0.069375254 0.08567381 0.033117604
000120 9a 9f 70 bd 63 93 ad bc c0 c9 02 bd 2f 48 f9 bc
       -0.058745958 -0.021188444 -0.031930685 -0.030429928
000130 3c ff fb 3d 18 94 94 bd 57 e2 a3 3c 5d ec 74 3d
       0.123045415 -0.07254809 0.020005388 0.059795726
000140 35 1c 3f 3a 85 55 8d 3d 33 9a 85 3c 25 2c 53 3d
       0.0007290275 0.06901077 0.01630888 0.05155577
000150 fb b6 05 3e dd 06 60 3d f3 0e c3 3d 51 6d 10 bb
       0.13058083 0.054694045 0.09524336 -0.0022037814
000160 82 81 9d 3d 65 78 90 3d b1 80 a8 3d c1 94 34 bd
       0.07690717 0.070542134 0.08227671 -0.044087175
000170 32 58 f4 bc e3 ff be 3c 6b 9b 25 bb da a1 c0 bb
       -0.029827211 0.023315376 -0.0025269638 -0.005878669
000180 9f 4c 61 bd af f0 a0 3d 2a bb 97 3d c8 6e 89 3d
       -0.055004712 0.07858407 0.074087456 0.06710583
000190 e5 bd c2 3d e0 10 93 3c ff 73 95 bd 31 b4 a6 bd
       0.09508876 0.017952383 -0.07297515 -0.081398375
0001a0 5f 21 90 bd 4e eb 4f 3d bd a8 a7 3d 1c f9 cb 3d
       -0.07037615 0.050761513 0.08186481 0.09959623
0001b0 16 f5 d4 3d b8 8f b6 bd 60 58 ac 3c 19 a3 34 bd
       0.10398309 -0.08914131 0.021038234 -0.044100855
0001c0 39 d9 31 3d 83 73 90 3c 8b a1 5f 3c d7 77 7e bd
       0.04342005 0.017633205 0.013649355 -0.062126007
0001d0 34 33 73 3d 03 46 1b bd 95 7b 0a bc 96 9d d0 bd
       0.059375003 -0.037908565 -0.008452316 -0.10186307
0001e0 f2 1f 6b bd df dd 14 bd c6 a1 d0 bb 84 77 f7 3b
       -0.057403512 -0.036344405 -0.006366941 0.007552089
0001f0 6d 3d 48 bd 56 e4 c4 3d a0 91 cf 3d 30 84 e4 bb
       -0.048886705 0.09613864 0.10135198 -0.006973766
000200 2f ab e0 3d f5 b8 a1 bd 70 63 46 bb a0 8a 8c bd
       0.10970151 -0.07896606 -0.0030271672 -0.06862378
000210 b8 9c c7 3c 65 13 9d 3d 89 1a 56 bd e8 0b 4a 3d
       0.024366722 0.07669715 -0.0522714 0.04932776
000220 dc 81 81 3d b4 6b 71 bd bd a5 88 bc 4d af 25 3d
       0.06323597 -0.058940604 -0.016680593 0.040450383
000230 41 fe d7 3c 87 e5 22 3e fb 96 43 3d 5b 2d 0a 3d
       0.026366355 0.1590787 0.047751408 0.03373466
000240 40 36 92 bd 68 7b b1 bc 4e b8 a7 bd 69 f9 bb 3d
       -0.071392536 -0.02166529 -0.0818945 0.091784306
000250 5f 2c df 3d 8c d3 9d bc fb 4a 01 bd 64 0a 49 bd
       0.10897135 -0.019265912 -0.031565648 -0.049082175
000260 02 53 20 bd 12 cb 74 3d 72 09 19 bd c9 c4 fc 3c
       -0.039141662 0.059763975 -0.037362523 0.030855553
000270 21 1c 78 bd c6 59 1c bc 22 25 1f 3e 3c 10 ad 3d
       -0.0605737 -0.009542888 0.15541509 0.08450362
000280 34 c3 d3 bd c5 28 d8 3b 16 08 3e bd 93 aa 5a bc
       -0.103399664 0.006596657 -0.04639443 -0.013346332
000290 e5 f8 51 3d 90 3a de 3d 00 a8 94 bc bf 46 9c 3d
       0.051262755 0.10851014 -0.018146515 0.07630681
0002a0 ef ed 96 bd 72 3c 59 3d 2f f1 8a bc 11 32 4e 3d
       -0.07369601 0.05303616 -0.016960708 0.050340716
0002b0 f0 5f 8a 3d c7 c1 2b 3d fc 3b bd bc 89 02 ed 3c
       0.0675658 0.041932847 -0.023099892 0.028931873
0002c0 74 73 9e bd 2a 68 68 bd 5e f9 9e bd af 67 f6 bc
       -0.07736865 -0.056739964 -0.07762407 -0.030078737
0002d0 82 29 9e bc 5d 6b c3 bd 37 23 9c 3d 0d 2d 10 3e
       -0.019306902 -0.09541962 0.07623904 0.14079686
0002e0 fd fc 97 3d bd fc 31 3d 50 1c 91 bd 0f 70 a9 3d
       0.074213006 0.04345392 -0.07085478 0.082733266
0002f0 ef e1 10 bd 53 bb bf bc c2 69 72 bc 97 d2 c3 bc
       -0.035371717 -0.023404753 -0.014795722 -0.023904128
000300 81 3a 6d 3d 5a 28 a9 bd 87 20 fc ba e2 88 8c 3b
       0.05791712 -0.082596496 -0.0019235768 0.0042887786
000310 6a b3 df bc 25 63 9f bd 3c 22 1f bd 2c eb a9 3c
       -0.027307231 -0.07782582 -0.038851008 0.020742022
000320 ef 50 dd 3b 85 3a 34 3d 86 c0 80 bd 2b 17 1d 3d
       0.006754033 0.04400112 -0.06286721 0.038352173
000330 4d 55 13 bc 6b e7 e5 3d d6 fd a4 bc ec 15 a3 bd
       -0.008992505 0.1122578 -0.02014057 -0.07963166
000340 81 2b d6 3c c7 4a 99 bc 02 2e 1e 3d 5f a0 fc 3d
       0.026143791 -0.018712414 0.038618095 0.12335276
000350 94 dd 52 bd 3d 30 06 3c a2 3e fc 3c 97 ba 37 3d
       -0.051480845 0.008190212 0.030791584 0.04485568
000360 14 cc 41 bd a5 95 c2 bc 5b 1d f6 3c 69 27 01 bd
       -0.047313765 -0.023752997 0.030043295 -0.031531725
000370 b6 69 7c bd 41 15 f2 3c c2 87 91 bc b4 c6 9e 3c
       -0.06162425 0.02955115 -0.01776493 0.019381858
000380 dd f0 ff bc 7c b3 cb 3d 3a 52 ac bd c1 2a 55 3d
       -0.031242782 0.09946343 -0.08414121 0.052042726
000390 69 35 83 3c 4d ce 22 3e be ad 4d 3d 88 e7 a1 bd
       0.016016679 0.1589901 0.05021452 -0.07905489
0003a0 79 65 e7 bb cc 50 8a bd 27 9c 35 3d 9a 07 62 bd
       -0.007061657 -0.06753692 0.04433837 -0.05518303
0003b0 7c 46 de 3c 26 e9 1d bd c5 63 b6 bc ca 4f 44 bd
       0.027133219 -0.038552426 -0.02226437 -0.047927655
0003c0 2c a9 21 bd a9 af 27 3d d7 5c 52 3d 14 c4 8d bc
       -0.039467975 0.040939007 0.05135807 -0.017305411
0003d0 27 34 8a bd a3 a1 80 3d 6b 57 67 bd bb c9 e0 bc
       -0.067482285 0.0628083 -0.056479853 -0.027439943
0003e0 2e fa 2e bd 2f 87 31 3d 84 19 0d bc 18 2b 99 3d
       -0.04271906 0.04334181 -0.00861204 0.074789226
0003f0 7e d9 04 3d 50 5b 6c bd b4 43 55 3d 8d 3f 54 3d
       0.03243398 -0.05770427 0.05206652 0.05181842

bias_hh_l0 f4 [384]
000000 a4 a8 81 3c c3 2d df 3d 2d 38 04 bc 22 8d 18 bd
       0.015827484 0.108974 -0.008070034 -0.03724397
000010 0e 3b a0 bd 68 9b 88 bc 48 a6 e4 3d 5f 10 6e bd
       -0.07823764 -0.016675666 0.11164528 -0.05812108
000020 01 86 bf bc d6 eb 8b bd a8 42 32 3d 3b 20 7a bc
       -0.023379328 -0.068320915 0.0435206 -0.015266473
000030 64 8f ee bc 24 21 f3 3c b0 c7 c7 bc da d6 95 bd
       -0.029121108 0.029678889 -0.02438721 -0.0731637
000040 af f5 83 3c 2a 63 ed 3d 0c 31 a1 3d 23 3e 5a 3c
       0.016108362 0.1159118 0.07870683 0.013320479
000050 0e 59 89 bd 4c a2 93 bd 3c 46 d7 3b e3 3f 8e 3c
       -0.06706439 -0.0720869 0.006569652 0.017364448
000060 9e 10 5d 3d 97 21 04 bd b9 57 de bc bb b5 95 3d
       0.053970926 -0.032258596 -0.027141439 0.07310053
000070 73 69 39 bd 98 b6 49 bd 9b c3 31 bc 64 15 76 bd
       -0.04526658 -0.0492464 -0.010849859 -0.060078993
000080 a0 9f 34 bd 25 0b af bd 30 af 8b bd 4a 21 41 3d
       -0.044097543 -0.085470475 -0.06820524 0.047150888
000090 6c 47 04 bd 79 e7 44 bd ae 91 bf bb 71 5b 98 bc
       -0.032294676 -0.048072312 -0.005846224 -0.01859829
0000a0 5c 47 71 3b 11 e8 ca bc 7a f2 b3 3c 43 48 72 3d
       0.0036816215 -0.024768861 0.021966208 0.059150945
0000b0 b0 04 f2 bc 82 85 04 3d 0e c6 4f 3d d9 bc fd bc
       -0.02954325 0.032353885 0.05072599 -0.030973839
0000c0 29 3c 2d 3d 85 f6 74 3d 7e a5 e9 bc 66 46 99 bd
       0.0422937 0.05980541 -0.028521296 -0.074841306
0000d0 65 79 31 bd fa f8 60 3d 9d 2a 4c bd 8c 0f c4 3d
       -0.04332866 0.054924943 -0.049845327 0.09573278
0000e0 cc d1 ba bd f9 39 b7 bc e5 0a d7 3d 44 be d8 bd
       -0.09122047 -0.02236651 0.10500125 -0.10583165
0000f0 4c 06 43 bd a2 4f 6a bd c8 89 fa 3c 7d 69 c1 3c
       -0.047613427 -0.05720485 0.030583277 0.023609871
000100 78 86 10 3d 81 7f 3f bc a9 58 51 3d 66 d1 ac bc
       0.03528449 -0.011688114 0.051109944 -0.021095943
000110 6b f3 90 bb 97 8f ba bd 79 bb b3 bc 48 33 ee bc
       -0.004423549 -0.09109419 -0.02193998 -0.029077187
000120 ba 28 0c 3d 5d 35 d4 3c e3 cc 8b 3d 9c f2 3c bd
       0.034218527 0.025904352 0.068261884 -0.046129808
000130 51 bc f8 3a 84 af d8 bd 60 9f 8a 3c cd 29 77 bc
       0.0018977021 -0.10580352 0.016921699 -0.01508565
000140 42 4b 95 3d 2e 8e 4b 3d ab dd 50 3d 91 5c 73 3d
       0.07289745 0.04969614 0.05099265 0.05941445
000150 01 27 db 3d 0a 63 cc 3c f0 b9 dd bc c4 ee 8e 3d
       0.10700799 0.02494957 -0.027066201 0.06979135
000160 cc 2e 0a 3d ca 15 8a bd b1 35 30 bd 3b 0c 73 bd
       0.033736035 -0.06742437 -0.043019954 -0.059337836
000170 f0 0b cd 3d e2 32 98 3d f0 8c 10 3d 6e 22 55 3d
       0.100120425 0.0743158 0.03529066 0.052034788
000180 89 cc de bc 11 bf 06 bd b0 e8 a0 bc 38 c9 55 bd
       -0.02719714 -0.03289706 -0.019642204 -0.05219385
000190 36 ed c4 3d a7 49 c2 bd 50 89 91 3d ad 90 3f 3c
       0.09615557 -0.09486704 0.071062684 0.011692208
0001a0 ce 76 7c 3d 5f 51 74 bd f0 50 82 bc 4b 4e 07 3d
       0.06163674 -0.059647914 -0.015907735 0.03303365
0001b0 25 59 84 3d b2 9e 95 bd cc da aa 3d bc 2b a2 3d
       0.064623155 -0.07305659 0.083425134 0.07918498
0001c0 38 11 13 bd 70 26 b0 bd 28 fc 4b 3d db a7 66 bb
       -0.035905093 -0.08601081 0.04980102 -0.0035195264
0001d0 fb 89 85 bd a0 08 e8 bd 45 7c 5d bc a5 ae 0c bd
       -0.06520458 -0.1132977 -0.013518398 -0.03434624
0001e0 5b 5f b9 bd 25 5d fb bc ca 3d 9a 3d 44 25 92 bd
       -0.09051391 -0.030684063 0.075313166 -0.07136014
0001f0 f6 37 d2 bb 19 28 47 3c 9e 05 dc 3d e5 1d b9 3d
       -0.0064153625 0.012155556 0.10743259 0.09038905
000200 ea e3 24 3d 0f 64 3b bc 28 a6 e4 bb dd 3d 38 3c
       0.04025642 -0.01143743 -0.006977815 0.011245218
000210 d1 e6 9f 3d 6f 04 32 bd ad 29 b6 bd 5c 2f 05 3e
       0.078076966 -0.04346126 -0.08894668 0.13006347
000220 03 26 c0 3d fa 61 b6 3c 1c 3e 85 bd 16 e6 4c bd
       0.0938225 0.022263516 -0.06505987 -0.050024115
000230 c5 0a 21 bd dd 34 09 3e 16 79 07 3e 89 0f 47 bc
       -0.03931691 0.13399072 0.13229784 -0.0121497
000240 47 24 0c 3d cb 97 4a bc 6a a4 c6 bd 6d 51 e7 3c
       0.034214284 -0.012365292 -0.09699328 0.028237069
000250 0f 1e 19 3d 65 ea 5a 3d ff 8d 71 bd 88 b8 a0 3d
       0.03738218 0.053446192 -0.05897331 0.078476965
000260 bc b6 53 3d 26 fe 8a bc 7c 6e 79 bd bd c7 f6 ba
       0.05168794 -0.01696689 -0.06089638 -0.0018827837
000270 2c 17 14 bd 15 a7 21 bb 9e 3c 19 3e de aa e0 3d
       -0.03615491 -0.002466624 0.1496453 0.1097009
000280 95 97 20 3d 53 86 59 3d 65 88 c0 bb 76 58 f6 ba
       0.03920706 0.053106617 -0.0058756345 -0.0018794674
000290 70 f6 5e 3d 2d ae c7 3c 00 3b b2 3d 66 82 6a bc
       0.05443424 0.024375046 0.087026596 -0.014313316
0002a0 d0 00 f9 bb 59 8f c9 3b 1b 7d 89 bc 7a ea c1 3d
       -0.007598974 0.0061511216 -0.016783288 0.09468551
0002b0 ef 4a 88 3d 03 c8 e0 bc 1a 6d 0c bd e8 a4 f7 3d
       0.066549174 -0.027439123 -0.034283735 0.12092
0002c0 b0 4e 71 3d 4d 55 d0 3d 09 91 02 3c 66 f5 b4 bb
       0.058912933 0.1017252 0.007969149 -0.005522418
0002d0 45 27 cc 3d c3 ba de bc d1 e3 2a 3d 85 03 ff bb
       0.099684276 -0.027188664 0.04172117 -0.007782402
0002e0 49 7c 8f bd ee 8d 24 3d 22 62 3f 3c 46 53 8c 3d
       -0.070061274 0.040174417 0.0116811115 0.06851821
0002f0 a5 63 88 bb e2 e9 f0 bc 56 ed 07 3e 3d c5 e8 bc
       -0.004162269 -0.029408399 0.1327413 -0.028414363
000300 cb a0 f7 3c 7e 2d 3a bd de e3 8a 3d 03 5d 70 bd
       0.03022804 -0.04545354 0.067817435 -0.058682453
000310 5d 52 ef 3b 75 4b fd 3c c0 d8 1e 3d 62 f5 93 3d
       0.0073035196 0.03091977 0.038780928 0.072245374
000320 6e 7d e4 bd ac 76 c0 3d 1f 8d b3 3d 08 31 81 bd
       -0.11156736 0.09397635 0.08767151 -0.0630818
000330 88 a5 b1 bb 96 99 f4 3d 5b a8 d6 3c 2b 31 93 bd
       -0.005421344 0.11943357 0.026203325 -0.071871124
000340 7b b4 32 3d 7d 60 64 3d a9 4d f8 bc d6 55 c4 3c
       0.04362915 0.05575608 -0.030310469 0.023966711
000350 41 0d 83 3c 07 54 6f bb dd 03 4c bd 4e 75 a8 3c
       0.01599753 -0.003651859 -0.04980837 0.020563748
000360 e1 0a 3d 3d 9d 0b ba bb 66 a1 78 bd ef 18 d3 3c
       0.046152953 -0.005677654 -0.060700797 0.025768725
000370 8c 8e c2 3b 53 07 a1 3d e4 1c 93 bd 21 79 40 bd
       0.005937403 0.07862725 -0.07183245 -0.046990518
000380 65 2e 56 3c ea e8 09 3e 80 4e b6 bd 41 c1 9c 3d
       0.013072585 0.13467756 -0.089016914 0.07654048
000390 ce 67 45 bd 67 df a2 3c 6a 4b f0 bb fb 1b 9e 3c
       -0.0481947 0.019881917 -0.007333209 0.019300452
0003a0 5a 25 3b bc aa 0e 15 bd cf 9f c1 3d 7b e7 ae bd
       -0.0114224795 -0.036390938 0.09454309 -0.08540245
0003b0 da 85 42 bc 14 e5 bc bd eb 3b 25 3c a6 de d2 3c
       -0.011872733 -0.09223381 0.010085086 0.025740933
0003c0 1b 32 4a bd ed f3 61 3d e5 bc 01 bd 8c 8a b8 3c
       -0.04936419 0.055164266 -0.031674284 0.022527002
0003d0 75 7f b5 3d 05 4f 5e 3d f8 35 be bd 65 da 0c 3d
       0.08862201 0.054274578 -0.092876375 0.034387965
0003e0 e0 4c 67 bd f1 f6 98 3d d8 26 85 3c d5 c3 94 3d
       -0.056469798 0.07468975 0.016253874 0.072639145
0003f0 e4 b6 40 3c ea 67 be bc a7 75 5c bd c9 56 9b bd
       0.0117623545 -0.02324291 -0.05382314 -0.07584912

weight_ih_l0_reverse f4 [384, 32]
000000 56 b6 0c 3e 4a 02 5e bd 2d 8b f8 ba 56 67 dc bd
       0.1374143 -0.0542014 -0.0018962376 -0.10761897
000010 7b 9f 7f bd 92 40 a1 bd 79 b4 8e bd 39 2b 74 bd
       -0.06240795 -0.07873644 -0.06968016 -0.059611533
000020 ea 72 04 3d 52 04 c4 3c 67 15 a3 bd d1 8a 56 bd
       0.032336153 0.023927841 -0.079630665 -0.05237848
000030 b2 99 1a bd a0 0e bc bc d1 c3 8f 3c 8e 11 48 bc
       -0.03774423 -0.022956192 0.017549427 -0.012211217
000040 73 e7 95 3d db bd 9f 3d 6a f4 ba bc 8f 59 01 3e
       0.07319536 0.07799884 -0.022821624 0.1263182
000050 e8 30 a0 bb b8 b6 31 bd d3 33 06 bd 98 00 e4 3d
       -0.0048886426 -0.043387145 -0.032764267 0.11132926
000060 e9 4d ea bc ab f0 ae 3a 3a a5 18 bc 47 04 15 3b
       -0.028601604 0.0013346871 -0.009316737 0.0022738145
000070 92 82 01 bd 4a 3c 9c bc c1 1d 4b 3d 1d 9b d0 bb
       -0.031618662 -0.019071717 0.049588922 -0.006366147
000080 ec 1e e3 3c 48 b2 ad bd 3d 9e e3 bb 2c 70 87 bc
       0.027724706 -0.0848127 -0.0069463537 -0.01653298
000090 32 30 55 3d e6 85 8e 3b aa 42 2b 3b bb f8 4a 3d
       0.052047916 0.004349458 0.0026132264 0.049553614
0000a0 0a 93 97 bc 33 6b 69 bd 98 95 21 3d 06 dc b2 bd
       -0.01850273 -0.056987 0.039449304 -0.087333724
0000b0 c9 c5 23 3d 02 f7 c2 bc 1f 28 b5 bd 04 4e b3 3c
       0.039983544 -0.023799423 -0.08845543 0.021887787
0000c0 c4 25 49 bd 84 c6 e7 3b 1a 52 8b bc 3e d0 55 bd
       -0.04910828 0.0070732255 -0.017006923 -0.05220055
0000d0 6d cc 2a 3d b1 c9 41 bd ef 4a b2 bd 48 98 c5 3c
       0.041698862 -0.04731149 -0.08705699 0.024120465
0000e0 17 68 42 bd 4c b8 4e 3d bc b2 b5 bd 21 c1 e6 bc
       -0.04746255 0.050468728 -0.088719815 -0.028168263
0000f0 b2 e8 ec 3c 1e ef 23 3d d6 d7 87 38 85 ee 9e bd
       0.028919552 0.04002296 6.477504e-05 -0.07760338
000100 53 0d 7b bd 52 63 9a 3d 79 5a 51 bd bb 06 3c 3a
       -0.061292004 0.07538475 -0.051111672 0.0007172634
000110 1d ab 90 3d ba a0 8b 3d 99 a5 83 bd 94 47 e2 bc
       0.07063887 0.068177655 -0.064280696 -0.027622022
000120 ce bc f9 bc 6c e1 13 bd fd 8a 2b bd 78 64 0c bd
       -0.030485537 -0.03610365 -0.041880596 -0.034275502
000130 1d b8 82 3d 58 ca 80 3d c4 4e 91 3c 1e c3 e2 3c
       0.06382773 0.06288594 0.017737754 0.02768093
000140 a9 c6 60 3d 69 39 b2 bd d8 a9 cb 3c 91 c9 41 bc
       0.054876957 -0.08702356 0.024861261 -0.011827842
000150 69 99 83 3d 52 63 f3 bb 64 f8 b0 bc af 11 94 3c
       0.06425745 -0.0074276114 -0.021602817 0.018074838
000160 d4 9d 98 3c a3 7f 43 3d 9e d7 db 3a 9b 7d ad 3d
       0.018629946 0.047729146 0.0016772633 0.08471223
000170 16 5f 8f bc 65 3e a7 3d 6c 38 91 3d 51 4a 0f bd
       -0.017501395 0.08166198 0.0709084 -0.034982983
000180 90 a1 03 3c e4 f3 c9 3d 62 00 3f 3c fb 35 1f 3d
       0.008034125 0.098609716 0.011657806 0.03886984
000190 fa fa 92 3d 2d 6c f7 bb d2 95 7d bd cd 29 38 3d
       0.07176776 -0.0075507374 -0.061910458 0.04496174
0001a0 60 59 8a bd d6 60 96 3c 09 c3 16 3d fe bc 8c bc
       -0.06755328 0.018356722 0.036807094 -0.017179962
0001b0 42 bc cb 3c c7 65 e0 3b dc 1f f8 3b 9c e6 cb 3b
       0.024870042 0.0068480703 0.0075721573 0.006222559
0001c0 b6 42 72 bd 91 83 da bc 2d 5a 2d bb 3e d8 dd bc
       -0.05914565 -0.026674064 -0.0026451454 -0.027080651
0001d0 fc fb 10 3d a3 ed 14 3d ce 57 92 bc 7b c4 e8 3c
       0.03539656 0.03635944 -0.017864134 0.028414002
0001e0 a3 24 f6 3d 49 97 02 3d 01 0f 41 3c db ee 88 3d
       0.12018707 0.031882558 0.011783362 0.06686183
0001f0 49 01 37 3d 0a 5a ba 3c ae 8c 28 3c 9a 30 fe bc
       0.04467896 0.022748012 0.010287447 -0.031029034
000200 fe 40 01 3d 35 d7 ab 3c ef ff ad bc 7c e9 93 bd
       0.031556122 0.020976642 -0.021240203 -0.07222268
000210 97 f1 1c bd 42 48 02 be f0 d5 af bd 18 b5 11 3d
       -0.038316336 -0.12722877 -0.08585727 0.035573095
000220 b5 f3 dd bd 78 85 9a bd bc 54 99 3d f3 a2 b0 bb
       -0.10837499 -0.075449884 0.07486865 -0.005390519
000230 c6 b2 9a bd eb a6 81 3d 20 49 9f 3b 75 81 db bb
       -0.075536296 0.06330665 0.004861012 -0.006698782
000240 c5 19 11 bd b4 a0 17 3c 55 3c 3a bb 20 cc 84 3d
       -0.035424966 0.009254623 -0.0028417308 0.06484246
000250 79 3a d4 bd 54 9b 0a bd 95 9a 93 bd d3 06 c6 bd
       -0.10362715 -0.03383954 -0.072072186 -0.0966927
000260 da 98 a2 bd e5 06 d2 bd 08 f7 46 3d 1b 8d 13 bc
       -0.0793931 -0.10255221 0.04857543 -0.00900581
000270 c9 31 2a 3c e0 72 35 3d db 76 10 3d 9c c4 d5 bd
       0.010387846 0.044299006 0.0352696 -0.10437891
000280 31 30 01 3d dd 02 9a 3d 7b c1 75 bc 5c b1 30 3d
       0.0315401 0.075200774 -0.014999743 0.043137893
000290 e4 c5 16 bc d6 23 c4 bd df 60 6f bd d8 18 93 3d
       -0.009202454 -0.09577148 -0.058441993 0.07182473
0002a0 3b f5 af 3d 65 f3 4d 3d 62 20 54 bc 9b 1a a5 39
       0.08591696 0.050280947 -0.012947174 0.00031491075
0002b0 a5 e4 02 3e ce c0 9a 3c 6e 53 43 3d 60 d8 8e bd
       0.12782533 0.018890765 0.047686987 -0.06974864
0002c0 78 d9 81 bd 3a 62 53 3d 7d 7d 3b bc ef 2c 57 bd
       -0.06340307 0.051607348 -0.011443493 -0.052533086
0002d0 11 c4 5e bd 1f 08 97 bc 6b 22 96 bb a9 6b c6 bd
       -0.054386202 -0.01843649 -0.0045817397 -0.09688503
0002e0 54 9d ae 3c 45 3c 9b 3d 96 43 02 bd 30 97 93 3d
       0.021315254 0.07579855 -0.031802736 0.07206571
0002f0 68 12 9b 3c 6e 63 30 bd aa 76 56 3d ca 00 8d 3d
       0.018929675 -0.043063574 0.05235926 0.06884916
000300 57 87 a5 bd 7d 3b ea 3b 87 11 72 bd 29 6d b3 3d
       -0.08082455 0.007148205 -0.059098747 0.08761055
000310 9c 2a 0d 3b ed 8e 9d 3c 06 1e 09 3d 7d 17 a8 bd
       0.002154029 0.019233191 0.0334759 -0.08207605
000320 58 b7 97 bc 4a ca 70 bd 23 5b 09 3d d7 63 82 bd
       -0.018520042 -0.058786668 0.03353418 -0.06366699
000330 82 58 23 3c 3c 8b c8 3d cf 09 e8 bb ca 7d 32 bd
       0.009969832 0.09792182 -0.0070812474 -0.043576993
000340 bd 88 53 3d e4 e7 91 bd 67 70 5a 3d 5e 34 65 3c
       0.051644076 -0.07124308 0.05332985 0.013989536
000350 3b 77 45 3d 46 d6 06 bd 0e 4b f1 3b 85 93 81 bb
       0.04820941 -0.03291919 0.0073636835 -0.0039543533
000360 a1 14 41 3c 56 2d 14 3c b4 e3 1c bd f8 cc cb bc
       0.0117847035 0.009044012 -0.038303092 -0.02487801
000370 d6 80 b9 ba cc 02 85 bd ed 63 ff bc 9f 5b 13 3d
       -0.0014152776 -0.06494674 -0.031175578 0.03597605
000380 6f 43 a0 3d 28 49 17 3d 62 b9 a6 bd 4a bc 5d 3d
       0.07825362 0.036935 -0.08140828 0.054134645
000390 07 07 de bc 2a c8 5d bd 69 07 29 3d b7 61 37 bd
       -0.02710296 -0.05414597 0.041266833 -0.044770923
0003a0 7d 91 be 3d d5 28 4b bd 5a dc 5a 3d 40 f6 4e bd
       0.093050934 -0.049599487 0.0534328 -0.05052781
0003b0 73 bb 49 3b 2d 6e 44 bd 2e 41 1a bd 55 47 45 3d
       0.0030781894 -0.047956634 -0.037659816 0.04816373
0003c0 8e 2a a6 3d 03 f5 63 3d bb ed 18 ba d6 e8 24 3d
       0.081135854 0.055653583 -0.00058337644 0.040261112
0003d0 60 36 8a 3d b9 e7 5e bd ba fe 4b 3d c8 55 1d bd
       0.067486525 -0.054420207 0.049803473 -0.038411885
0003e0 c6 8b b6 bd 0c 90 65 bd ed 2d d1 bb 84 9d 07 bd
       -0.089133784 -0.056045577 -0.0063836486 -0.033109203
0003f0 0c bc be bc 9d d5 74 3d 72 81 08 3d cf 41 95 bd
       -0.023283027 0.05977403 0.033326574 -0.072879426

weight_hh_l0_reverse f4 [384, 128]
000000 08 22 d2 3d c2 86 06 bd 83 59 9d bd 78 2f f5 bb
       0.10260397 -0.03284336 -0.07683089 -0.0074824654
000010 45 fe 06 3d 09 71 13 bc 8b c3 df bc 2e 1b a1 bd
       0.032957334 -0.008999118 -0.027314922 -0.07866512
000020 cc 1c bd 3c 83 6b d3 3c dd 5a f7 bc 46 43 58 ba
       0.02308502 0.025808102 -0.030194694 -0.00082497706
000030 80 cf d3 bd 48 d1 99 bd 17 6d 25 bd f9 d2 68 bd
       -0.10342312 -0.0751062 -0.04038724 -0.056841824
000040 34 11 d7 bc 10 f0 be bc d8 44 cd 3c f7 12 8c bd
       -0.02625332 -0.02330783 0.025057241 -0.06839555
000050 2a a9 9c 3b f0 6b d0 bd cf 9c 42 3d 7b 8c a2 bd
       0.004780908 -0.101768374 0.047512826 -0.07936951
000060 c8 8b 2a bd 85 d5 94 3d e3 72 2e bd e6 26 7c 3d
       -0.041637212 0.07267288 -0.042590033 0.061560534
000070 b8 64 4e bd 13 da 17 3d 6c d9 ba bc 66 53 9c bd
       -0.05038902 0.037073206 -0.022808753 -0.076330945
000080 e8 a5 bf bd ed 3e 7f 3d 4b 02 11 bd 6d e7 dd bc
       -0.09357816 0.06231587 -0.035402577 -0.027087891
000090 28 92 ff bc 05 4a 21 bd 0f ae e1 3c 92 b4 c1 bc
       -0.031197622 -0.03937723 0.027548818 -0.023645673
0000a0 29 e1 b2 3b 9a 8f b7 3d d0 dc bc ba 7f 93 7b bd
       0.00545897 0.08962937 -0.0014409069 -0.06141996
0000b0 4c 02 7d bd 38 b8 7c bd fa 52 9f bd f6 7d 51 3d
       -0.06176977 -0.061699122 -0.077794984 0.051145516
0000c0 98 ac d8 bd a0 8f 63 bd 40 17 68 3d 58 1a b6 3c
       -0.10579795 -0.055556893 0.056662798 0.022229359
0000d0 82 f8 a5 3d 50 74 90 bc ec c5 0f 3d 55 c4 49 3d
       0.0810404 -0.017633587 0.035100862 0.049259502
0000e0 df e1 a4 3d b1 5a ad 3b 68 34 15 bd 52 8c 0b be
       0.08050894 0.0052903523 -0.03642693 -0.13627747
0000f0 1d ef 80 3d 83 ba e0 3d 5f 2d bf bb 98 fc 42 bd
       0.06295607 0.10973074 -0.005834266 -0.047604173
000100 d4 c4 e0 bc f2 35 cc 3c 60 06 e7 3b 78 32 99 bc
       -0.027437605 0.024928067 0.0070503205 -0.018700823
000110 27 7a 1d 3d d7 e3 b6 bc 09 b6 c6 bd 2d ff 92 bb
       0.03844657 -0.02232544 -0.09702689 -0.0044859857
000120 8e d8 c7 3c fa 0f 88 3d e1 25 42 3d b1 c6 53 3d
       0.024395254 0.06643672 0.047399405 0.05170316
000130 e2 be 80 3c 40 1c d1 bd d2 80 0c 3d b3 d9 ed 3c
       0.01571602 -0.102104664 0.03430254 0.029034471
000140 c2 33 3f 3d 0e f4 a4 3d 87 56 9e bd d9 27 c3 bd
       0.04668022 0.08054362 -0.077313475 -0.09529085
000150 4b 5e 5d bd 56 91 00 3e ce a8 73 3d aa b7 d3 3c
       -0.054045003 0.12555441 0.059487157 0.025844414
000160 97 ef 32 bd 18 ae a0 bd 3b 3b 3b bc bf 03 00 3e
       -0.043685522 -0.07845706 -0.011427696 0.12501429
000170 0a ea 29 3c cf 72 30 bc 62 1f 22 bc e6 68 31 bc
       0.010370741 -0.01076956 -0.009895178 -0.010828232
000180 cb 6b b5 bc 34 19 9e 3d 45 99 68 3d 44 b6 21 3d
       -0.022146126 0.07719651 0.056786794 0.039480463
000190 0b 0b c3 3c c0 17 56 bd a6 d0 1d 3d db c5 91 bd
       0.023808977 -0.052268744 0.03852906 -0.07117816
0001a0 3c 5f 0a 3d c6 7e a6 3d 97 35 b7 3d 0d c8 3a bc
       0.03378223 0.08129649 0.08945768 -0.011400235
0001b0 36 48 a1 bd 36 0a 4c 3d 76 46 91 bd 97 20 63 bd
       -0.07875101 0.049814425 -0.070935175 -0.055451002
0001c0 5a 7e b3 3c cd b4 6c bd 58 4f 81 bb fe 62 49 3d
       0.021910835 -0.057789613 -0.003946226 0.049166672
0001d0 b6 05 9a 3c 01 4b 95 3d b4 bb ac ba c0 82 41 bc
       0.018801551 0.072896965 -0.0013178498 -0.011810958
0001e0 88 e6 8a bd a0 5b 5f bc a7 4d ef bd 54 4d 1b 3d
       -0.067822516 -0.013632685 -0.11684733 0.037915543
0001f0 1a 1f 83 bd 98 1f d7 bc b8 5d 19 3d 8c 63 f5 bd
       -0.064024165 -0.026260182 0.037442893 -0.11981878
000200 aa 45 70 3d 84 78 68 3d 52 a6 ea 3c 1b 92 d8 3c
       0.058660187 0.056755558 0.02864376 0.026436856
000210 ca fc 5d bd 09 21 7f bc 90 c9 42 3b d6 6c 95 3c
       -0.054196157 -0.015571841 0.0029722191 0.018240374
000220 26 47 58 bc bf 26 a5 bc 05 fa b5 3d 18 65 e6 3c
       -0.013200557 -0.020160077 0.08885578 0.028124377
000230 df ca 8e 3c 2d 50 f1 bc 41 90 fc bd 3e 3a 99 3c
       0.01743072 -0.029457176 -0.12332202 0.01870453
000240 e1 a3 a4 bd e4 3b 11 bd 0b ea 59 3c 1a 28 7e 3d
       -0.0803907 -0.035457507 0.013300429 0.062049963
000250 a7 26 44 bd 12 93 23 bd 7e 7c 22 bc bf 57 8d bb
       -0.047888424 -0.03993518 -0.009917377 -0.0043134387
000260 f5 02 85 bd 2a fa 29 3d 6d a7 89 3d 44 0a 7b 3d
       -0.06494705 0.04149834 0.06721387 0.061289087
000270 69 00 ec bc 4e 24 79 3d 44 c1 a1 bd 63 a4 0b 3c
       -0.02880879 0.06082564 -0.078981906 0.00852308
000280 15 60 6c bd 39 12 24 bd a3 87 b5 bd 73 ab 8f 3d
       -0.05770882 -0.04005644 -0.08863761 0.07015123
000290 fe 97 c8 bc c0 4a eb bc e1 cd a1 3d a6 8b 42 bc
       -0.024486538 -0.028722167 0.079005964 -0.011874115
0002a0 b4 23 1d 3c 12 3d 1d bc 8b 18 94 bd 0d e1 52 3c
       0.009591032 -0.00959708 -0.07231244 0.012871039
0002b0 51 ab b6 3d 41 8c a6 bd e0 e7 be 3d f9 8b a7 bc
       0.08919395 -0.0813222 0.093215704 -0.020452486
0002c0 6f b4 9f bd 5c 8b c5 bc 90 70 a2 bd a8 35 76 3d
       -0.07798087 -0.024114303 -0.07931626 0.060109764
0002d0 6a f8 dc 3c d2 72 06 bd 0e 87 8c ba 3a b6 6c bd
       0.026973922 -0.032824345 -0.0010721402 -0.057790972
0002e0 c1 eb 32 bd 07 4b 31 3d 78 b4 72 3d f6 d3 8b 3d
       -0.043681864 0.043284442 0.05925414 0.06827538
0002f0 26 6e 4e bc c2 4c 17 bd c1 3a a0 3c 66 8f 26 3d
       -0.012599504 -0.036938436 0.019559266 0.0406641
000300 2a 39 b0 3d 54 00 81 3d f9 de 5d 3d d7 c0 0c 3d
       0.08604653 0.06298891 0.05416772 0.034363594
000310 e6 e5 4c 3d fe df fb 3c 72 ac 55 bd 69 6e 4d bd
       0.050023936 0.030746456 -0.05216641 -0.050154123
000320 ba 99 a0 bc de 74 42 bc 0d 9a 5f 3d aa 95 53 3d
       -0.019604553 -0.011868684 0.054590274 0.051656403
000330 84 f4 86 bc 61 43 ce 3d bb 42 aa 3d 2c be 95 bd
       -0.016474016 0.10071445 0.08313509 -0.07311663
000340 c3 22 d2 3d 23 35 75 3c 71 27 e8 bc 8f b9 8b bc
       0.102605365 0.014966282 -0.02833912 -0.017056255
000350 55 7f 2e bd a9 71 4a bc 4b e6 48 3d e7 7a 8a 3d
       -0.042601902 -0.0123562 0.04904775 0.06761723
000360 e2 23 b2 3d 7d 5c 89 bd 1d be 42 bd 4b ba 05 3c
       0.0869825 -0.06707094 -0.047544587 0.0081620915
000370 be b4 ce ba 5e 87 9f bd ad bd be bd 72 c7 59 bd
       -0.0015770418 -0.07789491 -0.093135215 -0.05316872
000380 fe 6e b7 3d fb 74 36 bd a4 b7 9e bb 27 96 41 3c
       0.08956717 -0.044545155 -0.004843669 0.011815584
000390 a3 eb 7a bd 07 c1 bd 3d 55 34 b2 3d 9c 7b 42 bd
       -0.061259877 0.09265333 0.08701388 -0.047481164
0003a0 1d 9f 7d bd 42 32 61 bd 86 c3 5d 3d 3d f6 c7 3d
       -0.06191932 -0.05497957 0.054141544 0.09763763
0003b0 e6 cc f1 bb d4 b2 08 3d f8 f2 ec 3c e2 5e 2b bc
       -0.007379162 0.03337367 0.02892445 -0.010459634
0003c0 6e 32 0c 3d 69 1e 2e bd 7b fe 9b 3d 1f 06 90 3d
       0.03422778 -0.04250947 0.07616898 0.070324175
0003d0 da 35 8c 3b 27 ad c2 3c 47 26 2d 3c 21 c3 40 bd
       0.0042788805 0.023764206 0.010568208 -0.04706109
0003e0 1a 24 0c bd 5c 85 1b bd ab b9 52 3d 8e 7c 26 bd
       -0.034214117 -0.03796898 0.051446598 -0.04064613
0003f0 d5 20 e2 3d 11 46 14 3c f4 35 ba bd 75 63 29 bd
       0.110414185 0.009049908 -0.09092322 -0.041354615

bias_ih_l0_reverse f4 [384]
000000 01 17 31 3d 43 80 90 3c 85 cc 8c bd 1e 4d 4e 3d
       0.04323483 0.017639285 -0.068749465 0.050366513
000010 c5 13 c1 bd 0d 5e 8e 3d 01 21 96 3d a4 b0 78 3c
       -0.09427599 0.069515325 0.07330514 0.015178833
000020 17 a2 97 3d 68 56 dd bd 9d c7 22 3d ad 9b 3b bd
       0.07403963 -0.10807496 0.039741147 -0.04580276
000030 4b f5 13 3c f9 5b 68 bc 76 af 87 bd dd d2 67 bd
       0.00903065 -0.014182084 -0.066252634 -0.05659758
000040 5a 75 a9 3c c3 e9 98 3d 72 32 91 3d 16 6f 8d 3d
       0.02068584 0.074664615 0.070897 0.069059536
000050 c9 e9 2d bd 78 94 0f bd cf 93 14 bc ef 34 ad bd
       -0.042459283 -0.0350537 -0.009068443 -0.08457362
000060 c7 5d 55 bd 74 f3 06 3d b2 92 ee bc 0f 13 ab bc
       -0.052091386 0.03294702 -0.029122684 -0.020883111
000070 f0 e4 7a bd 4a a3 3e bd 58 a5 91 3d ea c8 82 bd
       -0.061253488 -0.046542443 0.07111615 -0.063859776
000080 29 6e a4 bd 6d 64 76 3d 4b 98 28 bd 3a b3 07 3b
       -0.08028824 0.060154367 -0.041160863 0.0020706193
000090 ff 83 68 bd 6b 6f 93 3c d8 99 55 bc 08 77 c3 bc
       -0.056766506 0.017997464 -0.0130371675 -0.02386047
0000a0 b9 7c 81 bd a7 18 41 3d 0c 96 f1 bc 8c d5 a6 bd
       -0.06322617 0.04714265 -0.029490493 -0.081461996
0000b0 a0 6c 44 bd c1 85 32 bd ca bb 93 bb 3d 65 72 3d
       -0.047955155 -0.04358459 -0.00450847 0.05917858
0000c0 b8 b3 bc 3c 6b 6e bf bd e3 03 5c 3d 30 80 c6 bd
       0.023034915 -0.093472324 0.053714644 -0.096924186
0000d0 8e c7 45 3d 6a 83 48 bd be 54 ae bd 99 34 62 bd
       0.048286013 -0.04895345 -0.08512257 -0.055225942
0000e0 de 9b 30 bd 27 c5 1b bd 4a 60 88 bd 87 f2 79 3d
       -0.043117397 -0.038029816 -0.06658991 0.061022308
0000f0 5c 6c ab bd f9 2e a1 3b bd b6 0c bd c1 a2 42 bd
       -0.08370277 0.0049189297 -0.03435396 -0.047518495
000100 02 9b 75 bd 90 75 3b bd ad a8 ab 3d 3e 3f b6 bd
       -0.05996228 -0.045766413 0.08381782 -0.08898781
000110 ce 26 5a 3a 81 0a 75 bd cb 2c ab 3d 94 09 14 bd
       0.00083218224 -0.05982447 0.08358153 -0.036141947
000120 ad 08 98 bb fd 57 b6 3c 07 b2 8e 3c fe 89 4c bc
       -0.004639706 0.022258753 0.017418874 -0.012484072
000130 d9 43 05 3d 7b 02 e7 bc ad 2f 38 3d ef d7 b8 3d
       0.032535408 -0.028199425 0.044967342 0.09025561
000140 99 33 29 3d 69 75 c6 3c 2f 24 04 3d 52 fb 8c 3d
       0.041308973 0.024225907 0.03226107 0.06883873
000150 50 4d 84 bd 68 1e 63 bd 77 42 e3 bd a1 e5 a5 3c
       -0.06460059 -0.05544892 -0.110966615 0.020251097
000160 94 85 3d 3d 36 6b ce bc 2e ae 8e bb f5 e6 d0 ba
       0.04626997 -0.025197607 -0.00435426 -0.0015937971
000170 34 68 04 3c 4a dc 9f bd 38 12 b3 bc de 9b e4 bc
       0.008081485 -0.07805689 -0.021859273 -0.027906355
000180 73 6c 4d bd 76 77 98 3a 81 51 31 3d 07 05 57 bd
       -0.050152253 0.0011632282 0.04329062 -0.05249503
000190 00 58 01 3d aa f9 3a ba cf 6c 69 bd 87 76 dc 3c
       0.031578064 -0.000713254 -0.056988534 0.026911987
0001a0 df b1 2e bd c4 48 ca 3d aa 12 a2 3d 8a e2 bf 3c
       -0.0426501 0.0987716 0.07913716 0.023423452
0001b0 50 5b 6a 3d 53 e8 a2 3d d6 69 d7 3c e8 5f 97 3c
       0.05721599 0.079544686 0.026295584 0.018478349
0001c0 7c 27 40 3d a8 79 b4 3d 47 d2 e5 bb 21 ba 23 bd
       0.046912655 0.088122666 -0.0070135924 -0.03997243
0001d0 3e 2e b5 bd ca f5 37 3d 65 01 5e 3c ee a4 7f 3d
       -0.088467106 0.044912137 0.013550137 0.06241315
0001e0 ec 52 b9 bd dd 4f 88 3c d0 3d 98 3c d0 e2 a4 bd
       -0.09049019 0.016639644 0.018584162 -0.080510736
0001f0 2b 36 26 3d 81 08 ab 3d 84 16 49 3d 4d 13 99 bc
       0.040579002 0.08351231 0.04909374 -0.018685961
000200 ef 2a bb 3d bb 8d d2 3c c0 78 04 3c fb 36 37 bd
       0.09139048 0.025702348 0.00808543 -0.044730168
000210 a6 e9 88 3b 08 af cf bc 57 89 d7 bd 99 00 a4 3d
       0.0041782437 -0.025352016 -0.10524242 0.080079265
000220 45 48 8a bc 54 3e e7 3c bb 41 a0 3d 38 7d 48 3d
       -0.016880164 0.028227963 0.07825037 0.048947543
000230 e6 4a 37 3d db 27 67 3d 8a 4d 46 3d ca a5 d1 3c
       0.044749163 0.056434494 0.04841379 0.02559175
000240 9c 68 2f 3c 23 5d 19 3d 11 38 11 bd 63 43 c1 3d
       0.010706093 0.037442338 -0.03545386 0.09436681
000250 3f c9 2e 3d 72 6b f6 3c 63 0c f1 bc 9e 9e 0d 3d
       0.042672392 0.03008053 -0.029424852 0.034575097
000260 36 fc f5 3d 18 1e b3 bc e2 30 53 3d 9b b5 b1 bc
       0.12010996 -0.021864936 0.05156029 -0.021693042
000270 c4 92 df 3c c4 41 ae bc f1 9a e5 3d 08 60 17 bd
       0.027291663 -0.021271594 0.11211193 -0.036956817
000280 f4 25 2a 3d e6 f9 f0 bc 7d fd 05 bd 8b d4 20 bd
       0.0415401 -0.029416036 -0.03271245 -0.039265197
000290 60 6d 1e 3e 56 51 9a 3c 10 c4 fc bc 60 54 25 3c
       0.15471411 0.018837612 -0.030855209 0.010090917
0002a0 fa b2 4a bc 9c a5 06 3e a2 a6 35 3c 72 06 a2 3d
       -0.012371773 0.13149112 0.011087092 0.079113856
0002b0 c4 6b d6 3b 2c 8e 59 3c 44 b8 95 ba b7 3d 0a 3d
       0.0065436084 0.013278525 -0.0011422713 0.033750262
0002c0 65 7e 6d 3d b9 1c 08 3e 67 cb 1a 3e 65 cd ba bc
       0.057981867 0.13292207 0.15116654 -0.022803018
0002d0 fa b5 8d bd 76 77 72 bd c0 d9 23 bb 73 69 a3 3d
       -0.06919475 -0.059195958 -0.0025001615 0.07979097
0002e0 fb 7c d8 3d 35 b1 41 3b d3 2e 97 bc a8 95 ca 3c
       0.10570713 0.0029555087 -0.018454945 0.024729565
0002f0 e9 5c 37 bd 08 e3 26 bb 8d f0 40 bd be f6 8a 3d
       -0.04476634 -0.002546491 -0.047104407 0.067853436
000300 0a b6 23 3d 4b 31 47 3d 29 b8 9a bd 67 c7 4c 3d
       0.039968528 0.048630994 -0.07554657 0.049994852
000310 bc 4f 0a bd 1b 15 55 bd 42 55 23 bb 5d 7c 4c bd
       -0.033767447 -0.05202208 -0.0024922644 -0.04992329
000320 85 7c 44 3d bb 79 46 39 35 3f a3 3d dd f5 a2 3d
       0.047970314 0.000189281 0.0797104 0.07957051
000330 6e e1 98 3d 60 28 43 bd d0 f7 6a bd 5c bc 64 bb
       0.07464872 -0.047645926 -0.05736524 -0.003490231
000340 36 3b 88 3c cc 14 17 3d 5a a6 14 3d 87 1a 79 3d
       0.016629796 0.036885068 0.036291458 0.060816314
000350 e0 aa 97 bd df c6 2a 3c 60 58 f1 3d 7a b0 76 bd
       -0.07405639 0.010423391 0.11784434 -0.060226895
000360 73 f8 e6 bc 51 8b a8 bc 0f f7 94 3d c1 2c f3 3b
       -0.028194642 -0.020574244 0.07273685 0.0074211066
000370 a8 1f 4b bc de e8 b1 3c 50 4e 89 ba 66 e5 9c 3d
       -0.012397684 0.021717485 -0.001047561 0.07660942
000380 82 fb 6d 3d 5d 9f 6e 3d 2a 08 a2 bc 6f 78 af bd
       0.058101185 0.05825745 -0.019779284 -0.08567893
000390 12 9c 61 bd fe b6 df 3c d0 ef 70 bd 8a 20 9a 3d
       -0.05508048 0.027308937 -0.058822453 0.075257376
0003a0 d8 cd 06 3e a4 43 1f bd 21 08 48 3d ec 5d b3 3d
       0.1316446 -0.038882867 0.048835877 0.087581486
0003b0 c1 d5 e1 3d 60 cf c3 bc 31 38 98 bd 43 96 70 3d
       0.110270984 -0.023902595 -0.07432593 0.05873705
0003c0 26 86 91 3d 31 3f ac bc 36 c7 8f 3d a0 33 4b bd
       0.07105665 -0.021026226 0.07020418 -0.04960978
0003d0 bf cc 55 bc 41 d8 a7 bb d9 18 10 bd c7 ab b6 3c
       -0.013049304 -0.005122215 -0.035179947 0.022298707
0003e0 6f bf 68 bc 08 bb c7 3d 61 18 72 3c ff 94 7b 3d
       -0.014205798 0.0975247 0.01477632 0.06142139
0003f0 3d 22 a4 bd 8e 2d d3 bc 1e 38 13 3d b3 46 b7 bc
       -0.08014343 -0.025778558 0.03594219 -0.02237258
