models/model_deam_va.pth (torch, 504732 bytes, 10 tensors)

weight_ih_l0 f4 [384, 32]
0	0x3d6a9b73	0.057277154
1	0x3ca327e0	0.019916475
2	0xbc94a4c5	-0.018144974
3	0xbda3ed97	-0.08004301
4	0xbd04ac32	-0.03239078
5	0x3d87c4f9	0.066293664
6	0xbdbd4036	-0.09240763
7	0xbd1241b5	-0.035707194
8	0xbe000a96	-0.12504038
9	0x3c17ee86	0.009273177
10	0xbd8c9a69	-0.06865389
11	0xbd8874ed	-0.06662927
12	0x3c81489a	0.01578169
13	0x3d8a4477	0.0675134
14	0xbd57e1a1	-0.05270541
15	0x3daa15ca	0.08304937
16	0xbd24db9c	-0.0402485
17	0xbc68174b	-0.01416571
18	0xbdc462ec	-0.0958918
19	0x3d9d3770	0.076765895
20	0x3d981abb	0.074269734
21	0x39957660	0.0002850769
22	0x3d71ad5b	0.059003215
23	0xbd240a30	-0.040048778
24	0xbd571f36	-0.05252
25	0xbd0abbe6	-0.0338706
26	0x3d157608	0.036489516
27	0xbc5fc583	-0.01365793
28	0x3d9db17d	0.07699869
29	0xbd23423f	-0.0398581
30	0xbd1b6b30	-0.03794402
31	0xbc76ef89	-0.015071758
32	0xbc7bcea1	-0.015369088
33	0xbc915207	-0.017739309
34	0xbd624b70	-0.055247724
35	0xbd8ce344	-0.06879285
36	0x3d34830d	0.044070292
37	0x3e1c01c0	0.15235043
38	0x3daa22ab	0.08307394
39	0x3e0db0c2	0.13836959
40	0xbb587e82	-0.003303439
41	0x3d9f8aeb	0.077901684
42	0xbc9bff16	-0.019042533
43	0x3da9ec25	0.08296994
44	0xbe0444a9	-0.12916817
45	0xbd5a2768	-0.053260237
46	0x3daf3721	0.08555437
47	0x3da35cb8	0.07976669
48	0x3d026c39	0.03184149
49	0x3d24e1b8	0.040254325
50	0xbdc95c67	-0.098320775
51	0xbc5e14c1	-0.013554753
52	0x3e4b6ba9	0.19865288
53	0x3d19799b	0.037469488
54	0x3d085d64	0.03329219
55	0x3da4091c	0.0800955
56	0x3e23471a	0.15945092
57	0x3e0cd345	0.13752468
58	0x3de4881e	0.11158775
59	0x3d2f950f	0.042866763
60	0x3d82de69	0.063900776
61	0x3d6c1492	0.057636805
62	0x3ca88a5d	0.02057379
63	0x3e0ad3bf	0.13557337
64	0xbe2b0b19	-0.16703452
65	0x3d8fe5cf	0.070262544
66	0x3c9b962b	0.018992504
67	0x3d4e6ea2	0.050398476
68	0xbdc1e6c6	-0.09467845
69	0xbd8e692c	-0.06953654
70	0xbd8a481d	-0.06752036
71	0xbba80def	-0.005128614
72	0x3d840c58	0.06447667
73	0xbc2625fb	-0.010140891
74	0x3e12c24e	0.14331934
75	0x3d20776d	0.039176393
76	0x3de0ce32	0.10976829
77	0x3da74c0c	0.08168802
78	0xbd4f1bea	-0.05056373
79	0x3d3c9171	0.04603714
80	0xbca4ca63	-0.020116037
81	0x3dce9370	0.10086715
82	0x3c442413	0.011971491
83	0xbdd53433	-0.10410347
84	0x3dd563f8	0.10419458
85	0x3d67f403	0.056629192
86	0x3d4dea79	0.05027244
87	0xbc9f7e63	-0.019469446
88	0x3c353dfb	0.011062141
89	0xbd14a595	-0.036290724
90	0x3d5f5639	0.054525588
91	0x3d717a72	0.058954664
92	0x3cb0378e	0.021510866
93	0xbb5fb075	-0.0034132276
94	0x3d808f8f	0.06277382
95	0x3da4ba8e	0.08043395
96	0xbc4a70e5	-0.012356018
97	0xbd4c0794	-0.049811915
98	0x3ddbd2ff	0.10733604
99	0xbdc872e8	-0.09787542
100	0x3d9d5273	0.076817416
101	0x3d574d59	0.052564
102	0x3e7d7123	0.2475019
103	0xbcd8a364	-0.026445098
104	0xbd63e8c5	-0.05564191
105	0xbd0502d4	-0.0324734
106	0x3df6aa3a	0.12044187
107	0x3b850e4c	0.004060542
108	0x3d261bf1	0.04055399
109	0x3daafd2b	0.08349069
110	0xbd4442c0	-0.04791522
111	0x3e0c34bc	0.13691992
112	0x3c10469d	0.008805898
113	0xbd8dbb34	-0.06920472
114	0x3cb69a68	0.022290424
115	0xb874afe0	-5.833793e-05
116	0xbd4192d0	-0.047259152
117	0xbdc818f3	-0.09770384
118	0x3cc3f981	0.023922684
119	0x3cdfc040	0.027313352
120	0xbd599ecd	-0.05312996
121	0x3c999240	0.018746495
122	0xbdb8d13f	-0.090242855
123	0xbdbeb78e	-0.09312354
124	0xbc9f1e3a	-0.019423593
125	0x3dd0575a	0.10172911
126	0xbd1478fc	-0.036248192
127	0xbca8cdfc	-0.020606034
128	0xbc6fa8de	-0.014627663
129	0x3dacf2c5	0.08444742
130	0x3d9f1184	0.07767013
131	0x3d240d56	0.04005178
132	0x3e072ccb	0.13200681
133	0x3d862c5f	0.06551432
134	0xbd9308c9	-0.0717941
135	0xbdbec73d	-0.093153454
136	0x3d82cb22	0.06386401
137	0xbd0102a5	-0.031496663
138	0xbd3acb42	-0.045603998
139	0xbd79fa2d	-0.0610296
140	0x3dbffbc5	0.09374193
141	0x3d9a4ae7	0.07533818
142	0x3c4d8cae	0.012545748
143	0x3d17026b	0.03686754
144	0x3d95fe56	0.07323901
145	0xbcdad19f	-0.026711283
146	0x3d90a4cf	0.07062685
147	0x3d8d981f	0.069137804
148	0xbd467dc6	-0.04845979
149	0x3c45c820	0.012071639
150	0xbd3026ea	-0.04300586
151	0x3ceb08fb	0.028690806
152	0xbd51b582	-0.05119849
153	0xbceb694f	-0.028736738
154	0xbdd20cce	-0.102563486
155	0x3d014ce7	0.03156748
156	0xbd83fa3e	-0.06444214
157	0xbda85a63	-0.08220365
158	0x3c86d481	0.016458752
159	0x3cf99c57	0.030470056
160	0xba839450	-0.0010038707
161	0xbdacf1cf	-0.08444559
162	0x3d4116a9	0.04714075
163	0x3d3744c1	0.044743303
164	0xbcd180be	-0.025574084
165	0xbd0c3b5e	-0.034236304
166	0xbccdba5b	-0.025113275
167	0x3dc68020	0.09692407
168	0xbd91d39b	-0.07120439
169	0x3ddec9a0	0.10878301
170	0x3d53a3f0	0.051670015
171	0x3c9b2c08	0.018941894
172	0xbd7fb024	-0.06242384
173	0x3c2ce969	0.010553696
174	0xbdbf19ac	-0.093310684
175	0x3dcfcf65	0.10146979
176	0xb85e4b0d	-5.299882e-05
177	0xbbd91440	-0.0066247284
178	0xbdd53ade	-0.10411619
179	0xbccfd7b4	-0.02537141
180	0x3e0b9bc4	0.13633639
181	0x3d9b91d9	0.075961776
182	0x3dc7fe39	0.09765286
183	0x3e35efe3	0.17767291
184	0x3e3a2c93	0.18181066
185	0x3e3fa9fc	0.18717188
186	0x3e36d06c	0.17852944
187	0x3e4ff533	0.2030838
188	0x3e1c3fea	0.15258756
189	0x3e1dbd70	0.15404296
190	0x3de57cac	0.1120542
191	0x3e0048a7	0.12527715
192	0xbd9ad3ec	-0.07559952
193	0xbcd0dcb9	-0.025495874
194	0x3d80d791	0.06291116
195	0xbd256be8	-0.04038611
196	0x3e058421	0.13038684
197	0x3d0e5871	0.034752313
198	0xbc95a2d4	-0.018266119
199	0x3d152046	0.03640773
200	0x3c3aed2d	0.011409086
201	0xbde72c58	-0.11287755
202	0xbd80c360	-0.06287265
203	0x3d9c9ee5	0.07647494
204	0xbd90157e	-0.07035349
205	0xbbc968e8	-0.006146539
206	0x3d837f6d	0.06420789
207	0x3e1b72a7	0.15180455
208	0x3c8ad31a	0.016946364
209	0xbc348d3e	-0.011020003
210	0x3c2512ee	0.010075314
211	0x3cc3d040	0.023903012
212	0x3d4a98e5	0.049462218
213	0x3cfdedd7	0.0309972
214	0x3db47d81	0.088130005
215	0x3dd9aab4	0.10628262
216	0x3d1b93c1	0.037982706
217	0x3cd6438e	0.02615526
218	0x3bee3f0d	0.0072707
219	0x3dba83c5	0.09107164
220	0x3e3f3fc5	0.1867667
221	0x3de261a0	0.11053777
222	0x3e02c133	0.12769012
223	0x3ad35efc	0.001612633
224	0x3c5daf22	0.013530524
225	0x3c6dbd1d	0.01451042
226	0x3cdc3095	0.026878634
227	0x3ca1a853	0.019733584
228	0xbc161953	-0.009161311
229	0x3d811e41	0.063045986
230	0x3dbd015f	0.09228777
231	0x3e25f4cd	0.16206665
232	0xbd0d10d4	-0.034439877
233	0xbd8f49d2	-0.06996502
234	0xbe02c710	-0.12771249
235	0xbe145805	-0.14486702
236	0xbde370f9	-0.11105532
237	0x3b86fd0b	0.0041195205
238	0x3d79dd0f	0.061001834
239	0xbcf3acef	-0.029745547
240	0xbd31e86a	-0.043434538
241	0x3d444664	0.047918692
242	0xbcaf4564	-0.021395393
243	0xbe2206a8	-0.15822852
244	0x3d0e1e2e	0.03469675
245	0x3db343d9	0.08753175
246	0xbc431ff5	-0.011909475
247	0x3cf4bd1e	0.029875334
248	0x3d96a884	0.073563606
249	0x3d8e958d	0.06962118
250	0x3dd9f2c8	0.1064201
251	0x3dc04280	0.09387684
252	0x3cb965db	0.022631576
253	0xbc7cf342	-0.015438857
254	0xbd5ba7b9	-0.05362675
255	0x3c4b3e9b	0.012405063

weight_hh_l0 f4 [384, 128]
0	0xbd301582	-0.04298926
1	0x3ddffb2f	0.10936581
2	0xbd474667	-0.048651125
3	0xbc474c67	-0.012164212
4	0x3d8414ea	0.064493015
5	0xbd5accb1	-0.053417865
6	0xbba7e07c	-0.005123196
7	0xbe0f009e	-0.13965079
8	0xbd4dc5d5	-0.050237495
9	0xba8f2613	-0.0010921381
10	0xbdf72092	-0.12066759
11	0xbce119ad	-0.027478063
12	0x3c0bed65	0.008540486
13	0x3cf89aed	0.030347312
14	0x3c034139	0.008011156
15	0x3da8f5fd	0.082500435
16	0x3d858486	0.065194175
17	0xbb518682	-0.0031971042
18	0x3e055593	0.13020925
19	0xbc9356e1	-0.017985763
20	0x3c6e5451	0.01454647
21	0x3d940c10	0.07228863
22	0xbdb28602	-0.08716966
23	0x3ceeafc2	0.029136542
24	0xbded42df	-0.1158502
25	0x3d498a6f	0.049204286
26	0x3d8e11a9	0.06936962
27	0x3d4b7073	0.049667787
28	0xbd3fce26	-0.046827458
29	0x3d4aa1f9	0.049470875
30	0x3d8bcf67	0.06826668
31	0xbd0f0f81	-0.034926895
32	0xbd1fc01e	-0.039001577
33	0x3ac432ea	0.0014968787
34	0xbd17769d	-0.036978353
35	0xbda59081	-0.080842026
36	0x3def7773	0.11692705
37	0xbd7a02e8	-0.061037928
38	0x3d9f1ee4	0.07769564
39	0xbd4ead84	-0.050458446
40	0x3c91e5a7	0.017809702
41	0x3d986f8a	0.074431494
42	0x3dca03df	0.098640196
43	0xbd4f7b2e	-0.050654583
44	0xbbaba365	-0.005237984
45	0x3d0f1d7e	0.034940235
46	0xbce2c527	-0.0276819
47	0x3ca515a4	0.02015192
48	0xbd1deef2	-0.038557954
49	0x3d924935	0.071428694
50	0xbd0e1c6f	-0.034695085
51	0x3dbad54c	0.091227144
52	0x3d4f7950	0.050652802
53	0x3dc35fcd	0.09539757
54	0x3cb74b27	0.022374703
55	0x3dd7afac	0.105315536
56	0x3da9f991	0.08299554
57	0x3e09b86e	0.1344926
58	0x3d060b6e	0.032725744
59	0x3db0c329	0.08630974
60	0x3ca7ba7c	0.020474665
61	0xbd04afb7	-0.032394137
62	0x3c36a2c0	0.011147201
63	0x3e247164	0.1605888
64	0x3d43997e	0.047753803
65	0x3b049d23	0.0020235262
66	0x3cd4c312	0.025971923
67	0x3a9d2f89	0.0011992316
68	0x3cdcfab5	0.026975015
69	0x3ce62aa1	0.028096499
70	0xbd3f09db	-0.04664026
71	0xbdb3ac45	-0.08773092
72	0x3d87eb77	0.06636708
73	0xbd758167	-0.05993786
74	0x3c730925	0.014833723
75	0xbe068161	-0.13135292
76	0x3bd38019	0.0064544794
77	0x3d46d705	0.048544902
78	0x3d502179	0.050813172
79	0xbdd8c4d8	-0.1058442
80	0x3cef5c01	0.029218676
81	0xbdae9743	-0.08524945
82	0xbdba1f1b	-0.09087964
83	0xbcfd31a3	-0.030907458
84	0xbda7b592	-0.08188929
85	0x3d8738bb	0.06602617
86	0x3d095d3b	0.033536177
87	0xbc6317b3	-0.013860631
88	0xbde208a9	-0.11036808
89	0x3d95d828	0.07316619
90	0xbd8b303d	-0.0679631
91	0x3cd6f2d0	0.026238829
92	0x3dbbe545	0.09174589
93	0x3d4e508f	0.050369795
94	0x3d84b6d5	0.06480185
95	0xbc65d287	-0.014027244
96	0xbdb7ab21	-0.08968187
97	0x3ddb138e	0.10697089
98	0xbcd463b2	-0.025926445
99	0x3d61d29b	0.05513249
100	0xbda25829	-0.079269715
101	0x3dd88a4f	0.10573255
102	0xbd8416f1	-0.06449688
103	0xbb172a37	-0.0023065933
104	0xbd8a8753	-0.06764092
105	0xbaadf8aa	-0.001327296
106	0xbc8ab62d	-0.016932571
107	0xbcb42a01	-0.021992685
108	0x3dcc85a6	0.09986429
109	0x3d51b3ed	0.05119698
110	0xbcae9131	-0.021309467
111	0xbd2c1343	-0.042010557
112	0xbca4780b	-0.020076772
113	0xbcc497a4	-0.02399809
114	0xbd72e679	-0.059301827
115	0x3c855945	0.016277919
116	0x3cee4931	0.029087635
117	0xbce2458a	-0.02762105
118	0x3be8ac6c	0.0071006324
119	0xbd9591c8	-0.07303196
120	0x3dac6680	0.08417988
121	0xbb8810cc	-0.004152393
122	0x3d83c576	0.06434147
123	0x3cf67ce5	0.030088851
124	0x3dd963b7	0.10614722
125	0x3cac2801	0.02101517
126	0xbcffc98c	-0.031224035
127	0x3da7c903	0.08192637
128	0x3d5571da	0.05211053
129	0xbde1ede2	-0.11031701
130	0xbd8f869e	-0.07008098
131	0xbdeec855	-0.11659304
132	0x3ddaaabd	0.10677097
133	0x3dcbb230	0.09946096
134	0xbe1948cb	-0.14969175
135	0xbd240da5	-0.040052075
136	0x3e6e8e76	0.23296532
137	0xbd37daed	-0.04488652
138	0xbd189f23	-0.03726114
139	0xbd691c65	-0.056911845
140	0x3da0a81c	0.07844564
141	0x3d9c770f	0.07639896
142	0x3c7c2368	0.015389301
143	0xbe68ad7e	-0.22722432
144	0xbdd5e1ea	-0.1044348
145	0xbd3270a8	-0.04356447
146	0xbc04547b	-0.008076782
147	0xbba3c6c0	-0.004998058
148	0x3db7268c	0.08942899
149	0x3d743c22	0.05962766
150	0xbc4e1188	-0.012577422
151	0x3d539741	0.05165792
152	0xbc18c93a	-0.00932532
153	0xbd26e199	-0.04074249
154	0x3ddf6f12	0.10909857
155	0xbd8cc8c5	-0.06874231
156	0xbe6bd77e	-0.23031422
157	0x3cbfed2b	0.02342852
158	0xbc90423e	-0.017609712
159	0xbabe5f1b	-0.0014524193
160	0xbd8aee07	-0.06783681
161	0xbce29016	-0.027656596
162	0xbe10c3c0	-0.14137173
163	0x3e3a792c	0.18210286
164	0xbd148527	-0.036259796
165	0x3c2ee2c6	0.010674184
166	0xbd8075f5	-0.062724985
167	0xbe06e05a	-0.13171521
168	0x3d33dd59	0.043912265
169	0xbc64e523	-0.013970646
170	0xbe1404d4	-0.14454967
171	0x3d53232f	0.051547226
172	0x3cf0ebe2	0.029409353
173	0xbd783f73	-0.060607385
174	0x3cd3780d	0.02581408
175	0xbd8ba054	-0.068176895
176	0xbd6a6e93	-0.057234358
177	0x3d171c8d	0.036892463
178	0xbe5bf08c	-0.2147848
179	0xbd00c699	-0.031439397
180	0xbd3c8540	-0.046025515
181	0xbd8f8867	-0.070084386
182	0x3d471e0b	0.048612636
183	0xbddc8d61	-0.107691534
184	0xbe01a68b	-0.12661187
185	0xbe2459be	-0.16049859
186	0x3c8f0e3c	0.017462842
187	0xbe333b31	-0.17503048
188	0x3d58333e	0.052783243
189	0x3d0db6e0	0.03459823
190	0xbd9da643	-0.076977275
191	0x3cb46003	0.022018438
192	0x3d9db63b	0.07700773
193	0xb9faee7c	-0.000478614
194	0xbd97e90e	-0.074174985
195	0xbc4f6651	-0.0126586715
196	0x3da26579	0.079295106
197	0xbdd307f2	-0.1030425
198	0xbd2aa266	-0.04165878
199	0x3d4e4d96	0.05036696
200	0xbe03d096	-0.12872538
201	0x3cf99995	0.030468741
202	0xbdfebc04	-0.12438205
203	0x3c3c8cca	0.011508176
204	0x3df42150	0.11920416
205	0x3d6eb47a	0.058277585
206	0x3e8437ae	0.2582373
207	0xbd37d1e1	-0.04487789
208	0xbdf0fdbd	-0.11767147
209	0x3c1bed2c	0.009516995
210	0x3d4d2de5	0.050092597
211	0xbe09d6e2	-0.13460878
212	0x3d06d521	0.0329181
213	0x3d952f82	0.07284452
214	0xbc5a24b2	-0.013314413
215	0x3e09beac	0.13451642
216	0x3e0d9606	0.1382676
217	0xbdb42708	-0.08796507
218	0x3db9b68e	0.09068023
219	0x3cdb4b93	0.026769435
220	0xbda177d6	-0.07884185
221	0x3c8e2e06	0.01735593
222	0x39969154	0.00028718507
223	0xbde8bbaa	-0.11363919
224	0xbcf219af	-0.029553263
225	0xba532191	-0.0008054013
226	0xbe0847ad	-0.13308592
227	0x3c00647b	0.007836456
228	0x3c3441eb	0.011002044
229	0xbcd32afe	-0.025777336
230	0x3d2be435	0.041965682
231	0xbe0e41d0	-0.13892293
232	0x3de4bb55	0.11168543
233	0xbd9d69a4	-0.07686165
234	0x3c3fd19b	0.011707689
235	0x3c0150e1	0.007892818
236	0xbd32bfb9	-0.043639872
237	0x3df3c2e9	0.119024105
238	0x3d2a87ca	0.041633405
239	0xbcbfc85f	-0.023410974
240	0xbc6fb1e9	-0.014629819
241	0x3b071654	0.0020612674
242	0x3bd7733d	0.006575017
243	0x3e05b88d	0.13058682
244	0xbd75edad	-0.06004112
245	0x3dbe2e52	0.09286179
246	0xbdbdbae4	-0.09264162
247	0xbdb1eddf	-0.086879484
248	0x3c59297a	0.013254518
249	0x3e2c1d88	0.1680814
250	0xbe04a1ee	-0.12952396
251	0xbc0c4ed1	-0.008563713
252	0x3ba9f592	0.005186745
253	0x3da7bd37	0.08190387
254	0x3a1330bd	0.00056148676
255	0x3db852fa	0.090002015

bias_ih_l0 f4 [384]
0	0x3ca01ab2	0.01954398
1	0x3cf510ee	0.0299153
2	0x3d018bfd	0.031627644
3	0x3d45e4fd	0.048314083
4	0x3b3037ae	0.0026888656
5	0x3d1e5b69	0.038661394
6	0x3cde7868	0.027157024
7	0xbd8a3b9e	-0.06749652
8	0xbdc2293f	-0.09480523
9	0xbbe457e7	-0.0069684866
10	0xbd33eb1e	-0.043925397
11	0x3cd0e29e	0.025498684
12	0x3c9cc32b	0.019136032
13	0xbd8639a4	-0.06553963
14	0xbcd59e34	-0.026076414
15	0xbdac5798	-0.08415145
16	0xbd49e284	-0.049288288
17	0xbddcbe5b	-0.10778495
18	0xbdaf4ec3	-0.085599445
19	0x3bc04c1d	0.0058684484
20	0x3d245831	0.04012317
21	0xbd8060f6	-0.06268494
22	0xbdab7259	-0.083714195
23	0xbd8dd1af	-0.069247596
24	0xbd1d7db8	-0.038449973
25	0xbc536467	-0.012902356
26	0x3d854329	0.065069504
27	0xbcd6db79	-0.0262277
28	0xbcc1c79c	-0.023654751
29	0xbd498799	-0.04920158
30	0xbd0f30be	-0.034958594
31	0xbd7956da	-0.060873844
32	0x3bbc00c3	0.0057373955
33	0x3bbe360f	0.005804784
34	0xbcdb661d	-0.02678209
35	0x3daf6e69	0.08565981
36	0x3cc51420	0.024057448
37	0x3daadaeb	0.083425365
38	0x3ddac133	0.10681381
39	0xbd494279	-0.04913566
40	0x3ccca612	0.024981532
41	0x3dade819	0.08491535
42	0x3da0de43	0.07854893
43	0x3d21d831	0.039512817
44	0xbdf2aac5	-0.11848978
45	0xbb8de7e2	-0.004330621
46	0x3d98bc2c	0.07457766
47	0xbc88d822	-0.016704623
48	0x3d85b9af	0.06529557
49	0x3ded2cc3	0.11580803
50	0xbc87ef53	-0.01659361
51	0xbd03a45e	-0.032139175
52	0x3d757339	0.059924338
53	0xbda84eba	-0.08218141
54	0x3dc25b4b	0.09490069
55	0xbd65b649	-0.056082044
56	0xbc115806	-0.008871084
57	0xbba7c986	-0.005120459
58	0x3d49a650	0.049230874
59	0x3d8f53eb	0.06998428
60	0xbb40d259	-0.0029422252
61	0xbb5aebaf	-0.0033404639
62	0x3d414caf	0.04719227
63	0xbdbce982	-0.092242256
64	0xbde10524	-0.109873086
65	0x3d5b3c52	0.053524323
66	0xbd762cf8	-0.06010148
67	0x3c9302c1	0.01794565
68	0x3e01c2f4	0.12672025
69	0x3dbd359c	0.09238741
70	0x3d683363	0.05668963
71	0x3db8e094	0.0902721
72	0x3cffc118	0.031220004
73	0xbddfc48e	-0.10926162
74	0x3dd2d0a3	0.102937005
75	0x3db9e3ac	0.09076628
76	0x3dcf1f3a	0.10113378
77	0xbd80a014	-0.062805325
78	0x3c3e0124	0.011596952
79	0x3d7f866a	0.062384047
80	0x3c6bf320	0.014401227
81	0x3deb6f18	0.11495799
82	0x3d9a7c33	0.0754322
83	0xbc2b90d8	-0.010471545
84	0x3cb9a0b5	0.022659639
85	0xbd25a6e8	-0.040442377
86	0x3e204055	0.1564954
87	0xbd0e741e	-0.034778707
88	0x3c5ff50e	0.013669265
89	0xbd4b9900	-0.04970646
90	0x3de5be54	0.11217943
91	0xbaefd36c	-0.0018297262
92	0xbd00f88c	-0.031487033
93	0x3e1a0113	0.15039472
94	0xbb420f80	-0.002961129
95	0xbd1e1d51	-0.038602177
96	0x3d12d065	0.03584327
97	0xbd9900fd	-0.074708916
98	0xbcf7b5d2	-0.030238066
99	0x3d57d902	0.05269719
100	0xbcafd36a	-0.021463115
101	0x3d3e817c	0.046510205
102	0xbd4aff0e	-0.049559645
103	0x3c6ca990	0.014444724
104	0xbc1d2fd8	-0.009593926
105	0x3daec918	0.08534449
106	0xbd9c4aa1	-0.07631422
107	0x3d89a978	0.06721777
108	0xbd342a98	-0.043985933
109	0x3cdfe860	0.027332485
110	0x3d54ca43	0.051950704
111	0xbc967202	-0.01836491
112	0x3ce53ac4	0.027982123
113	0x3dd65452	0.104653016
114	0x3db2e844	0.087357074
115	0x3ca24391	0.019807609
116	0x3dd98251	0.10620559
117	0x3ccc6000	0.02494812
118	0x3db5fba1	0.08885885
119	0x3dbfc6c0	0.093640804
120	0x3d19d312	0.037554808
121	0x3df6899d	0.120379664
122	0xbd480ab7	-0.048838343
123	0x3d6bcfff	0.057571407
124	0x3d599d54	0.053128555
125	0x3c98af69	0.01863833
126	0x3dcf32c6	0.10117106
127	0xbc97ed65	-0.018545816
128	0x3d125747	0.035727765
129	0x3e0f2e28	0.13982451
130	0xbd76c219	-0.0602437
131	0x3dae0b98	0.08498305
132	0xbbd0d66a	-0.0063732164
133	0x3db5ce34	0.08877221
134	0x3d44b493	0.04802377
135	0x3d0fd5b9	0.03511593
136	0x3d5c27d9	0.05374894
137	0x3d7b9f3d	0.06143116
138	0x3de6d952	0.11271919
139	0xbcc94820	-0.024570525
140	0xbcd9ee3e	-0.02660286
141	0x3c8b3363	0.016992277
142	0x3dc2a4d9	0.095040984
143	0xbd0eda75	-0.034876306
144	0xbcc1fcc9	-0.023680108
145	0x3e421d8c	0.18956584
146	0x3d6ceb27	0.057841446
147	0x3e10401a	0.14086953
148	0xbdaa06ce	-0.08302079
149	0x3e15f551	0.14644362
150	0xbc89f0dd	-0.016838485
151	0x3d1a6242	0.037691362
152	0x3d0f2697	0.03494891
153	0x3c3a60fe	0.011375664
154	0xbd59ec40	-0.05320382
155	0xbcb8d896	-0.022564214
156	0xbd2cbd75	-0.042172868
157	0x3caf4076	0.021393042
158	0x3d6f92b3	0.058489513
159	0x3dbf8f50	0.093535066
160	0x3dc9de61	0.098568685
161	0x3cf07be7	0.029355956
162	0x3c668d4d	0.014071775
163	0x3c49fb07	0.012327916
164	0xbd074c49	-0.033031736
165	0xbd361b43	-0.044459593
166	0xbd9150b0	-0.07095468
167	0x3ccc88b0	0.024967521
168	0xbc8ee4a4	-0.017443009
169	0xbb1e846a	-0.0024187812
170	0xbda064d4	-0.078317314
171	0x3d8e99f0	0.06962955
172	0xbdc70f2b	-0.0971969
173	0xbd346b9f	-0.044047948
174	0xbc484c62	-0.012225242
175	0x3e0fda7d	0.1404819
176	0x3db0a573	0.08625307
177	0xbcf5fe50	-0.030028492
178	0xbcfe4558	-0.031038925
179	0xbba8baa6	-0.0051492034
180	0x3e364b8a	0.17802253
181	0x3dc44d2b	0.09585031
182	0x3daf7f70	0.08569229
183	0xbd901074	-0.07034388
184	0xbd159fd6	-0.036529385
185	0x3a103fb6	0.0005502658
186	0x3ce7686a	0.02824803
187	0xbb84484b	-0.0040369383
188	0xbcca1896	-0.024669927
189	0x3d92fbb2	0.07176913
190	0x3d265cf1	0.04061598
191	0x3cae0299	0.021241473
192	0x3d907c52	0.07054962
193	0x3d4b8080	0.049683094
194	0x3ce14cc7	0.02750243
195	0x3d2f560e	0.042806678
196	0xbd8743e2	-0.066047445
197	0xbccceeb8	-0.025016174
198	0x3de723b9	0.112861104
199	0xbdd4b0d5	-0.103852905
200	0xbccd6b00	-0.025075436
201	0x3c5ab5ba	0.013348991
202	0xbbe6ad07	-0.0070396694
203	0x3dbb3d7d	0.09142587
204	0x3c0c88e7	0.008577562
205	0xbd63f484	-0.05565311
206	0x3d1086b4	0.035284713
207	0x3e1be0d3	0.15222482
208	0x3d0c6287	0.03427365
209	0x3cc0648b	0.023485443
210	0x3d841198	0.06448668
211	0x3da7fd56	0.08202617
212	0xbd8d5bf8	-0.06902307
213	0x3d01e424	0.031711712
214	0x3d8d0bcd	0.068870164
215	0x3d76d4f5	0.060261685
216	0x3d849d40	0.064753056
217	0x3d805139	0.06265492
218	0xbb467036	-0.0030279285
219	0x3c8ab2c0	0.016930938
220	0xbcdff83d	-0.027340049
221	0xbd71ce4c	-0.05903463
222	0x3d9e7726	0.077375695
223	0x3d63adbb	0.055585604
224	0x3db93361	0.09043003
225	0x3d84e8a8	0.06489688
226	0x3cc245a4	0.023714848
227	0x3db855df	0.090007536
228	0x3dddb0a6	0.10824709
229	0x3d5ae523	0.053441178
230	0x3c3c188a	0.01148046
231	0x3d4ab285	0.049486656
232	0xbcd177f9	-0.025569903
233	0x3c84e759	0.016223596
234	0x3d0a7a9f	0.033808347
235	0x3de6880f	0.1125642
236	0x3caf0ce7	0.021368457
237	0x3d97e9a3	0.074176095
238	0x3c2773b6	0.010220459
239	0x3e029216	0.1275104
240	0x3de45339	0.11148686
241	0x3b93ebbe	0.0045141866
242	0x3d93267c	0.07185075
243	0x3dd3e60c	0.10346612
244	0xbba67cfa	-0.0050808163
245	0x3db9ae38	0.09066433
246	0xbd16adef	-0.03678697
247	0x3cfade31	0.030623527
248	0x3e050ab0	0.12992358
249	0x3d074a93	0.033030104
250	0x3d0fc14b	0.035096448
251	0x3d67cc59	0.056591365
252	0x3d8d1aa0	0.06889844
253	0x3d0a39d7	0.033746567
254	0xbd578604	-0.05261804
255	0xbd5dea3b	-0.054178458

bias_hh_l0 f4 [384]
0	0x3d6e2e25	0.058149476
1	0x3ca2a5da	0.019854475
2	0xbd5e9c57	-0.054348316
3	0x3dcdcb5b	0.100485526
4	0xbbe44766	-0.006966519
5	0x3d933a83	0.071888946
6	0xbcdfd4ca	-0.027323145
7	0xbd186384	-0.03720428
8	0xbdab21ef	-0.08356082
9	0x3db24ae8	0.087056935
10	0x3d50bdac	0.050962135
11	0xbd32b7e9	-0.04363242
12	0xbaec3128	-0.0018020021
13	0xbd81de42	-0.063412204
14	0x3ca4c356	0.020112675
15	0xbd16fb44	-0.03686072
16	0xbd296f6d	-0.04136603
17	0xbe0c6048	-0.13708603
18	0xbbf2eb1d	-0.0074132816
19	0xbc1590e1	-0.00912878
20	0x3c868a8c	0.016423486
21	0x3db8037a	0.08985038
22	0xbdbb856f	-0.0915631
23	0xbc8cf5cc	-0.017207049
24	0x3c3d3d97	0.011550329
25	0x3d84e081	0.06488133
26	0xbd102d8d	-0.03519969
27	0x3deb9a4e	0.11504041
28	0xbc2f40f5	-0.010696639
29	0x3dadd24d	0.08487377
30	0xbd6406d2	-0.055670567
31	0xbd981b23	-0.07427051
32	0x3d19b2e7	0.03752413
33	0x3c6ce3be	0.014458595
34	0x3d906980	0.070513725
35	0x3dc0bf35	0.0941147
36	0xbdc425d5	-0.095775284
37	0xbbf34037	-0.0074234265
38	0x3d0192a6	0.031633995
39	0x3da7367e	0.081646904
40	0xbd08e5cd	-0.03342228
41	0x3d3a7b40	0.045527697
42	0x3c561aa5	0.013067876
43	0xbc2b9bcd	-0.0104741575
44	0xbde7c66d	-0.113171436
45	0xbd0901e5	-0.033449072
46	0x3d663b12	0.056208678
47	0xbd05a13a	-0.03262446
48	0xbdbbe8dc	-0.09175274
49	0x3dfb7c52	0.122795716
50	0x3d821a6d	0.063526966
51	0xbdfbf3c7	-0.12302356
52	0xbcaccc63	-0.021093553
53	0x3c3da85c	0.0115757845
54	0x3ab60e0f	0.0013889688
55	0xbca48984	-0.020085104
56	0xbc93c8ef	-0.018040149
57	0x3d95d60b	0.07316216
58	0x3d8cfd0a	0.06884201
59	0xbc497a6f	-0.012297257
60	0xbca99c32	-0.020704363
61	0x3dde3e2d	0.10851703
62	0xbc5441e7	-0.0129551655
63	0xbdc2b8ec	-0.09507927
64	0xbaee70f6	-0.0018191624
65	0x3d9fb6f4	0.077985674
66	0x3d8aa626	0.067699715
67	0xbcf7dfc8	-0.030258074
68	0x3dc0e1d8	0.09418076
69	0x3d8b31ac	0.067965835
70	0xbd9ebaff	-0.077505104
71	0xbc6f77b1	-0.014615939
72	0x3cc802ff	0.024415491
73	0xbd6e3fbd	-0.058166254
74	0x3e1f7f01	0.15575792
75	0x3dc2713e	0.094942555
76	0x3d9162ef	0.07098948
77	0xbd858d6f	-0.06521117
78	0x3b53da03	0.003232599
79	0xbc5d28a8	-0.013498463
80	0x3c491f4a	0.012275526
81	0x3d5cab42	0.05387426
82	0x3d83d4d5	0.06437079
83	0xbd02e2f0	-0.031954706
84	0x3c80c9b7	0.015721185
85	0x3c4988ad	0.012300652
86	0x3e1f690b	0.15567414
87	0xba0d79fd	-0.0005396901
88	0xbd21c139	-0.039490912
89	0xbca0e566	-0.019640636
90	0xbca26e11	-0.019827874
91	0xbcc91a41	-0.024548652
92	0x3da0fa3d	0.07860229
93	0x3e29b0c0	0.16571331
94	0x3dc0032e	0.093756065
95	0x3dada714	0.08479133
96	0xbd7597bc	-0.05995916
97	0x3cf56af3	0.029958224
98	0x3d332e1a	0.043745138
99	0x3d8cdd63	0.06878164
100	0xbda4a1cd	-0.080386735
101	0x3dbd89e7	0.092548184
102	0xbd18ad57	-0.037274685
103	0x3da087a0	0.078383684
104	0x3d3fa4ce	0.04678803
105	0xbc3c04ee	-0.011475785
106	0x3d8b4d47	0.06801849
107	0x3da703ed	0.08155046
108	0x3d405e76	0.046965085
109	0xbc05686f	-0.008142575
110	0x3c5800b6	0.013183763
111	0xbd405719	-0.046958063
112	0x3d2efe3e	0.042722933
113	0xbca01f5d	-0.019546205
114	0x3d92b09a	0.0716259
115	0xbd9d0455	-0.07666842
116	0xbcb18a20	-0.021672308
117	0xbc67ea30	-0.014154956
118	0x3c0ad37d	0.008473274
119	0xbbf88998	-0.007584762
120	0xb9a73a29	-0.00031896055
121	0x3dbf9c47	0.093559794
122	0x3c481151	0.01221116
123	0x3cc4af9e	0.024009522
124	0x3d10be36	0.03533765
125	0x3d8427dc	0.06452915
126	0xbc43b1ff	-0.011944293
127	0x3c7fdd55	0.0156167345
128	0x3d3908af	0.045174297
129	0xbc1ff624	-0.009763274
130	0x3ce16998	0.027516171
131	0x3dc354de	0.095376715
132	0x3bf1c1de	0.007377847
133	0x3df812ec	0.12112984
134	0xbb8e1283	-0.004335703
135	0x3df1ac6d	0.11800466
136	0xbb7faeec	-0.0039014174
137	0xbcdd1cb0	-0.026991218
138	0x3d53a619	0.051672075
139	0x3e0c2fc6	0.13690099
140	0x3d85e9f0	0.06538761
141	0xbdd35974	-0.10319796
142	0x3d14bc2a	0.03631226
143	0xbd3d27c6	-0.04618051
144	0xbd7e3fd1	-0.06207258
145	0x3e07c4e6	0.13258705
146	0x3da59469	0.080849476
147	0x3da2ee50	0.07955611
148	0xbdd2aa40	-0.10286379
149	0x3e234d3f	0.15947436
150	0x3d579d53	0.05264027
151	0xbd36786e	-0.044548444
152	0x3ce65090	0.028114587
153	0x3d631ae6	0.055445574
154	0xbbdfcc84	-0.0068298
155	0x3d0caf25	0.03434672
156	0x3ce35c25	0.027753899
157	0xbd556ee7	-0.052107718
158	0x3e040259	0.1289152
159	0x3c4b0100	0.012390375
160	0x3d4b19fd	0.04958533
161	0x3d35ead9	0.04441342
162	0x3e23169e	0.15926597
163	0x3cad6c94	0.021169938
164	0x3d1042af	0.035219844
165	0x3d9656c1	0.07340766
166	0x3b13c6d3	0.0022548928
167	0xbd97484d	-0.07386837
168	0xbce0f815	-0.027462045
169	0xbca30a3c	-0.019902341
170	0xbb42d42d	-0.0029728517
171	0xbd6bfe63	-0.05761565
172	0x393c9b94	0.00017987035
173	0x3d9b4722	0.07581927
174	0x3b8d6d5d	0.0043160156
175	0x3d974a05	0.07387165
176	0x3d4656c6	0.048422597
177	0x3d108dc6	0.035291456
178	0xbc08f06b	-0.008358101
179	0x3c0e3c50	0.008681372
180	0x3d6eee99	0.058333013
181	0x3ad7c2af	0.0016461218
182	0x3d42383f	0.04741692
183	0xbd837b75	-0.06420032
184	0xbc0a9d8f	-0.008460416
185	0x3c39acaf	0.011332675
186	0x3deb7679	0.11497206
187	0xbd53a070	-0.051666677
188	0xbc8acf52	-0.016944561
189	0x3d638200	0.0555439
190	0x3da0afab	0.07846006
191	0x3df7c959	0.12098951
192	0x3e032f62	0.12811044
193	0x3d6291ce	0.05531483
194	0x3d36a1c1	0.044587854
195	0xbd39bcc3	-0.045346033
196	0x3cd4a88f	0.025959281
197	0x3d3e4ecc	0.046461865
198	0x3da04944	0.07826474
199	0x3c890ae8	0.016728833
200	0xbd82f52f	-0.06394421
201	0x3d891b29	0.066946335
202	0x3dc37fd7	0.09545868
203	0x3d27673f	0.040869948
204	0x3c4b3eb0	0.012405083
205	0xbcbe37fb	-0.023220053
206	0xbd8f13aa	-0.069861725
207	0x3ceeddb8	0.029158458
208	0x3deb2ed4	0.11483541
209	0x3d35ddd4	0.044401005
210	0x3da9bd7c	0.082880944
211	0xbcb71bf3	-0.022352194
212	0xbdabab2d	-0.083822586
213	0x3ce77fdc	0.02825921
214	0x3de9810e	0.11401568
215	0x3db3483a	0.087540105
216	0x3dc4e39e	0.09613727
217	0x3dbb61d8	0.091495216
218	0x3cd5160a	0.026011486
219	0x3d03ed7d	0.03220891
220	0x3daec77f	0.085341446
221	0x3c751c5b	0.014960374
222	0x3d808ad5	0.0627648
223	0x3da608a5	0.081071176
224	0x3c9571c1	0.018242719
225	0x3cd9c919	0.026585149
226	0xbdae7557	-0.085184745
227	0xbc349f97	-0.011024377
228	0x3dac3cb9	0.084100194
229	0x3de9bfc0	0.114135265
230	0x3d8a3a31	0.067493804
231	0x3d35d555	0.044392902
232	0x3d03c213	0.032167505
233	0x3ce1bdc5	0.02755631
234	0xbc025899	-0.007955694
235	0x3e0622bd	0.13099189
236	0x3d25d021	0.04048169
237	0xbd84f4e1	-0.064920194
238	0x3dad3349	0.084570475
239	0x3df30d9a	0.11867829
240	0x3d155088	0.036453754
241	0x3c35fcd2	0.01110764
242	0x3d7a60ab	0.061127346
243	0xbcab17e1	-0.02088541
244	0xbc59fe29	-0.013305225
245	0xbc5bd281	-0.013416887
246	0x3ded4ba6	0.115866944
247	0x3cbc4363	0.022981351
248	0x3da292dc	0.079381675
249	0xbcae3547	-0.021265639
250	0xbde8ef1c	-0.113737315
251	0x3ccbf827	0.024898602
252	0x3d3481c6	0.044069074
253	0x3d6c235f	0.05765092
254	0xbca16893	-0.019703185
255	0x3dce4cba	0.10073228

weight_ih_l0_reverse f4 [384, 32]
0	0x3deb1839	0.114792295
1	0x3d2ee3a0	0.04269755
2	0x3dee3061	0.11630321
3	0x3dc7c46c	0.097542614
4	0x3db0fc4a	0.0864187
5	0xbd31350f	-0.04326349
6	0x3d651360	0.05592668
7	0x3d993490	0.074807286
8	0xbc619b56	-0.013769945
9	0xbc5ff939	-0.013670259
10	0x3d43751f	0.047719117
11	0x3d8ea60e	0.06965266
12	0xbc60abe9	-0.013712862
13	0xbd5ef5b0	-0.054433525
14	0xbcb7d171	-0.022438737
15	0x3c805c2d	0.015668953
16	0x3d4c60cc	0.049897
17	0xbe1ec6db	-0.15505545
18	0xbda54527	-0.080698304
19	0xbd415120	-0.047196507
20	0x3d229206	0.03969004
21	0xbc7f1441	-0.015568794
22	0x3d0b2c0f	0.033977564
23	0x3d1097d3	0.03530104
24	0xbdd08153	-0.10180917
25	0x3daef77e	0.08543299
26	0x3d839e1c	0.06426641
27	0x3cff61dd	0.031174595
28	0x3d7b013a	0.061280467
29	0x3dab521c	0.083652705
30	0xbcc6e377	-0.024278386
31	0xbc00d578	-0.007863395
32	0x3e27b7bf	0.16378687
33	0xbaa503d2	-0.001258964
34	0x3cf0497a	0.029331911
35	0x3cb6f529	0.022333698
36	0x3c469624	0.012120757
37	0x3c22a838	0.009927802
38	0x3d69dd34	0.05709572
39	0xbcda6d9e	-0.026663598
40	0xbd0b8d50	-0.034070313
41	0x3dcc292a	0.09968789
42	0x3cf79e9a	0.030226994
43	0xbd3c6fb8	-0.04600498
44	0x3d857b3f	0.06517648
45	0x3cb81c2a	0.022474367
46	0x3c40f1bc	0.011776384
47	0x3c58df42	0.013236823
48	0xbbfd892d	-0.0077373
49	0x3d214ac7	0.039377954
50	0xbd818e7b	-0.06326004
51	0x3cb3a59f	0.02192956
52	0xbc515ce4	-0.0127784945
53	0xbda684f5	-0.08130828
54	0x3d5f169b	0.054464918
55	0xbdf3916b	-0.11892971
56	0xbdab588f	-0.083665006
57	0xbd898a6f	-0.06715857
58	0xbd90ddeb	-0.070735775
59	0xbcdc3386	-0.026880037
60	0xbdac93c6	-0.08426623
61	0x3d24df62	0.040252097
62	0xbd827f97	-0.06371992
63	0xbdc03321	-0.09384752
64	0xbd794616	-0.060857855
65	0xbd4a0fe7	-0.049331572
66	0x3cf3b5ac	0.029749714
67	0xbd537e11	-0.0516339
68	0x3dd0fc3a	0.102043584
69	0x3d3053a1	0.043048505
70	0xbd9209ac	-0.07130751
71	0x3bd4512a	0.006479402
72	0x3c29d5ae	0.010365887
73	0xbd09ba0c	-0.033624694
74	0x3d14c1ba	0.036317565
75	0xbdd3f785	-0.10349945
76	0xbcb0669b	-0.021533301
77	0xbb56efd0	-0.0032796748
78	0xbe0d7ac1	-0.13816358
79	0x3c690d54	0.014224369
80	0xbe0760aa	-0.13220468
81	0x3dc2e1b7	0.09515708
82	0xbdef2cb3	-0.116784476
83	0x3dde379b	0.1085045
84	0x3dac8951	0.084246285
85	0x3d3f6ddc	0.04673563
86	0x3cb993aa	0.02265342
87	0x3dee77b5	0.11643926
88	0x3e2f2612	0.17104366
89	0x3e01ac47	0.12663375
90	0x3dc1cf76	0.09463398
91	0x3db9495b	0.090471946
92	0xbb71d931	-0.0036903138
93	0x3db671bd	0.089084126
94	0x3dbefc6e	0.09325491
95	0x3e031983	0.128027
96	0xbdd047e4	-0.10169962
97	0x3dbbfee6	0.091794774
98	0x3cb213e9	0.02173801
99	0xbc8992b4	-0.016793586
100	0xbbc313c5	-0.0059532844
101	0xbcd2909a	-0.025703717
102	0xbce0581f	-0.02738577
103	0xbdc8ba1d	-0.09801123
104	0xbd843fd4	-0.06457487
105	0x3cc8ac3b	0.024496188
106	0x3a938866	0.001125586
107	0x3d7b0e13	0.06129272
108	0x3e07fc01	0.13279726
109	0xbd5a0225	-0.0532247
110	0x3d43860c	0.04773526
111	0xbd8798ab	-0.06620916
112	0x3d365118	0.04451093
113	0xbcabc7fa	-0.02096938
114	0x3dab7459	0.08371801
115	0x3d57e6c3	0.052710306
116	0x3d9ac950	0.075579286
117	0x3da6afe8	0.0813902
118	0x3d1ab7ca	0.03777293
119	0x3c380c47	0.011233396
120	0x3dfd2185	0.12359909
121	0xbdaeda26	-0.08537702
122	0x3b67636c	0.0035307063
123	0x3d741552	0.059590645
124	0xbd84c356	-0.0648257
125	0x3ce3c372	0.027803157
126	0x3c142893	0.009042877
127	0xbd2839b0	-0.04107064
128	0xbe02a8c4	-0.12759691
129	0x3d707457	0.0587047
130	0xbc45b1a6	-0.0120662805
131	0xbd9dc753	-0.07704034
132	0x3d251ab1	0.040308658
133	0xbd44370c	-0.04790406
134	0x3d5f7773	0.054557275
135	0x3d55299c	0.052041635
136	0x3c6cebf8	0.014460556
137	0x3de11f93	0.109923504
138	0xbd7456f5	-0.05965324
139	0x3da26958	0.07930249
140	0xbdd53738	-0.10410923
141	0xbdf57f68	-0.119871914
142	0xbd80e3c1	-0.062934406
143	0x3d8f5394	0.06998363
144	0xbd8227bb	-0.06355234
145	0x3cfc62f7	0.030808909
146	0xbc9f9c5f	-0.019483743
147	0xbd6cfcfa	-0.057858445
148	0x3dcc173f	0.09965371
149	0xbd7bb6b3	-0.061453532
150	0x3d881240	0.06644106
151	0xbc029351	-0.007969693
152	0xbd657af0	-0.056025445
153	0x3de133bb	0.10996195
154	0x3dd5dd26	0.10442571
155	0xbcfbfc2a	-0.03075989
156	0x3ccec24b	0.02523913
157	0x3b8a4827	0.004220027
158	0xbd198280	-0.03747797
159	0x3d039915	0.032128412
160	0xbd774120	-0.060364842
161	0x3dadf98f	0.08494865
162	0x3d46e8db	0.048561912
163	0xbc05ad57	-0.008159003
164	0xbcc8b580	-0.024500608
165	0xbd982285	-0.07428459
166	0xbc3cbb31	-0.011519239
167	0x3e259257	0.16169105
168	0x3cbd8380	0.023133993
169	0xbcdca52c	-0.026934229
170	0xbd1bada7	-0.038007405
171	0x3d30b3f1	0.043140355
172	0x3dd45ce7	0.10369282
173	0xbd1e75f9	-0.038686726
174	0x3d8aeb9f	0.067832224
175	0xbd346ba0	-0.04404795
176	0xbd209afd	-0.03921031
177	0x3d5c11b3	0.053727817
178	0x3d2ac33a	0.04169009
179	0x3e7f4f6f	0.24932645
180	0xbcfb452d	-0.030672634
181	0xbc488962	-0.012239786
182	0x3dfaa9ac	0.122393936
183	0x3d6120a1	0.054962758
184	0x3d6a6dcc	0.057233617
185	0x3dc10356	0.094244644
186	0xbbb564a4	-0.005535679
187	0x3dd89da6	0.10576944
188	0x3d1a7299	0.037706945
189	0x3d88baa9	0.066762276
190	0x3da5d285	0.08096794
191	0x3d222478	0.03958556
192	0xbd6d2692	-0.05789811
193	0x3cef22c2	0.029191379
194	0x3d66496b	0.05622236
195	0x3d8a8d33	0.06765213
196	0x3d0fd221	0.035112504
197	0x3dc89b19	0.097952075
198	0x3dec5913	0.11540427
199	0xbd958265	-0.073002614
200	0x3d066f66	0.03282108
201	0x3e00f88e	0.12594816
202	0x3e247a8d	0.16062374
203	0xbc02d29b	-0.007984783
204	0x3dc12153	0.09430184
205	0x3d1b07dc	0.037849292
206	0x3dffb416	0.124855205
207	0x3d9194bf	0.07108449
208	0x3deb34ec	0.114847034
209	0x3d9ed689	0.07755763
210	0x3d413e88	0.047178775
211	0x3d324592	0.04352338
212	0x3dac3761	0.08409
213	0x3db79248	0.08963448
214	0x3d7d6def	0.06187242
215	0x3db19584	0.08671096
216	0x3d73de44	0.05953814
217	0xbd2ab68b	-0.041677993
218	0x3d791ed3	0.060820412
219	0x3d13d7a1	0.03609431
220	0xba13e8a7	-0.0005642273
221	0x3e0499df	0.12949322
222	0xbe01c3db	-0.12672369
223	0xbd0edcdf	-0.034878608
224	0xbd0a7315	-0.033801157
225	0xbd3ee2e2	-0.04660309
226	0xbe2ec4c9	-0.17067255
227	0x3e0ce47d	0.13759036
228	0xbe2afb5f	-0.16697453
229	0xbd12ba67	-0.0358223
230	0xbd68576b	-0.056723993
231	0xbde43245	-0.11142401
232	0xbd994100	-0.07483101
233	0xbd67df22	-0.05660928
234	0xbcd85c64	-0.026411243
235	0x3cd90bd0	0.02649489
236	0xbdb3a613	-0.087719105
237	0xbbc19e35	-0.0059087523
238	0xbe06aa07	-0.13150798
239	0xbd2fdaa0	-0.042933106
240	0xbb9b17a9	-0.004733045
241	0xbc8f1a12	-0.017468486
242	0x3d79015d	0.060792316
243	0x3d6302e0	0.055422664
244	0x3deb0f05	0.11477474
245	0xbd112ec0	-0.035444975
246	0x3d4c7b54	0.049922302
247	0x3d5641a1	0.052308682
248	0x3ba42fe5	0.0050105923
249	0xbc984a82	-0.018590216
250	0xbdd39506	-0.10331158
251	0xbd08c21d	-0.033388246
252	0x3d2530bb	0.040329676
253	0x3d15d9e0	0.036584735
254	0x3dd3dfba	0.10345407
255	0x3da41d4a	0.08013399

weight_hh_l0_reverse f4 [384, 128]
0	0x3c82f4d3	0.015985882
1	0xbe285a29	-0.16440643
2	0xbe258f9d	-0.16168065
3	0x3dcfe1bf	0.101504795
4	0x3c5d9b6d	0.013525826
5	0x3d14e12e	0.03634756
6	0x3d36197c	0.044457898
7	0x3d0fd194	0.03511198
8	0x3d4b3abf	0.04961657
9	0x3dcd36b0	0.100201964
10	0xbd8180f5	-0.06323425
11	0x3d1be744	0.03806235
12	0x3e1e976b	0.15487449
13	0xbd721a44	-0.05910708
14	0xbd5317d4	-0.051536396
15	0x3dbc2bac	0.09188017
16	0x3dc07bce	0.09398614
17	0xbd4b5d15	-0.049649317
18	0xbc38e90b	-0.0112860305
19	0x3df86106	0.12127881
20	0xbdab7a18	-0.08372897
21	0x3c68485d	0.014177409
22	0x3db6b0dc	0.08920452
23	0x3d080638	0.033209056
24	0xbdd41a0c	-0.103565305
25	0x3d14224b	0.036165517
26	0x3ba0445a	0.0048909606
27	0xbd694300	-0.05694866
28	0x3c288b01	0.010287047
29	0xbcd4710b	-0.02593281
30	0x3d32d3a4	0.043658867
31	0xbd50c713	-0.050971102
32	0xbd40e853	-0.04709656
33	0xbdd40219	-0.103519626
34	0xbcf51add	-0.029920036
35	0xbc911a62	-0.017712776
36	0x3d19b170	0.037522733
37	0x3cb8775b	0.02251785
38	0xbdaba9ea	-0.08382018
39	0x3cad0318	0.02111964
40	0x3d8b462e	0.06800495
41	0x3d21b872	0.03948254
42	0x3d856a22	0.06514384
43	0xbd31cc01	-0.043407444
44	0x3d74ecfc	0.05979632
45	0xbcbaefbb	-0.02281939
46	0xbd0ba4fa	-0.03409288
47	0x3ded5e79	0.11590285
48	0x3d3a00c9	0.045410905
49	0x3d96f082	0.07370092
50	0xbcc243e1	-0.023714008
51	0x3cdb2fb9	0.026756154
52	0x3d76a708	0.060217887
53	0x3b4a36ac	0.003085534
54	0x3c38e77c	0.011285659
55	0x3dc65b27	0.09685355
56	0xbc7242d3	-0.01478644
57	0x3d0f87d1	0.035041634
58	0x3e19f1ef	0.15033697
59	0xbd5b02f5	-0.053469617
60	0xbdb81436	-0.0898823
61	0xbd11c5b5	-0.03558894
62	0x3cf4384a	0.029811997
63	0x3d2ce3a3	0.04220928
64	0x3db88400	0.09009552
65	0xbc20705a	-0.009792412
66	0x3d64d244	0.055864587
67	0x3cca70d5	0.024712006
68	0xbd85d853	-0.06535401
69	0xbdb392e5	-0.08768252
70	0xbcf052f3	-0.029336428
71	0x3dddf2b7	0.1083731
72	0x3d292d2c	0.041302845
73	0xbd17b5d0	-0.037038624
74	0x3d9a66b7	0.075391226
75	0xbbf83822	-0.007575051
76	0xbcb6ffb7	-0.022338731
77	0xbdc7a6f5	-0.097486414
78	0x3cdf9d49	0.02729668
79	0xbceba5d8	-0.028765604
80	0xbd7842e3	-0.060610663
81	0xbe217fc3	-0.15771393
82	0x3dd9061e	0.1059687
83	0xbd474f7e	-0.048659794
84	0x3d29bfb9	0.041442607
85	0x3d774107	0.06036475
86	0x3d05a697	0.032629576
87	0x3d780c6e	0.06055873
88	0xbcc16c94	-0.023611344
89	0x3da5564d	0.08073101
90	0xbe008b78	-0.12553203
91	0xbd3ba302	-0.045809753
92	0x3d342bf1	0.04398722
93	0x3d4b3e18	0.049619764
94	0xbd133404	-0.035938278
95	0x3ca76d20	0.020437777
96	0xbddaa5a4	-0.10676125
97	0x3ca80de3	0.020514434
98	0x3d8b382d	0.06797824
99	0xbd9c6a11	-0.07637418
100	0x3dda8361	0.1066959
101	0xbcf7f334	-0.030267335
102	0xbd242d15	-0.040082056
103	0x3dc11f31	0.094297774
104	0x3d272111	0.04080302
105	0xbe000a1d	-0.12503858
106	0x3e0e7200	0.13910675
107	0x3a285f78	0.00064229174
108	0x3da31f6d	0.07964978
109	0x3bb18c73	0.005418354
110	0xbdcddefb	-0.10052296
111	0xbe111051	-0.1416638
112	0x3d43625a	0.047701217
113	0xbd342732	-0.043982692
114	0xbd1d74c5	-0.03844144
115	0x3d2c8636	0.04212018
116	0x3e03982e	0.1285102
117	0xbcd25078	-0.025673136
118	0xbdc039b2	-0.093860045
119	0x3cf517eb	0.029918632
120	0xbce2d352	-0.027688656
121	0x3dbbc364	0.09168127
122	0x3b46d4c2	0.0030339216
123	0x3d9a7ec2	0.075437084
124	0x3dc55e6c	0.0963715
125	0x3d5baf59	0.05363402
126	0xbd98f251	-0.07468093
127	0xbd234aaa	-0.039866127
128	0x3cb9509e	0.02262145
129	0x3d5a396b	0.053277414
130	0x3d38c7ca	0.04511241
131	0xbe1c99e6	-0.15293083
132	0xbb9ac131	-0.0047227372
133	0x3d0ef800	0.03490448
134	0xbd41539a	-0.04719887
135	0xbd851213	-0.06497588
136	0xbd106b86	-0.035258792
137	0xbbcdb792	-0.006277987
138	0xbdaabe36	-0.08337061
139	0xbdbca7f2	-0.092117205
140	0x3bb00571	0.0053717424
141	0x3d949d20	0.07256532
142	0xbdf7f205	-0.121067084
143	0x3c238bc6	0.009982055
144	0xbda42175	-0.08014194
145	0x3d56fbc7	0.052486207
146	0x3b8ad3d6	0.0042366786
147	0xbd913b67	-0.07091408
148	0x3c883fe8	0.016632035
149	0xbd7cc570	-0.06171173
150	0x3dd5032c	0.104009956
151	0x3b26dae2	0.0025460054
152	0x3dd9b419	0.10630054
153	0x3db59789	0.08866794
154	0x3def8ac4	0.11696389
155	0xbce4032a	-0.02783354
156	0xbdb63c00	-0.08898163
157	0x3e1d2be0	0.15348768
158	0xbbb70c1d	-0.005586161
159	0xbd2d7751	-0.042350117
160	0x3be41221	0.006960169
161	0x3d075211	0.03303725
162	0x3cfa8906	0.030582916
163	0xbdc09b49	-0.09404618
164	0x3b8a656f	0.0042235176
165	0x3d0f3582	0.03496314
166	0x3c09eff0	0.008419022
167	0xbbf852df	-0.0075782384
168	0xbc4cb1c4	-0.0124935545
169	0xbbd2aaed	-0.0064290673
170	0x3e12e3de	0.14344737
171	0xbdfa9351	-0.122351296
172	0x3c7f4caa	0.015582243
173	0x3d49492c	0.049142048
174	0xbc00c987	-0.007860548
175	0xbd46ef3a	-0.048567988
176	0x3de58e5e	0.11208795
177	0xba2cb4dc	-0.00065882294
178	0x3db8542b	0.09000429
179	0x3db0d934	0.08635178
180	0x3d7c8aa5	0.06165566
181	0xbd24524a	-0.04011754
182	0xbc6f9b4c	-0.014624428
183	0xbba93860	-0.005164191
184	0x3d91f6ea	0.07127173
185	0xbd7a0511	-0.061039988
186	0x3e1c9b9a	0.15293732
187	0xbdf4d9bb	-0.11955591
188	0xbce00db8	-0.027350292
189	0x3d9ff55d	0.07810471
190	0xbd9672a3	-0.07346084
191	0x3d5a93ea	0.053363718
192	0x3d6d06ed	0.057867933
193	0xbb7e88d8	-0.003883889
194	0x3d705105	0.058671016
195	0xbdfe5bb2	-0.12419833
196	0xbcf5ad06	-0.02998973
197	0x3e0af227	0.13568936
198	0x3d985ab9	0.07439179
199	0x3d81b148	0.06332642
200	0x3d5d2c24	0.053997174
201	0xbbc5c9c6	-0.006036016
202	0xba98767a	-0.0011631988
203	0xbd93c5cc	-0.07215461
204	0x3db35ae1	0.08757568
205	0xbd5d5c60	-0.054043174
206	0xbdf5c06e	-0.11999594
207	0x3d9e04af	0.07715737
208	0x3c47801c	0.01217654
209	0xbdb91343	-0.09036877
210	0x3d9816f5	0.07426254
211	0xbd274cff	-0.040844914
212	0xbcaaffaf	-0.020873873
213	0xbd41bbff	-0.047298428
214	0xbe11ec1c	-0.14250225
215	0x3c82f652	0.015986595
216	0xbbb79814	-0.005602846
217	0x3db3ae03	0.087734245
218	0xbbc0c837	-0.0058832425
219	0x3d889a8c	0.066701025
220	0x3d1202ed	0.03564732
221	0xbd4e32fb	-0.050341588
222	0xbd2d4494	-0.04230173
223	0xbcf33c2b	-0.029691776
224	0x3dd809da	0.10548754
225	0x3deafda8	0.11474162
226	0x3de184b8	0.11011642
227	0xbd9ab336	-0.07553713
228	0xbda80a74	-0.08205119
229	0x3d5861f5	0.052827794
230	0x3d3a2486	0.045444988
231	0xbc732a0e	-0.01484157
232	0x3b2f4e59	0.002674958
233	0xbd0ef27c	-0.03489922
234	0xbcf6656e	-0.030077662
235	0x3e396da7	0.18108235
236	0x3dab6e79	0.0837068
237	0x3cfd02bd	0.030885095
238	0xbd01b045	-0.031662244
239	0x3d432a00	0.047647476
240	0xbccd660c	-0.025073074
241	0xbae9f906	-0.0017850704
242	0xbcf9c3ae	-0.030488815
243	0x3d0fd4f2	0.03511519
244	0x3d082f91	0.033248488
245	0xbcc712fc	-0.024301045
246	0x3c8bd795	0.017070571
247	0x3d2ca5ab	0.04215018
248	0x3d1e7893	0.038689207
249	0xbd9c91b3	-0.076449774
250	0xbd9f3e5c	-0.07775566
251	0x3db9c0a0	0.090699434
252	0xbd8fc479	-0.07019896
253	0xbd3de0f3	-0.046357106
254	0x3d6ead99	0.058271024
255	0xbaf6c833	-0.0018827975

bias_ih_l0_reverse f4 [384]
0	0xbd8aad4d	-0.06771336
1	0xbe0055b5	-0.12532695
2	0x3d0c7f12	0.03430087
3	0x3d55ff74	0.052245572
4	0x3d400159	0.046876285
5	0x3dbe9fdd	0.09307835
6	0x3dd6bc50	0.104851365
7	0x3d78b999	0.060723875
8	0x3d8eb6fd	0.06968496
9	0x3d5b92b1	0.053606693
10	0x3d4000ec	0.04687588
11	0x3d80fe10	0.062984586
12	0x3dc77e08	0.097408354
13	0x3dc95225	0.09830121
14	0xbc52de15	-0.012870331
15	0x3d9ee0b1	0.077577
16	0x3d4e7652	0.050405808
17	0x3de175a4	0.11008766
18	0x3d927f32	0.07153167
19	0x3dd8a5d5	0.10578505
20	0x3d9cdde9	0.076595135
21	0x3df5e3a4	0.1200631
22	0x3c978c48	0.018499509
23	0xbd280717	-0.041022386
24	0x3c6f4c99	0.014605665
25	0x3c37caa3	0.011217746
26	0x3cb14df3	0.021643614
27	0xbdb232b6	-0.087010786
28	0x3d770e8e	0.060316615
29	0xbcf1820c	-0.029480956
30	0x3d50fafb	0.051020604
31	0x3d98ea0f	0.07466518
32	0xbcee91cc	-0.029122256
33	0x3d177378	0.036975354
34	0x3db0aa11	0.086261876
35	0x3d466b52	0.048442192
36	0x3df07fe9	0.11743147
37	0xbd908986	-0.070574805
38	0x3cebd68b	0.028788825
39	0xbaa6b266	-0.0012717962
40	0x3d550406	0.05200579
41	0xbd71d11e	-0.05903732
42	0xbbfd9b2d	-0.0077394457
43	0x3d5de926	0.054177426
44	0xbd30ad80	-0.043134212
45	0xbd77b9e3	-0.06048001
46	0xbd84ff5e	-0.0649402
47	0xbdc28c4c	-0.09499416
48	0x3cdd3b9b	0.027005961
49	0x3d9fcf76	0.07803242
50	0x3d720ac4	0.0590923
51	0xbd5de176	-0.054170094
52	0x3d75319a	0.059861757
53	0x3cb3ce56	0.021948975
54	0xbd2153ff	-0.039386746
55	0x3d2c69d8	0.042093128
56	0xbdb40ae6	-0.08791141
57	0x3ce8a05c	0.028396778
58	0xbd42df03	-0.04757596
59	0xbd1b89d9	-0.03797326
60	0xbd4a438e	-0.04938083
61	0x3de1c5ae	0.110240325
62	0x3d6a630f	0.057223376
63	0x3cc3e7f7	0.02391432
64	0x3dd914b1	0.1059965
65	0x3d0f1994	0.034936503
66	0xbd387c45	-0.045040388
67	0xbd771e1e	-0.060331456
68	0x3e1339f8	0.14377582
69	0x3d666d9a	0.056256868
70	0x3d67cbe6	0.056590937
71	0x3d869577	0.06571477
72	0x3bfdc815	0.007744799
73	0xbd16653f	-0.03671765
74	0x3e02c492	0.12770298
75	0xbc7c76e8	-0.015409209
76	0x3dfe7c8f	0.124261014
77	0x3d667552	0.05626423
78	0x3d00db98	0.03145942
79	0xbdac6913	-0.08418479
80	0x3d8b5640	0.0680356
81	0x3cf8f671	0.03039095
82	0xbde940aa	-0.11389287
83	0xbc112b12	-0.008860366
84	0x3dd041f8	0.101688325
85	0x3d4be4be	0.049778692
86	0xbcd6cf81	-0.026221992
87	0xbd1b9c46	-0.03799083
88	0x3dd59b02	0.10429956
89	0xbd31f48b	-0.043446105
90	0x3da923ac	0.08258757
91	0x3c19250d	0.0093472125
92	0xbd4e21a4	-0.05032505
93	0xbc30dc22	-0.010794671
94	0x3d8e5127	0.06949072
95	0xbd8a1446	-0.06742148
96	0xbd099ae5	-0.033594985
97	0xbd32e2cc	-0.04367332
98	0x3b7c1221	0.0038462954
99	0xbbb4c098	-0.005516123
100	0x3d90041e	0.07032035
101	0xbaaed054	-0.0013337233
102	0x3cb7f5ed	0.022456134
103	0xbd1b3974	-0.03789659
104	0x3d2332ea	0.039843477
105	0xbcca0053	-0.024658358
106	0x3d863856	0.06553714
107	0x3d5dcf1e	0.0541526
108	0x3d096924	0.033547536
109	0xbce64c7b	-0.02811264
110	0x3c889953	0.016674673
111	0x3d32e2fd	0.043673504
112	0x3df2a7ae	0.118483886
113	0x3e08efe6	0.13372764
114	0x3c88af08	0.016685024
115	0x3d32fceb	0.043698233
116	0xbda17aa6	-0.078847215
117	0xbd16cf64	-0.036818877
118	0xbd25df85	-0.040496368
119	0xbd068d89	-0.032849822
120	0xba46e6fc	-0.000758752
121	0x3d98f6c8	0.07468945
122	0x3d779d2d	0.06045263
123	0x3d11351c	0.03545104
124	0x3c6ac998	0.01433029
125	0x3d04f118	0.032456487
126	0x3cafd5fa	0.021464337
127	0x3cb4706c	0.022026263
128	0x3da51b07	0.08061796
129	0x3d62d779	0.055381272
130	0x3e1fd30f	0.15607856
131	0x3da66e7b	0.08126541
132	0xbce0c045	-0.027435431
133	0xbd481866	-0.048851393
134	0x3d604667	0.05475464
135	0xbc71dd83	-0.014762285
136	0xbd441f48	-0.047881395
137	0x3d85a69a	0.06525917
138	0xbd95c580	-0.07313061
139	0x3de55d8a	0.11199482
140	0xbd7199bb	-0.0589845
141	0x3dc79836	0.09745829
142	0x3dc9198a	0.09819324
143	0x3e0eb5d4	0.1393655
144	0x3d2ab561	0.041676883
145	0x3da41af6	0.08012955
146	0x3d9bcc42	0.076073185
147	0x3d8317f8	0.06401056
148	0x3d21ed2a	0.039532818
149	0x3d7696e6	0.0602025
150	0xbccbfccd	-0.024900818
151	0x3d95b460	0.073097944
152	0xbc2c28d5	-0.010507782
153	0x3d2323f8	0.039829224
154	0xbd3d8810	-0.046272337
155	0xbd527aad	-0.051386524
156	0x3c8c7108	0.017143741
157	0xbd71bd55	-0.05901845
158	0xbd094256	-0.03351053
159	0x39902264	0.00027491443
160	0x3dc340ce	0.09533845
161	0xbc0dc8b4	-0.008653808
162	0x3e31de22	0.17369893
163	0x3db63b5b	0.0889804
164	0xbc4b6deb	-0.012416343
165	0xbddbb215	-0.10727326
166	0x3d97ba83	0.07408621
167	0x3d514213	0.051088404
168	0xbd14537d	-0.036212433
169	0x3dc86138	0.09784168
170	0x3d4f6d0f	0.050641116
171	0x3c571f2f	0.013129993
172	0x3e0252b3	0.1272686
173	0x3d253b25	0.040339608
174	0xbdb89a57	-0.09013813
175	0xb9912214	-0.00027681945
176	0xbdde4472	-0.10852899
177	0x3de83310	0.113378644
178	0x3d3e11d5	0.046403725
179	0xbda08999	-0.07838745
180	0x3c3f7dbb	0.011687691
181	0x3d726181	0.05917502
182	0x3d008714	0.03137882
183	0xbd689f41	-0.0567925
184	0x3d4804be	0.048832648
185	0xbda1c507	-0.07898908
186	0x3c1a3047	0.009410924
187	0x3d3094fc	0.043110833
188	0xbcd1c95b	-0.02560871
189	0x3a1a5598	0.0005887388
190	0xbbe2d754	-0.006922642
191	0x3a37d635	0.00070128153
192	0xbc40ceb6	-0.011768034
193	0x3de65162	0.11245991
194	0xbcb78447	-0.022401942
195	0xbc03f6f4	-0.008054484
196	0x3defc296	0.11707036
197	0x3d46daee	0.04854863
198	0xbd4f146e	-0.050556593
199	0x3d0baf41	0.034102682
200	0x3db9f9f2	0.090808764
201	0x3dd2558f	0.10270225
202	0xbd493043	-0.04911829
203	0x3d111a69	0.035425577
204	0xbdcfce45	-0.10146765
205	0xbcb12882	-0.021625761
206	0x3d7e8aab	0.062143963
207	0x3e1556d5	0.14583905
208	0xbc523a1b	-0.012831236
209	0xbca01f7c	-0.019546263
210	0xbc99fda6	-0.018797707
211	0x3d45bdb9	0.048276637
212	0xbd5c45da	-0.053777553
213	0x3db49459	0.088173576
214	0xbd712ce9	-0.05888072
215	0x3d861648	0.065472186
216	0x3dde4ea4	0.10854843
217	0x3c836887	0.016041053
218	0x3bb76325	0.0055965357
219	0x3d81cd72	0.06338014
220	0xbdc57f79	-0.09643454
221	0xbbe9fc3d	-0.007140665
222	0x3d2a32eb	0.041552465
223	0x3d2f32cf	0.042773064
224	0xbd0fa145	-0.035065908
225	0x3d4ac11f	0.04950058
226	0xbd97190a	-0.07377823
227	0x3dc0c907	0.09413343
228	0x3d26cea7	0.040724423
229	0xbd48bc1d	-0.049007524
230	0xbde1ad49	-0.1101938
231	0x3b9b360a	0.0047366666
232	0x3db44ee6	0.08804111
233	0xbc3bc442	-0.011460366
234	0x3db5a9e1	0.088702925
235	0x3d99c9c5	0.075091876
236	0x3d5b0589	0.053472076
237	0x3d6a572c	0.05721204
238	0x3cf6f3fa	0.030145634
239	0xbcd07f1c	-0.025451235
240	0xbc9a0234	-0.018799879
241	0x3c505018	0.012714408
242	0x3d684a9e	0.056711785
243	0x3daeffb4	0.08544865
244	0xbd54bb99	-0.05193672
245	0x3bc50cba	0.00601348
246	0x3db90882	0.09034826
247	0x3d35ceda	0.044386722
248	0x3c48eedd	0.012263981
249	0x3ca3300c	0.019920371
250	0x3d866567	0.0656231
251	0xbbb0f508	-0.0054003038
252	0xbd6029d2	-0.054727383
253	0x3c0312f6	0.008000126
254	0x3dc97376	0.098364756
255	0xbd387abd	-0.045038927
