models/model_deam_russel_4q.pth (torch, 506588 bytes, 10 tensors)

weight_ih_l0 f4 [384, 32]
000000 04 c5 d4 3c 8e 2c 87 bc f3 ec 25 3e f2 65 b6 bd
       0.02597285 -0.016500738 0.1620367 -0.08906163
000010 80 1f 65 bd 22 1e 14 3e de 77 0a bd 86 70 de 3c
       -0.055938244 0.1446462 -0.03380572 0.027153265
000020 ad 6c 03 3d 80 d0 39 3a 14 ce 8f 3d b7 c6 62 bd
       0.032086063 0.0007088259 0.07021728 -0.05536529
000030 f0 2d 31 bd 89 da 9a bd 44 f9 b3 3d 6f de 01 3e
       -0.0432567 -0.075612135 0.08787778 0.12682508
000040 b3 2a 74 bd e8 fc 0f be 4f de 5d bb 05 d0 ee 3d
       -0.059611034 -0.1406132 -0.003385443 0.1166077
000050 6d ff 95 3d aa 7f 97 3d 6b 6d f3 bc bb b3 69 bb
       0.07324109 0.07397397 -0.02971526 -0.0035660106
000060 14 69 87 3c 7c 77 72 3d 12 d0 b6 3d 86 61 d2 bc
       0.016529597 0.05919598 0.08926405 -0.025681268
000070 56 a4 d2 3d 14 7f f5 3d 08 7a cc bd a5 95 95 3a
       0.10285251 0.11987129 -0.09984213 0.0011412395
000080 2e dd b7 bc 21 6a 8a 3d b6 35 94 3d 6d 52 c5 3b
       -0.022444334 0.06758524 0.07236807 0.006021789
000090 85 c9 45 3d f7 fb 3e bd a4 47 8b 3d 3d f5 5d bd
       0.048287887 -0.04662701 0.06800774 -0.054188956
0000a0 b1 4f cf 3d db 48 ce 3a be 2f 09 3d 10 59 8d 3d
       0.10122622 0.0015738265 0.033492796 0.06901753
0000b0 a4 f2 c0 bb 8d 70 1a 3e 1a 4d a2 bd b0 3e b7 3d
       -0.0058883 0.15081997 -0.07924862 0.089475036
0000c0 eb 11 ec 3d 13 90 3d 3e f2 c1 e9 bc 0e 82 93 bc
       0.11526855 0.18511991 -0.028534863 -0.01800635
0000d0 bb a6 58 3b de c2 76 bd 3c c4 c0 bd 78 48 08 be
       0.0033058363 -0.060244434 -0.09412429 -0.13308895
0000e0 5c b0 13 3d 38 be 3b 3d 89 a7 bb bd c2 51 01 bd
       0.03605686 0.045835704 -0.09162814 -0.03157211
0000f0 20 b7 a3 ba 17 ba e8 bd 7d 96 fd bd 71 51 0e be
       -0.0012490489 -0.11363619 -0.12382219 -0.13898255
000100 6b 0d a9 bc ce 6b 13 bc b5 1e e1 3d d1 70 f9 3d
       -0.020636281 -0.008997871 0.10992185 0.12179721
000110 3d 08 39 3b 7c 7c f3 bd 39 9a 28 be 7a 43 94 bd
       0.002823367 -0.11888978 -0.16465081 -0.07239433
000120 e2 dc 3a be a1 d7 18 3d c3 13 87 bd a8 7e a4 bd
       -0.18248323 0.037315015 -0.06595566 -0.0803197
000130 66 4d aa bb 6e 09 88 3b 0e 01 d1 bd 35 7b 41 3d
       -0.005197215 0.0041515147 -0.10205279 0.04723664
000140 4f 43 30 bd f3 c7 f6 bd 8d 61 e6 bd 88 cc 21 3d
       -0.04303294 -0.12049856 -0.11249075 0.039501697
000150 39 d7 35 3e 99 ce 1a 3e 73 af 27 3e 67 a6 44 3e
       0.17757882 0.15117873 0.16375522 0.19204102
000160 08 1b 22 3e f6 a3 88 3d 1b a3 fe 3c 84 71 0f 3e
       0.15830624 0.06671898 0.031083634 0.14008147
000170 58 85 e0 3d c5 1d ee 3c b6 8a b3 3d ce 8f b6 3d
       0.10962933 0.02906693 0.087666914 0.08914147
000180 ae ee a4 bc 33 7f 9d bc 82 fd 6d 3d 04 b9 1b bd
       -0.020133343 -0.019225692 0.058103092 -0.03801824
000190 58 a0 a5 3d 63 3b 09 3e 70 8d 87 bc 6d f1 01 3e
       0.08087224 0.1340156 -0.016546935 0.12689753
0001a0 ab 71 82 3d 4e ef f7 3d 9d 65 93 3d 22 d8 18 3d
       0.06369337 0.121061906 0.071971156 0.037315495
0001b0 d4 b8 8c bd 47 24 69 3d f8 14 ae bd 44 64 01 3e
       -0.06871191 0.056919362 -0.08500093 0.12635905
0001c0 50 8d ae bd b0 40 63 bd ea 15 a1 3d ec 10 5d 3e
       -0.08523047 -0.055481613 0.07865508 0.21588486
0001d0 ce 84 81 3e b5 75 3d 3e ab d6 3e 3e 97 62 4d 3e
       0.25296634 0.18501933 0.18636577 0.2005714
0001e0 71 b1 c1 3d 6e b6 ef 3c 30 0b d2 3d 0d 81 5b 3e
       0.094576724 0.029261794 0.1025604 0.21435948
0001f0 46 7e c4 3d 52 55 2f 3e 7c 60 33 3d 38 1b 5b 3e
       0.09594397 0.17122391 0.043793187 0.21397102
000200 b1 8f ba 3d 0e 3c 92 3d 5f 74 69 3d 30 f7 d4 3c
       0.09109438 0.07140361 0.056995746 0.025996774
000210 7b 9d 8c bd a3 02 14 3d e5 d2 1f 3c b8 72 ed bb
       -0.068659745 0.036135327 0.009754871 -0.0072463416
000220 f2 18 cf bd de 06 d9 bd e8 01 5c bd 3a b0 6b 3d
       -0.1011218 -0.10597013 -0.053712755 0.05754111
000230 8e 2e 1d bd 48 01 cd bd bd c0 c0 3c 70 e7 21 3d
       -0.038374476 -0.1001001 0.023529405 0.039527357
000240 bb 4e 2f be 05 fd 46 bb b4 36 7d 3d d9 2c 96 bd
       -0.17119877 -0.0030363214 0.061819747 -0.07332773
000250 18 4d fb 3d ed 3f 22 3e bb 26 1d 3d 37 1f 11 3d
       0.12270564 0.15844698 0.038367014 0.03543016
000260 ad 80 22 3d 65 bf cc 3d 65 6e ae 3a 62 6c 55 3d
       0.039673496 0.09997443 0.0013308047 0.052105315
000270 96 6d c4 3c 03 8b bf 3d c0 df 94 3d 19 fa 41 3d
       0.023978036 0.09352686 0.072692394 0.047357652
000280 4f 22 ed 3d ac e9 3b 3d d2 45 dc bd 49 03 7c bd
       0.115788095 0.045877144 -0.10755505 -0.06152657
000290 ab 0d 9b 3d 17 8a 14 3d 43 17 b5 bc 57 d4 d1 bd
       0.07570966 0.036264505 -0.022105819 -0.10245579
0002a0 aa 2e 6c bb 24 8c 87 bd b9 e5 c1 bd 21 af c4 bd
       -0.0036038556 -0.066185266 -0.09467644 -0.09603716
0002b0 2f 38 d7 bc 0d 86 11 bd c3 c6 e8 bd d9 39 39 3c
       -0.026271908 -0.03552823 -0.11366036 0.011305296
0002c0 df 95 f7 3d 04 bc 3a 3c b5 fe 89 3d 17 be 7e 3c
       0.120891325 0.0113973655 0.06738035 0.015548251
0002d0 e8 ec 0f bc 64 80 bb 3d 9a f0 71 bd 7f 59 20 be
       -0.00878451 0.09155348 -0.059067346 -0.1565914
0002e0 f2 d8 cf bc 27 0a 8f 3d 64 ca 5e bc 6e d3 1e 3c
       -0.025372002 0.06984358 -0.013598058 0.009693963
0002f0 17 89 99 3d b8 69 77 bd 5d d2 42 bc 1f 15 8a bd
       0.07496851 -0.060403556 -0.011890975 -0.0674231
000300 2e 02 ae 3c 46 a5 19 3e c0 ed 3b bd a1 1a b9 bc
       0.021241274 0.15004453 -0.045881033 -0.022595705
000310 85 20 74 3d 72 d2 d5 bc 0a d4 86 bd 08 35 18 bd
       0.059601326 -0.026101325 -0.06583412 -0.03715995
000320 84 68 18 bd 20 36 8f 3c 29 dc a3 bd 52 bd 84 bc
       -0.03720905 0.017481863 -0.080009766 -0.016203556
000330 e9 c6 28 bb 77 d7 a3 3c 42 52 20 3e 51 72 c3 bd
       -0.0025753325 0.020000203 0.15656379 -0.095432885
000340 ab 33 ad bd 2f d4 23 be e9 61 e1 bc 18 c3 86 3b
       -0.084571205 -0.1599891 -0.027512508 0.0041126125
000350 16 7f e5 3c 83 78 83 bd 93 fc bd bc 0c fe 81 3d
       0.0280147 -0.0641947 -0.023191726 0.06347284
000360 a0 38 5b bd cd 24 ea 3d 58 a2 3c bd fd e6 a4 3d
       -0.0535208 0.114328004 -0.04605326 0.0805187
000370 c2 0f c9 3d 43 16 c2 3d 84 c8 08 3e 00 17 4f bc
       0.09817459 0.09476902 0.1335774 -0.012639761
000380 84 f6 5f 3d 43 67 14 3b 72 73 d2 bb ea 41 de 3b
       0.054678455 0.0022644557 -0.0064224536 0.00678276
000390 ab 44 0f bd 11 dd b8 3d 21 02 8a bc 88 2f 45 3e
       -0.034977596 0.0902654 -0.016846718 0.19256413
0003a0 13 3c ec 3d a0 44 38 be 66 70 0f be 87 29 71 bd
       0.11534896 -0.17994928 -0.1400772 -0.058877494
0003b0 b8 59 99 bd b6 e7 1a be 39 15 93 bd 1c 3f 3f 3e
       -0.074878156 -0.15127453 -0.07181782 0.18676418
0003c0 db 65 ca 3c 92 a3 dd 3d c7 0c d0 3d ed e0 47 3e
       0.024706772 0.10822214 0.10158687 0.19519396
0003d0 ff c3 da 3d ae 93 ec 3d 1a 78 b7 3d 74 b7 0e 3e
       0.106819145 0.11551605 0.089584544 0.1393717
0003e0 78 ff a4 3c 86 01 cc 3d 66 b3 86 bc 35 a2 ad 3d
       0.020141348 0.09961228 -0.016442966 0.08478204
0003f0 bb ed 04 bc a1 dc 75 3c 46 a9 ae 3d 6d 9f dc bc
       -0.00811332 0.015006215 0.0852838 -0.026931489

weight_hh_l0 f4 [384, 128]
000000 f1 a4 a4 3d b1 76 fb 3d f6 50 76 bd 1a 6a 5f 3d
       0.080392726 0.12278498 -0.060135804 0.054544546
000010 fd 8b 9a 3d 50 75 3b be bf 7d 42 3e 9d 70 fa bd
       0.07546232 -0.1830647 0.18993281 -0.122285105
000020 ba 67 26 bd dc 69 80 bd b2 bd ad bc 21 e8 d9 3c
       -0.040626265 -0.06270191 -0.021208618 0.026599946
000030 24 a9 d8 bd 59 47 e0 3d ec 0e 31 bd fc 42 63 b9
       -0.10579136 0.109511085 -0.04322712 -0.0002167336
000040 89 e7 c2 3d 42 c7 b6 bd 2e 5d 93 bd c4 db e5 3d
       0.09516818 -0.08924724 -0.07195507 0.112235576
000050 d5 64 1f bd eb 07 ad bd 1d 83 bd bd 80 4c 72 3c
       -0.03891452 -0.08448776 -0.092535235 0.014788747
000060 cf be a8 3d e3 31 c8 3d 0c de a6 bd 05 df c5 3d
       0.08239519 0.0977514 -0.08147821 0.09661678
000070 d5 09 83 bd b9 2a a6 3d 46 58 b2 3d a3 8f e9 3d
       -0.0639836 0.081136174 0.08708243 0.1140435
000080 1d 9e 32 bd c9 e4 67 3d 73 26 9f bc 41 73 f2 3d
       -0.04360782 0.05661467 -0.019427514 0.11838389
000090 20 ce c3 3d 87 77 9e 3c 23 9b d9 bc 84 0c fe bc
       0.095607996 0.019344104 -0.026563233 -0.031011827
0000a0 66 f9 08 bd be 27 e2 3d 08 ca 92 bd b3 8f af bb
       -0.03344097 0.110427365 -0.07167441 -0.0053577065
0000b0 10 f2 82 bb 9b e7 c8 bd e8 db eb 3d 17 ea 9a 3d
       -0.0039961413 -0.098098 0.11516553 0.0756418
0000c0 4d c5 a2 3c a0 4b 6b 3d c5 1a ca 3c c4 8f 9d 3d
       0.019869471 0.05744517 0.024670968 0.07693437
0000d0 95 04 ef 3b 26 25 cd 3d 50 a0 11 bd 8a 22 d1 3d
       0.0072942474 0.10016851 -0.035553277 0.10211666
0000e0 38 d5 35 bd 61 06 44 3b 60 6c 89 bc d3 eb 71 3b
       -0.044392794 0.0029911029 -0.01677531 0.0036914244
0000f0 fb 31 0b 3e db e5 38 be fe f4 cd 3c d2 43 fb 3d
       0.13593285 -0.18056433 0.025141235 0.12268795
000100 18 5e 2d be 83 9c a5 bd e4 82 e6 bd 4e 8e 42 bc
       -0.16930425 -0.08086493 -0.11255434 -0.011874748
000110 a9 ec 1d 3d 30 44 41 bd 78 d1 d1 bd 6b 77 34 bd
       0.038555775 -0.04718417 -0.10245031 -0.0440592
000120 e7 f0 b3 bd bd 74 9c 3c 50 b2 fb 3c 42 e0 0e be
       -0.08786183 0.019098634 0.030724674 -0.13952735
000130 fb 09 78 bd ca 96 22 3d 80 e6 ce bd ff db 3d 3d
       -0.060556393 0.039694585 -0.10102558 0.046352383
000140 88 7d 3d 3d c0 c3 87 3d bb 7b 27 be 9c fb ca bc
       0.046262294 0.06629133 -0.16355793 -0.02477818
000150 38 0e 24 be fa 0e fd 3d a9 74 2f bd c3 f5 13 3e
       -0.16021049 0.12356372 -0.042835865 0.1444922
000160 d8 0f c1 bd 12 32 a4 bc 77 6b 84 bd 9e ba bb 3d
       -0.0942685 -0.020043407 -0.0646581 0.09166454
000170 d4 3f bb bd be ac 88 bd e1 a5 c2 3d 89 de e4 bd
       -0.091430336 -0.06673573 0.09504295 -0.11175258
000180 50 c1 d9 bd 2b 78 80 bd 1b b3 18 be 74 68 bc 3d
       -0.106325746 -0.0627292 -0.14912073 0.0919961
000190 33 c2 bb bb e0 51 6e bd c8 a4 96 3d bb 1d 7b 3d
       -0.0057299375 -0.05818355 0.07355648 0.06130765
0001a0 af e4 73 bd 46 2b 93 3d 0e 0f 97 bd 63 7b 33 be
       -0.05954426 0.07185988 -0.07375918 -0.17527537
0001b0 8d f5 d8 bc cf 49 0e 3b 0b 3a 1c bd 22 45 01 3c
       -0.026484275 0.0021711474 -0.03814129 0.007890018
0001c0 b1 e0 38 bd f4 07 66 bd ff e5 7c 3d ab 8f 19 3d
       -0.045136157 -0.05615993 0.06174278 0.037490528
0001d0 64 96 9a bd 8d fa 7d 3d e9 17 06 be 27 27 24 3d
       -0.07548216 0.062006522 -0.13095059 0.0400764
0001e0 8e e6 c7 3c dc 03 73 3d b0 7b da bd 11 79 33 be
       0.02440193 0.059329852 -0.10668123 -0.17526652
0001f0 9c 2b 3b 3d 9f 4c ef bd 78 3a 26 bb cf b0 a2 3c
       0.045695886 -0.11684536 -0.002536444 0.0198597
000200 d5 6e da bc 16 ae 68 3e ab 2b 35 be a5 a5 b3 3d
       -0.026664177 0.22722659 -0.1769244 0.087718286
000210 32 3a c3 bc 11 cf 12 be f8 7d 2d 3e 60 56 29 bd
       -0.02383146 -0.14336802 0.16942585 -0.04134214
000220 ee 52 9d bc 65 c0 0f be 05 87 e4 bc eb bd c1 bc
       -0.019204583 -0.14038236 -0.027896414 -0.02365013
000230 60 af 8b bd 3b 86 ce 3d d5 7a 0b bc 8f db 00 3d
       -0.068205595 0.10084196 -0.008513172 0.031459387
000240 6f 45 47 3d 0d 54 1c 3d a2 0a 43 bc c5 fb 94 bd
       0.0486502 0.038166095 -0.0119043905 -0.07274584
000250 67 9c aa 3d 10 3b bc bd 01 ef e0 3d 58 77 7e 3d
       0.08330613 -0.09190953 0.109830864 0.062125534
000260 da cd 43 3c d8 de df 3d 87 06 37 3c 4b ce 5b 3c
       0.011950934 0.10931176 0.01117099 0.013415883
000270 bf 7b 55 be 69 8c 99 bc 1f 93 b7 bd 9a 76 33 3c
       -0.20847987 -0.01874371 -0.08963608 0.01095357
000280 3c 57 83 be b5 ba 50 3d 2a d7 25 3d e6 60 29 3e
       -0.25652492 0.050959308 0.0404884 0.1654087
000290 a4 9c 0b 3e fb 0f 20 be ff 7d 1d 3d c5 46 2e 3d
       0.13633972 -0.15631096 0.038450237 0.04254796
0002a0 6c da b3 bc f3 bd 3b 3e f9 c8 ae 3d 52 68 0b 3e
       -0.021954738 0.18334179 0.08534426 0.13614014
0002b0 0d b3 18 3e 44 69 11 bd 9c 0f e7 3d fa 8c a1 bd
       0.14912052 -0.03550078 0.11282274 -0.07888217
0002c0 e0 e6 83 3d 6d 49 08 3e e5 5d 2e bd 69 6f b8 3d
       0.0644052 0.1330926 -0.042570014 0.09005625
0002d0 4c 97 82 3d be 46 aa 3c bf 74 e7 3c 9e fe 1c 3d
       0.06376514 0.020785686 0.028253911 0.03832876
0002e0 cc 5a 0b bc e6 7b cf 3b d0 c8 09 bd 26 43 fd bb
       -0.008505534 0.0063319085 -0.033638775 -0.007728952
0002f0 32 5c 2c 3e fd 6c e3 bd 43 07 57 3d e8 e9 d0 bd
       0.16832045 -0.11104772 0.05249716 -0.10200864
000300 5f e6 97 bd 46 88 6b 3e d6 65 a6 bd 04 ab ca bc
       -0.07416987 0.23001203 -0.081248924 -0.02473975
000310 a7 78 53 39 07 a7 67 bd 36 5a f9 bc a9 8a 1d 3e
       0.00020167475 -0.056555774 -0.030438524 0.15384926
000320 b4 b9 34 bd 84 ee 2f bd 93 8e fc 3c 46 8b b8 3c
       -0.044122413 -0.042952076 0.030829703 0.022527348
000330 50 96 85 3d 74 7f e0 3d e1 5e 66 bd 88 d1 75 bc
       0.065228105 0.1096181 -0.056242827 -0.015003569
000340 92 69 66 bd 6c 48 db bd 7f d5 f1 3d 54 ce 14 be
       -0.056253023 -0.10707173 0.11808299 -0.14531833
000350 98 7f 8c bc 09 ea 2f 3d 7e bd 49 bc 7f 39 51 bc
       -0.017150685 0.042947803 -0.012313245 -0.012770056
000360 51 1b 82 bb 7e 15 2a be d6 6e 19 3d 31 f7 78 3d
       -0.0039705415 -0.16609761 0.037459217 0.060782615
000370 6c 6b 16 be 9c 8e 4a be ac 03 d9 3d e6 14 33 be
       -0.14689416 -0.19780964 0.105964035 -0.17488441
000380 04 a4 4f bb e5 11 05 3d 11 1d 20 bd 31 6d 43 bc
       -0.0031683454 0.03248777 -0.03909022 -0.011927889
000390 b1 2e b8 bd 61 c7 c6 bc 00 8c d2 3d fb ae 24 be
       -0.08993281 -0.024264993 0.10280609 -0.16082375
0003a0 7a 34 06 3d 88 69 78 bd ed 61 55 3c bf 07 3b bd
       0.03276489 -0.060647517 0.013023836 -0.045661684
0003b0 1f d5 24 bb 89 4c 22 3d e6 bd 11 bc 99 2e b8 3a
       -0.0025151444 0.03962377 -0.008895373 0.0014051973
0003c0 d8 3d 44 3c 42 3c 6b 3d 00 a4 bc bc 72 d7 3a bb
       0.011977635 0.057430513 -0.02302742 -0.0028509763
0003d0 15 2d 3d be 43 24 1e be 6c 90 e3 3d 1f 28 eb 3c
       -0.18474229 -0.1544352 0.11111531 0.028705655
0003e0 31 38 53 bd b2 27 68 3d 3d c4 af bd 4d ce 6f bd
       -0.05156726 0.05667848 -0.08582351 -0.058546353
0003f0 7f a4 17 3e a1 33 62 3e f6 86 c9 bd 00 6d 2d bd
       0.14808844 0.22090007 -0.09840195 -0.04234028

bias_ih_l0 f4 [384]
000000 95 c3 65 3d 23 90 56 3d e6 8c b3 3d d4 bf 2f bc
       0.056094725 0.052383553 0.087671086 -0.010726888
000010 04 02 b9 bc f8 50 21 bd bc 97 72 bc f4 c5 fb bc
       -0.022583969 -0.03938386 -0.014806684 -0.03073404
000020 4a 23 64 3c 7b 36 7d 3d 15 ef c9 bc e9 99 e8 3d
       0.013924429 0.061819535 -0.024650136 0.11357481
000030 00 55 67 3d 5b d6 0f 3c 18 23 e9 3d 08 f9 36 bd
       0.056477547 0.008779134 0.11383647 -0.04467109
000040 b7 36 89 3d 22 8f fa 3b db 61 35 3d e8 50 c9 3c
       0.06699889 0.0076464573 0.044282775 0.024574712
000050 e3 56 3a bc 3c 90 33 bd 4b 7b 83 bb 43 54 db 3d
       -0.0113732545 -0.043838724 -0.0040125004 0.10709431
000060 f5 d4 1f bc 02 ca b0 3d 45 fc b1 bc d8 a6 4e bc
       -0.009755363 0.0863228 -0.021726737 -0.012613021
000070 14 4a c2 bc 7b cc c1 bd 40 de 8b 3d cc 10 e2 bc
       -0.023716964 -0.0946283 0.068295 -0.0275959
000080 8b a3 46 3c 18 07 1a 3d bd 64 84 3a ac 56 22 bd
       0.012123953 0.03760442 0.0010100823 -0.039633438
000090 38 a1 e4 3d 2f d1 85 3d 86 f3 de 3c df ce 44 3d
       0.111635625 0.06534039 0.02721573 0.04804885
0000a0 8c c4 91 3c 61 a1 8a 3d 1b 93 20 bd ae 16 36 bc
       0.017793916 0.06769062 -0.03920279 -0.011113806
0000b0 c1 2f 04 bd e5 83 e9 bc 25 68 cd 3d 2f 8a c0 3d
       -0.032272104 -0.028505275 0.100296296 0.094013564
0000c0 f5 1c 98 bc 70 8f 17 bc da 72 92 bd f6 a1 a8 bc
       -0.018568495 -0.009250507 -0.071508124 -0.020585041
0000d0 4d 1c d1 ba 58 9b e7 3c a2 b7 1d bd 65 9e a3 3d
       -0.0015953869 0.028272316 -0.038505204 0.07989196
0000e0 f2 9e 72 bc 2c b1 32 3c a6 01 6a bd 44 8d 39 bd
       -0.014808403 0.010906499 -0.05713048 -0.045300737
0000f0 85 44 e2 bc ea 2d fd 3c 60 d3 b2 3c 64 8e c1 bc
       -0.027620563 0.030905683 0.021829307 -0.023627467
000100 a7 99 ba 3d 1e 38 9b 3d 5c fa 05 3d 44 d0 e4 bb
       0.09111338 0.07579063 0.032709464 -0.006982835
000110 2e db a0 bc 62 5c fe 3b f5 fe 58 bd 7d 00 c6 3c
       -0.019635763 0.0077624777 -0.05297752 0.024170155
000120 45 df 65 3d 1f 5f 83 3d 3c 01 af 3d 27 6c 7a bb
       0.05612113 0.06414627 0.08545157 -0.0038211436
000130 32 37 d0 3d dc 5d 47 3c 1e 80 09 3d 88 59 86 3d
       0.10166778 0.012168374 0.033569448 0.065600455
000140 ba c5 cd 3d 1f 0c 28 bd af d7 fb 3d 36 ea db 3d
       0.10047479 -0.041027185 0.12296998 0.107380316
000150 c1 18 0a 3e bb 08 16 3e fd d2 75 3a b7 47 b0 3d
       0.13486005 0.14651768 0.0009377448 0.086074285
000160 cb ab 20 3e d2 8a 8a b9 cf 50 7b 3d 31 7d 87 bd
       0.15690534 -0.0002642484 0.061356362 -0.06615675
000170 5d a6 3d bb 67 77 88 bd d4 e6 8c 3d e3 4e e2 3d
       -0.0028938272 -0.06663399 0.068799645 0.11050203
000180 a2 cb 08 3d ce 2e 90 3d 11 82 ef 3d ac 30 9c 3d
       0.033397324 0.07040177 0.1169473 0.07626471
000190 32 2c 3d 3d 93 9c 67 3d 4c f3 ad bd 81 bb c0 bc
       0.046184726 0.056545805 -0.08493671 -0.023526909
0001a0 cc 28 b9 3a 87 dc c7 bc c0 89 87 bc 51 84 c3 3c
       0.0014126538 -0.024397148 -0.016545177 0.023866804
0001b0 97 c4 7e 3c da 03 39 3d 6c 5b 5b 3d f9 de f8 bc
       0.0155498 0.04516969 0.053553984 -0.03037976
0001c0 96 56 da 3d a9 d7 7a bd 71 3e e5 3d 0e 9d 15 3d
       0.10661046 -0.061240826 0.111935504 0.036526732
0001d0 85 6a dd 3d 39 93 03 bd 90 94 4b 3d b9 b3 d5 3d
       0.108113326 -0.032122824 0.049702227 0.1043467
0001e0 bb aa 42 bd 27 80 83 3b 07 3c 55 3d e7 37 c4 3b
       -0.047526103 0.0040130797 0.0520592 0.0059881094
0001f0 44 56 a2 3d c0 50 dd bc 91 09 02 bd 4b 1c cd 3b
       0.0792661 -0.027016044 -0.031747404 0.0062594763
000200 a6 c0 07 b9 1f 7e b3 bd 42 41 08 3e c7 a7 9a 3d
       -0.0001294637 -0.0876429 0.13306144 0.07551532
000210 70 2e 70 3d 83 bd ec bd d0 26 30 bc 0e 88 40 3d
       0.058638036 -0.11559584 -0.010751441 0.04700475
000220 2f 14 a3 bd 2b c2 d5 3d c6 04 92 3d 84 b4 8a 3d
       -0.07962834 0.10437425 0.07129817 0.06772712
000230 a2 7d 45 3c e5 15 4c 3d 27 9a a9 bd 02 91 3f 3d
       0.012053879 0.049825568 -0.08281355 0.04676915
000240 84 8a 35 3d 37 a9 f9 3c 7b ca bf 3d 5c eb 53 bd
       0.044321552 0.030476196 0.09364792 -0.051738128
000250 b8 b9 1d bb 28 fe 84 bc e2 94 93 3c ca b4 28 bd
       -0.0024066996 -0.016234472 0.018015329 -0.04118804
000260 5e fb ad 3c 57 4c 11 3d 80 42 a5 bd 4c bd bc 3d
       0.021238025 0.035473194 -0.080693245 0.09215793
000270 2a 21 a8 3d b8 c4 df bc 86 7b 5b bd 88 ff 24 3b
       0.082094505 -0.027315482 -0.053584598 0.0025176723
000280 d0 0f 83 3d 09 4a 13 be 29 ca 8b 3d fb a3 2e 3d
       0.063995 -0.14383711 0.06825668 0.042636853
000290 48 1a de bd 9b 13 5c bb 90 ed 13 bd 79 e8 74 bc
       -0.108448565 -0.0033581022 -0.03611523 -0.014948004
0002a0 3b 5e 10 bd 7d 99 47 bc 67 c8 08 bb a8 53 60 3d
       -0.035246115 -0.012182591 -0.0020871402 0.05476728
0002b0 e2 ce 14 bd ce b8 b1 bd e7 d6 dd bc 6f be d1 3c
       -0.03633011 -0.08677827 -0.027080012 0.025603501
0002c0 ee 0b 74 ba 7a 59 fc bd 16 d6 9c 3b 5d a0 3d 3c
       -0.0009309639 -0.12321754 0.004786263 0.011573878
0002d0 67 23 d6 b9 71 5a 0d bd d6 be 84 bd 7e 40 81 bd
       -0.00040843638 -0.03451008 -0.064817116 -0.06311129
0002e0 d7 19 24 3d 36 34 6d bd 9e 4d 13 3e c4 21 f1 3a
       0.040063705 -0.05791112 0.14385077 0.0018396904
0002f0 50 56 8b 3d dd 72 07 3e 69 27 34 bd 0f 3c 09 3d
       0.06803572 0.1322741 -0.043982897 0.033504542
000300 aa db f8 bd 13 7d 0a 3e 99 1c 8d 3c 64 71 b8 bd
       -0.121512726 0.13524275 0.01722555 -0.090060025
000310 6f 1c a0 3c 1c d4 a2 3c 5f a0 8b 3d 78 d8 39 bc
       0.019544808 0.019876532 0.06817698 -0.011343114
000320 2e cf 89 bd 8e c0 ec 3d f4 e7 46 bd 59 00 f1 3d
       -0.067289695 0.115601644 -0.04856105 0.117676444
000330 56 a9 b6 3d 4a 5c 0a 3b e6 af 49 bd 6d 94 f5 bb
       0.08919017 0.0021112137 -0.049240015 -0.0074945004
000340 ae 3b 6a 3c a3 62 bf bc 8c 09 78 3c 97 ae 91 bc
       0.014296455 -0.023362463 0.015138995 -0.017783446
000350 18 5c 20 bd 99 40 c8 bd f0 13 fa 3c cd 44 ca bc
       -0.039150327 -0.09777946 0.030527085 -0.02469101
000360 fb f9 ca bd 1c 8e 1b 3e 09 4a 9d bd c7 7a d4 ba
       -0.09910961 0.15190929 -0.07680137 -0.0016210907
000370 b7 9d c7 3b e1 8e de bc d0 78 9d bd b4 32 89 bd
       0.006091799 -0.02716774 -0.07689059 -0.06699124
000380 d4 9c cd 3c 3b 33 a1 3d 36 c0 11 3e 13 d9 a2 3d
       0.025099196 0.078710996 0.14233479 0.0795156
000390 e8 41 55 3c 18 5f 91 bd ab dc 9d 3c ea 5b 9a bd
       0.013016202 -0.07098216 0.019270262 -0.075370625
0003a0 ed 3b b2 3d 17 3d c9 3d ed 5e bf bd bf 91 a3 bc
       0.08702836 0.09826105 -0.093442775 -0.019966958
0003b0 ea 33 6e 3d f4 e8 40 bd f5 d2 30 bd b1 71 b8 3b
       0.058154978 -0.04709716 -0.043169934 0.0056287874
0003c0 03 7d 99 3d f4 b3 58 3d 49 dc bc bd 45 d0 4e 3d
       0.07494547 0.05290599 -0.092217036 0.05049159
0003d0 4d 27 e6 3d bc 7e e7 3c 5e bb 8d 3d d9 98 17 38
       0.11237965 0.028258674 0.06920503 3.6143556e-05
0003e0 d9 06 97 bd c5 d8 e5 3d 9d 83 16 3d e8 6e 0f 3b
       -0.07374353 0.11222986 0.03674661 0.0021886174
0003f0 27 fa 69 3c da cd 27 3d 26 c0 30 3d e9 1a a7 3d
       0.014280832 0.0409678 0.043151997 0.081594296

bias_hh_l0 f4 [384]
000000 22 a8 83 3c cf 46 08 3d 03 6f 28 3d 85 3f eb 3d
       0.016071383 0.033270653 0.041121494 0.11486725
000010 79 f5 fa bc 25 4f d5 bd f6 58 b5 bc c9 f0 f3 bc
       -0.030634629 -0.10415486 -0.022137146 -0.029777901
000020 3d 2d 8b 3c d3 75 4f bd a5 16 8c 3d 91 7e a3 bb
       0.016989345 -0.050649475 0.068402566 -0.004989453
000030 5e 02 1e 3a a0 f4 07 3e 86 0b a8 3d c3 2e bd 3c
       0.00060275744 0.13276911 0.08205323 0.023093587
000040 b0 d0 b2 3d a3 c5 56 3d 86 23 32 3d 66 81 8f bd
       0.0873121 0.052434575 0.04349091 -0.07007103
000050 a1 89 e2 bb 48 1d 8a 3d 65 c9 f3 ba a0 b1 c2 bb
       -0.0069133793 0.06743866 -0.0018599449 -0.0059415847
000060 70 43 b4 3d 2d 3d a3 bd 69 ea 14 3d 33 f2 84 bd
       0.08801925 -0.07970653 0.036356363 -0.06491508
000070 4a 65 9b 3d 18 75 56 3d a4 b9 8c 3d c4 ae c9 3d
       0.07587679 0.052357763 0.06871346 0.09847787
000080 39 5d e0 bc 75 e1 06 3c 38 cc 44 3d fe ae 56 bc
       -0.027388202 0.008232464 0.04804632 -0.013103245
000090 10 0d b2 3d 2f 7e c4 bb 24 79 45 bd 71 81 84 3d
       0.08693898 -0.0059964876 -0.04821123 0.064700015
0000a0 4f 35 d8 bc 63 57 00 3d 50 a3 f2 bc ce 2a 22 3a
       -0.026392607 0.03133334 -0.02961889 0.0006186188
0000b0 01 78 73 3d f8 9f c5 3d 13 6a 6a 3d 1f 5a 80 bc
       0.059440617 0.09649652 0.057230067 -0.015667973
0000c0 07 fb b7 bc 88 f9 b2 bc c6 d7 9c bd 9a 97 b7 3d
       -0.022458566 -0.021847501 -0.07658343 0.089644626
0000d0 fd c1 00 be 21 79 6a 3d 78 3e c9 bb ec f5 ac 3c
       -0.12574 0.057244424 -0.00614148 0.021113358
0000e0 cd fc 35 bd c3 8a 88 bc 7d 60 37 3d 1a 4e 09 bd
       -0.044430543 -0.01666773 0.044769753 -0.03352175
0000f0 24 57 f6 3d 4c 2c b1 3d 36 7f 51 3a a8 9a e4 3d
       0.120283395 0.08651027 0.0007991673 0.11162311
000100 71 5a 36 3d 38 42 1a bd 72 ff 01 3e 2c 11 4c bd
       0.044519845 -0.037660807 0.12695101 -0.049821064
000110 42 12 f9 3c 93 e5 66 3d f0 54 7c bd 43 27 a7 bd
       0.030404214 0.056371283 -0.06160444 -0.081617855
000120 92 fd fa 3d df f8 3b 3d 60 82 18 3e 0c e2 43 3d
       0.12255396 0.04589164 0.14893484 0.047822997
000130 02 ad b5 3d e9 46 5d 3d 8b e6 22 3d f7 2d 43 bc
       0.08870889 0.054022703 0.039770644 -0.011912814
000140 71 e0 da 3d 33 74 e1 3d 93 70 f6 3d f1 a0 4d 3d
       0.1068734 0.11008491 0.120331906 0.050202314
000150 0e 99 cb 3d 0c 79 db 3d 34 e4 68 3b a2 87 39 bc
       0.09941302 0.10716447 0.003553641 -0.011323841
000160 36 e6 01 3e 48 16 b1 3d 80 4d bf bc c6 12 17 bb
       0.12685475 0.08646828 -0.023352385 -0.0023051961
000170 a8 76 2c bd 9a 17 21 bd 5a af 84 3d 73 72 88 3d
       -0.042105347 -0.03932915 0.06478758 0.066624545
000180 a1 78 aa 3d ce 73 9e 3d 9f 37 ea bc b3 b6 70 3d
       0.083237894 0.07736932 -0.028590975 0.058767986
000190 56 4d 93 bb 0f 57 9b 3d b2 99 c2 bd a0 d6 06 3c
       -0.004495303 0.075849645 -0.09501971 0.0082298815
0001a0 fa b7 1f 3d 68 81 a0 3d 18 cd f6 3d b8 5d 86 bd
       0.038993813 0.07837182 0.12050837 -0.06560844
0001b0 9e 5c 0f 3e 08 22 b5 3d 06 4d 27 bd 52 99 af 3d
       0.14000174 0.088443816 -0.04084494 0.085741654
0001c0 0f b1 95 3d 82 1d 45 3d 84 dc 09 3e da cc 05 3e
       0.07309162 0.048123844 0.13463026 0.13066426
0001d0 c8 c1 99 bb 42 3b a6 3d 79 79 52 bd e4 7b 98 3d
       -0.00469229 0.08116771 -0.051385377 0.07445505
0001e0 9a 36 51 3d 00 0e 5c 3d fc d6 11 3e d8 ef 12 3d
       0.051077463 0.05372429 0.14242166 0.035873264
0001f0 de 5f 0b bd 24 bf 83 3d 65 5f 60 3d 17 71 19 bd
       -0.034026973 0.064329416 0.054778475 -0.037461367
000200 63 22 bb 3d 2c 59 66 bd 72 64 ad bc db 8c d6 3d
       0.09137418 -0.056237385 -0.02116606 0.10476085
000210 5a 86 08 bc 57 af 21 be 19 51 0d 3e 8a 0d 85 bd
       -0.008332813 -0.15789543 0.13800468 -0.06496723
000220 42 a9 0c 3d 3f 3a 2e bd 44 ff c6 ba 1a e2 df bc
       0.034341104 -0.042536017 -0.0015182276 -0.027329493
000230 f2 bf 4f 3d 5e 87 6d bc 7e d5 73 bc 10 24 cc bc
       0.050720163 -0.014497606 -0.0148824435 -0.02491954
000240 48 ea 85 bd c4 45 8b 3d cd 19 cf 3d 6a 67 dd ba
       -0.06538826 0.06800416 0.10112343 -0.0016891782
000250 3c 01 01 bc 39 72 45 3d c3 28 05 bd e2 87 9f bd
       -0.007873829 0.048204634 -0.032509577 -0.077895895
000260 09 f0 56 3d ee 97 15 3d e5 3c 46 3c 8d 08 22 3d
       0.05247501 0.036521845 0.012099479 0.039558936
000270 13 df e9 3d 52 6f 98 3d 46 c8 87 bd 86 02 d6 3d
       0.11419501 0.07443108 -0.06629996 0.104497
000280 aa 02 90 3d b0 34 a0 bd 4e 8d 72 3d 70 3d cc bd
       0.07031758 -0.07822549 0.05921679 -0.09972656
000290 2d 94 84 bd 2d d6 99 3d e0 bd fc bd b4 32 75 3c
       -0.06473575 0.07511554 -0.12340903 0.014965702
0002a0 e5 66 41 bd 67 aa 07 3e 4a fb 8c bd d1 be a8 bc
       -0.04721727 0.13248597 -0.06883867 -0.0205988
0002b0 03 0e 05 bd 60 23 d5 bd 5b 0d 37 3d 77 31 ef 3d
       -0.032484066 -0.10407138 0.04469047 0.116793565
0002c0 c2 83 60 3c 7f be f9 bd e9 73 01 bd 9c 39 a5 3c
       0.0137032885 -0.12194537 -0.03160468 0.020169072
0002d0 d8 4f 03 3d 5c cb 1b 3c 97 ad c7 bd a7 ab 23 bd
       0.032058567 0.009508934 -0.097499065 -0.039958622
0002e0 b0 6b ef bc f9 c8 e2 bc ad 1d ee 3d a4 52 8c 3d
       -0.029226154 -0.027683722 0.11626754 0.068517
0002f0 42 4f 6b bb 8a 3c 23 3e 7a 41 8f 3d 33 0d 1b bd
       -0.0035905396 0.15941063 0.069949105 -0.037854385
000300 ae 6c d1 bd 52 20 33 3d 54 d5 de 3c a6 2f 0c be
       -0.10225807 0.043731995 0.027201332 -0.13690051
000310 88 50 9d 3c 0f 35 84 bd 18 0c 3f 3d 0a 0b b3 bd
       0.01920344 -0.064554326 0.046642393 -0.0874234
000320 84 7d 6a bc 4f 1b 98 bc 67 14 94 bd 77 94 9b 3d
       -0.014312152 -0.01856771 -0.07230454 0.07596677
000330 c7 c2 3e 3d d5 7d 1c 3e 7e 9f f6 bd ad 93 c6 3c
       0.046572473 0.15282376 -0.120421395 0.02424034
000340 72 bd a6 bd de 38 65 bc ca 8e 3e 3c 28 a2 c1 3b
       -0.081416026 -0.013990609 0.011630723 0.005909223
000350 8d f8 21 bd 07 68 ef bc c4 d3 0a 3d e3 2f f8 3c
       -0.039543677 -0.029224409 0.03389336 0.030296272
000360 7a c1 a3 bd 37 2a 2e 3e 52 c1 81 3c ef 4e 5c bc
       -0.07995887 0.17008291 0.015839253 -0.013446554
000370 07 67 35 3d e6 e4 79 bd 0c 9a a5 3d 06 a6 c5 bc
       0.044287708 -0.06100931 0.08086023 -0.024127018
000380 65 53 7e 3c 64 2c 96 3d cd 41 05 3d c3 c8 4f 3d
       0.0155228125 0.073326856 0.032533456 0.05072857
000390 68 9b 20 3c d3 e1 a3 bd a2 77 b6 3d e0 19 b0 3c
       0.009802677 -0.08002057 0.08909537 0.021496713
0003a0 dc e1 a6 3d ad b8 15 3d c6 8b 9b bd 75 0e 1e 3c
       0.08148548 0.036553074 -0.07595019 0.0096470015
0003b0 86 67 a1 3d e4 72 ee 3c b1 d4 46 bc f1 fa 66 bd
       0.07881074 0.029107518 -0.0121356705 -0.05639166
0003c0 7e 74 18 3e f7 f8 c5 3d bd 22 91 bd 9a 9f a4 3d
       0.14888188 0.09666627 -0.07086704 0.08038254
0003d0 0c cd 7c 3d cd 26 89 bd 3a 32 91 3d b8 b7 6a 3d
       0.061718985 -0.06696854 0.07089658 0.057304114
0003e0 e9 a6 41 bd 11 1c 8d 3d dc ae 01 3d 0a 66 01 3e
       -0.04727832 0.06890119 0.0316609 0.12636581
0003f0 53 80 f4 3c 10 3b 42 3d 9d ab ee 3d e0 9d 33 ba
       0.029846346 0.047419608 0.116538264 -0.00068518333

weight_ih_l0_reverse f4 [384, 32]
000000 7a e4 03 3b 3b a9 28 3c 76 0e 2d bc 1b 19 29 bb
       0.0020125196 0.010294254 -0.01056253 -0.0025802318
000010 d9 32 a6 bb ac 4c 3b 3d 72 ed b6 bd 85 3d 65 3c
       -0.0050719795 0.045727417 -0.08932008 0.013991718
000020 73 44 cc bd 08 05 09 3b 86 df 3f bd db 4f 01 3e
       -0.09973993 0.002090754 -0.046844028 0.12628119
000030 3a 8d 66 bc d5 00 d1 3d 70 0e b0 bd f5 82 bc 3c
       -0.014071757 0.10205237 -0.08596504 0.023011664
000040 24 b7 64 3b b0 0e 0b bd 4b 4d 2b bc e5 29 71 3d
       0.00348992 -0.033949554 -0.01045544 0.058877844
000050 d3 3c c5 3c ef bb 0e 3d 06 a8 cd 3d 58 17 22 3d
       0.024076855 0.034847196 0.100418136 0.039573044
000060 71 09 d9 3c f9 7b 6f 3d d2 d0 1c 3e 4d 70 d3 3d
       0.02649376 0.05846784 0.15314034 0.10324154
000070 58 44 00 3e 10 a7 24 3e 71 b0 5d 3d 85 16 1b 3e
       0.12526071 0.16079354 0.054123346 0.1514531
000080 1c 70 04 be ed 13 b1 bc e1 52 ac 3d 25 6d ab 3c
       -0.12933391 -0.021615947 0.084142454 0.020926068
000090 d6 06 70 3d 46 24 39 bd 24 b4 d7 bd 74 54 2c 3e
       0.05860027 -0.04520061 -0.10532406 0.16829091
0000a0 fa 2f 02 bd 2a 27 5b bd 4c db 97 3d f4 ab df 3c
       -0.031784035 -0.053504147 0.074148744 0.027303673
0000b0 61 9b 3c bd ea 28 17 be 79 03 c4 bc eb 22 ac 3d
       -0.04604662 -0.14761701 -0.023927437 0.084050976
0000c0 dd 01 ce 3c 2e 73 d3 bd d7 8c 0a be 32 a5 96 bd
       0.025147373 -0.10324703 -0.13530289 -0.07355727
0000d0 19 f1 9c 3d 58 22 46 3d 27 f5 3a 3e 24 62 0f 3e
       0.07663173 0.048372597 0.1825758 0.14002281
0000e0 00 80 12 3e b9 4a 63 3d 32 e7 d9 3c 99 a3 fe 3d
       0.1430664 0.055491183 0.0265995 0.124335475
0000f0 0e e7 07 3e 86 1e 85 3d 26 b5 c3 3c af 8c 79 3d
       0.13271734 0.064999625 0.02389009 0.060925182
000100 61 40 06 3d 6b 63 39 bc 6b f7 fe 3d 58 7c af 3d
       0.03277624 -0.011315207 0.12449535 0.085686386
000110 5c 30 54 bd f3 c8 bf 3d 3f 3f b5 bd 7c 60 a0 bc
       -0.05180393 0.093645 -0.08849954 -0.019577257
000120 a5 af 38 3e 4d b8 33 bd 5d 2f 73 bd 52 7e 2b 3c
       0.18035753 -0.043876935 -0.05937134 0.010467129
000130 2f 2f 27 3d 79 2d 33 bd 78 73 17 be 9c 53 e7 bc
       0.040816482 -0.043744538 -0.14790142 -0.02823811
000140 5b 18 4a bd 4f 77 da 3d 6a a2 6f 3d c2 cc e5 bd
       -0.049339633 0.106672876 0.0585045 -0.11220695
000150 88 3a 53 3d b5 6f 12 3d 5b d9 81 3c e3 4f 3c 3d
       0.05156949 0.035751063 0.015850713 0.045974623
000160 62 d3 2d bd 6b 7a c7 bc 93 e9 10 3e e3 d0 49 bd
       -0.04243792 -0.024350366 0.14151601 -0.049271476
000170 d6 6d 25 3c 6c ad 0d 3d c1 ae 05 3e 47 47 a4 bc
       0.010096988 0.034589216 0.13054945 -0.020053519
000180 a0 25 8b 3d c4 a2 bb bd a2 d4 80 bd d7 82 c3 3d
       0.06794286 -0.091619045 -0.062905565 0.0954644
000190 02 ff 12 bd 93 af 4d bd c0 0b 3d 3d 6e bc d5 3d
       -0.035887726 -0.05021627 0.046153784 0.10436331
0001a0 c6 ed 7f 3d 0f 06 2e be d9 0f b5 3c 6c fd 09 3e
       0.062482618 -0.16994499 0.022102283 0.13475579
0001b0 9d 07 20 be 0a e6 06 3d 49 91 01 3d 97 86 43 3c
       -0.15627904 0.032934226 0.031632695 0.011933944
0001c0 8b 5b 2d bc 09 83 77 3c b6 06 25 3d b3 3c 91 3d
       -0.010580908 0.015106925 0.040289603 0.070916556
0001d0 77 80 09 3e 90 11 48 3e fa 75 a0 3c bd da 16 3e
       0.13427912 0.1953795 0.019587506 0.1473188
0001e0 50 12 22 3e 71 df db 3d 47 a3 38 bc 99 90 b1 3d
       0.15827298 0.107359774 -0.011269397 0.08670158
0001f0 be db 25 3e 9d 9c 44 3d 1e 32 ac 3d f3 6d 3b 3e
       0.16197106 0.04800092 0.084079966 0.18303661
000200 86 c1 06 be 6f 2b ee bd 6d 52 06 3e b1 cf f9 3d
       -0.13159761 -0.11629378 0.1311738 0.12197817
000210 6d 84 93 3d e0 5a 63 bd 19 0f ce 3c 7c 9a 79 3d
       0.072029926 -0.055506587 0.025153683 0.060938343
000220 23 68 4f 3d ff 2c 39 bd 21 75 e0 bd 65 aa 2b 3b
       0.050636422 -0.045208927 -0.109598406 0.0026194092
000230 ab 11 05 bd 52 7c 96 bc fb bf 49 3d 33 4d 45 bb
       -0.032487553 -0.018369827 0.049255352 -0.0030105829
000240 80 3c d1 3c 0e 49 bb 38 ca 71 61 bd 95 0b 06 bd
       0.025541544 8.930462e-05 -0.05504016 -0.03272589
000250 18 6f c4 ba 92 05 d2 3d 57 e3 db bc 10 90 28 3d
       -0.0014986722 0.10254969 -0.026841803 0.041153014
000260 f9 08 4d bc a0 19 74 3d b6 c5 22 3e 95 c3 f2 3c
       -0.012514346 0.05959475 0.15895733 0.029634276
000270 84 7f c7 bb f4 72 b9 3d 5c d9 2d 3c 40 5e 6b 3d
       -0.006088199 0.09055129 0.010610905 0.05746293
000280 0e 79 eb 3c 1c ce 8f bd 4a 14 60 3d f5 44 eb 3d
       0.028744247 -0.07021734 0.05470685 0.11487762
000290 f0 94 ca bd d2 0e f8 3d fa 77 f0 3d 12 15 43 bd
       -0.09891689 0.12112202 0.11741634 -0.047627516
0002a0 90 37 e9 bc 89 3c 22 3c 22 9d 27 be 0d bb e6 3d
       -0.028468877 0.009902128 -0.16368535 0.11266146
0002b0 f0 89 95 3d 88 9f 74 3c a4 f7 4b 3d b4 02 ce 3d
       0.073017 0.014930613 0.049796715 0.10059109
0002c0 1c 91 8a 3d 3e bd 52 3d 24 af 5a 3c 1c 3d 29 bd
       0.06765959 0.051450007 0.013347421 -0.041318044
0002d0 37 8f d4 3d 97 d9 46 bd 38 2b 42 bc 64 9a cf 3d
       0.103788786 -0.048547354 -0.011851124 0.101368695
0002e0 2c 18 1e bd 84 e2 45 3d b5 4f 80 3d fc 19 fd 3d
       -0.03859727 0.048311725 0.06265203 0.12358472
0002f0 ea 54 51 3d 1c 8f 43 3e d4 c8 03 3d 48 79 cd 3d
       0.05110637 0.1909756 0.032173946 0.10032898
000300 2b cf 81 bd 20 3d 03 bd ef c0 40 bc 4a 68 46 3d
       -0.06338342 -0.032040715 -0.011764749 0.0484393
000310 42 a3 a6 bc 60 fe 59 3d 5c 0f 0f 3e cf c4 21 3e
       -0.02034152 0.053221107 0.13970703 0.15797733
000320 e8 90 a6 3d cc 8f 07 3e b4 79 06 be 60 4d c9 bd
       0.081331074 0.13238448 -0.13132364 -0.09829211
000330 49 94 a9 3d c0 1f 68 bd 84 cd 17 3e 13 cb 00 3d
       0.08280236 -0.056670904 0.14824492 0.031443667
000340 c3 59 43 bc bc c7 2b 3d 07 9d 89 bb 1f eb 14 be
       -0.011923256 0.04193853 -0.0041996273 -0.14542817
000350 13 c5 e5 3d 9a 39 f6 3d d2 e9 16 3e d8 a7 02 3e
       0.112192295 0.120227054 0.14737633 0.1275934
000360 23 a8 64 3d 49 c4 4c 3d 13 3f 8f 3d 96 14 07 3c
       0.05582441 0.04999188 0.06994452 0.008244654
000370 bb 2e e0 bc 5f 5e 75 3d 26 eb ca 3c 1b 92 03 3d
       -0.027366033 0.059904452 0.02477033 0.03212176
000380 cf be 13 bd 6e b0 f3 3d 28 9d ac 3c d7 ac 3e 3d
       -0.03607064 0.11898886 0.021071032 0.04655155
000390 56 a1 a9 3d 11 4a 2a 3d 6d 46 d9 bd 2b 8f 84 3c
       0.082827255 0.04157454 -0.10609136 0.016181549
0003a0 2b cd 9e 3d 3e 70 63 3c f4 87 a0 3c 70 a5 88 bd
       0.077539764 0.013881741 0.019596078 -0.0667218
0003b0 a6 58 b1 bd f8 60 b9 bd 9a 91 eb bd 87 fb 32 3d
       -0.086594865 -0.090516984 -0.11502381 0.043696906
0003c0 25 6b 37 3d 1e ef b1 bc 99 2a 2d bd b8 fc 2f b9
       0.044779915 -0.021720465 -0.042276952 -0.00016783446
0003d0 df 13 05 3d 62 24 04 bd d9 a0 de 3d f4 57 35 bc
       0.032489654 -0.03226126 0.10870523 -0.011068333
0003e0 8d 0f 42 3d 1c b7 00 3d 14 2f 11 3d 7f 86 2f 3e
       0.04737811 0.031424627 0.035445288 0.1714115
0003f0 c3 32 33 3c ca b5 43 bd ec b5 c7 3d ee 14 a7 3c
       0.0109373955 -0.04778079 0.09751496 0.020395722

weight_hh_l0_reverse f4 [384, 128]
000000 38 64 14 3e 5a 87 6d 3d ba 02 af bd 39 5b 8f bd
       0.14491355 0.05799041 -0.08545442 -0.06999821
000010 4d 2e 60 bd bc 8a e2 bd 3b 39 d3 3d f7 99 c1 3d
       -0.054731656 -0.11061618 0.1031365 0.094531946
000020 39 7e 0b 3e ac f5 01 bc bb c8 c6 bd 23 7a 61 bc
       0.13622369 -0.007932108 -0.09706255 -0.01376203
000030 de 7c 80 bc f1 35 80 3d 38 b6 e0 3c e5 57 b3 3d
       -0.015684541 0.062602885 0.027430639 0.08756999
000040 b1 e4 86 3c b4 66 c0 bd 58 01 45 3d 9d 1c 83 3d
       0.01646647 -0.09394589 0.048096985 0.06401942
000050 e2 c2 5a bb dd 52 80 3c af e9 58 bd f3 b8 68 3d
       -0.003338032 0.015664512 -0.052957233 0.056817006
000060 a2 a2 f3 bd 3d 6f 8f 3d 63 69 17 bc dd 0c a5 3c
       -0.11896254 0.07003639 -0.009241435 0.020147735
000070 e5 82 2b bd 52 92 0b 3d dd 6a 9c 3d 1b bd cb bd
       -0.041872878 0.03407509 0.0763757 -0.099481784
000080 d3 17 33 bd bc 07 93 bd 4c 6a 87 3c f0 ea cd 3d
       -0.043723892 -0.071792096 0.016530178 0.100545764
000090 89 75 86 3d ce b9 86 3c f1 e4 89 3d 52 59 fc bc
       0.06565387 0.01644602 0.0673312 -0.03080431
0000a0 4c 17 57 bd 62 33 b9 3d b5 04 eb 3d 0a 0d 9c 3c
       -0.052512452 0.090430036 0.11475507 0.019049186
0000b0 ac d6 58 3d 89 85 02 bd 14 a2 d8 bb f3 8b 9c 3b
       0.052939102 -0.03186563 -0.006611118 0.0047774254
0000c0 48 55 8f bd 9d 28 ec 3d 48 c7 af bd 65 d8 7b 3d
       -0.06998688 0.11531184 -0.08582932 0.061485667
0000d0 4a 9f 3b bd 5b 0b a8 bb 4e 1a 2c bd bf 1a 2d 3c
       -0.045806207 -0.005128307 -0.042017274 0.010565459
0000e0 71 b6 b9 3b 79 4a e5 bb 9d 10 1f bd 47 cd f7 bc
       0.0056675007 -0.006997403 -0.038834203 -0.030249251
0000f0 ff d5 92 3c 96 db 07 bd fc 70 43 3c ca 57 d3 3c
       0.017924307 -0.033168398 0.011928793 0.025798697
000100 e2 ec 89 bd 74 c6 5f 3d a6 fa 99 bd fe 75 d7 bc
       -0.06734635 0.05463262 -0.075185105 -0.02630138
000110 d0 80 09 bd b8 44 dc 3d 5d cf ee 3c d5 89 1a bd
       -0.03357011 0.107552946 0.029151613 -0.037729103
000120 e2 65 01 3e d5 3b e1 bd 0d 02 1b bd c3 24 ba bd
       0.12636521 -0.1099774 -0.037843753 -0.09089043
000130 ce 2b 22 bd 2d 5e 30 3d 46 09 04 3e 75 cf 32 bd
       -0.039592557 0.043058563 0.12894163 -0.043654878
000140 65 5f 70 3d 69 0d de 3d ec e1 39 bd df 25 83 3d
       0.058684725 0.108424015 -0.04538147 0.06403708
000150 30 1b e1 3c 43 76 be bd 1e 34 e1 3c 43 c3 f6 bc
       0.027478784 -0.092999004 0.027490672 -0.030122405
000160 99 0b 92 bd 2b 00 a6 bd fc a7 74 3d 47 a5 a7 bb
       -0.07131118 -0.08105501 0.059730515 -0.005116138
000170 64 d6 12 3c d0 d4 ad 3d 5c 5d 83 bd 89 86 2d bd
       0.0089622475 0.084878564 -0.06414291 -0.04236463
000180 35 8f 84 bb cf fc 24 bd 1a 5e 18 bc b3 81 4c bd
       -0.004045392 -0.04028016 -0.009299779 -0.04992838
000190 d3 a2 6b bc db 0a 4a 3d 85 10 2a bd 24 0c fb 3d
       -0.014382082 0.04932676 -0.04151966 0.12258175
0001a0 c5 c4 bf 3c e2 58 f9 bd 48 eb e6 bc b0 23 43 3c
       0.023409257 -0.12175156 -0.028188363 0.011910364
0001b0 89 5f 84 bd 96 d7 ea 3c ff b5 9a 3d 9b b9 9e bc
       -0.064635344 0.028667253 0.07554244 -0.019375613
0001c0 b0 31 c5 3c 0f d3 08 3e ca 02 a2 bd 02 97 f9 3d
       0.024071544 0.13361762 -0.07910688 0.121870056
0001d0 70 97 dd 3d a4 a4 43 3c dd e4 33 bd 64 7f 51 bd
       0.108199 0.011941109 -0.043919433 -0.05114688
0001e0 84 ef 8e 3d 06 79 dd bd a1 91 46 3d ae 5e 96 bd
       0.06979278 -0.10814099 0.048478726 -0.073422775
0001f0 8c 00 1f 3b 94 b2 17 3d eb 0e 67 3d 8a 85 c4 3d
       0.00242618 0.03703554 0.05641071 0.09595783
000200 e6 54 37 3d 03 65 99 3c ef ff 3d be 67 a9 b4 3d
       0.0447587 0.018724924 -0.18554662 0.088213734
000210 6e 30 8b bc 9c a0 23 be 4a 9a d5 bd 05 8c e5 3c
       -0.016990867 -0.15979236 -0.10429819 0.028020868
000220 06 95 ad 3d 58 28 65 3d 3e b0 32 bd 50 63 4b 3d
       0.084756896 0.055946678 -0.04362511 0.04965526
000230 f9 b2 d5 bd 93 78 e7 3d 76 89 95 3c 71 e3 f3 3d
       -0.10434527 0.113022946 0.018254023 0.119086154
000240 15 0d a5 3d 27 6e 14 be 81 91 84 3c cc 57 37 3d
       0.08059136 -0.14495145 0.016182663 0.044761464
000250 a2 3d c1 bc 47 76 06 3d 6e 8d f7 3d bf dc e0 bb
       -0.02358896 0.03282764 0.120875224 -0.0068622525
000260 55 de e8 bd 88 94 fb 3d 7c 47 a9 bc 08 43 f6 3d
       -0.113705315 0.122841895 -0.02066397 0.12024504
000270 61 16 0f be 38 26 10 3e bd 83 0c 3d a9 df 3f 3e
       -0.1397338 0.1407708 0.034305323 0.18737663
000280 cf 4e 08 3d f4 d3 1e 3c c4 de 01 bc 62 84 03 bd
       0.033278283 0.009694088 -0.007926647 -0.032108672
000290 fa cb 77 3d 8f e7 ef 3c 22 6d 2b be 0b 3a ce bd
       0.06049726 0.02928522 -0.1674085 -0.100696646
0002a0 8e 4b 0f 3d 4b 73 43 bc 5f d6 77 3d 4b a9 37 3e
       0.034984164 -0.011929343 0.060507175 0.17935674
0002b0 7e f6 8d bd b0 ac 34 bd d4 40 cd 3d 13 28 20 3e
       -0.0693178 -0.04411 0.100221306 0.15640287
0002c0 d6 0f b8 bc b2 21 e7 3c 4c 34 dd bc 84 5b a2 3d
       -0.022468489 0.02821431 -0.027002476 0.079276115
0002d0 89 a2 44 3d 8e 47 2c 3d 2e 00 ec 3d 32 39 09 3d
       0.048006568 0.042060427 0.11523472 0.03350181
0002e0 eb 3b de 3d 7f 0c 20 bc 2b 8a de bd b1 49 24 be
       0.10851272 -0.009768604 -0.10866197 -0.16043736
0002f0 a0 f3 9c bd 87 90 03 3c 56 61 41 bd c4 a9 85 bd
       -0.07663655 0.0080300635 -0.047211967 -0.06526521
000300 ea f6 49 3c 98 ee 19 3d c7 e8 02 be e0 69 bf 3d
       0.012326935 0.037581056 -0.1278411 0.09346366
000310 92 bb dd 3d 8b a7 57 3d 00 f2 c5 3c 8e f0 86 3c
       0.10826792 0.052650016 0.024163246 0.016472127
000320 ee b6 12 3e f0 1b 03 be 9c 85 93 bd ec 11 80 3c
       0.14327595 -0.12803626 -0.07203218 0.015633546
000330 4c 7e 65 be e4 0f 04 3e 84 74 e8 bd fd a3 ef 3d
       -0.2241146 0.12896687 -0.113503486 0.117012
000340 81 64 ac 3d 3f 1f 9f 39 74 50 e9 bd c5 29 e5 3c
       0.08417607 0.00030350123 -0.11392298 0.027974019
000350 02 92 81 bd a7 4d 09 be 71 6a f3 3c 07 bd 1f bd
       -0.06326677 -0.13408528 0.029713841 -0.03899863
000360 b8 b2 5e bd b7 be 95 3c 4f 14 be 3d 50 87 8f bc
       -0.05436966 0.018279416 0.09281217 -0.017520577
000370 4c 9d 03 be 6a 74 18 3c a8 d6 2b 3e d1 a3 d2 3b
       -0.12852973 0.009305099 0.16781104 0.00642822
000380 19 60 74 bd bf 72 3c 3d 92 db 2e 3c 2e c6 6e bd
       -0.05966196 0.046007868 0.010672467 -0.058294468
000390 57 8a b5 3c 41 c5 cc bd 60 56 21 3e e4 89 6f bd
       0.022160692 -0.09998561 0.15755606 -0.058481112
0003a0 90 b4 04 be 07 eb 21 bc 9f 7d 2a be 26 be e4 bc
       -0.12959504 -0.009882695 -0.16649483 -0.027922701
0003b0 39 9b 07 be ae f3 e3 bd 23 a2 26 bc 83 a6 b8 3d
       -0.13242806 -0.111304626 -0.010170492 0.090161346
0003c0 d5 6c bf 3d 04 48 66 bd d5 b4 d0 bc ed ed 72 3d
       0.0934693 -0.056221023 -0.025476852 0.059308935
0003d0 97 a6 87 bc 69 ee 46 3e e1 4c 20 3d c3 af b2 3c
       -0.016558928 0.19426884 0.039135817 0.021812325
0003e0 bc f3 87 3d ee 0c 18 be 54 d6 17 3e 74 eb f4 3c
       0.066382855 -0.14848682 0.14827853 0.029897429
0003f0 92 62 a2 bd d7 63 86 bd c5 95 b2 bd cc 45 1c 3e
       -0.07928957 -0.06562012 -0.087199725 0.15261

bias_ih_l0_reverse f4 [384]
000000 a0 03 0f 3c a8 7d 18 3e 57 a4 e9 3a 65 9c 70 3c
       0.008728892 0.14891684 0.0017825466 0.014685725
000010 74 a7 0a 3e 8a 02 a2 bd 65 a0 13 3d 00 27 82 3c
       0.13540441 -0.079106405 0.036041636 0.015887737
000020 70 4a f6 3d e7 e7 f9 3d e1 db f9 bc 1f 5a a6 3c
       0.120259166 0.12202435 -0.030500354 0.020306645
000030 82 2d 19 3b 2e a5 f6 bc 34 3f 07 3e f7 92 32 bd
       0.0023373072 -0.03010806 0.13207704 -0.043597188
000040 f2 44 d4 3d 55 64 36 3c ae d9 e6 3d 87 66 d3 3d
       0.10364713 0.011132319 0.11271988 0.1032229
000050 3c 41 df bc 72 87 b8 3a 32 89 22 3e d9 b0 3a 3d
       -0.027252786 0.0014078452 0.15872648 0.04557881
000060 bc 0e 4e ba a8 a1 9d bd 46 7d cf 3b 55 db 86 3d
       -0.0007860472 -0.07696849 0.0063320724 0.06584803
000070 79 be 8b 3c f3 13 2e bd 23 76 9a bc 43 b9 36 3e
       0.017058598 -0.042499494 -0.01885516 0.17844109
000080 37 44 ba bd 07 9e f2 bc 4b 2a 9c bc 5d 68 05 3e
       -0.09095042 -0.029616369 -0.019063136 0.13028093
000090 44 1f d5 3d 74 b3 eb 3d 03 12 19 3d 8b a8 d5 3c
       0.10406354 0.11508837 0.037370693 0.026081344
0000a0 a6 aa 25 bd 29 79 81 bd dd 0b b0 3c 6a c4 11 bd
       -0.040445946 -0.063219376 0.021490032 -0.035587706
0000b0 95 80 78 bc ad 28 39 3e 76 f0 83 bc f4 3b a0 bd
       -0.015167375 0.18081923 -0.016105872 -0.07823935
0000c0 da 26 58 3d d6 2c ec 3d a9 2e 08 3d bd 47 a4 3b
       0.052771427 0.11531989 0.033247624 0.0050134347
0000d0 7a e4 91 3d 64 63 b9 3c ae b9 d9 3d 0b dc 4f bc
       0.071236566 0.022630401 0.10631119 -0.01268674
0000e0 80 3b a5 3d bd 5b 29 bd 09 dc 0e bd fb 42 03 3c
       0.08067989 -0.041347254 -0.03487781 0.008011575
0000f0 e9 b3 6c 3c 8f e5 05 3e bd fe 54 3d 89 09 f5 3c
       0.014447191 0.13075851 0.05200075 0.029911773
000100 d3 9a be 3d 2d 8c 3e bc ff 7c 73 3d 40 46 0f bd
       0.09306874 -0.0116301 0.059445377 -0.034979105
000110 70 8b 92 3c 67 fe 47 3d 49 ae 4e bc 23 38 a8 bc
       0.017888755 0.0488266 -0.012614795 -0.02053458
000120 01 c3 02 3e 68 27 d1 3d 5e 35 2e bc b4 d9 99 3d
       0.127697 0.10212594 -0.010632841 0.07512227
000130 fd 8b 2b bd 2f d0 23 bd 04 46 01 bd 87 1e 3c bd
       -0.04188155 -0.03999346 -0.031560913 -0.04592755
000140 b1 42 f7 3d 9d 3f 96 3d d0 6f 85 3b 20 e2 be 3d
       0.12073267 0.07336352 0.004072167 0.09320474
000150 9f b8 b4 3d 7a ec 02 3d 98 26 f2 3d eb 86 0e 3d
       0.08824276 0.031963803 0.118237674 0.034796637
000160 02 13 a8 bb 74 a9 8c 3d b1 4e 48 3e ed f0 7e bd
       -0.005129219 0.06868258 0.19561268 -0.062241483
000170 bc 84 79 3d 0f 5a b8 3c b4 34 da bd 39 0e aa 3b
       0.0609176 0.02250388 -0.106545836 0.0051896838
000180 9f c9 95 bc 0c f8 48 3d b7 e4 42 bd 71 be dd 3d
       -0.018284617 0.04906468 -0.0475814 0.108273394
000190 c5 ab 81 3d b2 27 d6 bc 1f 4a a7 3d 3d 80 a6 bc
       0.063315906 -0.026141975 0.08168434 -0.02032482
0001a0 f3 64 6d 3c 68 56 07 3e fb af 13 3d 09 0d c5 bb
       0.0144894 0.13216555 0.0360565 -0.006013517
0001b0 8b 32 73 3d 28 a9 5d bc dc 45 01 3d 6f a0 0b 3d
       0.059374373 -0.0135290995 0.031560764 0.03408855
0001c0 79 a2 04 bd 07 a6 bf 3c 2d a4 04 3d 40 62 90 3d
       -0.03238151 0.023394598 0.032383133 0.0704999
0001d0 51 31 6d 3d 8f 79 ba 3d 2a c3 7a 3b 77 9f 95 bc
       0.05790836 0.09105217 0.00382633 -0.018264515
0001e0 76 67 a2 3b d4 7c 32 3d cc 9f e2 3c 75 bd cf 3c
       0.004956181 0.043576077 0.027664088 0.025358895
0001f0 40 5f 89 3d 9a 05 b5 3d d6 2f 0b bd 75 9f 1f 3e
       0.067076206 0.08838959 -0.033981167 0.15588172
000200 56 e6 94 3d b7 b1 fa bc fe 85 95 bd 2f 64 82 bd
       0.072704956 -0.03060232 -0.073009476 -0.06366765
000210 64 03 ac bd 05 e4 91 3c c3 6b fa 3c 8f c7 cb 3d
       -0.08399084 0.017808923 0.030568963 0.09950172
000220 e2 4b 56 3d bf ae 5d bd 5a ad d8 bc 46 7c d0 3d
       0.05231846 -0.05412173 -0.026449848 0.10179953
000230 cb f9 8d 3b 0a 8c 20 bd 86 cf 47 3d 0e 92 c5 bd
       0.004332756 -0.03919605 0.048781894 -0.09646998
000240 21 be ab bc d2 83 aa bd 03 95 ed 3d ca 9f 4d 3c
       -0.020964684 -0.08325924 0.11600687 0.012550304
000250 5f 6c 00 bd 86 0c ba bd 07 7e af 3d dc 61 98 3d
       -0.03135335 -0.0908442 0.0856896 0.0744054
000260 71 4e 7e 3d a2 5f e2 3b 74 d8 1f be ba 7e 91 bd
       0.062086526 0.006908373 -0.15609914 -0.07104249
000270 de b7 19 3c 38 47 76 bd f9 f9 72 3d 49 44 ca 3d
       0.009382216 -0.060126513 0.059320424 0.098763056
000280 18 8e e1 3d 4a 81 ae bd a8 3d b3 3d 4c 8a 3b 3d
       0.1101343 -0.08520754 0.08751994 0.045786187
000290 41 69 41 bd dd 02 e3 bc b3 49 47 3d 27 1c bd 3d
       -0.04721952 -0.027711326 0.04865427 0.09233885
0002a0 25 2e b1 3c 15 e1 2f bd bd 86 13 3b b9 4d 15 3d
       0.021628449 -0.042939264 0.002251073 0.036451075
0002b0 af 5c a3 3d 6c 02 2e 3d 37 7a 5f 3d 0e e5 3b bd
       0.07976662 0.04248278 0.054559913 -0.04587274
0002c0 24 ef cc bd 91 b6 01 be 57 dc 80 3c 30 ad 49 bc
       -0.1000655 -0.126673 0.015730066 -0.0123093575
0002d0 e1 ca 01 3d ee 12 d8 bd ad 02 57 3d e6 f2 08 3d
       0.03168762 -0.105504856 0.052492786 0.03343477
0002e0 42 33 15 3c a6 37 c6 bd cc f7 9c bd 18 cd 0a bd
       0.009106459 -0.09678583 -0.07664451 -0.033887
0002f0 82 16 5c 3b a5 5a 47 3d db 7c c1 3d 40 4f 54 3e
       0.0033582752 0.04867043 0.094476424 0.20733356
000300 18 e1 2d 3c fd a6 8a 3d 17 d0 81 bd 6c 10 a0 3d
       0.010612749 0.06770132 -0.06338518 0.07815632
000310 5c 19 da bc 2a cf 9d 3c d3 33 98 bb 8b 5b d0 3d
       -0.02662342 0.019263823 -0.00464485 0.101737104
000320 ff 70 23 bd e8 29 89 3d 76 d4 ec bc d5 94 01 3e
       -0.039902683 0.06697446 -0.028909903 0.12654431
000330 74 26 07 bd 56 c8 71 3d de 8c 9e bd b9 d2 ed 3d
       -0.032995656 0.059028946 -0.07741712 0.11612458
000340 09 a8 a2 3d 75 f3 8d 3c 6d 54 df 3d 26 27 ac bd
       0.079422064 0.017328003 0.10904775 -0.084059045
000350 60 e9 59 bd 22 3c a6 bd bd be 56 bd 2f 82 a7 3d
       -0.05320108 -0.08116938 -0.052427996 0.081791274
000360 6b 37 ed bd 64 2f 60 bc 93 a3 02 3d ca ab 11 3a
       -0.11582836 -0.013683174 0.031894278 0.00055569096
000370 92 ca 38 3d 2e 9a ab 3c d6 84 2f bd 25 d7 06 3d
       0.04511506 0.020947542 -0.04285129 0.03292002
000380 ad 77 56 3e 3e 6c c9 bc 40 e5 00 be 4f c9 e9 3d
       0.2094409 -0.024587747 -0.12587452 0.1141535
000390 c1 4c 32 3d bd 37 f3 3c bf 7e 8f 3d 11 b0 84 3c
       0.04353023 0.029689664 0.07006597 0.016197236
0003a0 b0 45 c2 bd 56 e5 53 bd d2 0c ce 3c 75 7f 4f 3d
       -0.09485948 -0.051732384 0.025152598 0.050658662
0003b0 45 6b fb bd 42 db 28 3d da ef a5 3d 71 95 ef bc
       -0.122763194 0.041224726 0.08102389 -0.029246064
0003c0 c3 c9 3b bd a0 bb 5b 3c 0e 49 1b bc 9e 89 ac 3d
       -0.04584671 0.0134114325 -0.009477867 0.08424686
0003d0 aa 9c 7f bd 60 e6 2a 3d 8e 06 6f 3c 69 f9 11 bd
       -0.062405266 0.04172361 0.014588965 -0.035638247
0003e0 b1 98 c0 3b 08 f1 08 bc cf ff ac 3c 04 1b 8a bd
       0.0058775772 -0.008358248 0.021118073 -0.06743434
0003f0 ba 12 86 3c 75 72 a0 3d ab b0 db 3d 2f 3d ac 3c
       0.016366351 0.07834331 0.10727056 0.021025268
