models/model_pmemo_va.pth (torch, 504732 bytes, 10 tensors)

weight_ih_l0 f4 [384, 32]
-0.04842975 -0.034893267 -0.0005098109 0.0353864 0.002705736 0.14318538 0.09905635 0.09380566
0.06732715 0.0424156 -0.033216454 0.09960308 0.040895846 -0.040909104 -0.06332507 0.038774922
0.062192425 0.090445854 0.052367877 0.016938437 0.039804146 0.013805105 -0.01268183 0.017676853
0.00062736013 0.00476681 0.15803973 0.04218939 0.05947295 0.081596 0.05618963 0.10409912
-0.039413124 0.106150955 0.0081760045 -0.016518395 -0.013706869 -0.019789701 0.009744346 -0.12899485
-0.040019725 0.12065797 0.029986454 -0.039602414 0.095451914 -0.08235198 -0.038356997 -0.03509781
0.069991186 0.11466795 0.043225836 0.06002174 -0.10567995 -0.05148826 -0.123931974 0.077531755
0.029027758 0.055595305 0.020622265 -0.11556214 -0.0382572 0.06596361 -0.051984027 -0.026671246
-0.09291733 -0.046436835 -0.02566636 0.12513778 -0.05314792 0.042636994 0.095576614 0.009714286
0.13516137 0.002457003 0.07282409 -0.036672864 -0.03197149 -0.07836377 -0.02387843 0.08264007
0.09249311 -0.0069789095 -0.008779357 0.13073877 0.024015445 0.16167462 0.099398896 0.09480316
0.07031858 -0.017277831 -0.018910777 -0.030138517 0.061586842 -0.0029402587 0.07066272 0.045920923
-0.006503584 0.036139876 -0.0919385 -0.049254198 0.03826326 0.009856022 -0.10632273 -0.010131646
0.038883377 0.12239304 -0.086620346 -0.07243739 0.017104615 0.021511212 -0.0030873443 0.014474971
-0.044519357 -0.024831442 -0.005092354 0.057994302 0.01298207 0.015646024 0.069743074 0.06477448
0.081854165 -0.026560972 0.09984966 -0.046688218 -0.007695628 0.1266071 -0.03857937 0.008285953
-0.11339041 0.010931691 -0.009128933 -0.09269302 0.08568429 -0.09536769 0.047467485 -0.033595536
-0.030118182 0.0014077018 -0.061881807 -0.014640133 0.018147567 -0.07981565 0.032817297 -0.049482763
0.050594173 0.055303164 0.0024572609 -0.014945695 0.015126475 -0.048492067 -0.09150659 -0.044926647
0.012130636 0.09836761 -0.041958123 0.05157624 -0.02549193 0.06759106 0.107109286 0.114814445
0.04628115 -0.02167793 -0.09673539 -0.06715359 0.0692771 -0.013735528 0.029344628 -0.077620424
-0.035014305 -0.0143180005 -0.092116825 0.0028839954 0.15289201 0.043512337 -0.0447541 -0.023790024
0.022302706 -0.07372895 -0.015904684 0.09918765 0.11724944 -0.028246257 0.024102222 -0.012599622
0.15838712 -0.046911433 0.04436334 0.045557838 0.08749971 0.02466382 -0.016014678 0.0036530732
-0.092547886 -0.016238196 -0.12317836 -0.0046045133 -0.045427985 -0.04497503 -0.109448105 -0.06448864
-0.12086164 -0.079396226 0.08457031 -0.01949898 -0.032300647 -0.016535547 -0.050692342 0.0383758
0.023725549 0.00790806 0.026336115 -0.0375048 -0.0398704 -0.001473628 0.039752476 0.04756708
-0.017538302 0.10495875 0.10233785 -0.058392458 0.038862333 0.14277154 -0.054742597 0.002990356
-0.105018154 0.04496435 -0.02616308 -0.085824795 -0.07844182 0.019467685 -0.020862827 0.06262523
0.045483254 0.022022875 -0.063187644 0.035884164 -0.06911684 -0.04081707 -0.050341047 -0.05700934
-0.013351802 -0.054394167 0.058215156 0.08245104 -0.023722515 -0.04877844 0.027312389 0.012610621
0.03161204 -0.08765651 -0.034738142 -0.10911583 0.027667224 -0.08049491 -0.09510386 -0.09655865
00000000: 465e 46bd 3eec 0ebd d5a4 05ba 54f1 103d
00000010: b852 313b 309f 123e 0ede ca3d 2f1d c03d
00000020: d1e2 893d fbbb 2d3d fa0d 08bd b3fc cb3d
00000030: 6782 273d 4e90 27bd 93b0 81bd 74d2 1e3d
00000040: 7cbd 7e3d ad3b b93d b37f 563d 7ac2 8a3c
00000050: ac09 233d cf2e 623c 73c7 4fbc 0ccf 903c
00000060: 6d75 243a e732 9c3b 2bd5 213e c8ce 2c3d
00000070: e899 733d ce1b a73d 1927 663d eb31 d53d
00000080: a86f 21bd ac65 d93d a6f4 053c 9651 87bc
00000090: c792 60bc 031e a2bc c0a6 1f3c 3a17 04be
000000a0: b9eb 23bd 871b f73d 27a6 f53c 2436 22bd
000000b0: 4b7c c33d 28a8 a8bd 3a1c 1dbd b9c2 0fbd
000000c0: 8a57 8f3d 08d7 ea3d 930d 313d 5bd9 753d
000000d0: bb6e d8bd 5be5 52bd 0cd0 fdbd f8c8 9e3d
000000e0: 9fcb ed3c e7b7 633d 06f0 a83c d8ab ecbd
000000f0: 95b3 1cbd ee17 873d 34ed 54bd a87d dabc
00000100: 714b bebd 8d34 3ebd 4242 d2bc 1e24 003e
00000110: a2b1 59bd 21a4 2e3d acbd c33d ab28 1f3c
00000120: be67 0a3e ac05 213b cc24 953d 4936 16bd
00000130: 89f4 02bd 2f7d a0bd b29c c3bc 323f a93d
00000140: 076d bd3d 56af e4bb 4bd7 0fbc 62e0 053e
00000150: 0abc c43c 088e 253e a691 cb3d 2928 c23d
00000160: 3003 903d 3d8a 8dbc c6ea 9abc 0de5 f6bc
00000170: 7c42 7c3d 5bb1 40bb 9eb7 903d 9417 3c3d
00000180: 041c d5bb 6807 143d 414a bcbd c5be 49bd
00000190: f0b9 1c3d 277b 213c bbbf d9bd 34ff 25bc
000001a0: 2d44 1f3d 34a9 fa3d 0266 b1bd 0e5a 94bd
000001b0: fa1e 8c3c 4838 b03c 0b55 4abb 6e28 6d3c
000001c0: ee59 36bd 4f6b cbbc c3dd a6bb 6f8b 6d3d
000001d0: c0b2 543c 172c 803c 75d5 8e3d 7ca8 843d
000001e0: 28a3 a73d 6596 d9bc fb7d cc3d 253c 3fbd
000001f0: 9b2b fcbb 4ba5 013e 6705 1ebd cec1 073c
00000200: 3b39 e8bd d61a 333c 8591 15bc d7d5 bdbd
00000210: 3f7b af3d 2350 c3bd 446d 423d 799b 09bd
00000220: 68ba f6bc a282 b83a c777 7dbd 2bdd 6fbc
00000230: 35aa 943c 6376 a3bd 6e6b 063d 70ae 4abd
00000240: d63b 4f3d 9285 623d ff09 213b cade 74bc
00000250: 09d5 773c 9e9f 46bd cf67 bbbd 0105 38bd
00000260: 93bf 463c f574 c93d 48dc 2bbd 9c41 533d
00000270: 74d4 d0bc 2f6d 8a3d 1d5c db3d d623 eb3d
00000280: 4e91 3d3d ea95 b1bc 341d c6bd d287 89bd
00000290: 27e1 8d3d fb0a 61bc 2564 f03c 75f7 9ebd
000002a0: 296b 0fbd 0c96 6abc bfa7 bcbd 6a01 3d3b
000002b0: b98f 1c3e fe39 323d 1350 37bd 4ce3 c2bc
000002c0: 2ab4 b63c 34ff 96bd 8a4a 82bc e522 cb3d
000002d0: 7920 f03d b264 e7bc 0672 c53c a56e 4ebc
000002e0: 3c30 223e 3426 40bd 55b6 353d db9a 3a3d
000002f0: 0c33 b33d c80b ca3c 3731 83bc 6668 6f3b
00000300: bf89 bdbd f705 85bc f044 fcbd 75e1 96bb
00000310: b212 3abd bd37 38bd 5426 e0bd 9f12 84bd
00000320: 4f86 f7bd 7d9a a2bd 3333 ad3d 53bc 9fbc
00000330: af4d 04bd 8e75 87bc c6a2 4fbd f12f 1d3d
00000340: 155c c23c cf90 013c d6be d73c a29e 19bd
00000350: 254f 23bd c026 c1ba 7ed3 223d b3d5 423d
00000360: 7cac 8fbc 9df4 d63d 8296 d13d ee2c 6fbd
00000370: 1c2e 1f3d b432 123e c639 60bd d9f9 433b
00000380: c213 d7bd 8a2c 383d f553 d6bc e9c4 afbd
00000390: 1ba6 a0bd b27a 9f3c 85e8 aabc a841 803d
000003a0: a64c 3a3d 5169 b43c 8668 81bd 46fb 123d
000003b0: 218d 8dbd cd2f 27bd 6a32 4ebd a082 69bd
000003c0: 84c1 5abc 6bcc 5ebd 0473 6e3d 17dc a83d
000003d0: b855 c2bc e7cb 47bd 3bbe df3c c79c 4e3c
000003e0: a07b 013d 4285 b3bd 9549 0ebd 1f78 dfbd
000003f0: 60a6 e23c 84da a4bd d0c5 c2bd 8bc0 c5bd

weight_hh_l0 f4 [384, 128]
-0.013759877 -0.03272744 -0.050533947 0.076244354 0.08766653 0.037936985 0.04227861 -0.049984384
0.006911935 0.0003137844 -0.056439526 -0.09349976 0.052765533 0.017207287 -0.022636825 0.13681795
-0.048443668 -0.09474286 0.07890843 -0.03002481 -0.09428258 -0.067392685 -0.062014524 0.05117817
-0.09580713 0.13770093 -0.013847055 -0.01009776 0.03729606 -0.038808893 -0.058064133 0.14363915
0.026442315 0.087088965 0.080346785 0.050291475 0.008756094 0.088201985 -0.07203696 -0.10651338
0.058174863 0.004319488 0.12766172 -0.1372188 -0.033263337 -0.027805254 0.033308472 -0.018149924
-0.012428324 -0.09404692 0.019961504 -0.039058227 0.0027965528 0.0058090095 0.054751854 0.0937134
0.01477977 -0.054616213 -0.1170356 0.10453849 0.08951788 -0.0067733102 -0.01942346 -0.06857459
0.016016623 -0.07275061 -0.011680881 -0.05107993 0.009811523 -0.0028205675 -0.022826947 0.022430696
0.07004243 0.08923566 -0.053919848 0.082878195 0.0051462045 0.060373295 -0.097266026 0.047851123
0.018844943 0.07145673 -0.011967513 0.11478145 0.0484131 0.06907899 -0.0014560596 0.19255659
-0.08974476 -0.06446747 -0.06475701 0.020874139 0.051800758 -0.06557218 -0.037565906 0.041358575
-0.039225675 -0.05557471 0.11830665 0.051729713 0.07288171 -0.07903834 -0.09766758 0.0700174
-0.0009470305 0.12180431 -0.016760875 0.02532375 -0.069595896 0.05009449 -0.15949282 -0.02681372
0.08759885 -0.020560347 -0.024303762 -0.025960984 0.035392076 0.04493083 -0.118264385 -0.105820514
-0.1233326 -0.0966926 -0.07958462 0.07544081 -0.089222156 0.07894947 0.10668117 0.061591025
-0.0032358898 -0.095203176 -0.07382931 -0.1395696 0.006452874 -0.09577555 -0.12116936 0.08940067
0.009368328 0.12051347 -0.061898958 -0.070612244 0.15445893 0.07212528 0.056385953 -0.029195938
-0.11560542 0.0683674 -0.07657107 0.045432482 0.10273342 0.04130318 0.045795683 -0.06428813
0.11527337 -0.00026904093 -0.015451769 -0.117078185 -0.017523235 0.016416814 0.07177813 -0.090273626
-0.112738654 0.02908589 0.014418442 -0.006567893 -0.0007235359 0.004379436 -0.010527354 -0.02360452
-0.054395095 0.022478955 0.064205706 -0.03163707 0.058670044 -0.053626485 0.11350417 0.051450092
0.042839233 -0.0676424 0.020186301 -0.017162524 0.037827373 0.1164463 -0.08585219 -0.0015477047
0.057132315 0.061113015 0.042655822 -0.05363411 0.036955863 -0.06097227 -0.068912394 0.014068773
0.091678016 -0.109372996 -0.07270049 -0.08597202 0.03274303 -0.024793059 -0.035841703 0.00601883
-0.08718351 0.03664199 0.010370163 0.071170926 -0.05709362 0.030686216 0.06801844 0.052579783
0.047467325 -0.050990216 -0.11550128 0.020792592 -0.013445145 0.115560204 0.086177856 0.076122075
0.027660593 -0.0034593327 -0.031361565 -0.006893595 0.0014150064 -0.027413134 0.021668779 -0.048981767
0.104439296 0.041988198 0.016248513 0.12102538 -0.067232646 -0.027942542 0.029639019 -0.07719538
-0.04094935 -0.0020842135 -0.04055377 -0.012509966 -0.047165148 -0.11620538 0.026129086 0.06381433
0.022450771 -0.019708568 -0.0016095818 0.05243489 0.047410123 -0.060915433 -0.06889329 0.12759791
0.013747219 0.070051186 0.05764862 0.025100539 -0.010505355 0.005710551 0.07967824 -0.027469637
00000000: 1b71 61bc 350d 06bd affc 4ebd 0026 9c3d
00000010: 828a b33d d063 1b3d 562c 2d3d 6dbc 4cbd
00000020: 837d e23b 6e83 a439 222d 67bd cd7c bfbd
00000030: ac20 583d 4cf6 8c3c dd70 b9bc 011a 0c3e
00000040: de6c 46bd 8b08 c2bd be9a a13d 97f6 f5bc
00000050: 3a17 c1bd 2d05 8abd f102 7ebd 33a0 513d
00000060: 8736 c4bd 7901 0d3e c2de 62bc 1371 25bc
00000070: c1c3 183d 13f6 1ebd a8d4 6dbd 2416 133e
00000080: 8e9d d83c b35b b23d db8c a43d 6ffe 4d3d
00000090: b875 0f3c 3ea3 b43d 1d88 93bd b023 dabd
000000a0: c448 6e3d 7e8a 8d3b c1b9 023e 1683 0cbe
000000b0: 233f 08bd d8c7 e3bc 776e 083d 26af 94bc
000000c0: 2ba0 4bbc ac9b c0bd 4f86 a33c 85fb 1fbd
000000d0: 5f46 373b 8159 be3b 7b43 603d d0ec bf3d
000000e0: d926 723c 40b5 5fbd 5cb0 efbd 4718 d63d
000000f0: 2655 b73d a5f2 ddbb f31d 9fbc d670 8cbd
00000100: 4b35 833c 46fe 94bd 2a61 3fbc 3039 51bd
00000110: 83c0 203c 45d9 38bb 94ff babc 94c0 b73c
00000120: 6872 8f3d 30c1 b63d 0fdb 5cbd 0bbc a93d
00000130: 7ea1 a83b fd49 773d 6933 c7bd 8aff 433d
00000140: b660 9a3c e857 923d 6313 44bc 8912 eb3d
00000150: d14c 463d 4979 8d3d 41d9 beba 8e2d 453e
00000160: 1acc b7bd 8507 84bd 539f 84bd 3e00 ab3c
00000170: 082d 543d b54a 86bd b5de 19bd 9c67 293d
00000180: 1aab 20bd 4fa2 63bd c24a f23d 89e2 533d
00000190: 0243 953d dade a1bd f105 c8bd 4865 8f3d
000001a0: 2442 78ba 8a74 f93d 1a4e 89bc c173 cf3c
000001b0: 4b88 8ebd e12f 4d3d 1652 23be 72a8 dbbc
000001c0: 0767 b33d 2c6e a8bc af18 c7bc 21ac d4bc
000001d0: 48f7 103d 6409 383d 9934 f2bd 6db8 d8bd
000001e0: cd95 fcbd c506 c6bd 43fd a2bd b680 9a3d
000001f0: 1bba b6bd 42b0 a13d a87b da3d df46 7c3d
00000200: 3911 54bb e2f9 c2bd d233 97bd 55eb 0ebe
00000210: a172 d33b f925 c4bd a427 f8bd b317 b73d
00000220: 9e7d 193c c4cf f63d c389 7dbd 279d 90bd
00000230: 7b2a 1e3e 6bb6 933d f5f4 663d 522c efbc
00000240: 89c2 ecbd 3504 8c3d 4bd1 9cbd 6917 3a3d
00000250: e665 d23d 862d 293d 4194 3b3d 7fa9 83bd
00000260: 7214 ec3d 100e 8db9 6b29 7dbc b0c6 efbd
00000270: e38c 8fbc 8e7c 863c 6a00 933d 61e1 b8bd
00000280: 86e3 e6bd 8845 ee3c 543b 6c3c 7b37 d7bb
00000290: acab 3dba 5f81 8f3b ec7a 2cbc 445e c1bc
000002a0: 64cd 5ebd c925 b83c 487e 833d df95 01bd
000002b0: 0050 703d 72a7 5bbd e074 e83d 55bd 523d
000002c0: 3178 2f3d 1988 8abd be5d a53c 6c98 8cbc
000002d0: e0f0 1a3d 667b ee3d 46d3 afbd 5adc caba
000002e0: 9303 6a3d a451 7a3d dfb7 2e3d 71af 5bbd
000002f0: 085f 173d 0fbe 79bd f121 8dbd b680 663c
00000300: afc1 bb3d f3fe dfbd ffe3 94bd 1912 b0bd
00000310: 8e1d 063d d01a cbbc c0ce 12bd 9b39 c53b
00000320: 458d b2bd e915 163d 9ee7 293c 10c2 913d
00000330: 00db 69bd a961 fb3c 404d 8b3d e65d 573d
00000340: 196d 423d 1edb 50bd ef8b ecbd 3a55 aa3c
00000350: 0749 5cbc d4aa ec3d 047e b03d e4e5 9b3d
00000360: 7898 e23c f9b5 62bb fc74 00bd abe3 e1bb
00000370: bc77 b93a 8291 e0bc b982 b13c 1ba1 48bd
00000380: 45e4 d53d d1fb 2b3d 9a1b 853c 28dc f73d
00000390: 45b1 89bd c2e7 e4bc 87cd f23c 9d18 9ebd
000003a0: 81ba 27bd 4d97 08bb b61b 26bd 9af6 4cbc
000003b0: 3e30 41bd 16fd edbd aa0c d63c 16b1 823d
000003c0: aeea b73c dd73 a1bc 9af8 d2ba f8c5 563d
000003d0: 1e31 423d 7682 79bd ed17 8dbd 07a9 023e
000003e0: 043c 613c ff76 8f3d f620 6c3d a59f cd3c
000003f0: a71e 2cbc 931f bb3b 582e a33d 0108 e1bc

bias_ih_l0 f4 [384]
0.019536734 -0.07578711 0.11990048 -0.02580018 0.054294705 -0.07452183 0.02959903 0.018620389
0.011413018 0.02981171 0.10340438 0.10773465 0.041191686 0.051485024 -0.04593034 -0.032082852
0.00011536098 -0.04406382 0.021186564 -0.04325271 0.041034404 0.039503176 -0.0932371 -0.050820485
0.020957112 -0.07527266 0.047605053 -0.051201407 0.017696755 -0.010777248 0.07386626 -0.0640326
0.090158165 0.09515645 -0.0066469265 -0.009161764 -0.032704152 0.061749745 0.0026795263 0.08009235
-0.06454939 0.016068704 -0.035303794 0.08778836 -0.012365766 0.11073747 0.06829869 0.09132353
-0.00892568 -0.048622705 -0.023809997 0.07135373 -0.033155356 -0.043540124 0.06483561 -0.05136516
0.021834027 -0.009116959 0.14963572 -0.06495816 -0.0618851 0.045370314 0.060985364 0.08278018
0.0012992935 0.017905101 -0.08031924 0.042407013 -0.046541892 -0.04361739 -0.055392493 0.047312908
0.024960423 -0.10131737 0.046931777 0.07689866 -0.06341145 0.03849175 0.013471183 0.055842645
0.012470819 -0.043937065 0.012349554 -0.064997554 -0.03821406 -0.059122194 -0.027220706 0.0052038548
-0.026285576 0.06866466 -0.10259389 -0.06371801 -0.0338206 0.0032115146 0.04217154 0.020063777
-0.014282237 0.06296309 0.029159863 -0.029777583 -0.046360113 -0.05696686 -0.08671349 0.07256003
0.056671776 -0.09675076 0.055323917 0.026480611 -0.016976139 -0.016066162 -0.028541911 -0.045486286
-0.08249677 0.021431865 0.005966258 -0.051426087 0.037696864 0.027597893 -0.0022125372 0.021973647
0.011206971 0.012455776 0.010988484 -0.04624114 -0.017637974 -0.099362075 0.07743398 0.0030679358
0.039749604 -0.004272568 0.05659023 0.005355505 0.073520236 -0.0058772704 0.10565449 0.1398308
0.0761875 0.0850054 0.10666311 -0.01667075 0.07978 0.0040843245 0.03967239 0.000432888
-0.067451134 -0.077784345 -0.040159483 -0.07730112 0.051849395 0.049365625 0.023553573 -0.050619584
0.061823748 -0.074917614 -0.0056999912 -0.07559432 -0.02880804 -0.047901567 0.026634995 0.055544782
0.059080288 0.0033414057 0.1315347 -0.004499798 -0.03954028 0.13791825 0.032756895 -0.0742742
0.091226205 -0.033863716 0.11001693 -0.0055195605 0.10856816 -0.027591646 0.039638504 0.041595172
-0.07285641 0.10621396 0.06876407 0.046507407 0.060967848 0.007545403 0.118054256 -0.0794733
0.019446751 0.091635406 -0.13075499 -0.055888582 -0.0027569032 0.11069359 -0.055226978 0.072202265
0.06527775 -0.0696238 -0.09663729 0.06909218 -0.017299166 0.046000704 0.04173489 0.064338155
0.047523063 0.047053196 0.026986802 0.16710356 0.014873914 -0.01744413 0.077753566 0.026446458
0.093691885 0.06878776 0.07764366 0.012767563 0.061900716 -0.019868452 -0.042893793 -0.0023401822
-0.043884795 0.066246346 0.03142073 0.025404936 0.09547366 -0.065215476 -0.04245911 -0.036183197
0.000191323 -0.08797521 0.13941652 -0.079151265 0.10767331 0.0029614065 -0.060432125 0.015285246
-0.030831035 -0.044839628 -0.0062518115 0.027212618 0.1329628 -0.075534254 0.1207496 -0.050489947
0.09373336 -0.048613377 -0.08761311 0.012264163 0.09876996 -0.030708265 0.013648333 0.042025354
0.03746154 0.09066872 0.04181887 -0.07688331 0.028964518 0.08083511 -0.06794349 0.013924731
00000000: 800b a03c 4636 9bbd 628e f53d e65a d3bc
00000010: 2064 5e3d e79e 98bd aa79 f23c c989 983c
00000020: abfd 3a3c b037 f43c adc5 d33d fca3 dc3d
00000030: 9db8 283d f6e1 523d 7421 3cbd 4f69 03bd
00000040: f4ed f138 447c 34bd 728f ad3c c129 31bd
00000050: b113 283d 15ce 213d 18f3 bebd 2429 50bd
00000060: 40ae ab3c 8d28 9abd 84fd 423d 91b8 51bd
00000070: c9f8 903c 0e93 30bc 3247 973d 8623 83bd
00000080: d8a4 b83d 63e1 c23d 76ce d9bb 391b 16bc
00000090: caf4 05bd 4ded 7c3d fe9a 2f3b 7507 a43d
000000a0: 7832 84bd 84a2 833c b69a 10bd 62ca b33d
000000b0: c899 4abc 54ca e23d 2fe0 8b3d d507 bb3d
000000c0: 043d 12bc 9a28 47bd 2f0d c3bc e821 923d
000000d0: e9cd 07bd 2157 32bd 88c8 843d 4664 52bd
000000e0: 46dd b23c 4c5f 15bc 1b3a 193e c908 85bd
000000f0: 3b7b 7dbd 39d6 393d cacb 793d a888 a93d
00000100: 0e4d aa3a b8ad 923c 6a7e a4bd fab2 2d3d
00000110: b6a2 3ebd 26a8 32bd 3de3 62bd 2ecb 413d
00000120: cd79 cc3c 7b7f cfbd 893b 403d 0b7d 9d3d
00000130: dddd 81bd 86a9 1d3d 3db6 5c3c 42bb 643d
00000140: 6852 4c3c 5af7 33bd c955 4a3c 701d 85bd
00000150: 5986 1cbd 1d2a 72bd f5fd debc 1985 aa3b
00000160: d954 d7bc 0fa0 8c3d bf1c d2bd 977e 82bd
00000170: 7887 0abd 4678 523b 11bc 2c3d ca5c a43c
00000180: 0b00 6abc cbf2 803d aae0 ee3c 1ef0 f3bc
00000190: 1ae4 3dbd 1556 69bd d896 b1bd 5a9a 943d
000001a0: aa20 683d 4325 c6bd 559b 623d deed d83c
000001b0: 8b11 8bbc 2f9d 83bc bad0 e9bc d44f 3abd
000001c0: 11f4 a8bd e191 af3c 9980 c33b 29a4 52bd
000001d0: 0768 1a3d fa14 e23c 3700 11bb 1402 b43c
000001e0: 719d 373c 5013 4c3c 0b09 343c 5a67 3dbd
000001f0: 837d 90bc 587e cbbd b595 9e3d 6c0f 493b
00000200: 7bd0 223d e600 8cbb 28cb 673d 3b7d af3b
00000210: c791 963d 1e96 c0bb 6261 d83d ce2f 0f3e
00000220: 3108 9c3d 5017 ae3d 3072 da3d 1991 88bc
00000230: b263 a33d ccd5 853b 847f 223d 3ef5 e239
00000240: d223 8abd 664d 9fbd 457e 24bd 0d50 9ebd
00000250: 0860 543d 9c33 4a3d 6cf3 c03c 7b56 4fbd
00000260: e63a 7d3d 686e 99bd fec6 babb 32d1 9abd
00000270: d7fe ebbc 6f34 44bd a231 da3c ed82 633d
00000280: 2cfe 713d 7cfb 5a3b 08b1 063e 0b73 93bb
00000290: fdf4 21bd 713a 0d3e 182c 063d 121d 98bd
000002a0: ced4 ba3d aeb4 0abd 8e50 e13d 6edd b4bb
000002b0: fc58 de3d e007 e2bc fc5b 223d b35f 2a3d
000002c0: be35 95bd b486 d93d 2dd4 8c3d 8d7e 3e3d
000002d0: 6cb9 793d 6e3f f73b 6ec6 f13d e6c2 a2bd
000002e0: cb4e 9f3c 58ab bb3d a3e4 05be 6deb 64bd
000002f0: 29ad 34bb 52b3 e23d af35 62bd c8de 933d
00000300: 57b0 853d ec96 8ebd c6e9 c5bd 3380 8d3d
00000310: fbb6 8dbc 3c6b 3c3d 34f2 2a3d b9c3 833d
00000320: 8ba7 423d daba 403d 6d13 dd3c 321d 2b3e
00000330: b8b1 733c fee6 8ebc 433d 9f3d 3ea6 d83c
00000340: 88e1 bf3d 99e0 8c3d a403 9f3d 0a2f 513c
00000350: 9b8b 7d3d 2ac3 a2bc 67b1 2fbd be5d 19bb
00000360: 8bc0 33bd 2aac 873d 06b3 003d 031e d03c
00000370: b287 c33d b18f 85bd 9be9 2dbd d534 14bd
00000380: e09d 4839 592c b4bd 34c3 0e3e 0f1a a2bd
00000390: d383 dc3d 2814 423b ad87 77bd f86e 7a3c
000003a0: 5e91 fcbc c2a9 37bd ffdb ccbb ffec de3c
000003b0: 6627 083e b4b1 9abd 914b f73d 8cce 4ebd
000003c0: 47f7 bf3d d21e 47bd 816e b3bd a1ef 483c
000003d0: e847 ca3d e68f fbbc 429d 5f3c c722 2c3d
000003e0: 4671 193d 86b0 b93d 434a 2b3d ff74 9dbd
000003f0: ff46 ed3c e18c a53d f525 8bbd 8e24 643c

bias_hh_l0 f4 [384]
0.081334904 0.07059902 0.12093693 0.033285215 0.07248656 0.0022229988 -0.013599083 0.0035046937
0.079587124 0.048887882 0.00016495961 0.08239895 -0.06697552 -0.05969581 0.057651423 0.09187741
-0.036151078 -0.046990626 -0.041243833 -0.02609244 0.10559399 0.07299565 -0.045078367 0.0065476825
0.010856196 0.012143956 0.009457969 0.06118398 -0.07447801 -0.018852053 0.019784726 0.06705811
-0.03074864 0.033222344 0.057901524 -0.061754704 0.04301202 -0.050950248 0.04648081 -0.004847935
0.096503794 -0.08624956 -0.1154633 0.04893445 -0.07547259 0.062409125 -0.048060246 0.0514845
0.118525356 0.021703191 -0.07290875 -0.030314285 -0.06002559 0.01141279 0.08230493 -0.085114084
-0.01816715 0.043236475 0.05689528 -0.030021578 -0.060903136 0.09213413 0.03559383 -0.05124906
0.11156699 -0.035865597 0.0010804094 0.00924207 0.06595377 0.011221863 0.007519452 0.048312455
0.002526584 -0.07586225 0.012870074 0.05216619 0.050850812 0.040799204 0.007949324 -0.022801122
0.01599105 0.11597967 0.08172724 -0.025442816 -0.031366587 -0.08950051 0.12624946 0.06544617
0.12814589 0.06119933 -0.04335581 0.07978804 0.046833266 0.035442013 -0.048129063 0.0018477561
-0.0059342245 -0.060002785 -0.012364202 0.042473007 -0.05456923 0.023035666 -0.024897942 0.05157686
0.057741914 -0.024692222 -0.030142054 0.0846573 -0.05047493 0.024685416 0.028505256 0.030438492
-0.008020407 -0.039178964 0.053890992 -0.010619125 0.07091226 0.0969178 -0.035063963 0.108959965
0.10344493 -0.010830638 -0.018609898 0.054609206 0.044644654 -0.04722436 0.04641567 0.07895385
0.028030839 0.109517775 -0.049067754 -0.04915268 0.040899456 -0.017631473 0.10047068 -0.026954146
0.073753916 0.11395122 0.051360726 0.011016307 0.05413254 0.02649059 0.07634699 0.058581386
-0.083727054 -0.039665908 -0.07834136 0.053443957 0.06316038 -0.07416946 -0.04662408 0.05127376
0.070071 -0.08747912 0.11434319 -0.054037157 -0.054579876 -0.035096355 0.005791712 0.07326152
0.06703149 -0.072646715 0.019173805 0.087050214 0.034841754 -0.0019822642 -0.010804652 0.049993675
-0.061303798 -0.033061333 0.075292245 0.048231836 -0.054146633 0.030586377 0.05366858 0.10026097
0.067090735 0.043840464 0.050901353 0.0198924 -0.0473552 0.0725206 0.06362082 -0.006632099
0.047530573 0.1381002 0.0013823118 0.08920362 -0.01742137 -0.048416413 0.046454832 0.032062344
0.12458504 -0.03414576 -0.12029195 0.065994546 -0.067883976 -0.030864768 -0.038299184 -0.013799798
-0.018631093 -0.006468471 -0.03515378 0.07609756 0.008877067 0.07207096 0.078452095 0.0071782903
0.058091063 -0.025369974 0.022060012 -0.04045101 -0.07124867 0.039425444 -0.015127579 0.027933253
0.041768163 0.05608903 0.099949814 -0.029755538 -0.016388051 -0.016446503 0.11284929 0.055700064
0.1404273 -0.08076117 0.041131582 0.030251864 -0.052032918 -0.023268506 0.011230072 0.11796629
-0.03529192 0.02541219 0.061695345 0.09032297 0.13816011 -0.020965323 0.06369761 0.05326603
0.028058436 0.04727952 -0.07008247 0.05676704 -0.04343397 0.10436741 0.12641685 0.0007229729
0.1164315 -0.03402874 -0.099756494 0.079249665 -0.035078205 -0.0034406495 -0.020714315 0.00029486252
00000000: ea92 a63d 3896 903d c8ad f73d 1456 083d
00000010: d573 943d bbaf 113b b0ce 5ebc 01af 653b
00000020: 93fe a23d a93e 483d 02f9 2c39 c8c0 a83d
00000030: 762a 89bd 9883 74bd e623 6c3d 392a bc3d
00000040: 2713 14bd 3e79 40bd 4bef 28bd d0bf d5bc
00000050: a941 d83d be7e 953d 18a4 38bd f18d d63b
00000060: 30de 313c 71f7 463c 99f5 1a3c 0e9c 7a3d
00000070: ed87 98bd 9f6f 9abc 9413 a23c c355 893d
00000080: 92e4 fbbc 2714 083d 262a 6d3d 80f2 7cbd
00000090: 5f2d 303d 35b1 50bd a962 3e3d 6ddb 9ebb
000000a0: c8a3 c53d 9ca3 b0bd 0678 ecbd 7d6f 483d
000000b0: 6091 9abd b6a0 7f3d d2da 44bd 69e1 523d
000000c0: 6cbd f23d e4ca b13c 2f51 95bd aa55 f8bc
000000d0: 65dd 75bd b6fc 3a3c 7d8f a83d 4b50 aebd
000000e0: 46d3 94bc bb18 313d 060b 693d d0ef f5bc
000000f0: 9175 79bd d2b0 bc3d d6ca 113d 89ea 51bd
00000100: 3c7d e43d cee7 12bd 869c 8d3a 0d6c 173c
00000110: c512 873d e8db 373c bc65 f63b 48e3 453d
00000120: 0c95 253b ab5d 9bbd 01dd 523c 37ac 553d
00000130: f148 503d 111d 273d e23d 023c 6bc9 babc
00000140: aaff 823c c086 ed3d 9c60 a73d 746d d0bc
00000150: 407a 00bd 0b4c b7bd 8a47 013e a408 863d
00000160: ad38 033e 26ac 7a3d dd95 31bd e967 a33d
00000170: 3dd4 3f3d a52b 113d fb22 45bd 6830 f23a
00000180: e273 c2bb 7bc5 75bd 3993 4abc 2df8 2d3d
00000190: fc83 5fbd 4bb5 bc3c c5f6 cbbc 4242 533d
000001a0: c982 6c3d 5847 cabc 78ec f6bc ce60 ad3d
000001b0: cdbe 4ebd 1239 ca3c db83 e93c 255a f93c
000001c0: 0668 03bc 1f7a 20bd cdbc 5c3d d7fb 2dbc
000001d0: 723a 913d d77c c63d 3b9f 0fbd 6726 df3d
000001e0: efda d33d fd72 31bc c973 98bc e7ad 5f3d
000001f0: 50dd 363d 556e 41bd 5c1e 3e3d 8eb2 a13d
00000200: eea0 e53c db4a e03d 45fb 48bd 5254 49bd
00000210: 3086 273d e16f 90bc 92c3 cd3d f1ce dcbc
00000220: 4b0c 973d 425f e93d a05f 523d be7d 343c
00000230: 15ba 5d3d cb02 d93c d05b 9c3d 09f3 6f3d
00000240: 1779 abbd b878 22bd 6f71 a0bd 0de8 5a3d
00000250: 3b5a 813d 28e6 97bd e4f8 3ebd 6f04 523d
00000260: 6281 8f3d 4128 b3bd c32c ea3d 1156 5dbd
00000270: 268f 5fbd 32c1 0fbd 67c8 bd3b 230a 963d
00000280: ce47 893d cdc7 94bd 6212 9d3c 6247 b23d
00000290: 3ab6 0e3d e0e8 01bb ff05 31bc 2bc6 4c3d
000002a0: b119 7bbd 526b 07bd d232 9a3d bf8e 453d
000002b0: dcc8 5dbd 4890 fa3c 96d3 5b3d a055 cd3d
000002c0: de66 893d 0f92 333d f07d 503d 63f5 a23c
000002d0: 87f7 41bd ae85 943d a24b 823d 1452 d9bb
000002e0: 6baf 423d 246a 0d3e b02e b53a 63b0 b63d
000002f0: 43b7 8ebc 4a50 46bd 6c47 3e3d ce53 033d
00000300: 7126 ff3d 6ddc 0bbd a05b f6bd 2628 873d
00000310: c106 8bbd 1cd8 fcbc 9bdf 1cbd 8c18 62bc
00000320: 3ca0 98bc 78f5 d3bb 69fd 0fbd 0ad9 9b3d
00000330: 1e71 113c f199 933d 7eab a03d dd37 eb3b
00000340: e5f0 6d3d b1d4 cfbc 33b7 b43c f5af 25bd
00000350: d3ea 91bd 937c 213d aad9 77bc 47d4 e43c
00000360: 1815 2b3d 9cbd 653d 7db2 cc3d e3c1 f3bc
00000370: 3c40 86bc d1ba 86bc 871d e73d c025 643d
00000380: 2dcc 0f3e 1d66 a5bd 9779 283d c2d2 f73c
00000390: 7820 55bd 989d bebc 56fe 373c 4f98 f13d
000003a0: 438e 10bd 3a2d d03c 42b4 7c3d 40fb b83d
000003b0: d879 0d3e 78bf abbc e473 823d 7b2d 5a3d
000003c0: ceda e53c 2ca8 413d 6687 8fbd 8e84 683d
000003d0: d2e7 31bd 95be d53d 6b73 013e e485 3d3a
000003e0: a373 ee3d b861 0bbd 224d ccbd a64d a23d
000003f0: 2aae 0fbd 857c 61bb 11b1 a9bc c797 9a39

weight_ih_l0_reverse f4 [384, 32]
0.028167075 -0.010215174 -0.02679288 -0.06828741 -0.15869504 -0.06381748 -0.010770056 0.035025544
-0.08938583 0.04905491 -0.027101403 0.028520761 -0.07999181 -0.0017028486 0.07122726 -0.0545826
0.055567447 0.090624906 -0.0028020316 -0.01280306 0.2315548 0.14744607 0.16474873 0.019968733
0.1318308 0.1255224 0.035037473 0.04323405 0.03713822 0.04592043 0.082083926 0.03511527
0.011186743 0.059049338 -0.075010546 0.05832439 -0.03450547 -0.036271583 -0.046164732 0.11731014
-0.013600567 -0.048032437 0.03788757 0.112923086 0.01888645 -0.032887768 -0.028818035 -0.06514486
-0.061711874 -0.08736551 0.045151085 0.059386283 0.061344653 0.048713833 0.040499844 0.021815017
0.061855022 0.022601005 0.014298973 0.08014851 0.114757106 0.0027059922 0.05439513 0.020432206
-0.12088864 0.06443063 0.12635803 0.04979365 0.027856374 0.03614338 -0.028685888 -0.03211507
-0.008932838 0.11745496 0.053208984 -0.033964302 0.0687153 -0.00993917 -0.028000161 0.11018188
-0.10642738 -0.0074857688 -0.029399782 -0.03123767 -0.08028123 -0.028169436 -0.084119715 -0.04583076
-0.07291621 -0.07371294 -0.04187536 0.037341617 -0.10992965 -0.095895536 -0.07296033 -0.069126934
-0.16101092 0.027308958 -0.031241402 -0.064305566 -0.061886884 0.04953942 0.012306083 0.050251152
0.09469193 -0.11044614 -0.038043622 0.060764614 -0.049668733 0.031237194 -0.015273637 -0.022416253
0.029198311 0.015696323 0.02487472 0.12268475 -0.103277996 -0.09807052 0.011995895 -0.08297139
0.0006786563 -0.09074749 -0.12795344 0.049925584 -0.018405803 0.020630784 0.038770776 -0.068281814
0.024142805 0.09958052 0.018371025 -0.037644822 0.0028687038 0.024872199 -0.06633654 0.11352391
-0.022484178 0.086376406 0.03712475 0.017689243 0.09847708 -0.052394617 -0.011465926 0.06085935
0.019922985 0.008209365 -0.042007208 0.044210173 -0.028179942 -0.109897 0.01571062 -0.026908983
0.028974537 -0.04060604 -0.061622843 0.08679652 0.09173012 0.032689128 -0.03629593 0.067551754
0.027953815 0.048407167 -0.04623416 0.062175516 0.031441554 0.09036911 -0.05241507 -0.013583993
0.020252036 -0.080848105 -0.06018811 0.021910727 0.0064125997 -0.012049132 0.04646442 0.020917397
-0.0030074797 0.026773151 -0.011867115 0.10382881 0.090199016 0.07459043 0.087813124 -0.015439672
-0.0069475914 0.124044456 -0.045030676 0.05000364 0.021401659 -0.013082877 -0.060780697 -0.047640484
-0.020093506 0.011669822 -0.14927691 -0.058032844 0.02155097 -0.09758686 -0.10642099 -0.09472374
0.045836043 -0.0061084693 -0.0639335 -0.10302208 -0.0045370683 0.07885896 -0.07165109 0.026455184
-0.006773942 -0.15043846 0.047110148 0.033356614 -0.041963905 -0.04019543 0.030051213 -0.09560759
-0.03491595 0.06372527 -0.055923432 -0.004740815 0.056430608 -0.036355942 0.0537468 0.044485398
0.112121716 -0.070073426 -0.06127756 0.09164703 0.016723752 0.04613502 -0.060488854 0.08823736
-0.038839117 -0.07480223 -0.05376422 0.117376424 -0.043359198 0.036315788 -0.08789092 -0.020735871
0.12484312 0.013774013 0.06608946 -0.09078014 0.07141952 0.073200025 0.14058714 0.03306891
0.10674444 0.062747456 0.13566402 0.12091003 0.02364134 0.108967125 -0.0067133293 -0.011435216
00000000: a3be e63c 8c5d 27bc be7c dbbc 45da 8bbd
00000010: f480 22be bdb2 82bd e474 30bc f276 0f3d
00000020: eb0f b7bd cded 483d c303 debc 5fa4 e93c
00000030: bfd2 a3bd 1e32 dfba 99df 913d 0192 5fbd
00000040: b19a 633d 8d99 b93d 4aa2 37bb edc3 51bc
00000050: b41c 6d3e 1afc 163e e4b3 283e 7895 a33c
00000060: a7fe 063e f288 003e 7483 0f3d 3016 313d
00000070: 3f1e 183d 1017 3c3d 9e1b a83d 08d5 0f3d
00000080: 9a48 373c b8dd 713d 219f 99bd 8ee5 6e3d
00000090: 9c55 0dbd 8391 14bd 3b17 3dbd 4c40 f03d
000000a0: ead4 5ebc a9bd 44bd ff2f 1b3d 3844 e73d
000000b0: c2b7 9a3c 53b5 06bd cd13 ecbc ab6a 85bd
000000c0: 97c5 7cbd b0ec b2bd 58f0 383d 083f 733d
000000d0: 8844 7b3d 2888 473d 2ae3 253d 68b5 b23c
000000e0: b15b 7d3d be25 b93c 3d46 6a3c e724 a43d
000000f0: c605 eb3d 0457 313b 6ecd 5e3d 7161 a73c
00000100: 7794 f7bd 35f4 833d 0064 013e 6df4 4b3d
00000110: 0d33 e43c 150b 143d abfe eabc 178b 03bd
00000120: 0a5b 12bc 3a8c f03d aaf1 593d 271e 0bbd
00000130: 9bba 8c3d e7d7 22bc 9860 e5bc 0aa7 e13d
00000140: 99f6 d9bd 2e4b f5bb d0d7 f0bc 24e6 ffbc
00000150: 7c6a a4bd 97c3 e6bc f546 acbd 09b9 3bbd
00000160: 1855 95bd cff6 96bd 7f85 2bbd 86f3 183d
00000170: cc22 e1bd e164 c4bd 3a6c 95bd 6c92 8dbd
00000180: 0ce0 24be 09b7 df3c f8ed ffbc a3b2 83bd
00000190: 1a7d 7dbd d9e9 4a3d 749f 493c 27d4 4d3d
000001a0: d8ed c13d 9631 e2bd a1d3 1bbd 51e4 783d
000001b0: 7171 4bbd 25e5 ff3c 473e 7abc 4aa2 b7bc
000001c0: 4c31 ef3c 9395 803c 12c6 cb3c 2442 fb3d
000001d0: 6a83 d3bd 32d9 c8bd 6e8a 443c e7ec a9bd
000001e0: dae7 313a d2d9 b9bd 3a06 03be c57e 4c3d
000001f0: c4c7 96bc e401 a93c 1bce 1e3d 56d7 8bbd
00000200: 22c7 c53c dff0 cb3d d57e 963c 7531 1abd
00000210: dd00 3c3b c8c0 cb3c 74db 87bd 397f e83d
00000220: bd30 b8bc 1de6 b03d 1f10 183d 08e9 903c
00000230: 5aae c93d bd9b 56bd 94db 3bbc a747 793d
00000240: 8735 a33c 9380 063c c00f 2cbd ba15 353d
00000250: 9fd9 e6bc ae11 e1bd 8fb3 803c 3a70 dcbc
00000260: 025c ed3c 8552 26bd 3c68 7cbd 60c2 b13d
00000270: 00dd bb3d 09e5 053d 0bab 14bd 9358 8a3d
00000280: 66ff e43c 9846 463d 0860 3dbd c1ab 7e3d
00000290: dcc8 003d 7113 b93d 2fb1 56bd 658f 5ebc
000002a0: 99e7 a53c b193 a5bd cf87 76bd 207e b33c
000002b0: c920 d23b b969 45bc 7a51 3e3d f65a ab3c
000002c0: 2319 45bb 5e53 db3c 4a6e 42bc 33a4 d43d
000002d0: 43ba b83d dec2 983d 5ed7 b33d aef6 7cbc
000002e0: 9fa8 e3bb 050b fe3d 1672 38bd 9ed0 4c3d
000002f0: 8852 af3c 9059 56bc 2ef5 78bd ab22 43bd
00000300: 239b a4bc c832 3f3c 0cdc 18be d9b3 6dbd
00000310: a98b b03c 9fdb c7bd 3ff3 d9bd 85fe c1bd
00000320: 93be 3b3d 8e29 c8bb 91ef 82bd 3efd d2bd
00000330: b0ab 94bb ce80 a13d cfbd 92bd 8bb8 d83c
00000340: f2f7 ddbb 8a0c 1abe 92f6 403d f2a0 083d
00000350: 58e2 2bbd f7a3 24bd f62d f63c eacd c3bd
00000360: 0704 0fbd 6582 823d f80f 65bd d758 9bbb
00000370: c823 673d f8e9 14bd 9b25 5c3d 5236 363d
00000380: 12a0 e53d a882 8fbd 2efe 7abd 70b1 bb3d
00000390: 4000 893c 13f8 3c3d 29c3 77bd cab5 b43d
000003a0: c415 1fbd e931 99bd df37 5cbd 0d63 f03d
000003b0: 6a99 31bd ddbf 143d 2800 b4bd 46de a9bc
000003c0: c0ad ff3d 66ac 613c e959 873d f0ea b9bd
000003d0: 6644 923d e5e9 953d 13f6 0f3e 4473 073d
000003e0: d49c da3d bd81 803d 82eb 0a3e ae9f f73d
000003f0: 7cab c13c 282a df3d 7dfb dbbb c65a 3bbc

weight_hh_l0_reverse f4 [384, 128]
-0.041934013 -0.040465813 -0.047036704 0.15148449 0.025898553 0.024668146 -0.044074737 0.012372744
0.10590384 -0.026018767 -0.11737152 -0.010884286 -0.041635048 0.014910012 -0.043856326 -0.04784399
0.05497112 -0.058065344 -0.07906204 0.12089429 0.009503834 0.01425615 -0.024451211 -0.0612779
0.1007598 -0.079645075 -0.015084753 -0.017764147 -0.04452599 0.012406776 0.023442326 -0.062752835
0.1429665 0.041455463 0.0541839 0.12124634 -0.039199628 -0.019015735 0.08403477 -0.06356149
0.0754829 0.114321 -0.016942415 -0.078976184 -0.009990123 0.06729702 -0.116795704 -0.16272534
-0.1476969 0.011480898 0.1485946 -0.08731881 0.05235991 0.07394574 0.09707498 0.097600214
0.0259318 -0.033212945 -0.11571725 -0.038945377 -0.049753793 -0.06612234 -0.031688053 -0.059329733
-0.23664555 0.0065220445 -0.028408939 -0.07732156 -0.024971554 -0.06252471 -0.02433479 0.006297982
-0.10495114 0.14308862 0.1523007 -0.05596346 -0.023482477 -0.013692965 -0.069117226 -0.07570567
-0.04932012 -0.038935423 -0.10346283 0.057917934 -0.0794618 0.021351399 -0.03682979 -0.19808882
-0.07430235 -0.002448297 0.072820954 0.060165454 -0.13794689 -0.006827818 0.054516193 0.11967215
-0.01408745 -0.08726372 0.057397243 0.10810342 -0.18018335 -0.013092299 0.041735787 0.0063741882
-0.14759086 0.08307947 0.016234035 0.015626537 -0.09807338 -0.09817377 -0.028376129 -0.06496553
0.13284653 0.04865562 0.07826509 0.17126651 -0.03286904 0.04881893 0.15686339 -0.022259796
-0.099600784 -0.03430702 0.029289093 0.047442023 0.019500718 0.12090178 0.007210657 -0.08811649
-0.12920928 -0.07942969 -0.012777965 -0.031886276 -0.004695499 -0.11286852 0.12163999 0.10252862
0.11937794 -0.10707027 0.0656711 -0.068831146 -0.014904535 -0.06325196 0.05598185 -0.018173749
-0.070289895 -0.031052973 -0.002111541 0.10006524 0.02002808 -0.021310275 -0.042346667 -0.036891144
0.093686186 -0.0976487 0.073960766 -0.07426046 -0.009327922 0.052108277 -0.07003499 0.014863776
0.09506806 -0.123806626 -0.017210705 0.1281702 0.04109812 -0.09336407 -0.03681257 -0.07437479
0.0013963416 -0.04609452 0.04272849 0.019323457 -0.025488554 -0.03145873 -0.07364331 0.04148094
0.05974681 -0.07259955 0.06121867 -0.041590344 0.06912342 -0.07539827 -0.0016966867 0.10831143
-0.027573787 0.027034381 -0.010976315 -0.056533016 0.0671571 0.076082416 0.11433452 0.052398678
-0.025508381 -0.12966877 -0.058506977 -0.10057528 -0.118987374 0.03467083 -0.015971476 -0.047048744
0.053499755 0.14750972 0.065008044 0.017890105 0.1002701 -0.0043752687 -0.10582717 0.09183768
0.10982699 -0.09284398 -0.041518345 -0.0033378594 0.06126972 -0.012250849 0.092748985 0.027935049
-0.033968598 0.044620637 -0.021825496 0.010752577 -0.056177646 -0.028757866 0.002051073 -0.022073802
-0.10581472 0.034046955 -0.06438798 0.05570493 -0.032733254 -0.08867237 -0.031375982 -0.064865455
0.029513167 0.053864658 -0.07296308 -0.009844472 -0.043753516 0.020362295 -0.028690388 -0.027984463
0.120860465 0.09417414 -0.03881957 -0.028893221 0.050547615 0.08708836 0.12758178 -0.13702698
-0.08184351 -0.047641482 0.038625088 0.0639198 -0.004494688 0.08372474 -0.04933727 0.037494905
00000000: 00c3 2bbd 7bbf 25bd 8fa9 40bd c01e 1b3e
00000010: 3429 d43c da14 ca3c b687 34bd 0db7 4a3c
00000020: 1de4 d83d 4f25 d5bc 7b60 f0bd 0154 32bc
00000030: 8389 2abd 1f49 743c b1a2 33bd 0ff8 43bd
00000040: 6629 613d edd5 6dbd 47eb a1bd 6d97 f73d
00000050: f8b5 1b3c a192 693c e84d c8bc 89fe 7abd
00000060: 275b ce3d f51c a3bd 0a26 77bc 1e86 91bc
00000070: e260 36bd ca45 4b3c 1f0a c03c 8f84 80bd
00000080: cf65 123e 34cd 293d f0ef 5d3d 0050 f83d
00000090: ca8f 20bd e3c6 9bbc 6c1a ac3d 872c 82bd
000000a0: c796 9a3d 2121 ea3d d2ca 8abc 44be a1bd
000000b0: 9dad 23bc 05d3 893d 9632 efbd 79a1 26be
000000c0: db3d 17be 601a 3c3c 2f29 183e 34d4 b2bd
000000d0: 5877 563d dd70 973d 3fcf c63d 9fe2 c73d
000000e0: ed6e d43c 4c0a 08bd 2afd ecbd 3085 1fbd
000000f0: a2ca 4bbd 266b 87bd 55cb 01bd bc03 73bd
00000100: 3653 72be e0b6 d53b ddb9 e8bc c45a 9ebd
00000110: 2591 ccbc f50c 80bd c159 c7bc 4d5f ce3b
00000120: a0f0 d6bd d385 123e b7f4 1b3e f139 65bd
00000130: 535e c0bc 7558 60bc 558d 8dbd 930b 9bbd
00000140: e503 4abd c07a 1fbd 52e4 d3bd 5b3b 6d3d
00000150: debc a2bd 21e9 ae3c d5da 16bd ccd7 4abe
00000160: d52b 98bd 9c73 20bb 2723 953d 0d70 763d
00000170: f341 0dbe e4bb dfbb 5f4c 5f3d ac16 f53d
00000180: 0ccf 66bc 52b7 b2bd 5f19 6b3d 5365 dd3d
00000190: fc81 38be 1581 56bc 25f3 2a3d 91de d03b
000001a0: 0f22 17be 9225 aa3d 3dfd 843c 3903 803c
000001b0: b2da c8bd 540f c9bd 0e75 e8bc a60c 85bd
000001c0: ec08 083e 1e4b 473d 7349 a03d 7d60 2f3e
000001d0: b0a1 06bd 5cf6 473d cca0 203e 2d5a b6bc
000001e0: 7ffb cbbd 8585 0cbd aeef ef3c 9152 423d
000001f0: f8bf 9f3c 5a9b f73d 6047 ec3b 6b76 b4bd
00000200: 704f 04be 09ac a2bd ab5a 51bc 2f9b 02bd
00000210: b3dc 99bb 9c27 e7bd 631e f93d 86fa d13d
00000220: 6c7c f43d a847 dbbd 927e 863d 58f7 8cbd
00000230: 2732 74bc 3e8a 81bd 394d 653d 1de1 94bc
00000240: 26f4 8fbd ce62 febc c861 0abb 01ef cc3d
00000250: ee11 a43c e392 aebc b373 2dbd 2b1b 17bd
00000260: 8bde bf3d 0bfc c7bd be78 973d de15 98bd
00000270: 24d4 18bc 7d6f 553d 816e 8fbd 3287 733c
00000280: 0bb3 c23d 548e fdbd 77fd 8cbc 0d3f 033e
00000290: 8156 283d a935 bfbd c7c8 16bd cf51 98bd
000002a0: 7305 b73a 9bcd 3cbd 1204 2f3d 3a4c 9e3c
000002b0: 5fcd d0bc dfda 00bd 4ed2 96bd ebe7 293d
000002c0: 12b9 743d 13af 94bd 6ec0 7a3d a35a 2abd
000002d0: 9490 8d3d 686a 9abd 5c63 deba 62d2 dd3d
000002e0: 6ce2 e1bc 3577 dd3c 00d6 33bc 2a8f 67bd
000002f0: a989 893d 19d1 9b3d 3828 ea3d ff9f 563d
00000300: f4f6 d0bc e4c7 04be 03a5 6fbd 6afa cdbd
00000310: a7af f3bd 0003 0e3d 9dd6 82bc 2fb6 40bd
00000320: 8f22 5b3d ca0c 173e f022 853d 458e 923c
00000330: 695a cd3d 6a5e 8fbb eabb d8bd 6515 bc3d
00000340: f9ec e03d fc24 bebd 240f 2abd fdbf 5abb
00000350: f5f5 7a3d c9b7 48bc 2ef3 bd3d 0bd8 e43c
00000360: a822 0bbd 21c4 363d 62cb b2bc 942b 303c
00000370: 881a 66bd 9e95 ebbc 4b6b 063b 1ed4 b4bc
00000380: 63b5 d8bd d274 0b3d d8dd 83bd da2a 643d
00000390: 4e13 06bd dc99 b5bd 1a84 00bd 2ed8 84bd
000003a0: 99c5 f13c 30a1 5c3d ab6d 95bd b54a 21bc
000003b0: e336 33bd d4ce a63c 1b08 ebbc ac3f e5bc
000003c0: b185 f73d 5fde c03d 4501 1fbd 7ab1 ecbc
000003d0: 040b 4f3d 625b b23d cca4 023e cd50 0cbe
000003e0: 929d a7bd b723 43bd 5735 1e3d 62e8 823d
000003f0: 2d48 93bb e077 ab3d e115 4abd 4294 193d

bias_ih_l0_reverse f4 [384]
-0.0065933694 0.047595005 0.048693452 -0.1034949 -0.028816693 0.016986052 0.04498603 -0.043301266
-0.039695695 -0.017541604 0.09061612 -0.03763428 -0.016840985 -0.047607224 -0.031372856 0.04588935
0.07868065 -0.06296792 0.1111866 0.011457699 -0.07027049 0.104514904 0.044780932 0.060022924
0.053448148 -0.048381735 0.035341095 -0.0070497436 0.07377637 0.04708475 -0.0037901578 0.06007578
0.038299054 -0.034130987 0.018066598 0.0058567817 0.10136492 -0.05107152 0.056834668 0.07130083
0.03439116 -0.010848177 0.092200406 0.08737739 -0.017509919 -0.08381483 -0.067554645 -0.013731422
0.08166733 -0.030977141 -0.05469208 0.025681477 -0.0037065067 -0.027048567 -0.06558989 -0.10184393
-0.015393929 -0.051511116 0.037120502 0.047981523 -0.023587683 0.0012937348 0.010659004 0.0017695362
-0.038560335 0.07719318 0.065958746 0.012831536 -0.024955072 -0.034707602 -0.01857655 -0.021281933
-0.044185348 -0.033414636 -0.017293746 0.019735163 -0.054696623 0.06137876 0.062402323 0.10463478
0.078598194 0.036603406 -0.03491897 0.03140972 -0.04648692 0.047508635 -0.037056323 -0.10277737
0.06688624 0.006160426 -0.035652686 0.07638421 0.07722981 -0.0018789464 0.027770879 -0.029794743
0.012712447 0.007813855 0.07887219 -0.03498497 -0.0886876 0.07672105 0.05256066 0.045470685
0.097177446 -0.002608595 -0.017910631 0.048781157 0.088664465 0.06663075 -0.023402754 -0.036839843
-0.020180577 -0.03207566 0.06360448 0.007448288 0.031003324 0.043479215 0.035320926 -0.01693913
-0.012216208 0.07984725 -0.041096162 0.014918695 -0.05169036 -0.029766321 0.066593364 0.09314074
-0.03976289 0.012174913 0.06937478 0.15202577 0.053665407 0.10332948 0.08480126 0.064869106
0.09375701 0.07102327 0.016017588 0.07902658 0.010147392 0.058619566 -0.048790433 0.08162785
-0.010424278 0.09238292 -0.062304568 0.07695076 0.026137052 0.07092509 0.029318146 0.06912008
0.058064293 0.0033867215 0.042548813 0.07853384 -0.07585523 -0.026538562 0.019442054 -0.02670276
0.046124637 -0.04323351 0.069855765 0.11591145 0.13313055 0.10780353 -0.014689569 0.009048229
0.04917344 -0.054386556 0.07575868 -0.026519634 0.02921414 0.009981747 -0.03393506 0.0214654
0.11130706 0.032128528 0.0021562264 -0.023581948 0.057785854 0.029040754 -0.0053667957 -0.09730315
-0.06523816 0.0653659 0.10516679 0.08535594 0.06118545 0.1794147 -0.015377274 0.07252003
0.029667968 -0.01638475 0.09105045 0.12364066 0.027708294 -0.07964096 -0.0015261872 0.025024228
-0.028348062 -0.042029507 0.10677244 0.036561564 -0.0452315 0.003142619 0.028558407 0.07885292
0.06332924 0.052110158 0.08968916 -0.070286326 0.039169457 0.01902402 0.026031543 0.053592365
0.050085936 0.081279814 0.015436006 -0.015817588 -0.014428472 -0.064103104 0.1090545 -0.04535686
-0.060433812 0.054890998 0.033318676 -0.0972015 0.0058536017 0.037677422 0.016345505 0.088594496
0.01506157 0.08530772 -0.0719532 0.01689717 -0.059011802 0.058139026 0.022623572 -0.0016098
-0.05548697 -0.016217817 0.09548422 0.017610177 -0.040600404 -0.03928902 0.10577619 0.006658356
0.07833378 -0.055964448 -0.08191522 0.044300713 -0.101862095 -0.015375793 0.06138152 0.050837908
00000000: 310d d8bb fbf2 423d c972 473d 22f5 d3bd
00000010: fc10 ecbc 5526 8b3c 4543 383d ab5c 31bd
00000020: f497 22bd 69b3 8fbc f294 b93d 6726 1abd
00000030: 1bf6 89bc cbff 42bd d380 00bd 79f6 3b3d
00000040: 5223 a13d 53f5 80bd cdb5 e33d 13b9 3b3c
00000050: fae9 8fbd e90b d63d 366c 373d 99da 753d
00000060: 72ec 5a3d ed2b 46bd d3c1 103d 8901 e7bb
00000070: 1118 973d f0db 403d 4c64 78bb 0512 763d
00000080: 78df 1c3d efcc 0bbd 6700 943c 3fea bf3b
00000090: 6998 cf3d 5f30 51bd 78cb 683d 2b06 923d
000000a0: bfdd 0c3d 8dbc 31bc 91d3 bc3d ebf2 b23d
000000b0: f670 8fbc 1ca7 abbd 175a 8abd c2f9 60bc
000000c0: 3341 a73d c6c3 fdbc cd04 60bd f661 d23c
000000d0: dde8 72bb f594 ddbc fe53 86bd 8d93 d0bd
000000e0: d136 7cbc 52fd 52bd ab0b 183d 4688 443d
000000f0: f53a c1bc 8992 a93a 1aa3 2e3c c8ef e73a
00000100: 71f1 1dbd 7517 9e3d 6115 873d 5d3b 523c
00000110: 946e ccbc 8f29 0ebd d92d 98bc 7357 aebc
00000120: b2fb 34bd c9dd 08bd 9dab 8dbc a3ab a13c
00000130: 9109 60bd 4b68 7b3d 9499 7f3d c24a d63d
00000140: 17f8 a03d 74ed 153d 3207 0fbd 7ba7 003d
00000150: 1269 3ebd 6a98 423d 5fc8 17bd f17c d2bd
00000160: a7fb 883d 66dd c93b 8d08 12bd 536f 9c3d
00000170: aa2a 9e3d fb46 f6ba c17f e33c 1b14 f4bc
00000180: de47 503c af05 003c be87 a13d 664c 0fbd
00000190: d8a1 b5bd ed1f 9d3d d949 573d 783f 3a3d
000001a0: f804 c73d f6f4 2abb 51b9 92bc c0ce 473d
000001b0: b795 b53d b475 883d 22b7 bfbc 60e5 16bd
000001c0: bd51 a5bc c461 03bd 1143 823d c510 f43b
000001d0: affa fd3c 4317 323d adac 103d eec3 8abc
000001e0: 7d26 48bc f486 a33d 7354 28bd 8b6d 743c
000001f0: 45b9 53bd 80d8 f3bc 1a62 883d 93c0 be3d
00000200: 6ade 22bd 4979 473c 5d14 8e3d a5ac 1b3e
00000210: 42d0 5b3d 689e d33d 48ac ad3d 18da 843d
00000220: ad03 c03d a674 913d 5137 833c b0d8 a13d
00000230: 3f41 263c 121b 703d 7ad8 47bd 812c a73d
00000240: 97ca 2abc 4233 bd3d 1333 7fbd 5c98 9d3d
00000250: 5f1d d63c 2c41 913d 9c2c f03c d48e 8d3d
00000260: d3d4 6d3d c2f3 5d3b aa47 2e3d 5ad6 a03d
00000270: fd59 9bbd 6667 d9bc f144 9f3c bfbf dabc
00000280: 30ed 3c3d 9f15 31bd 8a10 8f3d fb62 ed3d
00000290: 6053 083e 19c8 dc3d 85ac 70bc 063f 143c
000002a0: 176a 493d 70c4 5ebd 5e27 9b3d b43f d9bc
000002b0: 7e52 ef3c 7b8a 233c 7dff 0abd 35d8 af3c
000002c0: f5f4 e33d 3499 033d 7a4f 0d3b ee2e c1bc
000002d0: dcb0 6c3d e0e6 ed3c f2db afbb e046 c7bd
000002e0: 969b 85bd 8fde 853d b061 d73d 18cf ae3d
000002f0: 989d 7a3d 7db8 373e f6f0 7bbc 6285 943d
00000300: 3d0a f33c 5039 86bc a978 ba3d 5037 fd3d
00000310: 81fc e23c cd1a a3bd 580a c8ba 9cff cc3c
00000320: 323a e8bc 2227 2cbd 82ab da3d 94c1 153d
00000330: aa44 39bd 66f4 4d3b 52f3 e93c a47d a13d
00000340: c3b2 813d 7671 553d f3ae b73d 47f2 8fbd
00000350: 2770 203d 43d8 9b3c 1a40 d53c ab83 5b3d
00000360: e926 4d3d 0876 a63d 4de7 7c3c e393 81bc
00000370: 6665 6cbc 7d48 83bd f757 df3d 1dc8 39bd
00000380: 7289 77bd 62d5 603d 2a79 083d 9411 c7bd
00000390: 92cf bf3b a453 1a3d 02e7 853c 0871 b53d
000003a0: cec4 763c d0b5 ae3d 335c 93bd ef6b 8a3c
000003b0: 5cb6 71bd 3023 6e3d 1255 b93c edff d2ba
000003c0: 4e46 63bd 3adb 84bc 3b8d c33d 3843 903c
000003d0: 9c4c 26bd 86ed 20bd 30a1 d83d 572e da3b
000003e0: 766d a03d fa3a 65bd 2bc3 a7bd aa74 353d
000003f0: 139d d0bd c0ea 7bbc 306b 7b3d 693b 503d
