models/model_merge_russell_4Q.pth (torch, 506396 bytes, 10 tensors)

weight_ih_l0 f4 [384, 32]
0	0xbd9a72d3	-0.07541432
1	0x3d93dc26	0.07219724
2	0x3b41eee3	0.002959185
3	0x3cb0c459	0.021578
4	0xbe847ddd	-0.25877276
5	0xbdc88541	-0.09791041
6	0x3e62fa33	0.22165756
7	0xbe22524c	-0.15851706
8	0x3de03aae	0.10948692
9	0xbd864883	-0.06556799
10	0xbde5fb27	-0.11229544
11	0xbe07a573	-0.13246708
12	0xbdac4828	-0.084122
13	0x3e6a5f09	0.22887816
14	0x3d965a74	0.07341471
15	0xbe632e17	-0.2218555
16	0x3b82b2b5	0.0039885887
17	0x3e561f1e	0.20910308
18	0x3e466da3	0.1937776
19	0xbcd56a8b	-0.02605178
20	0x3e8b2c48	0.2718222
21	0x3e9b00fd	0.30274191
22	0x3d83b225	0.06430463
23	0x3eebce22	0.46055704
24	0x3e99bd33	0.3002716
25	0x3ecf8d6e	0.4053759
26	0x3e1d36c7	0.15352927
27	0x3dd8c2e6	0.10584049
28	0x3ecbf356	0.39834088
29	0x3e8614e2	0.26187807
30	0x3e623759	0.22091426
31	0x3e13981c	0.14413494
32	0xbd187ad3	-0.03722651
33	0x3e17322a	0.1476523
34	0xbdb52f0d	-0.08846865
35	0xbcf47ab0	-0.029843658
36	0xbde7034c	-0.11279926
37	0xbc1a8a6a	-0.009432415
38	0xbe0407d8	-0.12893617
39	0x3e45175e	0.19247195
40	0x3e53f6af	0.20699571
41	0x3db01633	0.08597984
42	0xbe0be1e8	-0.13660395
43	0xbbd68fa1	-0.0065478836
44	0x3dbf378e	0.09336768
45	0x3e0369f2	0.12833384
46	0x3cdb67e2	0.026782934
47	0xbc1b7fcf	-0.009490921
48	0x3d6a0356	0.057132088
49	0x3e8160fc	0.25269306
50	0xbba5689c	-0.005047871
51	0x3e2f8d50	0.1714375
52	0x3d3da443	0.04629923
53	0x3e5c7251	0.21527983
54	0x3e01e9e4	0.12686878
55	0x3e973062	0.295291
56	0x3e55a0bb	0.20862095
57	0x3e4baf07	0.19890986
58	0x3e438d81	0.19096948
59	0x3d018c70	0.031628072
60	0x3e6f25ac	0.23354214
61	0x3ca6b10b	0.020348093
62	0x3e38e799	0.18057097
63	0x3d2a6de5	0.04160871
64	0xbd0fb68c	-0.0350862
65	0x3e064f0d	0.13116093
66	0x3cac5b58	0.02103965
67	0x3e6b4b00	0.22977829
68	0xbbcd9700	-0.006274104
69	0x3d95756e	0.072977886
70	0x3e819ef6	0.2531659
71	0x3df0726e	0.11740576
72	0xbc2c71a4	-0.010525141
73	0x3d58d126	0.052933834
74	0xbe7aaba3	-0.24479537
75	0x3b382ebc	0.0028104028
76	0xbe8aeefe	-0.27135462
77	0xbe1ebe65	-0.15502317
78	0x3d94480c	0.07240304
79	0xbbbf489c	-0.005837513
80	0xbe90e52e	-0.2829985
81	0xbddc1625	-0.10746411
82	0x3d27a622	0.04092992
83	0xbcb69211	-0.022286447
84	0x3d3d0f91	0.046157423
85	0x3e14724a	0.14496723
86	0x3dc59de6	0.09649257
87	0x3e4686dc	0.19387382
88	0x3d19a51a	0.03751097
89	0x3e34f293	0.1767066
90	0x3d5edec1	0.054411653
91	0x3e169399	0.14704742
92	0x3d0e6839	0.034767363
93	0xbd8874e2	-0.066629186
94	0x3dde6377	0.10858815
95	0x3db1ee43	0.08688023
96	0xbda0ff18	-0.07861155
97	0x3c8a2615	0.016863862
98	0xbdda3509	-0.10654647
99	0x3e6601a1	0.22461559
100	0x3e08b3ba	0.1334981
101	0x3df55a4c	0.119801134
102	0x3ccf75bd	0.025324697
103	0x3c35756e	0.011075361
104	0x3da686a1	0.08131147
105	0xbc2bf594	-0.010495562
106	0x3e25e2d6	0.16199812
107	0x3e151642	0.14559272
108	0x3d94a14c	0.072573274
109	0x3d8f8027	0.07006865
110	0xbd6daec3	-0.058027994
111	0xbe0ef73c	-0.139615
112	0xbd6ac926	-0.057320736
113	0x3e81736a	0.25283366
114	0xbdc75618	-0.09733218
115	0xbe6ff796	-0.2343429
116	0x3ebb33f5	0.36563078
117	0x3e1d6b23	0.153729
118	0xbd421b84	-0.047389522
119	0xbe1e0dfb	-0.1543502
120	0xbdb33f1e	-0.08752273
121	0x3dc1add5	0.09456984
122	0x3db31ec5	0.08746103
123	0x3cdb10b1	0.026741358
124	0x3e627bdf	0.22117566
125	0x3d8990d5	0.06717078
126	0x3e60186a	0.21884313
127	0x3e598b56	0.21244559
128	0xbd78eb29	-0.06077114
129	0xbc0e3413	-0.008679408
130	0x3e4e57d9	0.20150699
131	0x3df15a18	0.11784762
132	0x3d823615	0.063579716
133	0x3dc11dc4	0.094295055
134	0x3cc810a6	0.024422001
135	0x3e773d7a	0.24144545
136	0xbeac7b27	-0.33687708
137	0x3dd5159c	0.10404512
138	0xbdb0273a	-0.08601232
139	0xbd9777f6	-0.073959276
140	0xbe42bf65	-0.19018324
141	0xbae99b82	-0.0017822834
142	0xbe61f198	-0.22064817
143	0xbd115f3f	-0.035491224
144	0x3de5e22e	0.11224781
145	0x3daad6cc	0.083417505
146	0xbedfedf2	-0.43736225
147	0x3cdfe54e	0.02733102
148	0xbdb247f2	-0.08705129
149	0x3d398f0e	0.045302443
150	0xbdd882ca	-0.10571821
151	0x3e312848	0.17300522
152	0x3de68263	0.11255338
153	0x3e084733	0.1330841
154	0x3ded5096	0.11587636
155	0xbcbb6b05	-0.02287818
156	0x3daba9b5	0.083819784
157	0x3da556b1	0.08073176
158	0x3c330f29	0.010928907
159	0x3d2d9867	0.04238167
160	0xbdcec215	-0.10095612
161	0x3dba3a25	0.090931214
162	0xbe34c711	-0.17654063
163	0xbe0cb8ac	-0.13742322
164	0xbe81a7bc	-0.25323284
165	0x3dac20b5	0.08404676
166	0x3d8c0ba2	0.06838156
167	0x3e266804	0.16250616
168	0x3d94696d	0.07246671
169	0x3e065dd1	0.13121726
170	0x3e813bde	0.25240988
171	0x3e991e2b	0.2990583
172	0xbd0df6ac	-0.034659073
173	0xbd9b4629	-0.07581741
174	0x3dc6a59e	0.09699558
175	0xbd03d46a	-0.032184996
176	0xbe5a6f52	-0.21331528
177	0x3bc9537e	0.0061439862
178	0x3b985283	0.004648508
179	0x3d67b049	0.056564603
180	0xbdee0e35	-0.116238035
181	0xbd8f2e24	-0.069912225
182	0xbc1eb15a	-0.009685839
183	0x3d4c4ea3	0.04987968
184	0xbdaa12d1	-0.0830437
185	0x3c5773b9	0.013150149
186	0xbe21b06b	-0.15789954
187	0x3c97af9e	0.018516358
188	0xbd39f81d	-0.045402635
189	0xbe105d33	-0.14098053
190	0xbda95fdd	-0.082702376
191	0xbcc2e84c	-0.023792408
192	0xbd175d23	-0.036954056
193	0x3e71ad1b	0.23601191
194	0x3d88672a	0.06660302
195	0x3de70545	0.11280302
196	0xbd0fed1b	-0.03513823
197	0xbd7cd15d	-0.061723102
198	0xbd51e6a4	-0.051245347
199	0x3b8beb64	0.004270004
200	0xbd277ff0	-0.040893495
201	0x3d11011e	0.035401456
202	0x3dabce96	0.083890125
203	0x3d453b57	0.048152294
204	0xbd90f68a	-0.070782736
205	0xbe0c83b0	-0.1372211
206	0xbd2e271c	-0.042517766
207	0x3d9e1355	0.07718531
208	0xbd7a1f97	-0.061065283
209	0x3e1f5f04	0.1556359
210	0xbd3afe6a	-0.045652784
211	0x3e189b62	0.14903024
212	0x3e6d6b9f	0.23185585
213	0x3df1d43a	0.11808057
214	0x3e8903f7	0.26760837
215	0x3e02030e	0.12696478
216	0x3e26f710	0.16305184
217	0x3e7979b0	0.24362826
218	0x3e36af12	0.17840222
219	0x3e61598d	0.22006817
220	0x3df9cc43	0.12197163
221	0x3e3ed997	0.18637691
222	0x3e732208	0.2374345
223	0x3e61a4c5	0.22035511
224	0xbdb90ad8	-0.090352714
225	0x3d60894f	0.054818448
226	0xbe50dc52	-0.20396546
227	0xbbba8d35	-0.0056931027
228	0xbe995cc6	-0.29953593
229	0xbe1c2afc	-0.15250772
230	0xbde84755	-0.113417305
231	0xbd2886e1	-0.041144256
232	0xbda28fc0	-0.079375744
233	0x3d99f42c	0.07517275
234	0xbde9d81b	-0.11418172
235	0xbcc93d76	-0.02456544
236	0xbe67a485	-0.22621353
237	0xbcb8e9a8	-0.022572353
238	0xbd3c055d	-0.045903552
239	0xbe6ee136	-0.23328099
240	0xbd95df36	-0.07317965
241	0x3d8292a8	0.06375629
242	0xbc87d950	-0.016583115
243	0x3bb9c34c	0.005669033
244	0x3d7e9884	0.06215717
245	0xbb25a7fe	-0.0025277133
246	0xbcb04ed9	-0.021521972
247	0x3de9d5f6	0.11417763
248	0x3e376a09	0.17911543
249	0x3e34e2f1	0.17664696
250	0x3de262e3	0.110540174
251	0x3db4614f	0.08807623
252	0x3e64cb2e	0.22343132
253	0xbbe12d87	-0.0068718824
254	0x3dc7fef8	0.09765428
255	0x3e2749a4	0.16336685

weight_hh_l0 f4 [384, 128]
0	0x3e689572	0.22713259
1	0xbf0fac75	-0.56122524
2	0x3e43c5f6	0.19118485
3	0x3b3368da	0.0027375729
4	0x3e1eced0	0.1550858
5	0x3f11f68e	0.5701684
6	0x3ecbf7c1	0.3983746
7	0x3dae2d34	0.085047156
8	0xbea663da	-0.32498056
9	0x3e2703be	0.16310021
10	0xbd873c9c	-0.06603357
11	0xbe88c603	-0.2671357
12	0xbeca12a8	-0.3946736
13	0xbf006e12	-0.50167954
14	0xbd95b807	-0.07310491
15	0x3e0c2601	0.13686372
16	0xbec2bcbe	-0.38034624
17	0xbd94d1cf	-0.0726658
18	0x3dd7ebd5	0.10543028
19	0x3e6305fe	0.22170255
20	0x3dd8c8b0	0.10585153
21	0x3d6474a5	0.055775303
22	0x3d9339e4	0.07188776
23	0xbe94cde2	-0.29063326
24	0x3eace078	0.33765006
25	0xbda0b922	-0.07847811
26	0x3e2747fa	0.1633605
27	0xbe22e0bc	-0.15906042
28	0xbdda459f	-0.106578104
29	0x3e3bd442	0.18342689
30	0x3e79ad48	0.24382508
31	0xbd2ab4a5	-0.041676182
32	0xbf06e4c0	-0.52692795
33	0xbed63cb9	-0.41843203
34	0xbe8a25a6	-0.26981848
35	0xbe854321	-0.26027778
36	0xbe841cc5	-0.258032
37	0x3e351d07	0.17686854
38	0xbe59552e	-0.212239
39	0x3ed2e006	0.4118654
40	0x3d6220ae	0.055206947
41	0xbe4eb1fb	-0.20185082
42	0x3dc29ee6	0.09502964
43	0x3e9ae8f0	0.30255842
44	0x3dbb8072	0.091553584
45	0xbed8013f	-0.4218845
46	0x3eda96cc	0.42693174
47	0xbeb0f3e3	-0.3456107
48	0x3e13aca4	0.14421326
49	0x3e3e85c6	0.18605718
50	0xbed12e56	-0.40855664
51	0x3f1151ac	0.56765246
52	0xbd86f9a1	-0.06590582
53	0xbe8460d3	-0.2585512
54	0xbd8e7bbe	-0.06957196
55	0x3e99eebc	0.30064952
56	0x3e41b77b	0.18917648
57	0x3c9b5f13	0.018966233
58	0x3e7196b9	0.23592652
59	0x3e67ba1a	0.22629586
60	0xbe2195ed	-0.15779848
61	0x3c47e066	0.012199497
62	0xbee2c8bb	-0.4429377
63	0x3d624ac5	0.055247087
64	0xbe5e539a	-0.21711579
65	0x3bea86e4	0.0071571935
66	0x3ef7500e	0.48303264
67	0x3e91871a	0.28423387
68	0x3d64b78f	0.055839118
69	0x3d4910c5	0.04908826
70	0xbe2ed46d	-0.17073222
71	0x3db81ec6	0.089902446
72	0xbe78a234	-0.24280626
73	0xbe2d1eae	-0.16906235
74	0x3db4ce20	0.08828378
75	0x3d9ff2ed	0.07810006
76	0xbc61d1b6	-0.013782909
77	0x3e3eec17	0.18644749
78	0x3ec295e8	0.38004994
79	0xbee39ccd	-0.44455567
80	0x3e2f07cd	0.1709282
81	0xbebec337	-0.37258312
82	0xbee9383e	-0.45550722
83	0x3e9010db	0.2813786
84	0x3e80a2fe	0.25124353
85	0xbdb2cd0f	-0.08730518
86	0xbee88679	-0.45415094
87	0xbe9c5ecd	-0.30541077
88	0xbb357d2c	-0.0027693016
89	0xbeb5a553	-0.35477695
90	0xbea162ae	-0.315206
91	0x3e6811d8	0.22663057
92	0x3e06cfaa	0.13165155
93	0xbf0e6662	-0.55624974
94	0x3e3e4b5f	0.1858344
95	0x3d183a90	0.037165225
96	0x3ca9e6b5	0.020739892
97	0x3ef5cbde	0.480071
98	0xbc6e6b2d	-0.01455192
99	0x3d5c6572	0.053807683
100	0x3e5aab0f	0.21354316
101	0x3e80fa4a	0.25190955
102	0x3e000975	0.12503608
103	0xbe45b4da	-0.1930727
104	0xbe8a4bb8	-0.27010894
105	0x3e5de05d	0.21667619
106	0xbdd3ee8c	-0.103482336
107	0xbe0a9b61	-0.13535835
108	0x3eff9e71	0.4992557
109	0xbe93f6df	-0.28899285
110	0xbdf57a4c	-0.11986217
111	0xbec6224e	-0.38698047
112	0xba9a80a0	-0.0011787601
113	0x3e446dc2	0.19182494
114	0x3ece15f8	0.40251136
115	0x3c81ffad	0.015868986
116	0x3e8fb8f1	0.28070787
117	0x3d506f06	0.05088713
118	0xbe160d4a	-0.14653507
119	0x3ec412b5	0.38295522
120	0x3d9ee2d8	0.07758111
121	0xbe8ce389	-0.27517346
122	0x3eb5f36f	0.35537288
123	0xbe8d7fb9	-0.27636507
124	0x3c860644	0.01636041
125	0x3e5c8982	0.2153683
126	0x3eab1771	0.33416322
127	0x3e26173c	0.162198
128	0x3e44cc65	0.19218595
129	0xbe0a435c	-0.13502258
130	0xbe0a2a5f	-0.13492726
131	0x3e719623	0.23592429
132	0xbd3b8ec6	-0.045790456
133	0x3d02a483	0.03189517
134	0x3d04e21d	0.0324422
135	0x3e65f60e	0.22457144
136	0xbc38e73e	-0.011285601
137	0x3da7c668	0.0819214
138	0x3bbb35f3	0.0057132184
139	0xbe9ab7f7	-0.3021848
140	0xbeeb0932	-0.45905453
141	0xbe7b6591	-0.24550463
142	0xbe641298	-0.22272718
143	0x3e84e5b7	0.2595651
144	0xbd6d2b3a	-0.057902552
145	0x3e104f39	0.14092721
146	0x3e7170d4	0.23578197
147	0xbb743866	-0.0037265061
148	0x3e431eef	0.19054769
149	0x3debf8a1	0.115220316
150	0xbd282bde	-0.04105746
151	0xbe5da872	-0.21646288
152	0x3e50f04e	0.20404169
153	0xbe0efeac	-0.13964337
154	0x3d14ee6d	0.036360193
155	0x39c379d9	0.00037284082
156	0xbe8b414b	-0.27198252
157	0x3e083a40	0.1330347
158	0x3ce52d6a	0.027975757
159	0xbe957b22	-0.29195505
160	0xbe086625	-0.13320215
161	0xbda04c57	-0.07827061
162	0xbe1741c0	-0.14771175
163	0xbc061ac6	-0.008185094
164	0x3e517312	0.20454052
165	0xbe7bee76	-0.24602684
166	0xbd82b6c2	-0.063825145
167	0x3d08bd1e	0.03338348
168	0xbe8d697c	-0.2761954
169	0xbdbb880f	-0.091568105
170	0x3e325a2b	0.17417209
171	0x3ecc5d33	0.39914855
172	0x3ea65b49	0.3249152
173	0xbce7232c	-0.028215013
174	0x3e8468e5	0.25861278
175	0xbee890c4	-0.45422947
176	0xbeab80ba	-0.33496648
177	0x3ef515f0	0.478683
178	0xbc9194b4	-0.017771102
179	0x3e861a59	0.26191977
180	0xbdec04ab	-0.11524328
181	0x3dcb5d14	0.099298626
182	0x3ec0b276	0.37636155
183	0x3cc276b6	0.023738246
184	0x3d7647cc	0.060127065
185	0x3e654cbc	0.22392553
186	0x3e8a2dd8	0.269881
187	0x3e5a1626	0.21297511
188	0x3d91a36b	0.07111248
189	0x3d710bd4	0.05884917
190	0x3e06fccd	0.13182373
191	0xbd86364d	-0.06553326
192	0xbdaa19a2	-0.0830567
193	0x3e513f31	0.20434262
194	0xbe6a5723	-0.22884803
195	0x3e637ac9	0.22214808
196	0xbcaeb48d	-0.021326328
197	0x3e489a2f	0.19590066
198	0x3e1f16c5	0.1553603
199	0xbea2c1f0	-0.31788588
200	0xbd28d0d3	-0.041214775
201	0xbd784d67	-0.06062069
202	0xbd461f95	-0.048369963
203	0xbe81a373	-0.25320014
204	0x3d8d0eba	0.068875745
205	0x3eff3d41	0.4985142
206	0x3e8fe660	0.2810545
207	0xbea763e2	-0.32693392
208	0xbb9c8f26	-0.004777807
209	0x3caad77d	0.020854706
210	0xbe068109	-0.1313516
211	0x3e4a9483	0.19783215
212	0x3dc03eac	0.09386954
213	0x3e5eae1d	0.21746106
214	0xbe332a02	-0.17496493
215	0xbdf236ac	-0.11826834
216	0x3e4d8cde	0.20073268
217	0xbe1dff4b	-0.15429418
218	0xbd4c9820	-0.049949765
219	0xbe1305d1	-0.14357688
220	0x3d47f925	0.048821587
221	0xbeabdbd9	-0.33566168
222	0xbd592b0f	-0.05301958
223	0xbe99696e	-0.2996325
224	0x3dc65206	0.096836135
225	0x3e329bc4	0.17442232
226	0x3d7f14b2	0.062275596
227	0xbdfca4bc	-0.12336108
228	0x3d24dfdc	0.04025255
229	0x3e8d961b	0.27653584
230	0x3eb7ba19	0.3588417
231	0x3dbccea9	0.09219105
232	0xbd6e79cb	-0.05822162
233	0x3e2cfe13	0.16893797
234	0x3d1ea97c	0.03873585
235	0x3cd9a5da	0.026568342
236	0x3e401822	0.18759206
237	0xbdae9fec	-0.085265964
238	0x3d851473	0.06498041
239	0x3c9ab56b	0.018885335
240	0xbe0ec2f9	-0.13941564
241	0x3e301647	0.17195998
242	0x3e257618	0.1615833
243	0xbdd38dd2	-0.103297845
244	0x3d7d4c28	0.061840206
245	0xbe6d4333	-0.23170166
246	0xbd56f7a2	-0.052482255
247	0x3e5d9c39	0.21641625
248	0xbe331cd0	-0.1749146
249	0x3ea06430	0.31326437
250	0x3da313d1	0.07962764
251	0xbe8ba74d	-0.27276078
252	0xbd35be57	-0.044370975
253	0x3e446f04	0.19182974
254	0xbd1f62ee	-0.038912706
255	0x3e272b56	0.16325125

bias_ih_l0 f4 [384]
0	0x3e15f1bc	0.14642996
1	0x3dc9fa7f	0.098622315
2	0x3ca17f56	0.019714039
3	0x3ddf6829	0.10908539
4	0x3e3a7aa4	0.18210846
5	0xbc30381c	-0.010755565
6	0x3e2eb4dd	0.17061181
7	0x3c866213	0.016404187
8	0xbd539b74	-0.051661924
9	0x3d8eb626	0.06968336
10	0x3da60a1f	0.08107399
11	0x3d06d66b	0.03291933
12	0x3e00e10a	0.12585846
13	0x3decde39	0.11565823
14	0xbc1c74d2	-0.0095493365
15	0x3e4d66a2	0.20058683
16	0x3c994560	0.018709838
17	0x3b12ec33	0.0022418618
18	0x3d77eea3	0.060530316
19	0x3dd42404	0.10358432
20	0x3e5daff2	0.21649149
21	0x3e3ef48f	0.18647979
22	0x3e309ed8	0.17248094
23	0xbb7f420d	-0.0038949281
24	0x3e556b30	0.2084167
25	0x3e33183c	0.17489713
26	0x3dd80318	0.10547465
27	0x3e034901	0.12820818
28	0x3e06d57d	0.13167377
29	0x3c8c2ddf	0.017111717
30	0x3e158242	0.1460047
31	0x3e1c4168	0.15259326
32	0x3e057dee	0.1303632
33	0x3e75ed2b	0.24016254
34	0x3e5e07c3	0.21682648
35	0x3d4eb90b	0.05046944
36	0x3d971b65	0.07378272
37	0x3bf6dfc3	0.0075339987
38	0x3d812610	0.06306088
39	0x3e9ad701	0.3024216
40	0x3e6c8d6b	0.23100822
41	0x3e0ac31d	0.13550992
42	0x3cdec7d5	0.027194897
43	0x3c84bef9	0.016204344
44	0x3e06fd45	0.13182552
45	0xba95af3e	-0.0011420024
46	0x3e2114e9	0.15730633
47	0x3e0a9c2d	0.13536139
48	0x3c337adb	0.010954584
49	0x3dc10207	0.09424215
50	0x3e057165	0.13031538
51	0x3e06d884	0.13168532
52	0xbc886ce1	-0.01665348
53	0x3cf6f301	0.03014517
54	0x3e22778d	0.15865918
55	0x3da64290	0.081181645
56	0x3cae9edb	0.021315983
57	0x3e4ddce7	0.20103799
58	0x3e60b49e	0.219439
59	0x3e377832	0.17916945
60	0x3e0e65ec	0.13906068
61	0x3dbd4769	0.09242136
62	0x3dd23c5d	0.1026542
63	0x3dc416e4	0.095746785
64	0xbd67cb20	-0.0565902
65	0x3e134d35	0.14384921
66	0x3d8afc1d	0.06786368
67	0xbca26008	-0.019821182
68	0xbd9a6045	-0.07537893
69	0x3d6bd48b	0.057575744
70	0x3d13865e	0.036016814
71	0x3d47dd72	0.04879517
72	0x3d290370	0.041263044
73	0x3dad59fa	0.08464427
74	0x3d3d929e	0.046282403
75	0x3d61505c	0.055008277
76	0x3d38eaf1	0.045145933
77	0x3d9e9f9f	0.07745289
78	0x3dc3401c	0.09533712
79	0xbc1102fc	-0.008850809
80	0x3dec5212	0.11539091
81	0xbd9714b9	-0.073769994
82	0x3e1392aa	0.14411417
83	0x3dfce746	0.123487994
84	0x3cc34b78	0.023839697
85	0x3d79a2f4	0.06094642
86	0x3dc5d1d8	0.09659165
87	0x3d733694	0.05937822
88	0x3e28dd5d	0.16490693
89	0xbcb163e4	-0.021654077
90	0x3bc9cf5e	0.0061587533
91	0x3d2d1813	0.042259287
92	0xbc1fab0a	-0.009745369
93	0x3e201a68	0.15635073
94	0x3ddb64b0	0.10712564
95	0xbc611920	-0.0137389
96	0x3e3a42b4	0.18189508
97	0x3db82bf1	0.08992756
98	0x3d50dee6	0.050993823
99	0x3e8050d1	0.25061658
100	0x3e09606a	0.13415685
101	0x3d3bf94b	0.04589204
102	0x3e83c9f0	0.25740004
103	0x3e5e5b2b	0.21714465
104	0x3e8be59b	0.27323613
105	0x3e35503c	0.17706388
106	0x3e54360a	0.2072374
107	0x3e787931	0.24264981
108	0x3d864526	0.06556158
109	0x3e84b2d3	0.25917682
110	0x3d21e60a	0.039526023
111	0x3e8fe1b0	0.28101873
112	0xbd366c5c	-0.044536933
113	0x3d510281	0.05102778
114	0x3a886eed	0.0010409035
115	0x3df6b844	0.12046865
116	0x3dea18ea	0.11430533
117	0x3d927916	0.071520016
118	0x3caa647a	0.020799864
119	0x3e4a5579	0.19759168
120	0x3d9c678b	0.07636937
121	0x3e112617	0.14174686
122	0x3dbc3186	0.09189133
123	0x3e19de6c	0.15026253
124	0x3e1a319d	0.15057988
125	0xbde4e729	-0.11176903
126	0x3e4c5593	0.19954519
127	0x3d077470	0.033070028
128	0xbd26ea72	-0.04075093
129	0xbd80f5a1	-0.0629685
130	0xbd6353f0	-0.05549997
131	0x3cee0c12	0.02905849
132	0x3daf09f9	0.08546824
133	0x3d75b83e	0.05999016
134	0x3d126d3b	0.0357487
135	0x3e59e323	0.21278052
136	0x3df01978	0.11723608
137	0x3d929493	0.071572445
138	0x3d8fab4c	0.07015094
139	0x3d80c8b6	0.062882826
140	0x3dbc7267	0.09201508
141	0xbdbdcd6a	-0.09267695
142	0x3e73af80	0.23797417
143	0xbd9d3af1	-0.07677258
144	0xbe209624	-0.15682274
145	0x3d819b58	0.063284576
146	0x3d32e427	0.043674614
147	0x3dd30a75	0.10304729
148	0x3d12bec0	0.035826445
149	0x3e0ffe6f	0.14061902
150	0xbdfe6e54	-0.12423387
151	0x3ceb285c	0.028705768
152	0x3df13d2e	0.11779247
153	0x3e0a7dab	0.13524501
154	0x3d63d335	0.055621345
155	0x3d08cd96	0.033399187
156	0x3ec22b33	0.37923583
157	0xbd93f18e	-0.07223807
158	0x3e015623	0.12630515
159	0x3e154d14	0.14580184
160	0xbd295734	-0.04134293
161	0xbd9801e7	-0.07422238
162	0xbdda8087	-0.10669046
163	0xbc3e35ac	-0.011609476
164	0xbd7606cd	-0.06006508
165	0xbcf779d5	-0.030209461
166	0x3da2c263	0.079472326
167	0x3e282cc6	0.1642333
168	0x3cfe0f7e	0.031013247
169	0x3cb765d3	0.02238742
170	0xbd7e474f	-0.062079724
171	0xbe145e5a	-0.14489117
172	0x3d272284	0.0408044
173	0x3dc6865c	0.09693596
174	0xbd451274	-0.0481133
175	0x3def48a8	0.1168378
176	0xbd55a620	-0.052160382
177	0x3c647d15	0.0139458375
178	0xbcc02c87	-0.023458732
179	0x3dffb8cf	0.12486421
180	0x3d96711c	0.07345793
181	0x3e2ed24a	0.17072406
182	0x3db4210f	0.08795368
183	0xbe1f4f65	-0.1555763
184	0xbe02b261	-0.12763359
185	0xbd038c03	-0.032115947
186	0x3d8557b1	0.065108664
187	0x3d70581f	0.05867779
188	0x3d56b463	0.052418124
189	0xbdb68501	-0.08912087
190	0x3d72e754	0.059302643
191	0x3e106426	0.14100704
192	0xbd4d4fe2	-0.05012501
193	0x3d31eb18	0.043437093
194	0x3d917cc2	0.07103874
195	0x3dd6efca	0.10494955
196	0x3e79db3a	0.24400035
197	0xbd1ff6d2	-0.039053746
198	0x3e1481dd	0.14502664
199	0xbd69fb77	-0.05712458
200	0xbda34634	-0.079723746
201	0x3e0b10bf	0.13580607
202	0x3cacd7f2	0.021099064
203	0xbda2994d	-0.07939396
204	0x3e6de9c6	0.23233709
205	0xbdcf6d05	-0.10128216
206	0xbcdbcc99	-0.026830958
207	0xbcb32c9c	-0.021871857
208	0xbd7ef036	-0.0622408
209	0x3e5c9c08	0.21543896
210	0x3dbcbf2e	0.09216152
211	0x3dd04784	0.101698905
212	0x3c26cdba	0.010180885
213	0x3d9e98bf	0.07743978
214	0xbd5a2a62	-0.053263076
215	0xbd6fb3e2	-0.05852116
216	0xbd42afd5	-0.047530968
217	0x3dc62926	0.09675817
218	0x3e2a5ae6	0.16636238
219	0xbc91f2a6	-0.0178159
220	0xbce80f06	-0.028327476
221	0x3e3b72b5	0.18305476
222	0xbb58f93b	-0.0033107537
223	0x3d98aca9	0.07454807
224	0xbd89d141	-0.06729365
225	0xbd4056e3	-0.04695786
226	0x3c8fcd18	0.017553851
227	0x3de6acd0	0.1126343
228	0x3d839e18	0.06426638
229	0xbd8e23eb	-0.069404446
230	0x3d7779cc	0.06041889
231	0xbe4c2610	-0.19936395
232	0x3c831cb7	0.016004903
233	0x3c8eb562	0.017420474
234	0xbccfd673	-0.025370812
235	0xbc2b25c0	-0.010446012
236	0xbdd1308b	-0.10214337
237	0xbb443d89	-0.0029943904
238	0x3d8bfc0f	0.06835186
239	0xbe757b22	-0.23972753
240	0xbd91a293	-0.07111087
241	0xbd7d6a4f	-0.061868962
242	0x3cbf2168	0.023331359
243	0x3d101fd1	0.035186592
244	0x3e12738f	0.14301895
245	0xbd644919	-0.055733774
246	0xbd34f53b	-0.044179182
247	0x3db26dfe	0.087123856
248	0xbdb835e6	-0.08994655
249	0x3e6dd51a	0.23225823
250	0x3e183eab	0.14867656
251	0xbc555bbc	-0.013022359
252	0x3d3adc9c	0.045620546
253	0x3c20ea37	0.009821466
254	0xbe5ac1f9	-0.21363057
255	0x3dbe1e74	0.09283152

bias_hh_l0 f4 [384]
0	0x3dd51021	0.10403467
1	0x3e50e7e5	0.2040096
2	0x3d6defb7	0.058089938
3	0x3d2c5e5f	0.042082187
4	0x3e290c87	0.16508685
5	0xbcc8718d	-0.024468208
6	0x3e2524cf	0.16127323
7	0x3e376a9c	0.17911762
8	0xbd991da0	-0.07476354
9	0x3dad9f74	0.08477679
10	0x3c00dca8	0.007865109
11	0xbd91afb5	-0.071135916
12	0x3d378639	0.04480574
13	0x3e07562b	0.13216464
14	0x3bac1c98	0.005252432
15	0x3e3b6190	0.18298936
16	0xbdced5f2	-0.100994006
17	0x3e0121b4	0.12610513
18	0x3cb7c91b	0.022434762
19	0x3d60a7a5	0.05484738
20	0x3e8b0dd5	0.2715899
21	0x3e85593e	0.2604465
22	0x3cbc57ed	0.022991145
23	0x3a488057	0.00076485187
24	0x3e194d83	0.14970975
25	0x3e3630fc	0.17792124
26	0x3dcf814e	0.10132085
27	0x3c3ab09a	0.011394644
28	0x3d9c69de	0.0763738
29	0x3ded721c	0.1159403
30	0x3dccbb06	0.099966094
31	0x3e8b4d6d	0.2720751
32	0x3ddd34c3	0.10801079
33	0x3e3f50a5	0.18683107
34	0x3e473a20	0.19455767
35	0x3d9879f4	0.07445136
36	0x3c45f06a	0.012081245
37	0x3d9babac	0.07601103
38	0x3da3d656	0.07999866
39	0x3e69dd99	0.22838439
40	0x3e0d2f07	0.13787471
41	0x3e542ad2	0.2071946
42	0xbb79ab4f	-0.0038096493
43	0xbdff1028	-0.124542534
44	0x3ddccf14	0.107816845
45	0x3de5d3c7	0.11222034
46	0x3e135d7b	0.14391129
47	0x3c9016fa	0.017589081
48	0x3dad5a4a	0.08464487
49	0x3e431ce2	0.19053987
50	0x3e1900ec	0.14941758
51	0x3dbf01e6	0.09326534
52	0x3cb87c2f	0.022520153
53	0xbda46d08	-0.080286086
54	0x3e2fdeeb	0.1717488
55	0x3cf390b4	0.029732086
56	0x3c306825	0.0107670175
57	0x3e06f7b7	0.13180433
58	0x3e32bd85	0.17455108
59	0x3e8ff81d	0.28118983
60	0x3e37c511	0.17946269
61	0x3e687ef0	0.22704673
62	0x3ba6e56b	0.0050932667
63	0x3e1d7441	0.15376379
64	0xbd8a2f1d	-0.067472674
65	0x3cc8ecd4	0.024526991
66	0x3e298eb5	0.16558345
67	0xbd65feff	-0.056151386
68	0x3ca52a0a	0.020161647
69	0xbd96e8b7	-0.073686056
70	0x3e155ea7	0.14586888
71	0x3d8a30ca	0.06747587
72	0x3d819214	0.0632669
73	0x3d1459b2	0.036218353
74	0x3d8dd235	0.069248594
75	0x3cafe611	0.021472009
76	0xbdbb7441	-0.09153033
77	0x3e2f1dac	0.17101163
78	0x3dcc37ec	0.09971604
79	0x3d81c97d	0.06337259
80	0x3df71767	0.120650105
81	0xbcca7691	-0.02471474
82	0x3e1dabae	0.15397522
83	0x3dedc3fe	0.11609648
84	0x3c498f01	0.012302161
85	0xbce45440	-0.027872205
86	0xbcea0d87	-0.028570903
87	0x3d2d49cf	0.042306717
88	0x3e88b817	0.2670295
89	0xbdc4200f	-0.09576427
90	0x3dc415cf	0.09574472
91	0x3cc1ef73	0.023673749
92	0x3d3c5e4a	0.04598836
93	0x3e2bf863	0.16793971
94	0x3e06d759	0.13168086
95	0x3c27309c	0.0102044605
96	0x3e47b82c	0.1950385
97	0x3dfa470e	0.12220584
98	0x3d7dc611	0.06195647
99	0x3e820e9a	0.25401765
100	0x3d03d7de	0.03218829
101	0x3d9146d0	0.070935845
102	0x3ded977b	0.11601158
103	0x3e092976	0.13394722
104	0x3e318bd0	0.1733849
105	0x3e5148f5	0.20437987
106	0x3e096744	0.13418299
107	0x3df8d845	0.12150625
108	0x3d199c5e	0.03750264
109	0x3e819a52	0.2531305
110	0x3df1f7da	0.11814852
111	0x3e4a5d60	0.19762182
112	0xbcb3447f	-0.021883247
113	0xbb23ac92	-0.0024974686
114	0xbc9abff2	-0.018890355
115	0x3d62579f	0.055259343
116	0x3df4324b	0.11923655
117	0xbcdaf7f8	-0.026729569
118	0x3cf95128	0.030434206
119	0x3e77531b	0.24152796
120	0x3d9c1a28	0.076221764
121	0x3b6486f4	0.0034870477
122	0x3dc65a05	0.096851386
123	0x3cd4c3be	0.025972243
124	0x3e41e583	0.18935208
125	0xbdea6083	-0.114441894
126	0x3e455ff2	0.19274881
127	0x3ddd8dc9	0.10818059
128	0xbd90a5d8	-0.07062882
129	0xbd5870ec	-0.052842066
130	0xbd9219e4	-0.071338445
131	0x3e260ff7	0.16217028
132	0x3dacb0fd	0.08432195
133	0x3d5d67ca	0.05405406
134	0x3e11e84c	0.1424877
135	0x3e7d6520	0.24745607
136	0xbd291d5c	-0.041287765
137	0x3d808568	0.06275445
138	0x3d9b4393	0.07581248
139	0x3de6b624	0.11265209
140	0x3db36f37	0.08761447
141	0x3cd244e1	0.02566761
142	0x3e884ecd	0.2662262
143	0x3c2f06ba	0.010682756
144	0xbdfcfed5	-0.12353293
145	0x3e073454	0.13203555
146	0x39e011ae	0.00042737782
147	0x3e310328	0.1728636
148	0xbdf0bc23	-0.11754634
149	0x3d4c2c63	0.049847018
150	0xbd8a1c00	-0.06743622
151	0x3e0b2304	0.13587576
152	0x3d3eb21a	0.04655657
153	0x3e07862c	0.13234776
154	0x3e212470	0.15736556
155	0x3aca30ba	0.0015425899
156	0x3e5be36c	0.21473473
157	0x3ccb1c97	0.024793906
158	0x3e3b2982	0.18277553
159	0x3dfdeaf8	0.12398332
160	0xbd7385ea	-0.059453882
161	0xbd72e406	-0.05929949
162	0xbdf1b241	-0.11801577
163	0xbe0f84b8	-0.14015472
164	0xbda7851d	-0.08179686
165	0xbd2e1df0	-0.04250902
166	0x3dfb59b3	0.12272968
167	0x3e2a5af2	0.16636255
168	0x3d4682ac	0.048464462
169	0x3e009695	0.12557442
170	0xbd81790e	-0.063219175
171	0xba52a567	-0.0008035511
172	0xbd854fcb	-0.0650936
173	0x3e1625e5	0.14662893
174	0xbdc0b1d5	-0.09408919
175	0x3da56425	0.08075742
176	0xbd347a04	-0.044061676
177	0x3d89b1aa	0.0672334
178	0xbd495875	-0.049156625
179	0x3d6b2856	0.057411514
180	0x3df3c39c	0.11902544
181	0x3e14ac01	0.1451874
182	0x3dc5aca6	0.09652071
183	0xbdb240a0	-0.087037325
184	0xbca051a3	-0.019570177
185	0xbc8e665a	-0.01738279
186	0x3daab286	0.08334832
187	0x3e0ee8af	0.13955949
188	0x3e137158	0.14398706
189	0xbe175dd3	-0.14781885
190	0x3da16e06	0.078823134
191	0x3d886c47	0.06661277
192	0x3dadd2db	0.08487483
193	0x3a1c9c67	0.00059742335
194	0x3da799f1	0.08183659
195	0x3daef262	0.085423246
196	0x3e92c0dc	0.28662765
197	0x3ba4df4d	0.0050315023
198	0x3d6530ab	0.055954617
199	0xbe120aae	-0.14261886
200	0xbd8e2e9f	-0.06942486
201	0x3dc233dd	0.094825484
202	0xbce968cd	-0.028492356
203	0xbc30cba1	-0.010790736
204	0x3e0f2a24	0.13980919
205	0xbdb35963	-0.087572835
206	0x3cee2ef1	0.029075118
207	0x3ce22645	0.027606139
208	0xbcb16ccf	-0.02165833
209	0x3e3800f0	0.17969108
210	0x3e1b6873	0.15176563
211	0x3e22e18f	0.15906356
212	0x3d4733d1	0.0486334
213	0x3e2cd204	0.1687699
214	0xbe2a6417	-0.16639744
215	0x3d7c75f7	0.061635938
216	0xbe117b09	-0.1420709
217	0x3da720d8	0.08160561
218	0x3e2ea459	0.17054881
219	0xbc835f20	-0.01603657
220	0xbc675149	-0.014118501
221	0x3e9513f6	0.2911679
222	0xbd58e9b3	-0.052957248
223	0x3d0cc2a0	0.034365296
224	0xbba35bdc	-0.0049853157
225	0x3db55090	0.08853257
226	0x3cb4f781	0.022090675
227	0xbc7b3d49	-0.015334436
228	0xbd3fe74b	-0.046851438
229	0xbdf1c6f3	-0.11805525
230	0x3d861010	0.065460324
231	0xbe12cbe0	-0.14335585
232	0x3e03b288	0.12861073
233	0x3d8b384a	0.06797846
234	0xbde83c9d	-0.11339686
235	0xbc4e9815	-0.012609501
236	0xbdf5678f	-0.11982643
237	0x3da1b5fa	0.078960374
238	0x3d68deb9	0.05685303
239	0xbe975204	-0.2955476
240	0xbe270e87	-0.16314135
241	0xbcec3017	-0.028831525
242	0xbd09df99	-0.033660505
243	0x3d84a132	0.06476058
244	0x3e300b32	0.1719177
245	0x3d9bac78	0.07601255
246	0xbcbbf622	-0.022944514
247	0x3db96bfd	0.090538
248	0x3d5026c3	0.050818216
249	0x3e711f9f	0.23547219
250	0x3ce1fe92	0.027587209
251	0x3ddac234	0.106815726
252	0x3d9d12ca	0.07669599
253	0xbc66f706	-0.014096981
254	0xbe103380	-0.14082146
255	0x3e26d29d	0.1629128

weight_ih_l0_reverse f4 [384, 32]
0	0xbaea4b92	-0.0017875305
1	0x3dcd614c	0.100283235
2	0x3ca4ae7b	0.02010273
3	0xbd955304	-0.072912246
4	0x3e41589a	0.18881455
5	0x3ec30213	0.3808752
6	0x3e057312	0.13032177
7	0x3d0354c6	0.032063268
8	0xbcf07de0	-0.029356897
9	0x3e83a0f9	0.2570875
10	0x3dd2f43f	0.103004925
11	0x3d7db56f	0.061940607
12	0xbddb0b6e	-0.106955394
13	0x3e258f4c	0.16167945
14	0xbe6a032d	-0.22852774
15	0xbd4a52cc	-0.049395368
16	0xbdbdd31f	-0.09268784
17	0x3ebff559	0.37491873
18	0xba535d66	-0.00080629287
19	0x3e0ca43c	0.13734525
20	0x3dab4a23	0.0836375
21	0x3d6e46e6	0.058173083
22	0x3e7b866e	0.24563
23	0x3e8a779c	0.2704438
24	0x3e4055b7	0.18782698
25	0x3e4ed86b	0.20199744
26	0x3c377b6d	0.011198861
27	0x3dfa3792	0.122176304
28	0x3d825807	0.06364446
29	0x3af064ca	0.0018340584
30	0xbe0f0dc2	-0.13970092
31	0xbdd71512	-0.10502066
32	0x3dbe484f	0.092911355
33	0x3d4d6081	0.05014086
34	0x3eb98031	0.36230615
35	0x3e676097	0.2259544
36	0x3ce2595b	0.027630499
37	0x3e2584af	0.16163896
38	0x3dbbe4c9	0.09174497
39	0x3e454cb9	0.19267549
40	0x3e1c4bdf	0.15263318
41	0xbcaec228	-0.021332815
42	0xbde594f0	-0.11210048
43	0x3e7cf19f	0.24701546
44	0x3c019782	0.007909657
45	0x3e039c70	0.12852645
46	0x3a76fe07	0.00094220083
47	0x3e05dc5f	0.13072346
48	0xbe10e960	-0.14151525
49	0x3e39aa1f	0.18131302
50	0xbd085c73	-0.03329129
51	0x3dac2db7	0.08407157
52	0xbdd06da6	-0.10177164
53	0x3dbb1476	0.09134762
54	0x3c8b0a2d	0.016972626
55	0x3de72b68	0.11287576
56	0xbc1c8d24	-0.009555135
57	0x3dc27a63	0.09496
58	0x3e3e8c92	0.18608311
59	0x3d6b529e	0.057451837
60	0x3ce37196	0.027764123
61	0x3d36c0b2	0.044617362
62	0x3e17333b	0.14765637
63	0x3d2e1040	0.042495966
64	0xbc2050a6	-0.009784853
65	0x3ebb0373	0.3652607
66	0x3e2fba87	0.17160998
67	0x3d0c2bfc	0.034221634
68	0x3d6800ee	0.05664151
69	0xbdabe299	-0.083928294
70	0xbdecb47c	-0.11557862
71	0x3da78f6a	0.08181651
72	0xbde065c2	-0.10956909
73	0xbdc40a4d	-0.09572277
74	0x3d0dcfc4	0.03462197
75	0x3e74c956	0.23904929
76	0xbe3d1bab	-0.18467586
77	0xbda63d90	-0.08117211
78	0xbd0f1f7c	-0.034942135
79	0x3d1beb43	0.03806616
80	0x3e2526c4	0.16128069
81	0x3c918b97	0.017766757
82	0x3e017542	0.12642387
83	0x3cb3036f	0.021852223
84	0x3dc03202	0.09384538
85	0x3cb1fbd0	0.021726519
86	0x3e079fad	0.13244505
87	0x3cafbccd	0.021452332
88	0x3db1c977	0.086810045
89	0x3e187b04	0.14890677
90	0x3e15e5b3	0.14638405
91	0x3deac2e1	0.114629515
92	0x3e70b62a	0.2350699
93	0x3dbf4419	0.093391605
94	0x3cadcaff	0.02121496
95	0x3d09ff8b	0.03369097
96	0xbea34a35	-0.31892553
97	0xbd0741de	-0.0330218
98	0xbe1b4816	-0.15164217
99	0xbb81374c	-0.0039433595
100	0x3bee480c	0.0072717723
101	0xbd18b521	-0.037282113
102	0x3e43f598	0.19136655
103	0xbcb8182c	-0.022472464
104	0x3e3f08f9	0.18655767
105	0x3c82caed	0.015965903
106	0xbda4f085	-0.08053688
107	0x3e2c7fb0	0.16845584
108	0xbe34d023	-0.17657523
109	0xbab7546c	-0.0013986952
110	0x3cfa8f0b	0.030585786
111	0x3c0f7615	0.00875618
112	0x3dd85f9e	0.105651125
113	0x3d81c145	0.06335691
114	0x3d004bf5	0.03132244
115	0x3e51b3f8	0.20478809
116	0xbdebb4fb	-0.11509129
117	0xbd561f8d	-0.052276183
118	0x3d66f5cf	0.056386765
119	0xbdcb0b76	-0.099142954
120	0x3e016b6f	0.12638639
121	0x3dca6d1b	0.098840915
122	0xbc7a75a4	-0.015286837
123	0xbda15962	-0.078783765
124	0xbc2c787e	-0.010526774
125	0xbd315f97	-0.043304052
126	0xbd510c57	-0.05103716
127	0xbcaf6fac	-0.021415554
128	0xbd9be7b8	-0.07612556
129	0x3e6d069b	0.23147051
130	0xbcadb274	-0.021203257
131	0x3bdd150f	0.006746895
132	0xbe31be94	-0.17357856
133	0xbdc461ee	-0.09588991
134	0x3c3128c1	0.010812939
135	0x3dc54917	0.096330814
136	0xbd6b2304	-0.05740644
137	0xbe0bf23c	-0.13666624
138	0xbc8bd28b	-0.017068168
139	0x3cda6fdd	0.026664669
140	0xbd818a21	-0.06325174
141	0xbc254689	-0.010087618
142	0xbb63e55a	-0.0034774155
143	0x3c9ad5b2	0.018900726
144	0x3e26a0bb	0.16272251
145	0x3e01c81d	0.12673993
146	0x38fc65b5	0.00012035241
147	0x3c5b86de	0.013398854
148	0x3dd23014	0.102630764
149	0x3e32fcd0	0.17479253
150	0x3e3821f0	0.17981696
151	0x3e4156d6	0.18880782
152	0x3e579e19	0.21056403
153	0x3e612477	0.21986566
154	0x3e288dc0	0.16460323
155	0x3e2f4682	0.1711674
156	0x3dc19ccc	0.09453735
157	0x3e2bb944	0.16769892
158	0x3da63dc3	0.08117249
159	0x3dc2f733	0.09519806
160	0xbe437de2	-0.19090989
161	0x3dcf9041	0.10134936
162	0x3c9ac250	0.018891484
163	0x3db87259	0.09006185
164	0xbdc94f39	-0.09829564
165	0xbd3a4d0e	-0.04548364
166	0x3ddee4d4	0.10883489
167	0xbd9b6d23	-0.075891756
168	0x3dbf7871	0.09349144
169	0x3e530b12	0.20609692
170	0xbdb161fe	-0.08661269
171	0x3c4e2257	0.012581429
172	0xbd367dba	-0.044553496
173	0x3c944a53	0.018101847
174	0x3c0fa104	0.008766416
175	0x3d836d8d	0.064173795
176	0x3d9ab2a8	0.07553607
177	0x3e2c64aa	0.16835275
178	0x3e304f75	0.1721781
179	0x3d28ac77	0.0411801
180	0x3c029a40	0.007971346
181	0x3d6a874d	0.05725794
182	0x3d880c7d	0.06643007
183	0x3d4c4426	0.04986968
184	0x3dadebd3	0.084922455
185	0x3bcfb9ed	0.0063393028
186	0x3cf7eafd	0.030263418
187	0x3d2d920f	0.04237562
188	0x3e1f5733	0.15560608
189	0x3e2b0817	0.16702305
190	0x3df58a2a	0.11989243
191	0x3e1fdcd5	0.15611584
192	0xbd91e9e5	-0.0712469
193	0x3e2a16b2	0.1661022
194	0xbc97642b	-0.018480381
195	0xbd97afd2	-0.07406582
196	0x3c74dd94	0.0149454065
197	0xbdbbcd85	-0.09170059
198	0xbd7a9baf	-0.061183628
199	0xbdcd8bfa	-0.10036464
200	0xbc8a8e96	-0.016913693
201	0x3dabada1	0.083827265
202	0x3d5dbfa6	0.05413785
203	0xbe6f34f8	-0.2336005
204	0xbe82f00a	-0.2557376
205	0xbe618e32	-0.220269
206	0xbded0dec	-0.11574921
207	0x3ea23b84	0.31686032
208	0x3dce4ff3	0.10073843
209	0xbe1241e6	-0.14282951
210	0xbe9010c5	-0.28137794
211	0xbeaa6732	-0.33281857
212	0xbde069d9	-0.10957689
213	0x3d879488	0.06620127
214	0x3d4b2f5e	0.04960572
215	0x3cf765a3	0.030199831
216	0x3d714ca2	0.058910973
217	0x3e09f9a2	0.13474134
218	0x3da11acd	0.0786644
219	0x3d5fd3ee	0.05464547
220	0xbdb86f5a	-0.090056136
221	0xbd370ea9	-0.044691715
222	0xbda9e000	-0.08294678
223	0xbdef203c	-0.1167607
224	0xbd875d3a	-0.066095784
225	0x3e52283b	0.20523159
226	0xbd97b98c	-0.07408437
227	0x3cedd75b	0.029033354
228	0xbdcc3dba	-0.09972711
229	0x3d056293	0.03256471
230	0xbe2cab6a	-0.16862264
231	0x3d09e9bf	0.033670183
232	0x3de3af05	0.11117367
233	0x3e14bfd6	0.14526305
234	0x3d79f378	0.061023206
235	0x3defa70b	0.11701783
236	0xbd9097cd	-0.07060204
237	0x3d21dae5	0.039515395
238	0xbcb2943c	-0.0217992
239	0x3d569753	0.052390408
240	0xbe16047d	-0.1465015
241	0x3e0be05b	0.13659804
242	0x3d18b78a	0.03728441
243	0x3cf04dad	0.029333914
244	0x3e93c7cd	0.28863373
245	0x3eb71318	0.35756755
246	0x3e00bac9	0.12571253
247	0x3e7670b2	0.24066427
248	0x3e5ef2ad	0.21772261
249	0x3de938db	0.113877974
250	0x3cc13272	0.023583625
251	0x3e7987a4	0.24368149
252	0x3e04e15d	0.12976594
253	0x3e6e6914	0.23282272
254	0x3e2e336d	0.17011805
255	0x3de308c8	0.11085659

weight_hh_l0_reverse f4 [384, 128]
0	0x3b71c8de	0.0036893408
1	0x3c51975c	0.012792435
2	0x3c12cbe7	0.008959747
3	0x3c9f345e	0.01943415
4	0x3decd4bb	0.115640126
5	0x3d95d2b0	0.07315576
6	0x3d9cc8e4	0.07655504
7	0x3e16bbcf	0.14720081
8	0xbebbdd91	-0.3669248
9	0xbda589c3	-0.080829166
10	0x3d5c50be	0.05378794
11	0x3e82cc90	0.25546694
12	0xbba81c61	-0.005130336
13	0xbe571242	-0.21003059
14	0x3ea54dbd	0.32285872
15	0x3c6d60af	0.014488383
16	0xbe4fab4a	-0.20280185
17	0xbe056182	-0.13025478
18	0xbdcf768c	-0.10130033
19	0xbe2c8437	-0.16847311
20	0x3c41a827	0.011819876
21	0x3d60827c	0.05481194
22	0x3e14beea	0.14525953
23	0xbd505337	-0.05086061
24	0xbe263c31	-0.16233899
25	0xbbc0b407	-0.005880836
26	0x3d117245	0.035509367
27	0xbec1b930	-0.378366
28	0x3e054811	0.13015772
29	0x3dab1f83	0.0835562
30	0xbe78dcc7	-0.2430297
31	0xbe6eaec1	-0.23308851
32	0x3e2ce256	0.16883215
33	0xbe1c3168	-0.15253222
34	0xbd645fbd	-0.055755366
35	0x3e44485c	0.19168228
36	0xbe97c2c7	-0.2964079
37	0xbd0cad35	-0.03434487
38	0xbea95505	-0.33072677
39	0xbe02029d	-0.1269631
40	0x3d883c50	0.06652129
41	0xbe51393d	-0.20431991
42	0xbdce3359	-0.100683875
43	0xbd967e3b	-0.07348295
44	0xbea31aee	-0.31856483
45	0xbe9f1a3c	-0.31074703
46	0xbe0de202	-0.13855746
47	0xbe142264	-0.14466244
48	0xbe3c2179	-0.18372144
49	0x3a56df95	0.00081967685
50	0xbecdf18a	-0.40223342
51	0xbee1c122	-0.4409266
52	0xbd38c344	-0.045108095
53	0xbe5255c7	-0.20540534
54	0xbe23e361	-0.16004707
55	0x3e8324d7	0.25614044
56	0xbd960332	-0.07324828
57	0xbd64e64b	-0.055883687
58	0x3cec00d5	0.02880899
59	0xbddf0821	-0.10890222
60	0x3eae7d3c	0.3407992
61	0xbd6bbc48	-0.057552606
62	0xbd6dcced	-0.05805676
63	0x3dab439d	0.083625056
64	0xbe16742a	-0.1469275
65	0x3e843800	0.25823975
66	0xbec28e1e	-0.37999052
67	0xbe8a0e2f	-0.26963946
68	0xbdefcc9b	-0.11708947
69	0xbc05a936	-0.008158019
70	0x3d5e35e1	0.0542506
71	0x3d04f2e4	0.0324582
72	0x3e240334	0.16016847
73	0xbd26b5a2	-0.040700562
74	0x3c8abf6d	0.016936982
75	0xbe0189cd	-0.12650223
76	0xbeccbec5	-0.39989296
77	0xbe2a3529	-0.16621841
78	0x3caedb1b	0.021344712
79	0xbe0d7b10	-0.13816476
80	0x3dcf3eae	0.10119377
81	0x3dfb8d86	0.12282853
82	0xbeabe044	-0.3356954
83	0x3d6f30cc	0.058396146
84	0xbdd66301	-0.10468102
85	0x3dfc0e6c	0.12307438
86	0xbe55bfd8	-0.20873964
87	0xbd0c4b04	-0.034251228
88	0xbdc831e6	-0.09775142
89	0x3e078b32	0.13236693
90	0x3e713a64	0.2355743
91	0x3ebbb1fe	0.36659235
92	0x3d6b4ee8	0.057448298
93	0x3c0d3955	0.008619626
94	0x3c79c504	0.015244726
95	0x3c6ad348	0.0143326
96	0xbeb50576	-0.3535573
97	0xbe915f09	-0.2839282
98	0xbd9f3245	-0.0777326
99	0x3dfa1ff3	0.12213125
100	0x3ed606f9	0.41802195
101	0xbe50e317	-0.20399128
102	0xbe89e160	-0.2692976
103	0x3e200f29	0.15630783
104	0xbb166c0b	-0.0022952582
105	0x3e411629	0.1885611
106	0xbcaa2b1b	-0.020772507
107	0x3e1bcd62	0.15215066
108	0x3e05cad6	0.13065657
109	0x3e7679ba	0.24069872
110	0xbd0680f3	-0.03283782
111	0xb8f7128f	-0.000117813346
112	0x3dde61a0	0.10858464
113	0x3e207112	0.15668133
114	0xbdcc4764	-0.09974554
115	0xbe743c60	-0.23851156
116	0xbe84c909	-0.25934628
117	0x3e83e99c	0.25764167
118	0xbe069b12	-0.13145092
119	0xbc857e70	-0.016295642
120	0x3dbac573	0.09119692
121	0x3da73586	0.08164506
122	0xbd4c805c	-0.0499271
123	0xbbb1b337	-0.0054229754
124	0x3d9e8b1e	0.07741378
125	0xbe28b4f5	-0.1647528
126	0x3e099727	0.13436566
127	0xbe5b3f22	-0.21410802
128	0xbc6a1339	-0.01428681
129	0xbd266f1f	-0.040633317
130	0xbdd149ce	-0.10219155
131	0x3d12386e	0.035698347
132	0xbe31f2a0	-0.1737771
133	0xbe03aa52	-0.12857941
134	0x3e732f5d	0.23748536
135	0x3de526a2	0.11189009
136	0xbd96b340	-0.07358408
137	0x3ec47c85	0.3837625
138	0x3e042fd6	0.12908873
139	0xbd5e17fa	-0.054222085
140	0xbe2f74ff	-0.17134474
141	0xbdc8bd50	-0.098017335
142	0xbe647ade	-0.22312495
143	0x3dd2f172	0.10299958
144	0xbe348b52	-0.17631271
145	0xbe6d17f3	-0.23153667
146	0xbd436afd	-0.047709454
147	0x3df790cf	0.12088167
148	0x3e56c153	0.20972185
149	0x3c0d0e63	0.008609387
150	0xbc7622b6	-0.015022924
151	0x3d362789	0.044471297
152	0xbd2c37ae	-0.042045288
153	0x3e7fa6cd	0.24965973
154	0xbea0d840	-0.31414986
155	0xbe7dc5e3	-0.24782519
156	0xbe133142	-0.14374259
157	0xbe7e24fc	-0.24818796
158	0x3e2c560c	0.168297
159	0x3e1b291d	0.15152402
160	0xbd9fb517	-0.07798212
161	0x3bd3f5e1	0.00646852
162	0xbe24aef4	-0.16082364
163	0x3c1d24d7	0.009591303
164	0x3d2d4852	0.0423053
165	0x3e5bd20c	0.21466845
166	0xbc7bf714	-0.015378732
167	0x3e4e5d4b	0.20152776
168	0x3e14585d	0.14486833
169	0xbd4d9ef1	-0.050200406
170	0x3db59144	0.08865598
171	0x3e14395d	0.14475007
172	0x3d229473	0.039692353
173	0x3de121fb	0.109928094
174	0x3b9f5739	0.0048626927
175	0x3e9814f1	0.29703477
176	0xbd97aa95	-0.07405583
177	0x3eb43e8d	0.35203972
178	0x3dd6a2c6	0.10480265
179	0xbbac6563	-0.0052611097
180	0xbd837cbb	-0.06420275
181	0x3d0696ae	0.032858543
182	0x3d24dcf0	0.040249765
183	0x3e02c4ab	0.12770335
184	0x3e7f54d1	0.24934699
185	0xbd56f037	-0.05247518
186	0x3ddcb1f1	0.10776127
187	0x3e88ddb3	0.26731643
188	0x3e03b9e1	0.12863876
189	0xbedd7af6	-0.43257874
190	0x3e2d5ef5	0.16930754
191	0x3dcd1997	0.100146465
192	0xbde70abc	-0.11281344
193	0xbdd80df3	-0.105495356
194	0x3e62361e	0.22090957
195	0xbe0e211f	-0.13879822
196	0xbda4a471	-0.08039177
197	0xbd02d7b3	-0.031943988
198	0xbd747e80	-0.059690952
199	0x3d8a4150	0.067507386
200	0x3dabf362	0.08396031
201	0xbd16f752	-0.036856957
202	0xbe18a732	-0.1490753
203	0x3daea145	0.085268535
204	0xbeb3ff37	-0.3515565
205	0x3d742cf2	0.059613176
206	0xbc86f366	-0.016473483
207	0x3e3e7f09	0.18603148
208	0xbebc17d9	-0.36736944
209	0xbe9e6fab	-0.3094457
210	0xbd07430e	-0.033022933
211	0x3d6bac4b	0.05753736
212	0x3db6c1d7	0.08923691
213	0xbde0e910	-0.10981953
214	0x3cfadaed	0.03062197
215	0x3de34f3d	0.11099098
216	0x3e3de678	0.18544948
217	0xbde40ba4	-0.11135033
218	0xbe0ec89f	-0.13943718
219	0xbeac131c	-0.3360833
220	0xbd12a4fb	-0.03580187
221	0xbe2a433b	-0.16627209
222	0xbd23b130	-0.0399639
223	0x3dbf165b	0.09330436
224	0xbe8ba952	-0.2727762
225	0xba387018	-0.0007035746
226	0x3d2a3c49	0.0415614
227	0xbd4d7fcf	-0.050170716
228	0x3c8e4913	0.017368829
229	0xbd79eb28	-0.061015278
230	0x3e814f9c	0.2525605
231	0xbd6c4069	-0.057678614
232	0xbe4a7e95	-0.1977485
233	0xbd51ec04	-0.051250473
234	0xbeb9ce5b	-0.3629025
235	0xbe29c6dc	-0.16579765
236	0xbd0e88b3	-0.034798335
237	0x3dd29c24	0.10283688
238	0xbe07788f	-0.13229583
239	0xbda0571c	-0.07829115
240	0xbe81902f	-0.25305316
241	0xbd318ac2	-0.04334522
242	0x3d97b9ea	0.07408507
243	0x3e260aab	0.16215007
244	0x3c470fd9	0.0121497745
245	0xbd80da45	-0.062916316
246	0xbdd0b18e	-0.10190116
247	0x3e6c1092	0.23053196
248	0xbd180fb2	-0.037124343
249	0xbcf45408	-0.029825225
250	0x3e580f97	0.21099697
251	0x3dd925ba	0.10602899
252	0xbe234bdc	-0.15946907
253	0xbe4bebac	-0.1991412
254	0xbc761f3c	-0.015022095
255	0xbd0d8852	-0.034553833

bias_ih_l0_reverse f4 [384]
0	0x3a4c556c	0.0007794711
1	0x3de8b15b	0.11361953
2	0x3dd0eb5d	0.10201142
3	0xbc43ae8b	-0.01194347
4	0x3d904464	0.070442945
5	0x3e04054b	0.12892644
6	0xbd315e2a	-0.043302692
7	0x3e571a3e	0.21006104
8	0x3e217c0f	0.15769981
9	0x3de207d9	0.11036653
10	0x3e133e3d	0.14379211
11	0x3e4331b3	0.19061927
12	0xbdc5caca	-0.096578196
13	0x3e2b718b	0.16742532
14	0x3e50a920	0.20377016
15	0xbc8dc4cb	-0.017305752
16	0xbd83c3b2	-0.0643381
17	0x3cbd6b60	0.02312249
18	0x3e37386e	0.1789262
19	0x3bdd84df	0.0067602242
20	0x3e04366c	0.12911385
21	0xbd5f3073	-0.054489564
22	0x3c8e2cbd	0.017355317
23	0x3da0927e	0.07840441
24	0x3e180418	0.14845312
25	0x3df153e3	0.11783578
26	0x3d888db0	0.0666765
27	0x3e6ac50f	0.22926734
28	0x3e325a23	0.17417197
29	0x3d8c0757	0.068373375
30	0xbd9bd039	-0.07608075
31	0x3ddd103c	0.10794112
32	0x3d7bf848	0.061516076
33	0x3d918f6a	0.07107432
34	0x3c8b4a7f	0.017003296
35	0xbc5f08f1	-0.013612972
36	0x3da3903f	0.07986497
37	0x3e88a3d9	0.26687506
38	0x3d589d34	0.052884296
39	0x3df57075	0.1198434
40	0xbc9dee2a	-0.019278605
41	0x3d996464	0.07489851
42	0x3e518b20	0.20463228
43	0x3e16492c	0.1467635
44	0x3e536d4d	0.20647164
45	0x3c88d885	0.016704807
46	0x3cf8ec8f	0.030386237
47	0x3dc87054	0.0978705
48	0xbe0f26ae	-0.13979599
49	0xbae0d6c2	-0.0017153847
50	0x3d8083f8	0.06275171
51	0x3e02db6e	0.12779018
52	0xbe2ab5ab	-0.16670863
53	0xbcbe25d7	-0.023211403
54	0x3e63912c	0.22223347
55	0x3d35b4b7	0.044361796
56	0x3dc0810c	0.09399614
57	0x3e33bab4	0.1755169
58	0xbdece4a8	-0.1156705
59	0x3de0c4a1	0.10975004
60	0x3e322a76	0.1739901
61	0xbbd874d7	-0.0066057253
62	0x3deb9837	0.11503642
63	0x3de29efe	0.110654816
64	0x3e04e072	0.12976244
65	0x3e57d918	0.21078908
66	0x3e641ff5	0.22277816
67	0xbda0d00b	-0.07852181
68	0x3e8066fb	0.25078568
69	0x3e1b28a1	0.15152217
70	0x3d89ae9a	0.06722756
71	0x3d3bc6bd	0.04584383
72	0xb9a268e8	-0.0003097721
73	0x3e8ce3ee	0.27517647
74	0xbcbfcc89	-0.02341296
75	0x3d00b7bb	0.03142522
76	0x3dfb4c7c	0.122704476
77	0x3e7607e7	0.24026452
78	0x3dc85e66	0.0978363
79	0x3e2409b0	0.1601932
80	0x3e224fed	0.15850802
81	0xbdcdce06	-0.100490615
82	0x3e63250e	0.22182104
83	0x3df52e75	0.119717516
84	0x3db54953	0.08851876
85	0x3e1284a2	0.14308408
86	0xbcf51f3e	-0.029922124
87	0x3e115020	0.14190722
88	0x3e2ce9f2	0.16886118
89	0x3e4c2156	0.19934592
90	0x3e588dfb	0.21147911
91	0xbc5d56f7	-0.013509504
92	0x3d92bf61	0.07165409
93	0x3dba1fd9	0.09088106
94	0x3e63200a	0.2218019
95	0x3d904c0f	0.07045757
96	0x3da24ffb	0.07925411
97	0x3ddfef51	0.10934318
98	0xbd4f8453	-0.050663304
99	0x3e948f9e	0.2901582
100	0x3e606f20	0.21917391
101	0x3d676650	0.056494057
102	0xbd0f7420	-0.035022855
103	0x3dc0bb34	0.09410706
104	0x3e6209d2	0.22074059
105	0x3c8c22bf	0.017106412
106	0x3dfe5e48	0.124203265
107	0x3b94bb79	0.00453895
108	0x3da50942	0.080584064
109	0x3dee18df	0.116258375
110	0x3cb7b3c4	0.022424586
111	0xbe12b919	-0.14328422
112	0x3e254ee8	0.16143382
113	0x3d93b820	0.072128534
114	0x3d842e6b	0.06454166
115	0x3d762fe6	0.060104273
116	0xbd84cf6b	-0.06484874
117	0x3d4f2942	0.050576456
118	0x3dedf824	0.11619595
119	0x3d94b093	0.07260241
120	0x3d480c02	0.048839577
121	0x3e169f6d	0.14709254
122	0x3e6d0d06	0.231495
123	0x3d9bfb92	0.076163426
124	0x3e4b0f33	0.19830017
125	0x3e249078	0.16070735
126	0x3d166807	0.036720302
127	0x3e6813e3	0.22663836
128	0x3a00ab8a	0.0004908374
129	0x3d8ceb8c	0.068808645
130	0xbbcf9d91	-0.006335922
131	0xbe2d3b35	-0.16917117
132	0x3c80c6d0	0.015719801
133	0x3e03b2ef	0.12861226
134	0xba5f5152	-0.00085188926
135	0xbda35a56	-0.079762146
136	0x3e1c2a4a	0.15250507
137	0x3e1bf07f	0.1522846
138	0xbd5eef4c	-0.05442743
139	0xbdb6371d	-0.08897231
140	0x3d5d3448	0.054004937
141	0x3dcfaa14	0.10139862
142	0xbbb974cc	-0.005659675
143	0x3e0ace49	0.13555254
144	0xbd149264	-0.03627242
145	0x3d83cc76	0.06435482
146	0x3dff2a3f	0.1245923
147	0x3cb43a97	0.022000594
148	0xbd92f8fa	-0.07176395
149	0xbd6b54f7	-0.057454076
150	0x3eaa3e5b	0.33250698
151	0xbdd070f7	-0.10177796
152	0xbe2d13a5	-0.16902025
153	0x3d6c6718	0.057715505
154	0xbdbe0569	-0.09278376
155	0x3dbe12d9	0.09280939
156	0xbe6e93fd	-0.2329864
157	0x3daaa8e5	0.08332995
158	0x3e5720f3	0.21008663
159	0x3d94d148	0.0726648
160	0xbdbacb1a	-0.0912077
161	0xbc3bd8e8	-0.011465289
162	0xbe00c0a7	-0.12573491
163	0xbd7b9d9c	-0.061429605
164	0x3e396672	0.18105486
165	0x3d4641f2	0.048402734
166	0x3d76c03e	0.06024193
167	0xbe2f7812	-0.17135647
168	0x3e49adf1	0.1969526
169	0xbd2bc2f2	-0.04193396
170	0x3daf2351	0.08551658
171	0xbcdd4c6c	-0.02701398
172	0x3e55fd10	0.20897317
173	0x3ad70a94	0.0016406351
174	0x3e033060	0.12811422
175	0xbd23e058	-0.040008873
176	0x3dcab0e1	0.09897018
177	0x3d0afb9c	0.03393136
178	0x3bf52cb1	0.0074821343
179	0x3d2aa546	0.041661523
180	0x3e33e47c	0.17567629
181	0xbdb68a6a	-0.08913119
182	0xbc9dda9a	-0.019269276
183	0xbd887f87	-0.06664949
184	0xbd9c5bfc	-0.07634732
185	0x3e34e5b3	0.17665748
186	0x3d7d7b38	0.06188509
187	0x3dbfd53f	0.09366845
188	0x3d82034c	0.06348285
189	0xbe200b17	-0.1562923
190	0x3d28c7d5	0.0412062
191	0x3d93feb5	0.07226316
192	0x3cc99035	0.024604896
193	0x3ddfa59c	0.10920259
194	0x3dbaaffb	0.09115597
195	0xbe2f7849	-0.17135729
196	0xbe19a4f2	-0.15004328
197	0x3e3fccf8	0.18730533
198	0x3c6f161a	0.014592672
199	0xbc68e329	-0.014214315
200	0x3e84042a	0.25784427
201	0xbcf43c56	-0.029813927
202	0x3df90aa1	0.121602304
203	0x3d7c0000	0.061523438
204	0x3df9f444	0.12204793
205	0x3d5226e5	0.051306624
206	0x3e1f87a7	0.15579091
207	0xbd03bc90	-0.03216225
208	0xbe4d1972	-0.20029238
209	0x3d970972	0.073748484
210	0xbd1f2e71	-0.03886265
211	0x3d3d475a	0.046210624
212	0xbdafebe2	-0.08589913
213	0xb9e63372	-0.00043907348
214	0x3d9c67e4	0.07637003
215	0x3e423d34	0.1896866
216	0xbc4652aa	-0.01210467
217	0xb9f36a6e	-0.00046427868
218	0x3d83cba4	0.06435326
219	0xbd774a22	-0.060373433
220	0x3e7b9f16	0.24572405
221	0x3c916965	0.017750451
222	0x3d9fc772	0.07801713
223	0x3dd5d337	0.10440677
224	0x3e47d45f	0.19514607
225	0x3e4f963a	0.2027215
226	0x3cc9edfe	0.024649616
227	0xbd852e6b	-0.06502994
228	0x3cfee800	0.031116486
229	0xbe1dd4f1	-0.15413262
230	0x3e3d0f22	0.18462804
231	0xbe30ca32	-0.17264631
232	0x3ccc17f0	0.024913758
233	0x3e4d7dba	0.20067492
234	0xbd74d760	-0.05977571
235	0x3dc2d10d	0.095125295
236	0x3e2bfe3b	0.167962
237	0x3dac91f1	0.084262736
238	0x3d5b9d2f	0.0536167
239	0x3da5b5d3	0.08091321
240	0xbd63ea08	-0.05564311
241	0x3e214d5c	0.15752167
242	0x3db3483f	0.08754014
243	0x3d12e10d	0.035859156
244	0xbe17aa0b	-0.1481096
245	0x3dfaa5d2	0.12238659
246	0x3c85fbc5	0.016355405
247	0x3d9a5887	0.075364165
248	0x3d8de926	0.06929235
249	0x3e6daefa	0.2321128
250	0xbc78f600	-0.01519537
251	0xbce86064	-0.028366275
252	0x3d7aeb1a	0.061259367
253	0xbdc38455	-0.09546725
254	0xbd00b746	-0.031424783
255	0x3c4c9e9d	0.012488988
