models/optimize_PMEmo_VA_2026-01-08_09-38-46.pth (torch, 156508 bytes, 10 tensors)

weight_ih_l0 f4 [192, 32]
0	0x3d97703f	0.07394456
1	0xbd6b6cb2	-0.057476707
2	0x3cd0d0fa	0.025490273
3	0xbbf79389	-0.0075554294
4	0x3b7e44ec	0.0038798405
5	0xbd931a48	-0.07182747
6	0xbda8677d	-0.08222864
7	0xbd3aa58f	-0.045568045
8	0x3d3d0ae2	0.046152957
9	0x3d3aa912	0.045571394
10	0x3d815851	0.06315673
11	0x3d2d15f9	0.042257283
12	0xbde8aed2	-0.11361469
13	0x3d12a2fc	0.035799965
14	0xbc81c5ea	-0.015841443
15	0x3d9cdf4b	0.07659777
16	0xbd987600	-0.07444382
17	0x3e0bebdf	0.13664196
18	0x3d327e45	0.04357745
19	0xbd85bd6c	-0.0653027
20	0xbdb5228e	-0.088444814
21	0x3dd49ce1	0.10381485
22	0xbd1cb282	-0.038256176
23	0xbd6f6940	-0.058449984
24	0xbdbc6bfd	-0.09200285
25	0xbc9d9243	-0.019234782
26	0x3d34a214	0.044099882
27	0x3daa0048	0.08300835
28	0xbca9fe7e	-0.020751234
29	0xb9cddd19	-0.00039265378
30	0xbb4087b8	-0.002937777
31	0xbd3d4bb9	-0.046214793
32	0x3d2908f1	0.041268293
33	0xbcf447d9	-0.029819416
34	0xbd8b8cb3	-0.068139456
35	0xbba0b493	-0.0049043386
36	0x3c92fe6f	0.017943589
37	0xbd7e0a5c	-0.0620216
38	0xbd1cea2f	-0.038309272
39	0x3d89aab8	0.06722015
40	0xbe1666ea	-0.14687696
41	0x3db0e154	0.08636728
42	0x3d991393	0.074744366
43	0x3d7d7a46	0.061884187
44	0x3d5ef799	0.054435346
45	0xbd6f0d4b	-0.058362287
46	0x3d9f165e	0.07767938
47	0x3b472fb1	0.0030393417
48	0x3dbb390d	0.09141741
49	0xbd8f3b03	-0.069936775
50	0xbd39cfc5	-0.04536416
51	0x3cb61de7	0.022231055
52	0x3ccec6ed	0.02524134
53	0xbd178fb6	-0.037002288
54	0xbd6ca1c2	-0.05777145
55	0xbd872802	-0.06599428
56	0x3a85e36e	0.0010214874
57	0x3d4c3f98	0.049865335
58	0x3d62bdcb	0.055356782
59	0x3dfd8cd5	0.12380377
60	0x3d075850	0.033043206
61	0xbdb41f69	-0.087950535
62	0x3d6bbf2d	0.057555366
63	0x3bb1a617	0.005421411
64	0x396eacd4	0.00022761832
65	0x3d7b8fff	0.061416622
66	0x3d4dd1fe	0.050249092
67	0x3d950b92	0.072775975
68	0x3d13ca41	0.036081556
69	0xbbc77df0	-0.006088011
70	0x3c88aa73	0.016682839
71	0xbc89846e	-0.01678678
72	0x3dba0db5	0.09084646
73	0x3e08d164	0.13361126
74	0xbda7aca9	-0.08187229
75	0x3ba73953	0.005103269
76	0xba93fd92	-0.001129078
77	0x3dd76710	0.105177045
78	0x3c9b956e	0.018992152
79	0x3c9a699e	0.01884919
80	0x3da28242	0.07935001
81	0xbdccafdc	-0.0999448
82	0xbb81c074	-0.00395971
83	0x3e0002c5	0.12501056
84	0xbd82035c	-0.06348297
85	0xbdb91078	-0.09036344
86	0x3bc142e6	0.0058978675
87	0x3d0200ad	0.031738926
88	0x3b1302fd	0.00224322
89	0xbe1168c7	-0.14200126
90	0xbd887239	-0.06662411
91	0xbdc86f53	-0.097868584
92	0xbdaf7bf4	-0.08568564
93	0xbd3823d8	-0.04495606
94	0xbd2c7e42	-0.042112596
95	0xbdd551fb	-0.10416027
96	0x3d593d11	0.053036753
97	0xbb5f7d82	-0.0034101908
98	0xbd4bec9e	-0.049786203
99	0xbd877bd4	-0.06615415
100	0xbd8a487c	-0.067521065
101	0x3dc3d33a	0.09561773
102	0xbbd68ed2	-0.006547787
103	0x3dc1b3fd	0.09458158
104	0x3da3855d	0.079844214
105	0xbc116a34	-0.008875418
106	0xbe0bcc44	-0.1365214
107	0x3dfec86a	0.1244057
108	0xbcad5bb4	-0.021161892
109	0x3ca66a37	0.020314319
110	0x3d8b2fcf	0.06796228
111	0xbd319f03	-0.043364536
112	0xbdab9e73	-0.08379831
113	0xbe05edfe	-0.13079068
114	0xbcd36336	-0.025804143
115	0x3dd0bdf8	0.10192484
116	0x3ddcbedc	0.10778591
117	0xbd67bb53	-0.05657513
118	0x3daaee40	0.08346224
119	0xbd2c86c7	-0.04212072
120	0x3d9e2584	0.07721999
121	0x3d822ba1	0.06355978
122	0xbd9bdc5e	-0.07610391
123	0xbdabfb43	-0.08397534
124	0xbc512c7b	-0.012766953
125	0x3d05bdf4	0.032651857
126	0x3d3d42ee	0.046206407
127	0x3d846426	0.06464414
128	0x3d4fa5d3	0.05069525
129	0x3dddac71	0.10823906
130	0xbbe81110	-0.007082112
131	0x3cc06d36	0.023489576
132	0x3d9f0948	0.07765442
133	0xbdc9b926	-0.098497674
134	0x3cdc8a49	0.026921408
135	0x3dc5d6d1	0.096601136
136	0x3d13d2b8	0.03608963
137	0x3bd3a383	0.006458701
138	0x3b720b3c	0.0036932966
139	0x3d7d6305	0.06186201
140	0x3cf7f1f7	0.030266745
141	0x3cc7c2a4	0.024384804
142	0xbd965646	-0.07340674
143	0x3d383c9a	0.04497967
144	0x3d316071	0.043304864
145	0x3dd8b4da	0.1058137
146	0x3cc6caaa	0.02426656
147	0xbc2ebf03	-0.010665658
148	0xbca3543a	-0.019937623
149	0x3e11ee5d	0.14251085
150	0x3e1a7db6	0.15087017
151	0x3dfabe12	0.12243284
152	0xbd2404da	-0.04004369
153	0x3de05066	0.10952835
154	0x3d74e67b	0.059790116
155	0x3de173d9	0.11008424
156	0x3dbf799c	0.09349367
157	0xbd1a7a37	-0.03771421
158	0x3e0a4ebd	0.13506599
159	0x3b608e83	0.003426463
160	0xbd58d05d	-0.052933086
161	0x3da4516b	0.08023342
162	0x3dfa5450	0.122231126
163	0xbd841c9f	-0.064507715
164	0x3d78ed9e	0.060773484
165	0xbdadd05d	-0.08487008
166	0xbdcad414	-0.09903732
167	0x3df51ca8	0.11968356
168	0xbd0dc83c	-0.034614787
169	0x3dc5ca7c	0.096577615
170	0x3dd2bc5a	0.102898315
171	0x3d051470	0.032490194
172	0x3dd77583	0.105204605
173	0xbc947979	-0.018124329
174	0x3dd31175	0.10306064
175	0x3de52127	0.11187964
176	0x3d8bb7c5	0.06822161
177	0x3dfa3c91	0.122185834
178	0xbd240ba1	-0.040050153
179	0x3e0b07e0	0.13577223
180	0xbd15d37f	-0.03657865
181	0x3de1ef40	0.110319614
182	0x3df214b8	0.11820358
183	0x3e079ece	0.13244173
184	0x3e0dbd6f	0.13841794
185	0xbd4e3c28	-0.05035034
186	0xbdb03334	-0.08603516
187	0xbd44b5b0	-0.048024833
188	0xbd1d93ba	-0.03847096
189	0x3ddb0379	0.10694022
190	0x3e09b311	0.13447215
191	0x3e2871ba	0.16449633
192	0xbcb4be55	-0.022063414
193	0x3c14fb16	0.009093067
194	0x3dd56c3a	0.10421033
195	0x3dc7bde1	0.097530134
196	0x3d61861b	0.055059534
197	0x3cfa2ed4	0.030539908
198	0x3d3ce9e9	0.04612151
199	0xbdc7a725	-0.09748677
200	0x3cae5394	0.021280088
201	0xbded64f6	-0.115915224
202	0x3d993c68	0.07482225
203	0x3da8a4bd	0.08234546
204	0xbc990772	-0.018680308
205	0x3d090aec	0.03345768
206	0x3d0b3b10	0.033991873
207	0x3d7918db	0.06081472
208	0xbcf6692d	-0.030079449
209	0xbd0e5920	-0.034752965
210	0xbe2429f9	-0.16031636
211	0xbc4ee1d1	-0.012627081
212	0x3d5fd46d	0.054645944
213	0x3c673e1e	0.014113931
214	0x3dca8ee5	0.09890536
215	0xbde4550a	-0.111490324
216	0x3d306bea	0.043071665
217	0xbd56aa80	-0.052408695
218	0x3d21e11d	0.039521325
219	0x3d878191	0.0661651
220	0xbd8062ef	-0.0626887
221	0x3da76bce	0.08174859
222	0xbe22d647	-0.15902053
223	0xbdf89717	-0.12138193
224	0xbd5ce27d	-0.053926934
225	0x3d8ca1f0	0.068668246
226	0x3c0613ff	0.008183478
227	0x3d20b1a6	0.03923192
228	0x3b7ffb61	0.0039059746
229	0x3da9e363	0.08295324
230	0x3d96d728	0.073652565
231	0x3dd6cbc5	0.10488085
232	0x3dd9e13e	0.10638665
233	0x3cf8ce48	0.0303718
234	0xbd8faa27	-0.07014876
235	0x3df6399f	0.12022709
236	0x3dc00b09	0.09377105
237	0xbd5e4a54	-0.054270104
238	0xbc9e4803	-0.019321447
239	0xbd285eec	-0.04110615
240	0xbddafe1b	-0.10692998
241	0xbde481a1	-0.11157537
242	0x3c948b16	0.018132728
243	0xbd59be86	-0.053160213
244	0x3b82108d	0.003969258
245	0x3d40dc2a	0.047084965
246	0xbda5aa28	-0.08089095
247	0x3c2d257e	0.010568021
248	0x3d1e6659	0.038671825
249	0xbdeb331a	-0.11484356
250	0xbc894f8d	-0.016761566
251	0x3d42df31	0.047576133
252	0x3dea808c	0.114502996
253	0x3b665afb	0.0035149443
254	0xbd7f47a2	-0.062324174
255	0xbd97dc55	-0.07415072

weight_hh_l0 f4 [192, 64]
0	0x3b953a61	0.0045540784
1	0x3b89be78	0.004203614
2	0x3cbbc6ce	0.022921946
3	0x3d83b3a6	0.064307496
4	0xbdf3329c	-0.11874887
5	0xbc8e7eed	-0.017394507
6	0xbd4056d7	-0.046957817
7	0xbd89f794	-0.06736675
8	0xbc955dcc	-0.018233202
9	0xbcfd6951	-0.030934008
10	0xbba4efaf	-0.0050334553
11	0xbd5928cd	-0.053017426
12	0xbe0e6f7e	-0.13909718
13	0xbd3f234a	-0.046664514
14	0x3b0b8ac2	0.0021292423
15	0x3d87ca7c	0.06630418
16	0x3d548e96	0.051893793
17	0x3e27662f	0.16347574
18	0xbd656e4a	-0.056013383
19	0xbc0ce1cd	-0.008598757
20	0x3d3d713c	0.046250567
21	0xbce2f539	-0.027704822
22	0xbd939202	-0.07205583
23	0x3d19eb4a	0.037577905
24	0x3dc76c4a	0.097374514
25	0xbe1d15c5	-0.15340336
26	0xbd3b5034	-0.045730785
27	0x3e1fe27d	0.15613742
28	0x3c95b579	0.01827501
29	0xbdc54b64	-0.0963352
30	0x3d8a7eae	0.067624435
31	0x3c9e388c	0.019314073
32	0x3d26abde	0.04069125
33	0xbdd82802	-0.10554506
34	0x3d97727a	0.073948815
35	0x3dbf9dbe	0.09356259
36	0x3d16befa	0.036803223
37	0x3d625667	0.05525818
38	0xbc6f2e7a	-0.014598483
39	0x3db95ec7	0.090512805
40	0x3d95f1aa	0.073214844
41	0xbd4844bd	-0.04889368
42	0xbd0ce977	-0.034402337
43	0xbdd1d699	-0.102460094
44	0xbdcad5fc	-0.099040955
45	0xbd993a9b	-0.07481881
46	0x3d811287	0.06302362
47	0x3c065fe2	0.008201571
48	0x3d2c73e2	0.042102702
49	0xbde12654	-0.10993639
50	0xbc9d1e91	-0.019179614
51	0x3cf58593	0.02997092
52	0x3d9370ad	0.071992256
53	0xbdc32a71	-0.095295794
54	0xbdd2b652	-0.10288681
55	0xbd4c6909	-0.049904857
56	0xbd821c24	-0.06353024
57	0xbd98c939	-0.07460255
58	0xbddc6d22	-0.10763003
59	0xbc8a1c87	-0.016859306
60	0xbd8ba0ba	-0.068177655
61	0x3c4c95d1	0.012486891
62	0x3c68a103	0.014198544
63	0xbc2ad020	-0.010425597
64	0xbc825361	-0.015908899
65	0xbdf259a9	-0.118335076
66	0xbcaeb649	-0.021327155
67	0xbda6437d	-0.08118341
68	0xbd6473a3	-0.055774342
69	0x3cfa192b	0.03052958
70	0x3d726db4	0.059186652
71	0xbdff0d29	-0.12453682
72	0x3d8c6466	0.06855087
73	0x3c1f8959	0.009737336
74	0xbdd50f35	-0.10403291
75	0xbc76548e	-0.015034808
76	0xbddfc210	-0.10925686
77	0xbd87b71b	-0.066267215
78	0xbcdc40fb	-0.026886454
79	0x3d281cc3	0.041043054
80	0x3cb4d052	0.022071991
81	0xbc6795c2	-0.014134826
82	0x3ace0a31	0.001571959
83	0x3e02c109	0.1276895
84	0xbd5db3bc	-0.054126486
85	0xbcb5ba00	-0.022183418
86	0x3d862f49	0.06551988
87	0x3da3bfb9	0.079955526
88	0xbcd72b6d	-0.026265824
89	0xbd3cb505	-0.04607107
90	0x3dbc49e8	0.09193784
91	0xbdc88bf9	-0.09792323
92	0xbd841cf1	-0.06450833
93	0xbd71a7b7	-0.058997836
94	0x3da78273	0.08179178
95	0x3d45a980	0.04825735
96	0x3d90c735	0.07069246
97	0xbd3eef38	-0.046614856
98	0xbdbaf69f	-0.091290705
99	0x3d7a6323	0.0611297
100	0x3d3aef2e	0.045638256
101	0x3e07c40b	0.13258378
102	0x3d6f17e0	0.05837238
103	0x3bfa9fe5	0.0076484554
104	0xbd9cdeb2	-0.07659663
105	0x3dbe9c36	0.093071386
106	0xbd4485c5	-0.047979135
107	0xbdf51516	-0.119669124
108	0xbd4914f5	-0.04909225
109	0x3dbb042b	0.09131654
110	0x3e01b052	0.12664917
111	0x3c08d9ad	0.008352679
112	0x3dc41620	0.095745325
113	0x3ce0f7ec	0.027461968
114	0x3de22b6e	0.1104344
115	0x3da2c275	0.07947246
116	0xbdf0586c	-0.11735615
117	0x3db6dcc2	0.08928825
118	0xbc78872a	-0.015168944
119	0xbd785e3f	-0.060636755
120	0xbc9326ef	-0.0179629
121	0x3dbda483	0.09259894
122	0xbd614c7e	-0.05500459
123	0xbdb63bf1	-0.08898152
124	0x3d92f6a1	0.07175947
125	0x3ddb19ba	0.10698266
126	0xbdc66553	-0.09687295
127	0x3d981ed6	0.074277565
128	0x3dbb70c6	0.09152369
129	0xbc38600b	-0.011253367
130	0x3de1c4cf	0.110238664
131	0x3dcab3aa	0.098975495
132	0x3bd677e8	0.0065450557
133	0x3ca5e764	0.020251937
134	0x3cadab69	0.021199899
135	0x3d097727	0.0335609
136	0xbda83738	-0.08213657
137	0xbdb36b9a	-0.08760758
138	0xbda916a6	-0.08256273
139	0x3cb289c4	0.021794207
140	0xbdd62ba5	-0.10457543
141	0xbdb5f299	-0.088841625
142	0xbcbe3b6b	-0.023221692
143	0x3c400a6a	0.011721233
144	0x3d2cbb61	0.042170886
145	0x3c87ddf7	0.016585333
146	0xbd4d234d	-0.050082494
147	0x3d8d644f	0.06903898
148	0xbdd40997	-0.103533916
149	0x3aa15221	0.0012307802
150	0xbdd3dd98	-0.10345
151	0xbdd22a8b	-0.10262021
152	0x3b8b6c09	0.004254822
153	0xbd00e9cc	-0.031472966
154	0x3dbdf68e	0.09275542
155	0xbd5c77b0	-0.05382508
156	0xbdd20a56	-0.10255878
157	0xbc9c7b4a	-0.019101758
158	0xbcf1a78c	-0.029498838
159	0xbbdc06ec	-0.0067146923
160	0x3cfc4b08	0.030797496
161	0x3d5c0c71	0.053722803
162	0xbdc4f72f	-0.09617459
163	0xbd42afa4	-0.047530785
164	0xbda053aa	-0.07828458
165	0xbdade541	-0.08490992
166	0xbe162068	-0.146608
167	0xbc513a35	-0.012770225
168	0x3bc4fe9d	0.0060117976
169	0xbdb9b35e	-0.09067415
170	0x3d7c9c9c	0.06167279
171	0x3db1cdee	0.08681856
172	0x3da00ed9	0.07815332
173	0xbb2f4846	-0.002674596
174	0xbc0e5e01	-0.008689404
175	0xbda68d6a	-0.08132441
176	0x3dbda82e	0.09260593
177	0x3cae08c6	0.021244418
178	0xbdb8a66c	-0.090161175
179	0xbd22f544	-0.039784685
180	0xbd8b20f8	-0.06793398
181	0x3d520438	0.051273555
182	0xbd603062	-0.05473364
183	0xbd920fca	-0.07131918
184	0xbdb59983	-0.08867171
185	0x3d8990aa	0.067170456
186	0xbd945c15	-0.07244126
187	0x3dceb717	0.10093515
188	0xbd904506	-0.07044415
189	0x3d0732f0	0.033007562
190	0xbd8be79a	-0.06831284
191	0xbb9a00c9	-0.0046998006
192	0x3cb32e80	0.021872759
193	0xbd27ecd6	-0.04099735
194	0xbdd21ce1	-0.102594145
195	0x3de6bd51	0.11266578
196	0x3c5e4f8d	0.013568771
197	0x3dd72e5f	0.105068915
198	0xbdcdbaaf	-0.10045373
199	0x3d92dab1	0.07170618
200	0xbde92cf3	-0.113855265
201	0xbbe1b7f6	-0.006888385
202	0x3b99d0b2	0.004694068
203	0xbd23d2d0	-0.03999597
204	0xbd967121	-0.073457964
205	0xbd7d9a21	-0.061914567
206	0xbddd3e9d	-0.10802958
207	0x3ddca9d7	0.10774582
208	0x3d15ea47	0.036600377
209	0xbbba9e5a	-0.0056951465
210	0xbcbb00d4	-0.022827543
211	0x3defca31	0.11708487
212	0x3daaf6a0	0.08347821
213	0x3d2c5b1f	0.042079087
214	0xbc5f0003	-0.013610843
215	0x3dc31694	0.09525791
216	0xbdea0a60	-0.1142776
217	0xbcfd59cb	-0.030926606
218	0xbc2cd44e	-0.010548664
219	0x3d26c0d2	0.04071123
220	0xbdcab4b4	-0.09897748
221	0x3c006ea2	0.007838877
222	0x3dfa1844	0.122116596
223	0x3cb1ac43	0.021688586
224	0x3d5d4552	0.054021187
225	0xbd05d893	-0.032677244
226	0x3bb25000	0.0054416656
227	0x3d4a5153	0.049393963
228	0x3e017a51	0.12644316
229	0xbd7fcbf5	-0.062450368
230	0xbdeb395e	-0.11485551
231	0xbdcbecff	-0.09957313
232	0x3d31d9ad	0.043420482
233	0xbddb8db4	-0.10720387
234	0x3ad87b55	0.0016516248
235	0xbcafe854	-0.021473087
236	0xbdc50198	-0.096194446
237	0x3c7ba2f8	0.015358679
238	0xbdba587e	-0.0909891
239	0xbdc31e3c	-0.09527251
240	0x3d355086	0.044266246
241	0xbcdd15fd	-0.026988024
242	0x3d589c3e	0.05288338
243	0xbd22499a	-0.039620973
244	0xbddfef85	-0.109343566
245	0x3dc060b2	0.09393443
246	0x3dbfe870	0.09370506
247	0x3d5227c3	0.05130745
248	0x3d9de00e	0.07708751
249	0xbd75efd0	-0.060043156
250	0xbd162630	-0.036657512
251	0xbb28fb73	-0.002578464
252	0xbd0018f2	-0.03127379
253	0xbdc2bb69	-0.09508402
254	0x3dc1248e	0.094308004
255	0x3ced0634	0.028933622

bias_ih_l0 f4 [192]
0	0x3de5a3e3	0.112128995
1	0xbcac13d7	-0.021005554
2	0xbd9c8878	-0.07643217
3	0xbdadee2c	-0.08492693
4	0xbcfc97ae	-0.030834045
5	0x3d846bf3	0.06465902
6	0xbcd15746	-0.02555431
7	0xbdeef703	-0.116682075
8	0x3dbe07e0	0.09278846
9	0xbdaa6fdb	-0.08322116
10	0x3bf3ec74	0.007443959
11	0x3da0c4aa	0.07850011
12	0xbd905bcd	-0.070487596
13	0xbdd62c50	-0.10457671
14	0x3da82ffb	0.082122765
15	0x3e18f305	0.14936455
16	0x3cdc855c	0.02691906
17	0xbd9e4f97	-0.07730024
18	0xbccad0a6	-0.024757694
19	0x3de02a9d	0.10945628
20	0x3ca9f7a8	0.020747975
21	0x3dd47fa3	0.10375907
22	0x3e11228b	0.14173333
23	0xbdd97a71	-0.10619057
24	0x3d42eaf9	0.04758737
25	0xbd8a15ba	-0.06742425
26	0x3d6507b1	0.05591554
27	0x3db58e26	0.08865003
28	0xbc33d659	-0.010976397
29	0x3d75881a	0.05994425
30	0x3ce13143	0.02748931
31	0xbc16a941	-0.009195627
32	0xbda16e25	-0.078823365
33	0x3dbd8357	0.09253567
34	0xbd6c50eb	-0.057694357
35	0xbb9ce30b	-0.004787808
36	0xbd6aed71	-0.057355348
37	0x3e0d18be	0.1377897
38	0x3df6d9a5	0.12053231
39	0x3d151e14	0.036405638
40	0x3e060d6b	0.13091056
41	0xbdb35687	-0.08756738
42	0xbc717a78	-0.0147386715
43	0xbd2db679	-0.042410348
44	0xbc8b826d	-0.017029965
45	0x3d9040d1	0.07043613
46	0x3c7562bd	0.014977154
47	0x3dc45c23	0.09587886
48	0x3d37c12f	0.04486197
49	0x3c853e6c	0.016265117
50	0xbccb8010	-0.024841338
51	0x3d6a7d50	0.057248414
52	0xbdbbde7e	-0.091732964
53	0xbd65e5ca	-0.056127347
54	0xbcf41d06	-0.029798996
55	0xbcfa7faf	-0.030578462
56	0xbd9b7c0c	-0.075920194
57	0xbb274259	-0.0025521724
58	0x3d32203b	0.04348777
59	0x3ca9c18e	0.020722177
60	0x3dd133e0	0.102149725
61	0xbd913332	-0.07089843
62	0x3dc65e7b	0.096859895
63	0x3c2c1fba	0.010505611
64	0x3db9f2f9	0.090795465
65	0x3d994957	0.074846916
66	0x3d71189f	0.05886137
67	0xbca3307d	-0.019920582
68	0x3dcbb504	0.09946635
69	0xbc85d652	-0.016337547
70	0x3d3c7f38	0.046019763
71	0x3dea025b	0.114262305
72	0xbd814e6e	-0.063137874
73	0x3d6d998b	0.058007758
74	0xbdca4f4f	-0.09878408
75	0x3ba8de75	0.005153472
76	0x3d3e2d50	0.046429932
77	0x3dcecad3	0.100972794
78	0xbdc57bdd	-0.09642766
79	0xbdac28fd	-0.084062554
80	0xbda24631	-0.07923544
81	0x3c924b00	0.017858028
82	0xbd795c0b	-0.060878795
83	0x3dcb7fdd	0.09936497
84	0xbb66918b	-0.0035181965
85	0x3cd7229f	0.026261626
86	0xbcbd8522	-0.023134772
87	0xbdba449b	-0.09095117
88	0x3d87cb2e	0.0663055
89	0x3e112963	0.14175944
90	0x3de4dc76	0.11174862
91	0xbc4cbc1e	-0.0124960225
92	0x3dc599fb	0.0964851
93	0x3e3c95b4	0.18416482
94	0xbcb2df61	-0.021835031
95	0xbc03bab7	-0.008040122
96	0x3db214fe	0.0869541
97	0xbd3bcb4f	-0.045848187
98	0x3cc76192	0.024338517
99	0x3d1430b5	0.036179263
100	0x3d66a365	0.05630817
101	0xbdb874cb	-0.090066515
102	0x3c20088b	0.009767662
103	0xbdaf30b6	-0.08554213
104	0x3dd97526	0.106180474
105	0xbd23c956	-0.03998693
106	0xbcd86ce7	-0.026419116
107	0x3dab0373	0.08350267
108	0x3df03fcd	0.11730919
109	0x3dc9e9ec	0.0985907
110	0x3e279589	0.16365637
111	0xbda1c629	-0.07899124
112	0x3bb088a3	0.005387382
113	0xbcb1fdb6	-0.021727424
114	0xbdcfb125	-0.101412095
115	0x3d218490	0.039433062
116	0xbd7c34e0	-0.061573863
117	0xbdda3070	-0.1065377
118	0x3dcb8310	0.099371076
119	0xbd6e9d76	-0.058255635
120	0x3df5f3d6	0.12009399
121	0x3cd0a193	0.02546767
122	0x3d951c74	0.07280818
123	0xbd5ce6c2	-0.053931005
124	0x3e09eb03	0.13468556
125	0xbd560aaa	-0.052256264
126	0xbd91fd7d	-0.07128427
127	0xbd301017	-0.042984094
128	0x3d6abe1a	0.0573102
129	0x3dbb1c55	0.09136263
130	0x3dae72d0	0.085179925
131	0xbe0cc881	-0.13748361
132	0x3dbfe7b4	0.09370366
133	0x3daf3ff8	0.08557123
134	0xbdd23254	-0.102635056
135	0xbcdd38e6	-0.02700467
136	0x3d983320	0.07431626
137	0x3dd616d4	0.10453573
138	0xbd6af0bc	-0.05735849
139	0xbccc937a	-0.024972666
140	0xbd34fdc8	-0.044187337
141	0x3d9e5749	0.07731492
142	0x3cffab13	0.031209504
143	0xbc29015c	-0.0103152655
144	0x3d5b99f2	0.05361361
145	0x3df1586c	0.11784443
146	0x3d0affe8	0.033935457
147	0x3b963355	0.004583756
148	0xbdedd677	-0.116131715
149	0x3d9385ab	0.072032295
150	0xbcf31d63	-0.029677099
151	0x3d48a38a	0.048984088
152	0x3e188fa3	0.14898543
153	0x3d2a9a7b	0.04165123
154	0x3d929b9c	0.071585864
155	0x3d44f333	0.048083495
156	0xbdd6a2c9	-0.104802676
157	0xbd9084bd	-0.07056568
158	0x3c9f9bda	0.019483496
159	0x3a8a31f3	0.001054345
160	0xbc3074ec	-0.010770064
161	0x3dffef03	0.1249676
162	0x3d04a014	0.032379225
163	0xbd215a68	-0.03939286
164	0xbd525f3c	-0.051360354
165	0x3d0ef925	0.03490557
166	0xbd700eb9	-0.05860779
167	0xbd01d07e	-0.031692974
168	0xbd9eb546	-0.07749419
169	0xbd9cbbc4	-0.07653001
170	0xbe0f5fdd	-0.14001413
171	0xbdd1189f	-0.10209774
172	0xbdd1ea67	-0.10249787
173	0xbbb9c465	-0.005669164
174	0xbe0eba31	-0.13938214
175	0x3cf53e16	0.029936831
176	0xbd822b57	-0.06355923
177	0xbc8ac343	-0.016938811
178	0xbc2f61e1	-0.0107044885
179	0x3cb4549b	0.022013
180	0x3e039576	0.12849984
181	0xbda3a204	-0.079898864
182	0x3df938bf	0.121690266
183	0xbd1ca89f	-0.038246747
184	0x3d58d815	0.052940447
185	0xbdd90da1	-0.10598303
186	0xbda850d6	-0.08218543
187	0xbdac048b	-0.08399304
188	0xbceab7d9	-0.028652119
189	0x3deed3f9	0.11661524
190	0x3c2af848	0.010435171
191	0xbdae0482	-0.084969535

bias_hh_l0 f4 [192]
0	0x3cd107d3	0.025516426
1	0x3d5d96e3	0.054098975
2	0x3dd3f3a1	0.10349203
3	0xbddd1859	-0.107956596
4	0x3d72b790	0.05925709
5	0x3dfbcea0	0.1229527
6	0xbaab47ed	-0.00130677
7	0xbd21d154	-0.03950627
8	0x3d9bbfc2	0.07604934
9	0x3d898efd	0.06716726
10	0xbdc4a13b	-0.09601065
11	0xbd2dd87f	-0.042442795
12	0xbc565ca0	-0.013083607
13	0xbdceaa64	-0.10091093
14	0x3d329377	0.043597665
15	0x3d81addc	0.06331989
16	0x3d8c45b7	0.068492346
17	0xbd863b0c	-0.06554231
18	0x3c2e0615	0.010621567
19	0xbc059032	-0.008152055
20	0xbd957648	-0.07297951
21	0xbce950c4	-0.028480895
22	0x3cf453e9	0.029825168
23	0x3e016854	0.12637454
24	0x3e0d7eea	0.13817945
25	0x3d15b573	0.036549997
26	0xbdc8de8d	-0.09808073
27	0xbd3ded9b	-0.046369176
28	0xbe150887	-0.14554034
29	0x3d7e5783	0.062095176
30	0x3def52a8	0.11685687
31	0x3d6c6463	0.057712924
32	0xbdaec5fb	-0.085338555
33	0xbcdfb11d	-0.027306134
34	0xbc8f1af8	-0.017468914
35	0x3e08f1f2	0.13373545
36	0xbdbf9332	-0.09354247
37	0xbd6506af	-0.055914577
38	0x3ce6ef56	0.028190296
39	0xbc95c189	-0.018280761
40	0x3d4a3632	0.04936809
41	0x3c2d38ab	0.010572593
42	0xbd483b09	-0.048884425
43	0x3d11d785	0.035605926
44	0xbdd2686a	-0.10273822
45	0x3dd21c1e	0.10259269
46	0xbb6ab6e0	-0.0035814568
47	0xbc1cecd6	-0.00957795
48	0x3decc7d7	0.11561554
49	0x3d77e018	0.060516447
50	0x3dd276a8	0.10276538
51	0xbd36f74c	-0.044669434
52	0x3d4327a6	0.047645234
53	0x3dfa85e1	0.122325666
54	0x3ca2963b	0.019847026
55	0xbcb75ff2	-0.022384617
56	0xbc927a46	-0.01788057
57	0x3e1f4b41	0.15556051
58	0x3d32c110	0.04364115
59	0x3d6836eb	0.056693
60	0x3e005ab8	0.12534606
61	0x3c2c0ed8	0.010501586
62	0x3a9b2961	0.0011837893
63	0x3df5d068	0.12002641
64	0x3cbcae51	0.02303234
65	0x3dcd640d	0.10028849
66	0x3d85da2f	0.06535756
67	0xbd82d7f1	-0.06388844
68	0xbd5133ff	-0.051074978
69	0xbdc8d9e2	-0.09807183
70	0x3df0b04b	0.11752375
71	0x3d7fb847	0.0624316
72	0xbcb3ad0f	-0.021933107
73	0x3dc16201	0.09442521
74	0x3b00cb92	0.0019652587
75	0x3d8b52f4	0.068029314
76	0xbd0c2bd6	-0.034221493
77	0xbd896c78	-0.06710142
78	0x3d71d5d9	0.05904183
79	0xbe0a7ed6	-0.13524947
80	0x3c6350a2	0.013874205
81	0x3c8730e8	0.016502813
82	0xbd709582	-0.05873633
83	0x3c5d0df6	0.013492098
84	0x3d63d984	0.05562736
85	0xbd004f56	-0.03132566
86	0x3cd65720	0.026164591
87	0x3dc2cd09	0.095117636
88	0x3dff7749	0.12473924
89	0x3cfcf323	0.030877655
90	0xbdfb0c7a	-0.12258239
91	0x3db388cb	0.087663256
92	0xbd53ccdc	-0.05170904
93	0x3e110ef8	0.14165866
94	0xbd29b889	-0.041435752
95	0xbd9a414e	-0.07531987
96	0x3bf8f0a1	0.0075970446
97	0xbdbbd702	-0.09171869
98	0x3dfa915e	0.12234758
99	0xbd877837	-0.06614726
100	0x3da01359	0.0781619
101	0x3d0b20d3	0.03396685
102	0x3dac4276	0.08411114
103	0xbdb6c1cb	-0.08923682
104	0xbd8f4070	-0.06994712
105	0x3c7545d0	0.014970258
106	0xbd276fc6	-0.04087808
107	0xbcf0f9fe	-0.02941608
108	0x3d772196	0.060334764
109	0xbd11336a	-0.035449423
110	0x3d65235f	0.055941936
111	0x3b9e97d3	0.004839876
112	0xbca64e37	-0.020300968
113	0xbd8cae84	-0.06869224
114	0x3b91d13f	0.004449993
115	0x3e18c4c2	0.14918807
116	0x3d95ed07	0.073206
117	0xbc7315df	-0.014836757
118	0xbcd86a90	-0.026418
119	0x3d9b50f7	0.07583802
120	0xbd139215	-0.036027987
121	0xbbc20000	-0.00592041
122	0xbb9531d8	-0.004553061
123	0x3de170f4	0.11007872
124	0xbb05367c	-0.0020326665
125	0x3b26eb0a	0.0025469684
126	0x3d6500c1	0.055908922
127	0x3ce9e0b2	0.028549526
128	0x3d2d628d	0.042330313
129	0xbdaadef7	-0.083433084
130	0xbe102515	-0.14076646
131	0x3ddfc934	0.10927048
132	0x3de8682f	0.113479964
133	0x3d4328e6	0.047646426
134	0x3d614b18	0.055003256
135	0x3d1ce726	0.038306378
136	0x3d14cfda	0.036331035
137	0xbd9ce9e9	-0.07661802
138	0x3b2ea7be	0.0026650275
139	0xbd48f28a	-0.04905943
140	0x3d994908	0.07484633
141	0xbdae130f	-0.08499729
142	0xbd125c4f	-0.035732564
143	0xbc98c1f8	-0.018647179
144	0x3d9830a2	0.07431151
145	0x3e004792	0.12527302
146	0xbdf1ec8f	-0.11812698
147	0x3d8af083	0.06784155
148	0x3d430fbe	0.047622435
149	0x3d9cddde	0.07659505
150	0x3c4df626	0.012570893
151	0xbe005316	-0.12531695
152	0xbda42de0	-0.080165625
153	0x3c8677e3	0.016414588
154	0xbb961229	-0.0045798016
155	0xbcda0b09	-0.02661659
156	0xbe1863ef	-0.14881872
157	0xbdc77bac	-0.097403854
158	0x3d907904	0.07054332
159	0x3d903351	0.07041038
160	0x3deb764c	0.11497173
161	0x3d79dded	0.06100266
162	0xbd40523a	-0.046953417
163	0x3dcb52e9	0.09927923
164	0xbdb002ba	-0.0859427
165	0xbe1501ed	-0.14551516
166	0xbce994dc	-0.028513364
167	0xbd2fba66	-0.042902373
168	0x3d17244c	0.03689985
169	0x39bb5dc4	0.0003573728
170	0xbc7910fc	-0.015201803
171	0x3db99039	0.090607114
172	0xbd533db1	-0.051572505
173	0x3dbc8168	0.0920437
174	0x3d07a14b	0.033112805
175	0xbc1ad087	-0.009449131
176	0xbdd92ab7	-0.1060385
177	0x3e0f2d64	0.13982159
178	0x3de2457e	0.11048411
179	0x3dc43e42	0.09582187
180	0xbca48b0b	-0.020085832
181	0xbd711228	-0.058855206
182	0x3c71737a	0.014737004
183	0x3e191d08	0.14952481
184	0xbd3ea71e	-0.046546094
185	0xbdccbbbd	-0.09996746
186	0xbcf05216	-0.029336017
187	0xbd177df8	-0.036985368
188	0xbd001067	-0.031265642
189	0x3daa2b81	0.08309079
190	0x3d070221	0.032961015
191	0xbe0b1519	-0.13582267

weight_ih_l0_reverse f4 [192, 32]
0	0x3ca5c7e2	0.020236913
1	0xbd8747dc	-0.06605503
2	0x3db0e4d8	0.086373985
3	0xbd54e990	-0.051980555
4	0xbc9f0bc1	-0.019414784
5	0xbd95044c	-0.0727621
6	0xbd970d61	-0.07375599
7	0xbddb914c	-0.107210726
8	0x3d9d3a79	0.076771684
9	0x3a9804c0	0.0011598095
10	0xbd048664	-0.032354727
11	0x3d94a5e2	0.07258202
12	0xba943590	-0.0011307467
13	0x3db15994	0.08659664
14	0x3e1b3e74	0.15160543
15	0x3e26b2df	0.16279171
16	0xbd37538d	-0.044757415
17	0x3e1128df	0.14175747
18	0x3dd709a6	0.10499887
19	0x3de08ed1	0.1096474
20	0x3d7855b8	0.060628623
21	0x3dc5f371	0.096655734
22	0x3d4f5352	0.05061657
23	0x3dc9463b	0.098278485
24	0xbd810b0c	-0.06300935
25	0xbd2cd392	-0.042193957
26	0x3dc28f1a	0.09499951
27	0x3cec7980	0.02886653
28	0x3e168bfa	0.14701834
29	0xbd15c735	-0.03656693
30	0x3c8d3460	0.017236888
31	0x3d9ee979	0.07759375
32	0x3d3c53b2	0.045978256
33	0x3d892313	0.06696143
34	0x3ddb8ad8	0.10719842
35	0xbde1c6a0	-0.11024213
36	0x3d3341ef	0.04376405
37	0x3da27e34	0.079342276
38	0x3cef8af1	0.029241057
39	0xbdbb287f	-0.091385834
40	0xbc9636ea	-0.018336732
41	0xbc87eb86	-0.016591799
42	0xbdfdb715	-0.12388436
43	0xbc8fe374	-0.017564513
44	0x3d49257f	0.049108025
45	0x3d8b9861	0.06816173
46	0xbd39c6a1	-0.045355443
47	0x3d0dbebc	0.034605727
48	0x3dab8971	0.08375824
49	0xbc6e985e	-0.014562694
50	0xbe109633	-0.14119796
51	0xbadeeebf	-0.0017008408
52	0x3c11b722	0.00889376
53	0x3d054cd9	0.03254399
54	0x3d305b35	0.04305573
55	0xbd8af419	-0.06784839
56	0x3d3a2b90	0.0454517
57	0xbce23a25	-0.027615616
58	0x3d88b494	0.066750675
59	0x3e06e166	0.1317192
60	0xbd94b697	-0.07261389
61	0x3ccd2c05	0.025045404
62	0xbc89f89a	-0.016842175
63	0x3e0535c7	0.13008796
64	0xbdb5efa2	-0.08883597
65	0x3c3c0c0d	0.0114774825
66	0x3d260818	0.040535063
67	0xbcd9c12b	-0.026581367
68	0x3db00e45	0.08596472
69	0x3da13516	0.078714535
70	0x3db1774b	0.086653315
71	0x3d59629e	0.053072564
72	0x3dde036c	0.108404964
73	0xbd4f01e9	-0.05053893
74	0xbd22d44e	-0.03975325
75	0x3d9c1ffc	0.07623288
76	0xbd7e8594	-0.06213911
77	0x3d50478f	0.050849494
78	0xbdcff877	-0.10154813
79	0x3d908615	0.07056824
80	0xbd8a9916	-0.0676748
81	0x3e21fb15	0.15818436
82	0x3dff8adf	0.124776594
83	0xbd9deb4c	-0.07710895
84	0x3dac5be1	0.08415962
85	0x3d98d150	0.07461798
86	0x3e066483	0.1312428
87	0xbd604f92	-0.054763384
88	0xbd4a55a9	-0.0493981
89	0x3dfb6f3f	0.12277078
90	0x3e17725a	0.14789715
91	0x3e1af9c6	0.15134344
92	0xbcdcac4f	-0.026937632
93	0x3dccbc19	0.09996814
94	0x3e15a621	0.14614154
95	0xbd17bf2c	-0.03704755
96	0xbd9c8701	-0.076429375
97	0x3e022306	0.12708673
98	0xbe258b94	-0.16166526
99	0x3d0c9fd8	0.034332126
100	0x3dbce629	0.09223587
101	0x3deaf9b4	0.11473408
102	0x3dd05e77	0.10174268
103	0x3d62f331	0.055407707
104	0x3db90625	0.09034375
105	0x3d98763b	0.07444426
106	0xbd410ed7	-0.047133293
107	0x3d40930c	0.047015235
108	0x3d57f0c0	0.05271983
109	0xbdc7b9a7	-0.09752207
110	0xbe066ccf	-0.13127445
111	0x3cbd6655	0.023120085
112	0xbcadb801	-0.021205904
113	0x3dc68ce6	0.09694843
114	0x3cfe2410	0.031023055
115	0xbde09957	-0.10966747
116	0x3ddaa740	0.10676432
117	0x3dae1ae9	0.085012265
118	0x3e0db02d	0.13836737
119	0x3d9ddc51	0.07708038
120	0xbd7d7c05	-0.061885852
121	0x3d85730c	0.06516084
122	0xbdab11f4	-0.08353034
123	0xbd8419a9	-0.06450207
124	0x3dc984a3	0.098397516
125	0x3e0fecfb	0.14055245
126	0xbc0a985d	-0.008459178
127	0x3de6118e	0.11233817
128	0xbcc9c4cc	-0.024629973
129	0x3d864e3b	0.0655789
130	0x3e09f299	0.1347145
131	0x3d66329c	0.05620061
132	0xbd7b9a61	-0.061426524
133	0x3df83c8c	0.121209234
134	0xbd921c48	-0.071343005
135	0x3d38710f	0.045029696
136	0xbda71c8d	-0.081597425
137	0x3d9c4e84	0.07632163
138	0xbcd454ee	-0.025919404
139	0x3d326bfa	0.043560006
140	0x3ca1b3c0	0.019739032
141	0x3dab661d	0.08369086
142	0xbcde9605	-0.027171144
143	0xbd32f26b	-0.04368822
144	0xbdb3e44a	-0.08783777
145	0x3c9cb467	0.019128991
146	0xbdba5b6b	-0.09099468
147	0xbcc3eb9e	-0.023916062
148	0x3d24f95a	0.040276863
149	0xbd7822a6	-0.06057992
150	0xbb74000e	-0.0037231478
151	0x3dabed6d	0.08394895
152	0xbd92cf3d	-0.07168434
153	0x3dafcb78	0.085837305
154	0x3e0bf068	0.13665926
155	0x3deaf8c7	0.11473232
156	0x3e0f3b46	0.13987455
157	0xbd62f1a9	-0.055406246
158	0xbcf1468b	-0.029452583
159	0x3d318765	0.043342013
160	0xbdaf2fcb	-0.08554038
161	0x3ce7fc5b	0.028318575
162	0xbdc2d135	-0.09512559
163	0x3d4222a0	0.047396302
164	0xba684c2c	-0.0008861448
165	0x3e02d4f2	0.12776545
166	0x3d826905	0.06367687
167	0xbd843221	-0.06454874
168	0xbdb030ba	-0.08603044
169	0xbdaded82	-0.08492567
170	0x3d35f1d9	0.044420097
171	0xbd3d95be	-0.046285383
172	0xbd15e46b	-0.03659479
173	0xbd6701fa	-0.05639837
174	0xbdaa2d38	-0.08309406
175	0xbd4bea42	-0.049783953
176	0x3d90a374	0.07062426
177	0xbd86dfc8	-0.06585652
178	0x3db74c5b	0.089501105
179	0x3db17760	0.08665347
180	0x3dd953c5	0.10611681
181	0x3dea0ac5	0.114278354
182	0x3d31ccd1	0.04340822
183	0x3ddc4ce8	0.10756856
184	0xbd1b081a	-0.037849523
185	0xbd3a50d5	-0.045487244
186	0x3c7ff843	0.015623155
187	0x3c30ec56	0.010798534
188	0xbc572c0a	-0.013133058
189	0xbd4dab02	-0.050211914
190	0xbd9e671b	-0.077345096
191	0xbcc007e3	-0.02344126
192	0xbde5f8bd	-0.11229084
193	0x3deb80f1	0.11499203
194	0x3d8941d5	0.067020096
195	0x3c966d18	0.018362567
196	0xbddf617e	-0.10907267
197	0xbdb2b6ea	-0.08726294
198	0x39975b3d	0.00028868942
199	0x3c74180e	0.014898313
200	0xbd9f7182	-0.07785322
201	0x3d5fc52d	0.0546314
202	0xbdb5b47f	-0.088723175
203	0x3c749fb4	0.014930654
204	0xbdf84841	-0.12123156
205	0x3d7b84dc	0.061406
206	0x3d8ad6fe	0.06779288
207	0x3d78a259	0.0607017
208	0xbd51f55a	-0.051259376
209	0xbd81d0be	-0.063386425
210	0xbd521faa	-0.05129973
211	0x3d9976f6	0.07493393
212	0xbdb8b00d	-0.09017954
213	0x3db2e47b	0.087349854
214	0xbdd7d757	-0.1053912
215	0x3dff338b	0.12461003
216	0x3dc947e1	0.09828163
217	0xbd95637e	-0.07294367
218	0x3d61c71e	0.055121534
219	0xbd63661d	-0.055517305
220	0xbd8c9d38	-0.068659246
221	0x3df22753	0.11823907
222	0x3e00d3b1	0.12580754
223	0x3d087ecb	0.033324044
224	0xbd2f7cc3	-0.04284359
225	0x3be83938	0.007086899
226	0x3dcc3f69	0.09973032
227	0x3ce40073	0.027832245
228	0x3cfaaf30	0.030601114
229	0xbcd28c92	-0.025701795
230	0x3dfa8fc4	0.12234452
231	0xbd6b9e4f	-0.05752402
232	0xbdaf2fa8	-0.085540116
233	0x3dfc0b73	0.12306871
234	0xbda3ed7b	-0.0800428
235	0x3d5b9488	0.053608447
236	0x3de11d72	0.109919444
237	0x3cbd82cc	0.023133658
238	0x3b7546f2	0.003742632
239	0xbd04f81c	-0.032463178
240	0xbde135db	-0.109966
241	0xbb3e0e47	-0.002900021
242	0xbddb7cf3	-0.107171915
243	0x3de4b288	0.11166865
244	0x3cb76093	0.022384917
245	0xbd6ffbc6	-0.05858972
246	0x3d4288dc	0.0474938
247	0x3db8fab5	0.090321936
248	0xbd9c994c	-0.076464266
249	0x3c2894e2	0.010289403
250	0x3c74d628	0.014943637
251	0xbdb1546f	-0.086586826
252	0x3d4a1367	0.04933491
253	0x3d2a6dc4	0.041608587
254	0xbd892618	-0.06696719
255	0x3de9b426	0.11411314

weight_hh_l0_reverse f4 [192, 64]
0	0xbd52cf25	-0.05146708
1	0x3be2c0f3	0.006919974
2	0x3ce54d48	0.027990952
3	0xbd3a770c	-0.04552369
4	0x3d048752	0.032355614
5	0xbdf665dc	-0.12031147
6	0x3e02fc31	0.12791516
7	0xb8e9dc55	-0.00011151346
8	0x3dd9007b	0.10595795
9	0xbcc22942	-0.023701314
10	0x3d220ff3	0.03956599
11	0x3d95f0ca	0.073213175
12	0xbcfbbf43	-0.03073085
13	0x3d5b9e52	0.053617783
14	0xbd63d676	-0.055624448
15	0xbcc9edaf	-0.02464947
16	0xbd5db523	-0.054127824
17	0xbd03a877	-0.032143082
18	0x3d1c7ce0	0.038205028
19	0xbd6cd266	-0.05781784
20	0x3d0d8741	0.034552816
21	0x3ce2d3a9	0.027688818
22	0xbddcbb40	-0.107779026
23	0x3cd1e2f2	0.025620911
24	0x3e183ce0	0.14866972
25	0x3de3f123	0.111299776
26	0x3da8db42	0.08244945
27	0x3e062938	0.13101661
28	0xbd325874	-0.043541387
29	0x3e10a1fb	0.1412429
30	0xbe20c3b5	-0.15699656
31	0x3d98c1c1	0.074588306
32	0x3d13fcca	0.03612975
33	0x3a8b11f6	0.0010610211
34	0x3d3574c9	0.044300828
35	0xbabde7af	-0.0014488603
36	0xbd6633a3	-0.05620159
37	0x3db84549	0.0899759
38	0x3db0977f	0.086226456
39	0xbd859abe	-0.06523655
40	0x3da86867	0.08223038
41	0x3dba352e	0.090921745
42	0x3df197d2	0.117965356
43	0xbbd94308	-0.006630305
44	0xbdee244f	-0.11628019
45	0x3ddb4762	0.107069746
46	0x3c564e8c	0.0130802505
47	0xbe09fff9	-0.13476552
48	0xbe00e989	-0.12589087
49	0x3d575150	0.05256778
50	0x3d2369b8	0.039895743
51	0x3dc26971	0.094927676
52	0x3dda69fc	0.10664746
53	0xbde5beac	-0.112180084
54	0x3ddce139	0.10785145
55	0x3dc21e30	0.09478414
56	0xbbdec819	-0.006798756
57	0xbca64628	-0.020297125
58	0xbc96126c	-0.018319331
59	0x3d1a83d2	0.03772337
60	0xbda65312	-0.08121313
61	0xbd9922b8	-0.07477325
62	0x3db7fc10	0.08983624
63	0xbcc37062	-0.0238573
64	0x3d7f0ebc	0.06226991
65	0x3cf9edec	0.030508958
66	0x3c75dd4d	0.0150063755
67	0xbde32f4b	-0.11093005
68	0x3d13c348	0.036074907
69	0xbccbff9e	-0.024902161
70	0x3c313d59	0.010817849
71	0x3bfc9567	0.00770824
72	0xbc50320f	-0.012707247
73	0xbd9108b2	-0.070817366
74	0xbd1b1e93	-0.037870955
75	0x3d24bebc	0.04022096
76	0xbcbd4d1b	-0.023108056
77	0x3cc11663	0.023570245
78	0xbdb736ab	-0.08945974
79	0xbbc74811	-0.006081589
80	0x3ca5129b	0.020150473
81	0x3d9d545f	0.07682108
82	0x3d3dca10	0.04633528
83	0x3d4ffcae	0.050778084
84	0xbe0b6f38	-0.13616645
85	0x3da6f36c	0.08151898
86	0x3be330a3	0.006933288
87	0x3dc9fc0d	0.09862528
88	0x3c82704b	0.015922686
89	0x3dda541d	0.106605746
90	0xbd69a3fc	-0.057041153
91	0x3d9039a0	0.07042241
92	0xbdb20034	-0.08691445
93	0x3d7ac9b3	0.06122751
94	0x3d63c3b4	0.05560656
95	0xba5af38f	-0.0008352333
96	0x3c46a21c	0.012123611
97	0x3d3a1470	0.045429647
98	0xbc546e14	-0.012965698
99	0x3ddb582c	0.10710177
100	0x3c095c0d	0.008383763
101	0xbd82801b	-0.063720904
102	0xbe003b13	-0.12522535
103	0xbdbc063a	-0.09180875
104	0xbcd39d77	-0.025831921
105	0xba2cb0c3	-0.0006587619
106	0x3ce6c2a3	0.028168982
107	0x3e0f9860	0.1402297
108	0xbdfd75f3	-0.12376013
109	0x3d834047	0.06408744
110	0xbb984117	-0.004646431
111	0x3d38d8f1	0.045128766
112	0x3dc94529	0.098276444
113	0x3db3c87d	0.087784745
114	0x3c62ee40	0.013850749
115	0xbdc1b925	-0.09459142
116	0xbe0dee97	-0.13860546
117	0xbd9282e4	-0.07153872
118	0x3e01f83b	0.12692349
119	0xba8b4c23	-0.0010627549
120	0xbcf9d099	-0.030494975
121	0x3df2409a	0.11828728
122	0xbdd037ca	-0.10166891
123	0x3c92c971	0.01791832
124	0x3d245496	0.04011973
125	0xbd2fa885	-0.042885322
126	0x3c4fcb97	0.012682817
127	0xbe043d32	-0.12913969
128	0xbd8c033d	-0.06836555
129	0x3d3506c6	0.044195913
130	0xbdffbba7	-0.12486964
131	0xbdb33135	-0.0874962
132	0xbd870f08	-0.06594664
133	0x3bd71d50	0.0065647736
134	0x3dbb6035	0.091492094
135	0xbdb8c3db	-0.090217315
136	0xbdb6855b	-0.08912154
137	0xbdcb13e8	-0.09915906
138	0x3c731079	0.01483547
139	0xbd2958bd	-0.041344393
140	0x3e1b4bcd	0.15165634
141	0xbdaa144a	-0.08304651
142	0x3d6693da	0.056293346
143	0x3d814e4f	0.06313764
144	0x3d7a3cae	0.061093025
145	0xbd7701f2	-0.06030459
146	0xbbd94017	-0.0066299546
147	0xbd834440	-0.06409502
148	0xbbbc9406	-0.0057549505
149	0xbcf96b86	-0.030446779
150	0x3c3ee7ab	0.011651914
151	0xbe1c5d5a	-0.15269986
152	0xbd944585	-0.07239822
153	0x3e17453a	0.14772502
154	0x3c953d5a	0.018217731
155	0x3cfa300d	0.03054049
156	0xbde03c8e	-0.1094905
157	0x3b0aaddd	0.002116076
158	0xbd5cf8a4	-0.05394806
159	0x3dce79d8	0.100818336
160	0xbcab7d7d	-0.02093386
161	0x3d75e170	0.060029447
162	0xbdadeeee	-0.08492838
163	0x3d9c8389	0.07642276
164	0xbda0184e	-0.07817136
165	0x3e09c0af	0.13452409
166	0x3cc3ef64	0.023917861
167	0xbda4384a	-0.08018549
168	0x3dd3cead	0.10342155
169	0x3dfab08f	0.12240707
170	0x3d12cb83	0.035838615
171	0xbde3db54	-0.11125818
172	0x3d3f401c	0.046692
173	0x3b61051e	0.0034335325
174	0xbd207775	-0.039176423
175	0x3b8a77b6	0.0042256964
176	0x3da4e91f	0.08052277
177	0x3de64631	0.11243857
178	0x3deef24b	0.116673075
179	0x3df99efa	0.121885255
180	0x3d21ef08	0.0395346
181	0xbd771e21	-0.060331468
182	0x3da3fdb3	0.08007374
183	0xbd8f17db	-0.06986972
184	0x3d0a8c56	0.03382524
185	0x3d2e501a	0.04255686
186	0xbdb2a76e	-0.08723341
187	0xbdc19a75	-0.094532885
188	0x3df935ab	0.121684395
189	0x3e3769f2	0.17911509
190	0xbcbbdb70	-0.022931784
191	0xbe0dc8c3	-0.13846116
192	0x3d797f44	0.060912386
193	0xbe0e950c	-0.13924044
194	0xbdc7c722	-0.097547784
195	0xbdb6f8fd	-0.089342095
196	0xbda987ef	-0.082778804
197	0xbd991d47	-0.07476287
198	0x3d7a25ce	0.06107121
199	0x3e1a216b	0.1505181
200	0xbd9aca6c	-0.0755814
201	0x3dbb6ccc	0.09151611
202	0x3d4a894d	0.049447346
203	0xbd6b833f	-0.057498213
204	0xbdb322ce	-0.08746873
205	0x3d37a427	0.044834282
206	0xbd05e859	-0.032692287
207	0xbdb7f898	-0.08982962
208	0xbc47beae	-0.012191458
209	0xbd43efd0	-0.047836125
210	0x3da985b8	0.08277458
211	0xbda6a1bc	-0.08136317
212	0xbe07fea6	-0.13280734
213	0x3d229fb2	0.03970308
214	0xbd8ceb44	-0.06880811
215	0x3c7e9c3d	0.01554018
216	0x3d4734a6	0.048634194
217	0x3da8fff7	0.082519464
218	0x3d8f618e	0.07001029
219	0x3d07370c	0.03301148
220	0x3d7a52b5	0.06111403
221	0xbd336b42	-0.04380346
222	0x3d91b9bb	0.071155034
223	0xbc845c68	-0.016157344
224	0x3d5c6d59	0.05381522
225	0x3d678eef	0.056532796
226	0xbdc0f042	-0.094208255
227	0xbd2d329b	-0.04228459
228	0x3cdb1499	0.02674322
229	0xbc346372	-0.011010038
230	0xbda7cd4a	-0.08193453
231	0xbdf5edf5	-0.12008277
232	0x3c9bfd7c	0.01904177
233	0xbdbc87a8	-0.09205562
234	0xbdc37f9d	-0.09545825
235	0x3db1bae0	0.08678222
236	0x3d6ab582	0.057302006
237	0xbdcac4d4	-0.09900823
238	0xbdb62a22	-0.08894755
239	0x3d2a65e6	0.041601084
240	0x3d42c646	0.04755237
241	0x3dc800f1	0.097658046
242	0xbccb98c2	-0.024853114
243	0xbd5edea2	-0.054411538
244	0xbe14c983	-0.14529996
245	0x3da6d62a	0.08146317
246	0x3e13d72e	0.14437553
247	0xbe05f7bc	-0.13082784
248	0xbd4942f6	-0.049136125
249	0xbd82b183	-0.06381514
250	0xbd6da1dc	-0.05801569
251	0x3e09a05c	0.13440078
252	0xbbedfcd1	-0.007262804
253	0xbdcac487	-0.09900766
254	0xbd5e74ff	-0.054310795
255	0x3d18a7ab	0.037269276

bias_ih_l0_reverse f4 [192]
0	0xbd860d12	-0.06545462
1	0xbb051dd3	-0.0020311966
2	0x3d1a3c03	0.037654888
3	0x3dbc14ec	0.09183678
4	0x3e11a6af	0.14223741
5	0xbdc720ba	-0.09723039
6	0xbd37d05d	-0.044876445
7	0xbd8d7005	-0.06906132
8	0xbdbbb77c	-0.09165856
9	0x3d2a3692	0.04155595
10	0x3cd3ad10	0.025839359
11	0xbc80d865	-0.015728185
12	0xbd8412a4	-0.06448868
13	0x3dab6545	0.08368925
14	0xbc11ec69	-0.008906462
15	0x3d61bbf2	0.05511088
16	0x3c979676	0.018504363
17	0xbdd67af4	-0.1047267
18	0x3dad361a	0.08457585
19	0x3bdce650	0.0067413226
20	0x3cefd0fe	0.02927446
21	0x3c2f1f2a	0.010688582
22	0x3df373ee	0.11887346
23	0xbd938c5e	-0.07204507
24	0xb9984950	-0.0002904632
25	0xbdae25cb	-0.08503302
26	0xbd2089ed	-0.039194036
27	0xbd381c02	-0.044948585
28	0x3d1ca459	0.03824267
29	0x3db6c630	0.0892452
30	0x3dd3be80	0.10339069
31	0xbdf32a5d	-0.118733145
32	0x3cf52ccd	0.02992859
33	0xbdadf00c	-0.08493051
34	0xbdd29676	-0.102826044
35	0x3dece1d4	0.11566511
36	0x3df4738d	0.11936102
37	0x3d3f5b41	0.046717886
38	0x3da777ad	0.08177123
39	0xbcc1ef19	-0.023673581
40	0x3d9dcb05	0.077047385
41	0x3ddd041a	0.10791798
42	0xbd0e8c53	-0.034801792
43	0x3dfa068f	0.12208282
44	0xbc9fecc8	-0.019522086
45	0xbd3b2cbb	-0.045696955
46	0x3d9d9961	0.0769527
47	0xbddedd71	-0.1088208
48	0x3df7f148	0.121065676
49	0xbd5ba9e7	-0.05362883
50	0x3de0a9db	0.10969897
51	0xbd1e9bd9	-0.038722847
52	0xbdc77b79	-0.097403474
53	0x3b196a80	0.0023409426
54	0x3e024a73	0.12723713
55	0x3dba5f42	0.091002
56	0x3d3da21f	0.04629719
57	0x3d36d76d	0.04463904
58	0xbd77e258	-0.060518593
59	0x3da250ae	0.07925545
60	0x3ca60adf	0.020268856
61	0x3dae7bc6	0.08519702
62	0x3db49b7e	0.0881872
63	0xbbefcb9f	-0.0073179747
64	0xbd7822bc	-0.06058
65	0x3d467b89	0.048457656
66	0x3cc7d88b	0.024395248
67	0x3ce434df	0.027857242
68	0xbd865312	-0.06558813
69	0xbd120df5	-0.03565784
70	0xbdc004cf	-0.09375917
71	0x3c6a46ee	0.0142991375
72	0x3de58b53	0.112082146
73	0x3cecd82c	0.028911673
74	0x3d5fd47b	0.054645997
75	0x3dce759b	0.10081025
76	0xbd92cea1	-0.071683176
77	0xbd861e01	-0.065486915
78	0x3a89b3c7	0.0010505848
79	0x3c629ef3	0.013831842
80	0xbd4155b7	-0.047200885
81	0xbd1bb91b	-0.038018327
82	0x3bc6a3e2	0.006062017
83	0x3dbbaa7a	0.09163375
84	0xbc381885	-0.011236315
85	0xbae242b9	-0.0017262317
86	0x3e049a22	0.12949422
87	0x3e0270fc	0.12738413
88	0xbddd4875	-0.10804836
89	0x3dcf2092	0.10113634
90	0x3ca5a57f	0.020220516
91	0x3a99596a	0.0011699621
92	0xbc83ee13	-0.016104734
93	0xbd295ccb	-0.04134826
94	0x3dd0ca66	0.101948544
95	0xbd8b1f2c	-0.06793055
96	0xbd7607ea	-0.06006614
97	0xbdbe6170	-0.092959285
98	0x3d89d4a1	0.06730009
99	0x3e2592c9	0.16169275
100	0x3e1958d1	0.14975287
101	0x3e472085	0.19445999
102	0x3d108fe7	0.035293486
103	0xbcf87523	-0.030329293
104	0x3d335928	0.043786198
105	0xbe22d5f6	-0.15901932
106	0x3dc7aba7	0.09749537
107	0x3d58e585	0.052953262
108	0xbc068d8c	-0.008212458
109	0xbb804cd4	-0.0039154086
110	0xbd324943	-0.0435269
111	0x3df53fea	0.11975081
112	0x3db6bcfc	0.08922765
113	0xbc5f4c6f	-0.013629063
114	0xbd94e84e	-0.07270871
115	0x3e324996	0.17410883
116	0x3c8e5e06	0.017378818
117	0x3da28e43	0.079372905
118	0xbd5483f8	-0.051883668
119	0x3dad5f18	0.08465403
120	0x3e1cd4f9	0.15315618
121	0x3d971371	0.07376755
122	0x3d1d4d85	0.038404007
123	0xbd24dff7	-0.040252652
124	0x3db18cfe	0.0866947
125	0x3d5df359	0.054187153
126	0x3d2444a7	0.040104534
127	0x3d08d815	0.033409197
128	0xbdc53436	-0.09629099
129	0xbd42986e	-0.04750865
130	0xbd235328	-0.039874226
131	0xbcdb224c	-0.026749752
132	0xbd552cc8	-0.05204466
133	0xbd3ee6a5	-0.04660668
134	0xbdc124ed	-0.09430871
135	0x3d983318	0.0743162
136	0x3db958d4	0.09050146
137	0xbc9ca094	-0.019119538
138	0x3cb8f708	0.022578731
139	0x3c54ed2f	0.012996002
140	0x3e1a92c8	0.15095055
141	0x3da20083	0.07910254
142	0xbe026ea5	-0.1273752
143	0x3de8b0b4	0.113618284
144	0x3d1ef645	0.03880908
145	0x3d5f9567	0.05458584
146	0xbd9a1c1e	-0.07524894
147	0x3dadd00f	0.0848695
148	0xbd2f5252	-0.042803116
149	0x3d67a3c5	0.056552667
150	0xbd81f03b	-0.063446485
151	0xbc08d5dc	-0.008351769
152	0x3d4c535f	0.049884196
153	0x3ca74d86	0.020422708
154	0x3e071302	0.13190845
155	0x3df1a043	0.117981456
156	0xbba81bfb	-0.0051302887
157	0xbd4608a5	-0.048348088
158	0x3d136d93	0.03599317
159	0x3d5ee21f	0.054414865
160	0xbbc8cc6b	-0.006127884
161	0x3e06e1da	0.13172093
162	0x3c075d7c	0.0082620345
163	0xbdb3f38c	-0.08786687
164	0x3df30b8f	0.11867439
165	0xbcf7f6d7	-0.03026907
166	0xbdde541b	-0.108558856
167	0xbd06e0a4	-0.032929078
168	0x3e001102	0.12506488
169	0x3dd53358	0.10410184
170	0x3c9bf8c9	0.019039528
171	0x3c9e02b9	0.019288408
172	0xbbb03325	-0.0053771907
173	0xbdc6007d	-0.09668062
174	0x3daacac9	0.083394594
175	0x3cc19539	0.023630725
176	0xbdfbf1a2	-0.12301947
177	0x3d883825	0.06651334
178	0x3dda0d5c	0.10647079
179	0xbd6d64f0	-0.05795759
180	0x3d105158	0.035233825
181	0x3db6b869	0.08921892
182	0xbe09e3ca	-0.13465801
183	0xbda28bef	-0.079368465
184	0xbcfc8ae3	-0.030827945
185	0x3d958431	0.07300604
186	0xbd5c6d8d	-0.053815413
187	0xbd81ff92	-0.06347574
188	0x3cfb11e1	0.030648174
189	0x3e04cef5	0.12969573
190	0xbcd78f7d	-0.026313538
191	0x3d862071	0.065491565

bias_hh_l0_reverse f4 [192]
0	0xbd399349	-0.045306478
1	0x3d8afd39	0.0678658
2	0xbdaccba5	-0.084372796
3	0x3e00b85e	0.1257033
4	0xbd612dbd	-0.05497526
5	0x3d1fe6c5	0.03903844
6	0x3dc425a2	0.095774904
7	0x3d96b9f3	0.07359686
8	0xbd1b3d90	-0.037900507
9	0xbd3dbd3c	-0.046323046
10	0x3dd94f43	0.10610821
11	0x3da21ecb	0.079160295
12	0x3db7aab4	0.08968106
13	0xbae891cd	-0.0017743647
14	0x3ce03ef6	0.027373772
15	0x3d84478b	0.06458958
16	0x3d04ca5f	0.03241956
17	0xbd451f51	-0.04812557
18	0xbda80ee2	-0.08205964
19	0xbd406c6e	-0.046978407
20	0x3da959a0	0.08269048
21	0xbdb28105	-0.08716015
22	0x3b883b88	0.0041574873
23	0x3d2d2a9e	0.04227697
24	0xbcb6e776	-0.022327166
25	0x3dcd51ba	0.10025354
26	0xbd957b0e	-0.072988614
27	0x3e034300	0.12818527
28	0xbd57ca50	-0.052683175
29	0x3ced4f27	0.028968407
30	0x3d3c188c	0.045921847
31	0xbd954e4d	-0.07290325
32	0x3d15d068	0.036575705
33	0xbd86081a	-0.06544514
34	0x3d754d4c	0.05988817
35	0xbd239119	-0.039933298
36	0x3d45182c	0.048118755
37	0xbdec7647	-0.11545997
38	0xbcb60ebf	-0.022223828
39	0xbd9ded60	-0.07711291
40	0xbd951407	-0.072792105
41	0x3ca52553	0.0201594
42	0xbd38e357	-0.045138683
43	0xbd591ac8	-0.053004056
44	0x3c9f6535	0.019457439
45	0xbd2cdb9e	-0.04220163
46	0x3db77175	0.08957187
47	0xbc56832f	-0.0130928
48	0xbd14cece	-0.036330037
49	0xbd513acf	-0.051081475
50	0x3c64b074	0.013958085
51	0xbd1a72aa	-0.03770701
52	0x3dc381d9	0.09546251
53	0x3d3731c6	0.044725202
54	0xbdad4b7d	-0.08461664
55	0x3da60354	0.081061035
56	0x3e1c88d8	0.15286577
57	0x3d9d823d	0.076908566
58	0xbcc9dc22	-0.0246411
59	0xbdd24db4	-0.10268727
60	0x3e1419fc	0.14463037
61	0x3cc94c95	0.02457265
62	0x3b3ce601	0.0028823616
63	0xbcac1fc3	-0.021011239
64	0x3dc95eca	0.09832533
65	0xbcad4e70	-0.021155566
66	0x3e27ad31	0.16374661
67	0x3c4bd50e	0.012440933
68	0xbdb0966b	-0.0862244
69	0x3da7c518	0.081918895
70	0xbddb40f1	-0.10705746
71	0x3d214fb4	0.03938265
72	0x3e054a2c	0.13016576
73	0x3dab4901	0.08363534
74	0xbdfaab56	-0.12239711
75	0xbbb75747	-0.005595121
76	0xbd67a38e	-0.056552462
77	0x3de8eecd	0.11373673
78	0x3cfbabdf	0.030721603
79	0xbd70ecef	-0.058819707
80	0x3cb21e9e	0.021743115
81	0x3d2ac10b	0.041688006
82	0x3d494462	0.04913748
83	0x3dc7df7f	0.09759425
84	0xbd066b43	-0.032817136
85	0x3c98b89d	0.018642718
86	0x3dac69d5	0.08418623
87	0x3d53b192	0.051683016
88	0x3db31e41	0.08746005
89	0xbce8aad0	-0.028401762
90	0xbd49dea0	-0.049284577
91	0x3c0a1647	0.008428163
92	0xbc472a45	-0.012156074
93	0x3e1936e5	0.14962347
94	0xbd34d200	-0.044145584
95	0x3da493ca	0.08036001
96	0x3b4439d2	0.002994169
97	0x3de5a049	0.112122126
98	0x3defa4f4	0.11701384
99	0xbcf3b22a	-0.029748041
100	0xbcafad64	-0.021444984
101	0x3e0be1b0	0.13660312
102	0xbc98cd76	-0.018652659
103	0x3c08d080	0.0083504915
104	0xbca61731	-0.02027473
105	0x3c8e21f9	0.017350184
106	0x3c941313	0.018075502
107	0x3e092d4e	0.13396189
108	0xbd03c156	-0.0321668
109	0x3ddf9dca	0.10918768
110	0xbbf6e47f	-0.007534563
111	0x3be98a47	0.0071270796
112	0x3d66d93a	0.056359507
113	0xbd8d6715	-0.06904427
114	0xbccd6345	-0.02507175
115	0x3e25956c	0.16170281
116	0x3d50ca7b	0.05097435
117	0x3e0adee0	0.13561583
118	0xbd8426cb	-0.06452712
119	0xbc9d02e9	-0.019166427
120	0x3d88f9b9	0.06688256
121	0xbd9e6d03	-0.07735636
122	0x3dcb46fc	0.099256486
123	0xbd8b6d21	-0.06807924
124	0x3ddde7bd	0.10835216
125	0x3dd40d24	0.10354069
126	0x3dd49a39	0.10380978
127	0x3df44e11	0.119289525
128	0x3ddb532d	0.10709224
129	0x3dd2673b	0.10273596
130	0x3d9878bb	0.074449025
131	0xbcfcd137	-0.03086148
132	0xbde903c9	-0.11377675
133	0xbd45da04	-0.04830362
134	0x3e0dda54	0.13852817
135	0x3dbfe197	0.093692
136	0xbd881a91	-0.06645692
137	0x3d45eee0	0.048323512
138	0x3e0e5450	0.1389935
139	0x3d8dfe6d	0.069332935
140	0x3d2c9473	0.04213376
141	0x3d6117a0	0.05495417
142	0x3d94b14e	0.07260381
143	0xbdbf231a	-0.09332867
144	0xbc839788	-0.016063467
145	0x3d933e8f	0.071896665
146	0xbe0a1b67	-0.13487016
147	0xbdc2ac90	-0.0950557
148	0xbd2a3880	-0.04155779
149	0xbda7f526	-0.08201055
150	0xbcc93160	-0.024559677
151	0x3d071717	0.032981005
152	0xbcb2a1c6	-0.021805655
153	0x3debd84c	0.11515865
154	0xbdd598ed	-0.10429559
155	0x3b7ad398	0.0038273092
156	0xbd383337	-0.044970717
157	0x3e1a0b3c	0.15043348
158	0xbca3685c	-0.019947223
159	0x3d9c6bf2	0.076377764
160	0xbd3241ea	-0.04351989
161	0xbdc424a7	-0.095773034
162	0x3da01984	0.07817367
163	0x3d67badd	0.05657469
164	0x3dc5da4f	0.0966078
165	0xbdbcd235	-0.09219781
166	0x3d9bc648	0.076061785
167	0xbbf84c43	-0.0075774505
168	0xbda54f7e	-0.080718026
169	0x3d33a151	0.043855015
170	0xbdb0908b	-0.086213194
171	0x3dcf7f39	0.10131688
172	0xbd7ee46c	-0.06222956
173	0x3db272e8	0.08713323
174	0x3df291ff	0.11844253
175	0xbe16e170	-0.14734435
176	0x3d30736c	0.043078825
177	0x3dc2165a	0.094769195
178	0x3e179f12	0.14806774
179	0x3def2202	0.11676408
180	0xbbbca8c9	-0.0057574254
181	0x3da38fa4	0.07986382
182	0x3d93df5d	0.072203375
183	0xbd5e933b	-0.05433963
184	0xbdb2c377	-0.08728688
185	0xbdd5ff51	-0.10449088
186	0x3d98105e	0.07424997
187	0xbddc16af	-0.10746514
188	0x3df41e79	0.11919875
189	0x3d107f06	0.03527739
190	0xbdda073f	-0.10645913
191	0xbd1deca4	-0.038555756
