models/optimize_DEAM_Russell4Q_2026-01-05_06-58-15.pth (torch, 157276 bytes, 10 tensors)

weight_ih_l0 f4 [192, 32]
000000 7e 5f 08 3d 8f bc d3 3d 5e 4b 02 bd 3d fd 91 bc
       0.033294193 0.10338699 -0.031810157 -0.017820949
000010 ce 5e d0 bc 32 e1 29 3d e9 5c 26 bd 14 e7 0f 3e
       -0.025435831 0.04147453 -0.04061595 0.14052993
000020 da 20 e0 bc 84 09 ab 3d dd fb 05 3c 5f 9b 15 be
       -0.027359415 0.08351424 0.008177725 -0.1461005
000030 43 de ff bd 00 fc 23 3d c8 b3 f9 bd ad f2 c1 bd
       -0.12493565 0.040035248 -0.12192494 -0.09470115
000040 2f a6 d0 bb 2d ed 62 3c 47 dd 1d be a0 5d 88 bd
       -0.006367467 0.013850492 -0.15416442 -0.066584826
000050 97 97 53 3d 77 3c 34 3e a3 57 81 bc e6 45 0e 3d
       0.05165824 0.1760119 -0.015788859 0.03473463
000060 39 ed b2 bd 70 71 3d bd 10 6e e2 3c e3 ef d3 3d
       -0.08736653 -0.04625076 0.027640373 0.10348489
000070 b1 35 59 3c 29 a5 70 bc 4a db 2d 3e cc b8 f5 3b
       0.01325743 -0.014687815 0.16978183 0.007498836
000080 f8 21 d2 3c e9 6d be bc 43 f9 6a bd 03 ee cb 3d
       0.025650963 -0.023245769 -0.05736662 0.099575065
000090 f8 6d 63 3d 55 5d 07 3e 64 d2 9d 3d 6f 0a ee 3d
       0.055524796 0.13219197 0.077061445 0.11623084
0000a0 02 52 3a bd 9b d8 0a bc 8e 25 e9 bd 70 d1 da bc
       -0.045488365 -0.008474494 -0.11384116 -0.026711196
0000b0 13 1d b8 bd 12 df 50 bd 6d a1 ee bd 07 1d 89 bd
       -0.089899205 -0.050993986 -0.11651883 -0.0669499
0000c0 71 42 8e 3c 5d 1f 1d be d8 ad 36 be 62 db c0 bd
       0.017365666 -0.15343995 -0.17839754 -0.09416844
0000d0 6f 4c a1 bb 9b 86 7c 3d 21 fe c6 3c 55 39 4d 3d
       -0.0049224417 0.061651807 0.0242911 0.050103504
0000e0 fa 38 a8 3d f7 e1 52 3e 93 c0 1b 3d b1 66 01 bd
       0.082139924 0.20594011 0.03802545 -0.031592075
0000f0 34 9e 89 bc d2 49 35 3d 47 61 5e 3e 21 45 b2 3d
       -0.01679907 0.044259854 0.21716796 0.087045915
000100 3a 79 8a 3b 85 30 fa bc 80 a0 5d 3c 51 b2 ff 3c
       0.004225877 -0.030540714 0.013527036 0.031212958
000110 97 c9 be bd 44 ab da 3d 59 77 04 be dd 9d 4c bb
       -0.09315794 0.106771976 -0.12936153 -0.0031222024
000120 91 6d 1e 3d e7 bb ab bd aa 97 c3 bd b9 7c dc bd
       0.03867871 -0.08385449 -0.09550412 -0.107659765
000130 33 bd c6 bc 69 3e 8b 3d f3 f3 28 be 90 f5 55 bd
       -0.02426014 0.06799013 -0.16499309 -0.05223614
000140 60 3b c1 3d 89 9f 82 3d b5 8c 95 bd 2c 58 9d bb
       0.09435153 0.06378085 -0.07302228 -0.0048017707
000150 24 93 22 bd e0 cf 8c ba 24 76 d4 3b 21 65 7f 3d
       -0.039691105 -0.0010743104 0.00648381 0.062352303
000160 5b 20 a7 3d e0 c9 06 3e 08 f4 1e 3e 8c 93 8e 3c
       0.08160468 0.13162947 0.15522778 0.01740434
000170 4e d0 36 3d 28 4a 2d bd 5b d7 e9 3d a4 ef 58 bd
       0.04463225 -0.04230705 0.11418029 -0.052962914
000180 37 f9 e3 3c 25 37 4c bc 7f d4 2f be 38 ce 53 3d
       0.027828796 -0.012464319 -0.17170905 0.051710337
000190 fe 38 03 3c 6c 2d 9d 3a de 31 c7 3c 9c 2f 0c be
       0.008009193 0.0011991686 0.02431577 -0.13690037
0001a0 32 35 02 be aa be 2c bc 43 f1 bb bd ae 26 4b bc
       -0.12715605 -0.010543505 -0.091768764 -0.012399359
0001b0 9b 6a 0b 3c a4 cb d5 bd 43 2c 08 3c c8 fa fa bd
       0.008509303 -0.10439232 0.008311334 -0.12254864
0001c0 3f e8 95 3d d0 3a 22 3b 6d 1b c8 3d 21 19 5e bc
       0.07319688 0.0024754293 0.09770856 -0.013555796
0001d0 c7 11 23 bd 22 c2 c0 bc 5e 89 21 bd 5d 86 6a bd
       -0.039811876 -0.02353007 -0.039437644 -0.057257045
0001e0 57 d9 f0 bb 53 49 79 bd e0 dc be 3d d8 47 e6 3b
       -0.0073501277 -0.060860943 0.09319472 0.0070276074
0001f0 c9 ee b0 3d 45 4b af bd 70 fc 82 bd 2c 73 b7 bd
       0.08639295 -0.085592784 -0.06395805 -0.08957514
000200 b9 95 e0 3b b6 b9 cf 3d 77 0f 8f 3c 05 04 38 3e
       0.006853786 0.101428434 0.017463429 0.17970283
000210 56 01 0f 3d 95 59 00 3d 24 40 20 3c 33 60 af bd
       0.034913383 0.031335432 0.009780917 -0.085632704
000220 da 7e bd bd 25 6b 94 bd be 8b 0f be bf 0c fc 3d
       -0.09252711 -0.07246999 -0.14018151 0.123071186
000230 2d a0 c4 bc 6f a3 84 bc 90 47 4a 3d 88 d5 ca bd
       -0.024002159 -0.016191212 0.049384654 -0.09904009
000240 26 b7 bd bd 41 62 51 bc 87 76 a8 3d 36 32 e5 3c
       -0.092634484 -0.012779773 0.08225732 0.027978044
000250 84 d4 2f 3e ec 2c fe 3c e4 c2 18 3e 94 2b ed bc
       0.17170912 0.03102728 0.14918095 -0.028951444
000260 cd 49 13 3b 9b 72 27 3d 33 9a e9 3d 17 1f c8 bd
       0.0022474409 0.04088078 0.11406364 -0.09771555
000270 a3 a0 30 3b 0b fa 26 3e 13 76 20 3e 3a 3e 51 3c
       0.0026951216 0.16306321 0.15670042 0.012771184
000280 65 bf 69 bd c9 74 b7 3d 87 83 3d 3d c6 af 6e bd
       -0.057067294 0.08957822 0.046268012 -0.0582731
000290 0e 2e d5 3c 46 dc 53 3e 50 88 a6 3d 78 fa cd 3d
       0.026022937 0.20689496 0.08131468 0.10057539
0002a0 d4 d9 86 bd 8b 71 22 bd 84 80 25 be 44 65 98 3d
       -0.06584516 -0.039659064 -0.16162306 0.0744119
0002b0 e3 fd e1 3d 33 ff 8b bb 70 c3 39 bd 13 32 40 3d
       0.11034753 -0.0042723655 -0.0453524 0.046922754
0002c0 c1 12 f6 3c 4a 36 2d 3b 5e 5a 11 bd c8 08 7a bd
       0.03003824 0.0026430064 -0.03548657 -0.06104353
0002d0 38 30 9f 3d 37 61 0e 3e 62 34 a0 3d c0 6a c0 3d
       0.07772869 0.13904272 0.07822491 0.09395361
0002e0 4d aa d0 3d 23 a2 51 bd 29 95 43 3d 02 e2 00 bb
       0.10188732 -0.051180016 0.047749672 -0.001966596
0002f0 d9 89 87 bc 01 c1 f0 3c 0a 35 83 3d 45 34 de 3d
       -0.016545223 0.029388906 0.06406601 0.10849813
000300 39 9f b8 3d 9e 9a 6c 3d 17 c1 97 3d e9 b6 a7 3c
       0.09014744 0.057764642 0.07409876 0.02047296
000310 ae 12 40 bd b0 22 ce 3d 58 9a b7 3d be a3 0f 3d
       -0.046892814 0.1006521 0.089649856 0.035068266
000320 56 69 bf bd 21 4a f8 3d 31 76 f8 bd f4 5f 81 3d
       -0.09346263 0.12123514 -0.12131918 0.0631713
000330 f4 ed 22 be 16 da e5 3c 21 7d d3 bb 72 02 a6 3b
       -0.15911084 0.028058093 -0.0064541255 0.0050662095
000340 0e f1 76 bb e4 24 43 3d 44 b6 00 3d 80 00 78 bd
       -0.00376803 0.047642604 0.031423822 -0.06054735
000350 2b 96 26 3c 5f ec 20 3e 8c 56 6c bd a8 01 95 3c
       0.010167639 0.15715168 -0.057699725 0.018189266
000360 5a bb 0a 3e 3f 23 21 3c d5 3f 39 bc 24 e7 02 bc
       0.13548031 0.0098350635 -0.011306723 -0.0079896785
000370 f7 68 d7 bc b8 c7 71 bc 96 2e 45 3c 76 0b 0d 3e
       -0.026295168 -0.014757089 0.012035033 0.13773903
000380 43 38 68 3d 61 28 18 3e fc af d8 3c e7 4a 93 bd
       0.05669428 0.14859153 0.026451103 -0.07192021
000390 c5 5f e0 bd 4e cf e0 3d 0c 31 27 bd a6 46 e6 bd
       -0.109557666 0.1097704 -0.04081826 -0.11243944
0003a0 dd cc 7b 3d 1b 6c 43 3d b1 53 d5 bd d2 cd c9 bd
       0.06147467 0.04771052 -0.104163535 -0.0985371
0003b0 e2 c2 aa 3d aa 3b 00 bc 7b 91 b3 bc 37 fb 8f 3d
       0.08337952 -0.007826725 -0.021919956 0.07030337
0003c0 32 e7 71 bd c0 71 0d 3e 14 55 53 3d 29 64 3b bd
       -0.059058376 0.13812923 0.05159481 -0.045749817
0003d0 bd b6 a2 3d 17 dd 18 3d 7a 9b 40 3d a6 bd bf 3d
       0.07945011 0.037320223 0.047023274 0.093623444
0003e0 09 c2 64 3d 16 92 83 bd 77 96 1a 3e e6 b4 a6 3d
       0.05584911 -0.06424348 0.1509646 0.081399724
0003f0 25 86 5e 3d 80 2a 5a 3d a6 10 0d 3e cd c8 b4 bd
       0.05432715 0.053263187 0.13775882 -0.08827362

weight_hh_l0 f4 [192, 64]
000000 13 7b d7 bc b3 f4 51 bd 2a 62 69 bd 62 c5 7e bd
       -0.026303804 -0.051258754 -0.056978382 -0.062199958
000010 3e 91 ca bd 69 4b d8 bd d0 43 e4 3c 79 81 85 3d
       -0.09890984 -0.10561258 0.027864367 0.065188356
000020 01 09 d9 3b 68 bf 0b 3d 9a 9c 8b bd 15 dc 59 3d
       0.006623388 0.034118086 -0.06816979 0.053188402
000030 a2 0e e4 bd e3 18 1c be 99 d3 88 bc 38 01 b6 bd
       -0.111356035 -0.15243869 -0.01670246 -0.08886951
000040 fe 7f 04 be 5a 65 ac 3d 10 a6 c0 bd fa 6d 17 be
       -0.1293945 0.08417769 -0.09406674 -0.14788046
000050 9c b2 b4 bd 44 c4 5e 3d 16 8c a9 bd dd 25 e7 bd
       -0.088231295 0.054386392 -0.082786724 -0.11286519
000060 b4 9d ab 3c 62 c1 d5 bd 8d 07 8f bd cc dc ab bd
       0.020949222 -0.104372755 -0.06983862 -0.08391723
000070 9c 6e 86 3c 19 e6 1b be f2 da 10 3e 87 50 40 3e
       0.016410165 -0.15224494 0.14146021 0.18780719
000080 5d c9 6c 3d 91 ce b7 bd ba a6 d3 bc 32 7d 73 bd
       0.057809222 -0.08974946 -0.025836337 -0.059445567
000090 01 a9 40 3c a4 65 2c 3d 9d e2 7c bd 7f b7 0c be
       0.011759044 0.04208912 -0.061739553 -0.13741873
0000a0 1f 12 0b bd ff 00 5b bd b9 fb 84 bd c8 47 df bd
       -0.03395283 -0.053467747 -0.06493325 -0.10902363
0000b0 0b 45 03 bc 72 89 d3 3c ca b3 9e bd be 90 2b be
       -0.008012067 0.025822375 -0.07749136 -0.16754434
0000c0 1b ae 75 3c 2e 9b 41 bd fa 33 03 be 92 df ce 3d
       0.014995123 -0.04726713 -0.12812796 0.101012364
0000d0 70 11 d3 bd 4e 46 fd bd 4c 60 2d 3d a0 e5 20 3b
       -0.1030606 -0.12366925 0.042328164 0.002455093
0000e0 c3 cc 26 3d ed 52 c0 3d 27 6a 4a 3d 99 43 49 3d
       0.04072262 0.09390817 0.04941764 0.04913673
0000f0 00 ca bb 3d d7 35 12 3e da 27 53 3c 8f cb bb 3c
       0.09169388 0.14278351 0.012887919 0.022924213
000100 b7 fe 8b bc d0 3a 42 3d 81 17 af 3d f5 d3 ba bc
       -0.017089231 0.04741937 0.08549405 -0.022806147
000110 f1 c9 00 3d a5 36 c3 bd ae 25 13 3e 3a b5 92 3d
       0.031442586 -0.09531907 0.14369842 0.071634725
000120 30 65 9c 3d 72 5a 61 3d 8f 98 ad bb 33 fc 67 bc
       0.076364875 0.055017896 -0.0052977274 -0.01415925
000130 5e 93 41 3d 08 3c a9 3d dd fe 4f bd cc 21 b4 bd
       0.04725968 0.08263403 -0.050780166 -0.08795509
000140 6a 0c c3 3d 45 bf c3 bd 05 f8 2f 3d 36 22 19 bd
       0.09523852 -0.09557966 0.04296114 -0.03738614
000150 f8 db 35 3d 66 18 8f 3c 01 a6 0f 3e 80 cc 4d 3c
       0.04439923 0.017467689 0.14028169 0.012560964
000160 7e bf 05 3e 94 99 58 bd 31 c6 92 3d f9 d2 6f 3d
       0.1306133 -0.05288084 0.07166708 0.05855081
000170 4d 0e fe 3d 76 2f ed bd 2e f7 6b 3e d0 64 5e 3d
       0.124050714 -0.11581318 0.2304351 0.05429536
000180 2d e3 d2 3d df 3f 66 bc 6f 92 c2 3d 6a 0c 7f 3c
       0.102972366 -0.014053314 0.09500586 0.015566925
000190 5b 02 17 bb 1e 64 1b 3b fb dc c9 bd 86 bc b9 bc
       -0.0023042175 0.0023710798 -0.09856602 -0.022672903
0001a0 23 73 3a 3e 77 79 80 3d be 40 14 3e af 53 57 bd
       0.18207984 0.062731676 0.14477822 -0.05257004
0001b0 18 75 3b bd 94 91 b7 bb f6 e8 2c bc 68 71 c6 bd
       -0.045765966 -0.005602071 -0.010553589 -0.09689599
0001c0 f3 fa 07 bd c5 9a 29 3d 2d c1 b6 bd 80 00 4f bb
       -0.03319831 0.041407365 -0.08923564 -0.0031585991
0001d0 e4 9c e6 bd 41 06 af bd b6 cc 62 be ba 99 05 3e
       -0.11260393 -0.08546115 -0.22148404 0.13046923
0001e0 36 c6 c6 bd 73 a6 90 bd 46 73 85 bd 03 59 d1 bd
       -0.097057745 -0.07062998 -0.06516127 -0.10222056
0001f0 b5 44 ad bc 88 43 a2 bc 26 04 6c 3d e3 77 b0 3d
       -0.021150926 -0.019807592 0.057621144 0.086166166
000200 47 56 a1 3d 36 91 ad 3d 60 66 97 3c 35 b2 b1 3d
       0.07877784 0.084749624 0.018481433 0.086765684
000210 da d0 e5 3c 2f aa 01 3d a9 b8 24 3e 15 3f 97 3d
       0.02805369 0.03165644 0.16086067 0.07385079
000220 56 b6 fc 3d 0c 44 3f 3d f0 e6 92 bd 89 97 51 3c
       0.12339465 0.046695754 -0.07172954 0.012792476
000230 89 72 07 be 44 1b 7e 3d 6b e6 e8 bd 38 cf 3b 3d
       -0.13227285 0.06203772 -0.11372074 0.045851916
000240 b7 53 42 bd 12 d4 94 3d 27 94 5c bd 3a 59 a0 3c
       -0.047443118 0.07267012 -0.053852227 0.019573797
000250 46 94 13 be 87 72 21 3c 13 d5 1f bd f6 01 70 3b
       -0.1441203 0.009853966 -0.039021563 0.0036622263
000260 5a 95 66 3d 69 c6 e3 3d 15 be 02 be 76 ed 5e bd
       0.056294776 0.11121828 -0.12767823 -0.05442568
000270 b9 88 6e 3d 02 5c 86 bd ea 22 04 bd 56 99 bf 3d
       0.058235858 -0.06560518 -0.03225986 0.093554184
000280 d4 89 59 3d 69 c0 ae 3d 05 f3 b2 3d dd 60 86 bd
       0.05310996 0.08532793 0.087377585 -0.06561444
000290 cd c7 e2 3d 1a ae 05 bd ae 37 25 bd 31 06 38 be
       0.11073265 -0.03263674 -0.040336303 -0.17971112
0002a0 21 25 68 bd 6e a7 07 3c da 6e 6a bc 79 e2 6e bc
       -0.056676034 0.008279664 -0.014308656 -0.0145803625
0002b0 49 a8 ea 3c 5f 35 bd 3c 47 6c 11 3d a6 86 c2 3a
       0.028644698 0.023096738 0.035503652 0.0014841154
0002c0 27 d5 89 3c 6a be 3c bd a4 fd e1 bd b2 79 96 3c
       0.016825272 -0.04608003 -0.11034706 0.018368576
0002d0 2b 79 92 bb 65 81 66 3d 7a 7f 23 bd 80 ad 3d 3d
       -0.0044700108 0.056275744 -0.039916493 0.04630804
0002e0 23 12 68 bd b2 c6 40 3b 7a 34 d1 3d 83 7c 0c bd
       -0.05665792 0.0029415307 0.10215087 -0.03429843
0002f0 4f 6e d0 3d f0 3f 46 3d f2 36 56 bd 65 2f 9a bd
       0.1017729 0.04840082 -0.052298494 -0.07528571
000300 32 aa ea bd 11 3d 4f 3e 56 a1 13 3d da 8f 85 bd
       -0.114582434 0.20238139 0.036042534 -0.06521578
000310 c4 35 8e bb c1 b3 b9 3d 7b f0 81 bd 49 fe 60 bd
       -0.0043399055 0.090674885 -0.06344696 -0.054930005
000320 42 da d4 bd 82 a9 9f bd a1 5d af bb ca 08 bf bd
       -0.10393192 -0.07796003 -0.0053517376 -0.09327848
000330 d0 de 45 bd f5 c6 e1 bd 7b 1d 05 bd 7a 1b 29 bd
       -0.048308194 -0.11024276 -0.032498818 -0.04128597
000340 07 33 0e be 13 b7 b6 bd e1 34 17 bd ab 6b ef 3d
       -0.13886653 -0.089216374 -0.036915664 0.11690458
000350 9f f3 19 bc 4a 39 e1 3d 18 b2 9e bd 23 53 a2 bd
       -0.009396463 0.10997255 -0.077488124 -0.07926013
000360 87 9e 64 3d 91 86 0d bd aa 70 bf bd 43 cb c6 3d
       0.055815246 -0.03455216 -0.09347661 0.09706738
000370 d0 f5 c6 3c c3 3d b9 bd fa 46 dd bd 57 ab ea 3d
       0.024287134 -0.09044983 -0.10804553 0.11458462
000380 e9 5f 82 3d a3 03 b7 bd a0 6d f4 ba 15 48 b7 bd
       0.0636595 -0.089362405 -0.0018648393 -0.089492954
000390 e7 05 2c be 0a 2f 42 3d 8c 54 f4 bd 69 bd a0 3b
       -0.16799127 0.04740814 -0.119301885 0.004905392
0003a0 87 88 ec 3d d8 fe ef 3c d1 73 0d bc e2 bf 69 3d
       0.11549478 0.029296324 -0.00863357 0.05706776
0003b0 c8 e6 0f be ce 4d 99 3d d1 8a dc bd ef ce 98 bd
       -0.1405288 0.07485543 -0.10768665 -0.074613445
0003c0 57 bc 37 3d 38 e3 07 be b4 05 1e bd d7 26 24 bd
       0.04485735 -0.13270271 -0.038579658 -0.040076103
0003d0 33 90 c1 3d cd 2d ec 3d e2 60 04 3e 9c 33 cd bc
       0.09451332 0.11532173 0.12927583 -0.025049023
0003e0 f3 b0 b5 bd 2b 97 43 3d c8 e4 6a 3d 80 f8 15 bd
       -0.08871641 0.047751587 0.05734709 -0.03661394
0003f0 ae b2 c6 3d 2c dc e2 bc 18 45 a7 bd 67 46 0d bd
       0.09702049 -0.027692877 -0.081674755 -0.03449097

bias_ih_l0 f4 [192]
000000 48 5f 42 3c 05 9f 99 bd 65 b7 50 bd c0 57 bb 3c
       0.011863537 -0.07501034 -0.05095615 0.02286899
000010 48 6a a1 bc b6 bc 5b 3b 9d 93 15 3e 10 1a 90 bc
       -0.019704 0.0033529229 0.14607091 -0.017590553
000020 b4 ed 32 3d 14 f9 87 3d 22 cb b3 3b 9c 27 e9 bc
       0.043683723 0.06639305 0.005486862 -0.02846127
000030 46 25 fb 3d cc d4 1b 3d 41 ba 16 3e 7d a9 03 be
       0.12262969 0.038044736 0.14719488 -0.12857623
000040 c2 72 78 bd f3 41 05 3e 30 7d 14 3e dc 9b cc 3d
       -0.060656317 0.13013439 0.1450088 0.09990665
000050 e0 45 af 3d 63 ef 49 bd 69 61 09 bd ad 82 ce 3c
       0.085582495 -0.049300563 -0.033540163 0.025208795
000060 06 0a cb 3d 9f d5 01 3c 27 55 13 3e 15 3a b2 bd
       0.09914021 0.007924466 0.14387952 -0.087024845
000070 97 63 e0 3c 79 08 18 3d ef 2d 94 3d 05 b4 61 3d
       0.027391238 0.037117455 0.07235324 0.05510332
000080 91 91 16 3d 50 c6 18 3e 0e 43 b3 bd 04 fd e5 3d
       0.036759917 0.149194 -0.08753024 0.112298995
000090 98 9a ab bd 68 82 95 3d 7b 6e fb 3d 4c 39 95 3d
       -0.08379096 0.07300264 0.12276932 0.07286319
0000a0 21 bb ee 3d ed 85 a3 3d eb a0 81 bb 08 62 4b 3c
       0.11656786 0.07984529 -0.0039559505 0.012413509
0000b0 a4 51 10 3c c8 95 cf bd 87 ce 95 bc bf 8a c5 3c
       0.008808527 -0.101359904 -0.018286956 0.02411401
0000c0 22 2c 28 3d 00 58 a8 bc 92 15 99 3d cd 7b ee bc
       0.041057713 -0.020549774 0.07474817 -0.029111767
0000d0 09 40 a4 bd 7a 71 e3 3c ce 98 32 3d ec 4c e9 3d
       -0.08020026 0.02776407 0.043602757 0.11391625
0000e0 64 6f 4d bd b1 c8 94 3d dd 48 a5 3d 54 f7 fd 3d
       -0.05015506 0.07264841 0.08070538 0.1240069
0000f0 ef 74 e0 bc 3e 06 92 bc 01 c8 1f be a6 d7 ff 3d
       -0.027399508 -0.017825242 -0.15603639 0.124923036
000100 a0 77 2b 3d 67 d5 b2 3d bd 18 c4 3d a3 ff 88 3d
       0.04186213 0.087321095 0.09575031 0.06689384
000110 1d 5b 58 3d 84 c1 01 be e9 aa 8a bd 0f dc c1 3d
       0.052821267 -0.12671477 -0.0677088 0.09465801
000120 0e 8b 82 bc ae 05 a4 3d ce 91 d4 3c e7 8a e2 3d
       -0.015935447 0.08008896 0.025948431 0.1106165
000130 7f 5f 3a bd e2 03 ef bd e4 75 f7 bd 14 72 1c be
       -0.04550123 -0.116706625 -0.12083033 -0.15277892
000140 6e c7 15 bd e0 fc 62 bd b4 f2 b6 bd 07 66 17 3d
       -0.036567144 -0.05541694 -0.08933011 0.036962535
000150 b0 02 c5 bc 6e dd 0d 3e f1 fe 28 3e ae d7 8e 3d
       -0.024049133 0.13854 0.16503502 0.069747314
000160 73 64 d9 bd 8b 25 00 3e b3 79 17 3c a4 65 2f be
       -0.10614862 0.12514322 0.009245324 -0.17128617
000170 a3 62 ab bd 5e 3e 57 3d 40 0e 24 be 35 07 89 bd
       -0.08368423 0.052549712 -0.16021061 -0.06690828
000180 66 6e 43 bd ab e2 5b 3d 1d 5b 45 3d 6b 64 83 3d
       -0.047712706 0.053682964 0.048182596 0.064156376
000190 d4 cb e0 bd 1b 1f f2 bc 35 9e a2 3d 5f 8f 03 bd
       -0.10976377 -0.029555848 0.07940332 -0.03211915
0001a0 c2 1e 72 bc ed de 0b bd 5e b9 a9 3d 86 c6 80 3d
       -0.014777841 -0.034148145 0.08287309 0.06287865
0001b0 6b 4f aa 3d 5a b4 9c 3d 6e fe 0a 3c 06 75 62 3d
       0.08315929 0.07651587 0.008483512 0.055287383
0001c0 65 d6 76 bc 33 19 fb bd a5 2c 79 bd 8b 6a 8b bd
       -0.015065764 -0.12260666 -0.060833592 -0.06807431
0001d0 2b 0b ea bc 17 d7 c5 3d 6f 46 11 bd 01 78 24 3b
       -0.028569778 0.09660166 -0.03546756 0.0025095942
0001e0 e0 d9 a6 3d d8 36 34 3e f4 ce 9c bc 44 65 a0 ba
       0.08147025 0.17599046 -0.019141652 -0.0012237211
0001f0 85 72 00 3d 25 b1 2f bc 1c fc 7a 3c 08 21 06 be
       0.031359214 -0.010723387 0.015318897 -0.13098538
000200 79 03 82 bd cb f1 d8 3b 7d 91 69 bd 2b 7c 10 bd
       -0.063483186 0.006620621 -0.057023514 -0.035274666
000210 fe e8 14 3e 10 4f 31 3c ee 6a 5e bc 01 ae 48 3d
       0.14542004 0.010822073 -0.013575299 0.048994068
000220 90 0f 0c be d7 c8 26 3e c2 45 1e bd 55 7d 19 3d
       -0.13677812 0.16287552 -0.038640745 0.03747304
000230 0f d0 a9 3c 89 14 a7 bd 84 39 87 3d ab 03 67 3b
       0.020729093 -0.08158214 0.06602767 0.003524999
000240 0a 71 a7 3d 8d fd 41 bd d0 6c 09 be 9f a4 25 be
       0.08175857 -0.047360945 -0.13420415 -0.16176079
000250 9d aa 9c 3c 39 4b 70 3d 61 15 5b 3d 34 af 99 bc
       0.019124324 0.058665488 0.053487185 -0.018760301
000260 a2 f6 86 3d 04 16 74 3d 66 3c ac bc 91 f0 b2 bc
       0.0659001 0.05959131 -0.021024894 -0.021843227
000270 70 3b b8 3d 9b f7 2b bd e5 4f 0d 3d de dc c2 bc
       0.08995712 -0.04198418 0.03450002 -0.023786958
000280 e3 ea 91 3d c0 c2 66 3d e6 f0 06 3c 30 59 ab bd
       0.07124879 0.05633807 0.008236146 -0.083666205
000290 66 eb f7 3c 4d ea fb 3c 89 94 90 bd 2d 3f bf 3c
       0.030263614 0.030751372 -0.07059581 0.023345554
0002a0 99 a2 f3 3d de 39 e0 bc 35 d5 03 3e d5 d7 24 3e
       0.118962474 -0.027371343 0.12874301 0.16097958
0002b0 9d 79 b0 3d b3 74 39 bd a7 e6 bf bd 3e a3 af 3d
       0.08616946 -0.04527731 -0.09370165 0.08576058
0002c0 e3 3f bc 3d 74 3a 47 bd d8 5b ad 3d ff 7a eb bc
       0.09191873 -0.04863973 0.084647834 -0.028745173
0002d0 59 9c 3e ba 04 82 73 bc 29 b2 9e 3d 14 31 ac 3b
       -0.00072712224 -0.014862541 0.07748825 0.005254874
0002e0 e0 2c 02 be e8 f9 b1 bc ae 04 cb bd cf 76 c2 bc
       -0.12712431 -0.02172561 -0.09913002 -0.023738293
0002f0 99 42 6c bc 02 62 e6 3d 18 54 22 bd 21 06 eb bd
       -0.014420175 0.11249162 -0.03963098 -0.11475778

bias_hh_l0 f4 [192]
000000 80 63 24 bd 83 3f 3d bd 60 09 2a 3c b0 86 b6 3d
       -0.040133953 -0.046203148 0.010378212 0.08912408
000010 d0 81 19 3c dd 95 0e 3d a5 43 be bc 09 4d 95 bd
       0.009369329 0.03481089 -0.023225615 -0.07290084
000020 2f 92 27 3b 06 28 20 bd a9 4e 63 3d 3f 05 57 bd
       0.002556931 -0.03910067 0.055494938 -0.052495237
000030 db e8 9c bb b3 b5 d8 3d fa 05 99 bd 6d 0b 04 bc
       -0.0047885007 0.105815314 -0.07471843 -0.008059365
000040 e5 2c 92 bd 71 d0 7a bd 8e c0 b0 bc 98 e5 c2 3c
       -0.07137469 -0.06123394 -0.021576192 0.02379112
000050 1f 8f b2 bd bb f3 20 3d 33 95 05 3a cf 11 cb 3d
       -0.087187044 0.03929494 0.000509578 0.09915506
000060 4c 8a a5 bd 0f 56 b4 3c 91 06 85 3d 49 3e 87 3d
       -0.08083019 0.022013692 0.06495393 0.06603677
000070 17 17 c4 3d a8 26 aa bd ae 06 bf 3c 71 4a e4 bc
       0.095747165 -0.08308154 0.023318615 -0.027867528
000080 cb e0 bb 3d de 77 63 3d 67 bf 0c 3e 85 74 e5 3c
       0.09173735 0.055534236 0.13744889 0.028009662
000090 66 e9 95 bc 60 53 6f 3c 57 61 93 bd a4 00 c8 bc
       -0.01829977 0.0146072805 -0.071963005 -0.024414368
0000a0 83 12 38 3d 3f 2d 04 3d b0 75 0e 3e 5a 3b 30 3d
       0.04493953 0.032269713 0.13912082 0.043025352
0000b0 da 7f 15 bc 75 4a 62 3d 8c 42 67 3d e8 aa ec bd
       -0.0091247205 0.05524679 0.05645995 -0.11556035
0000c0 90 7d a9 bd d9 fd 83 3d d3 2d b2 bd 6a c2 0f 3e
       -0.08275902 0.06444902 -0.087001465 0.14039007
0000d0 64 64 d7 bd 36 b6 81 bd f8 e7 62 bd e5 23 53 bd
       -0.10517195 -0.06333582 -0.055397004 -0.051547904
0000e0 80 0e f5 bc db 1a 97 bd 40 fd 9b bd 6e 25 23 3c
       -0.02991414 -0.07378169 -0.07616663 0.009957654
0000f0 1a 72 25 bd 2a cf 4d 3d f0 8a 9b 3d 84 3c d5 3d
       -0.04039202 0.050246395 0.075948596 0.10411933
000100 6e 61 84 3d 44 21 af bc ab c9 29 3d 5c 36 a1 bd
       0.06463896 -0.021378167 0.04145209 -0.07871696
000110 ef 8f 7b 3d 8e 84 98 3d 00 b7 da b9 e9 9c a1 3d
       0.061416563 0.07447158 -0.00041716546 0.07891256
000120 04 49 00 3d d9 6c b6 3c 4c fd cf 3d b3 45 bc 3c
       0.031319633 0.0222687 0.101557344 0.022982454
000130 8b cc 47 3d f8 c0 92 3d 77 e3 17 be b1 45 41 bd
       0.04877905 0.07165712 -0.14832865 -0.047185604
000140 9e 6e 0a be a7 6c 09 bd 62 f4 cc 3d e3 83 99 3b
       -0.1351876 -0.033550885 0.1000755 0.0046849116
000150 53 77 e4 3d 94 f6 27 3c b5 22 02 3d 9d 8e 6e bd
       0.11155572 0.01025166 0.03177138 -0.058241475
000160 2c 65 05 bd ec 1e 2d 3d 9a 0a b7 3d 80 f8 0d 3d
       -0.03256719 0.042265818 0.08937569 0.034660816
000170 bd f7 ca bd 82 33 c6 bd d7 2f 36 3d ea ee 9d bd
       -0.099105336 -0.09677793 0.044479217 -0.07711585
000180 94 e9 d3 bd aa 31 ad 3c 9f 2d 9f 3d 09 14 40 3d
       -0.10347286 0.021141846 0.077723734 0.046894107
000190 9c 05 ad bc b3 8b 09 3e a2 f5 d0 3d a9 92 eb bd
       -0.021120839 0.13432197 0.10203101 -0.115025826
0001a0 59 09 69 b9 4d 76 2b 3d d1 41 94 3d 1e 82 96 3d
       -0.00022224094 0.041860867 0.07239116 0.07349037
0001b0 93 85 57 bd 9d 73 e5 bd 99 5c 72 bc 1d bf 1d 3d
       -0.05261762 -0.11203692 -0.014792585 0.038512338
0001c0 31 68 f9 bd 39 94 ba bd ac 7a b9 3d 10 2e f7 bd
       -0.12178076 -0.091103025 0.09056601 -0.120693326
0001d0 cb d3 38 3e 49 e2 b0 3d 47 e5 29 3a 7d 1c 7f bd
       0.18049543 0.086369105 0.00064810034 -0.062283028
0001e0 a3 03 b7 3c d9 99 ae 3d 1d 42 9f 3b c1 a2 0c bc
       0.022340601 0.08525438 0.0048601762 -0.008583725
0001f0 7d fb 7e 3d f4 73 46 3c 32 c6 c6 ba 19 2c eb bd
       0.062251557 0.012112606 -0.0015165268 -0.1148302
000200 d0 d1 bd 3d a4 50 16 be 2e 8d 1e 3e 47 3c 2c bd
       0.09268534 -0.146792 0.15483543 -0.042049672
000210 e6 dd ae 3c e3 a0 82 bd 55 63 e4 3d 50 d4 09 3d
       0.021346044 -0.06378343 0.111517586 0.033649743
000220 e8 63 b9 bc d3 7a 72 bc 04 0b 53 3e 6c 7d 87 bd
       -0.022630647 -0.014799791 0.20609671 -0.06615719
000230 18 9f 36 3e e6 25 d5 3d fa 72 06 be 22 20 0f 3e
       0.17834127 0.10407619 -0.13129798 0.13977101
000240 9f e9 11 3d 75 a9 0b 3e 65 94 22 bd 03 d8 3c be
       0.03562319 0.13638861 -0.0396923 -0.18441777
000250 dd 1c 3e be af 19 31 3e 68 da fe 3d 0e 70 29 bd
       -0.18565698 0.17294954 0.124440014 -0.04136663
000260 3f 59 96 bd 9c 21 cb 3d a6 35 d8 3d d2 72 1b 3e
       -0.07341241 0.0991852 0.105571076 0.15180519
000270 b8 ff 02 3e 4c f9 28 bd a3 4f ac 3b d0 67 df 3c
       0.12792861 -0.041253373 0.005258517 0.027271181
000280 08 05 f7 bd a4 66 04 3d 87 18 ae 3d 02 d9 37 be
       -0.120615065 0.03232445 0.08500772 -0.17953876
000290 42 ed ff bd 60 e5 7f 3d 33 c6 0d be b1 eb 1f be
       -0.12496425 0.06247461 -0.13845138 -0.15617253
0002a0 0f db 4c 3e bb 42 02 be 27 5d fa 3d a7 b2 87 3d
       0.20005439 -0.12720768 0.12224799 0.06625872
0002b0 89 89 20 3e 09 6d 02 be 25 b0 e7 bc e5 23 11 3d
       0.15677465 -0.12736906 -0.028282234 0.035434622
0002c0 be 1e 69 3d e9 00 b8 3d 34 7b 19 be bd ea 08 bd
       0.056914084 0.089845486 -0.14988405 -0.03342699
0002d0 e9 46 93 bd 9a 5b b4 bd 77 ea 9f 3d 6f d4 99 bd
       -0.071912594 -0.08806534 0.078083925 -0.075112216
0002e0 6e 15 ff bd 01 92 9f bd e5 b2 13 3e 8e 11 cb bd
       -0.12455259 -0.0779152 0.14423712 -0.09915458
0002f0 5c 28 90 3d 78 13 ae 3d 85 07 7f bd 5f 0f bf 3c
       0.07038948 0.08499807 -0.06226303 0.02332276

weight_ih_l0_reverse f4 [192, 32]
000000 94 2e 69 3d 6e 1c e5 3d a8 2b 38 3e 65 72 49 3d
       0.056929186 0.11187063 0.17985404 0.04918136
000010 6c 6d 9e bd ef c1 fa 3d 07 ec e8 3c 0f 4d f5 3d
       -0.07735714 0.12244021 0.02843286 0.119775884
000020 71 c1 9c bd eb 1e b8 3d f3 c8 20 3c ed bf 58 3d
       -0.076540835 0.08990272 0.009813535 0.05291741
000030 51 31 0c be c7 a4 86 bc 77 bb d0 bc 75 1b 38 3d
       -0.13690688 -0.016435994 -0.025480015 0.04494806
000040 97 0e c1 3c ef 7c fe bb 83 00 16 be 05 db 08 3e
       0.023566527 -0.007766358 -0.14648633 0.133648
000050 b5 bd 06 ba 55 bc e1 3d 0c d6 0d bc ac 16 1d 3e
       -0.0005139963 0.110222496 -0.00865699 0.1534068
000060 c4 74 af bc 7e 2c 20 bd 3c 9f c8 ba 04 66 18 3e
       -0.021417983 -0.03910493 -0.0015306245 0.14882666
000070 0b ab bd 3d 5e 9f 58 3d c8 32 67 3d 2e 3a 05 3e
       0.092611395 0.05288636 0.056444913 0.13010475
000080 ba f6 0b 3d 76 cf ea 3d 8d b4 c6 3c 22 bc 70 bd
       0.034170844 0.11465351 0.024256015 -0.058773167
000090 bc 20 79 3d 1e 2e ac 3d 22 c7 e8 3d 8a 3f 93 3d
       0.060822234 0.08407234 0.113661066 0.071898535
0000a0 5c 82 91 3d 54 64 b3 3c 07 23 62 3d 0b b9 49 3a
       0.07104942 0.021898426 0.055209186 0.0007695115
0000b0 cd be 42 bc 74 48 8c bc 7b df 91 bd 09 07 f9 ba
       -0.011886311 -0.017124392 -0.07122704 -0.0018999289
0000c0 d1 d2 a1 bd 97 9c ca bd 27 b1 00 bd f5 5e 79 3d
       -0.07901538 -0.098931484 -0.031418946 0.060881574
0000d0 dd 49 52 3c 4b e7 4a 3e 7b b7 1a 3e 64 af 90 b8
       0.012834993 0.19814794 0.15109055 -6.899124e-05
0000e0 0f e7 c3 3d 3b f4 2e 3e bd 48 00 3d f5 a3 c1 3d
       0.09565555 0.17085354 0.03131937 0.094551004
0000f0 e9 6a f9 3d 6c 6a a4 bb 03 6a 86 3d 8b a5 01 3d
       0.121785946 -0.0050175693 0.06563189 0.031652015
000100 01 03 94 3d ef db 91 3d 6d 0b 96 3c cc 4c 86 3d
       0.072271354 0.07122027 0.018315995 0.065576166
000110 06 61 90 3d 86 c2 e4 3c 8f 87 33 bd c2 1c 84 3c
       0.07049756 0.027924787 -0.04383045 0.016126994
000120 1a 8b f5 bd 04 4a a9 3a 7f 1a 2b bd 1c 12 6f 3c
       -0.11989422 0.0012915735 -0.041773316 0.01459172
000130 dd 6c a3 3c 1f 60 f5 3c 8f e2 0f be 89 ef 37 bd
       0.019949371 0.02995306 -0.14051269 -0.044906173
000140 31 e6 20 3d 25 6d fe 3d 10 8e 93 bd cc 2f 0e 3d
       0.039282028 0.124231614 -0.07204831 0.03471355
000150 0a 89 84 3d 07 40 1f 3e e5 73 90 3d 55 8a 42 3e
       0.064714506 0.15551768 0.07053355 0.18998082
000160 7e 82 65 bd ca e2 94 3d 1d 98 17 3e 9a ce 5d bc
       -0.05603265 0.07269819 0.1480412 -0.013538027
000170 5f 54 8f 3d 08 ce 24 3e 2c c8 a7 3d 23 d1 24 3e
       0.069985144 0.1609422 0.08192477 0.16095404
000180 3d 3f 9c bd b6 f1 99 bd af 93 ea 3d f9 50 1c bd
       -0.07629249 -0.07516806 0.1145395 -0.03816316
000190 ef 96 9f bd c9 97 b0 3c ba 21 05 be da f7 4c 3e
       -0.0779246 0.021556752 -0.13001147 0.20016423
0001a0 7b 36 83 3a 00 da 90 3d 52 74 84 bd 29 84 61 3d
       0.0010010743 0.0707283 -0.06467499 0.05505768
0001b0 8d 0a 28 3d 3b 01 40 3d 20 d7 a8 bd 4f 2c 02 3b
       0.041025687 0.046876173 -0.08244157 0.0019862836
0001c0 68 0e 3f 3d 1b ef 12 3e 80 3d b7 bc 81 83 28 3c
       0.0466446 0.14349024 -0.022368193 0.010285259
0001d0 90 46 46 3e 87 dd 44 3d 92 18 1b bd a0 2a 8a 3d
       0.19362855 0.048062827 -0.03786523 0.06746411
0001e0 2f 68 92 3d 11 94 54 3c 72 99 4e 3e 3a f2 b4 bc
       0.07148778 0.012974755 0.20175722 -0.022088159
0001f0 50 4f 54 3e 20 2f 38 3c e9 59 75 bd 20 8f b5 3d
       0.2073338 0.011241704 -0.059900198 0.088651896
000200 f8 d7 8b 3b 2d b8 31 3d 4e 49 b0 bd 2a 6e fd 3c
       0.004267689 0.043388534 -0.08607732 0.03093632
000210 0b a7 15 3e 7f 05 dd 3d aa 02 ca bc 71 a8 38 bd
       0.14614503 0.10792064 -0.024659473 -0.045082513
000220 94 bf cb bd 3f 69 09 bd 10 17 2b be 22 7e 8f bc
       -0.0994865 -0.033547636 -0.16708016 -0.0175162
000230 d8 af b1 3b 00 be de 3d 5c ea 20 be 3b fe ad 3d
       0.0054225735 0.108760834 -0.15714401 0.08495756
000240 9f 55 7e bd 58 cc ae 3d 3e a8 1b be 5f c4 13 be
       -0.062093373 0.08535069 -0.15200898 -0.14430378
000250 c6 d4 c2 3d c7 26 e9 3d a0 4e f1 3d bd 05 5f 3d
       0.095132396 0.11384349 0.11782575 0.05444883
000260 07 4e c9 3d 33 94 a1 3d 8f a7 61 3d c3 a5 98 bd
       0.09829336 0.07889595 0.055091437 -0.074534915
000270 32 35 ee 3d aa dc 8d 3d 77 e7 02 3d a5 a2 e2 ba
       0.1163124 0.06926854 0.031959023 -0.0017290903
000280 87 fe bd bd 32 27 15 3e a7 fb 73 3d 6e 44 05 bd
       -0.09277063 0.14565733 0.059566166 -0.032535963
000290 5b 0c 86 3c c2 b3 ed 3c 30 f8 98 bb c1 df 9d 3d
       0.016363313 0.02901638 -0.004668258 0.07708693
0002a0 28 ae 4a bc 44 cd 0c 3d 71 75 82 bd 7c 5a 8a 3d
       -0.012370624 0.034375444 -0.063700564 0.0675554
0002b0 0d 14 e9 bd 71 b2 95 bc e6 96 86 3d df 3e ba 3c
       -0.113807775 -0.018273564 0.0657175 0.022735057
0002c0 2a cd b2 bd ed 6d ab bd d6 c9 f2 bd a3 37 a7 bd
       -0.08730538 -0.08370576 -0.118549034 -0.08164909
0002d0 e1 a7 0a 3e de 45 a9 bc 98 70 31 3d 95 78 da bc
       0.13540603 -0.020663198 0.04332027 -0.026668826
0002e0 b3 fc 94 3d 42 fd 2b 3e 74 49 1a bd 8f ee 40 3e
       0.07274761 0.16795829 -0.037667707 0.18841003
0002f0 d4 95 63 bd 93 8c 3c 3e 10 54 0b 3e ae c3 37 3e
       -0.05556281 0.18413 0.13606286 0.1794574
000300 bb 89 b8 bd 9c 1a e0 3d 0d a8 97 3d 07 18 79 bd
       -0.09010645 0.10942575 0.074051 -0.06081393
000310 da 3e 12 bd f5 23 9e 3d a6 bc 90 bd ab bb 34 3d
       -0.03570447 0.07721702 -0.07067232 0.044124287
000320 d1 33 06 3e dc 57 7f 3d a2 0c ce bd 74 43 37 bd
       0.13105704 0.06233965 -0.10061003 -0.044742063
000330 9c 4f b0 3d aa ea 85 3d e4 0f 7f bc 24 ac 53 bb
       0.08608934 0.06538899 -0.015567753 -0.0032298649
000340 f7 34 f5 bd 85 3d 52 3d 4d e3 35 3d d4 31 3e bc
       -0.11972993 0.0513282 0.044406224 -0.01160856
000350 7e 9b 98 bd 60 ad 89 3d 22 74 c4 bd 1d 32 cf bd
       -0.07451533 0.06722522 -0.09592463 -0.1011698
000360 86 2e a5 bc 62 0f 2b 3d 1a fd 00 be 7a 99 04 be
       -0.020163786 0.041762717 -0.1259655 -0.12949172
000370 3a bd ae 3d da c6 55 3d c8 05 e6 bd 87 ff ca bd
       0.08532186 0.052191593 -0.112315714 -0.09912019
000380 bf 09 0c be 15 f3 4b bd e5 e9 e5 bd 01 0b 13 3d
       -0.13675593 -0.049792368 -0.112262525 0.035899166
000390 55 bb f2 3b f4 e9 db bc c9 04 1f be e5 9e 8e 3d
       0.0074075856 -0.026844956 -0.15529169 0.069639005
0003a0 b6 d1 45 3d 38 78 2c be 93 1c 69 3d 2a a2 82 3d
       0.0482957 -0.16842735 0.056912016 0.063785866
0003b0 96 6a af bd 26 15 4d 3d 41 d4 21 bd e6 e1 00 3e
       -0.085652515 0.050068997 -0.03950906 0.12586173
0003c0 27 30 8f bd 10 39 46 3d 7f 04 ef 3d 21 c4 37 bc
       -0.06991606 0.048394263 0.116707794 -0.011216194
0003d0 02 ae 63 3d ea 66 57 bd 15 c6 87 3d fe bc 09 3e
       0.05558587 -0.05258838 0.06629578 0.13451001
0003e0 df 85 42 3d 15 55 8b bd 31 89 52 3d b3 b5 86 ba
       0.04749095 -0.068033375 0.051400367 -0.0010277539
0003f0 d1 5a d5 bd e7 30 23 3d 92 c6 0a 3c c1 7a 29 3d
       -0.104177125 0.03984156 0.008470194 0.041376833

weight_hh_l0_reverse f4 [192, 64]
000000 98 af 2e be 68 31 a1 bd 84 3d 75 3d b1 50 ac 3d
       -0.17059171 -0.078707516 0.05987312 0.08413828
000010 86 47 23 3e f2 0a f3 3c 3e 10 53 3c 5c d9 a8 3b
       0.15945253 0.029668305 0.01288229 0.0051528644
000020 3a 10 34 be d5 00 d7 3b 7b 31 57 bc 00 77 7f be
       -0.17584315 0.0065613785 -0.013134356 -0.24947739
000030 5c 63 b6 3c 70 4f 0d bd 11 a4 f3 3d 62 2c b1 bd
       0.022264175 -0.034499586 0.118965276 -0.086510435
000040 b7 56 d5 ba 5f 75 3e be 4f e0 9b bc 22 98 0f be
       -0.0016276453 -0.18599461 -0.019027857 -0.14022878
000050 6e 4a 84 bc c7 00 90 bd 35 28 03 3e df 58 16 3e
       -0.016148772 -0.07031398 0.12808307 0.14682339
000060 86 4f db bc bd 9c 02 3e 58 4f 14 be 6d de 11 be
       -0.026771318 0.12755103 -0.14483392 -0.14245005
000070 db 39 17 3b 5e 24 0c be 99 3d b0 3d 5d e1 23 3d
       0.0023075256 -0.13685748 0.08605499 0.040009845
000080 13 c4 ae 3d a9 25 4e 3d 04 93 0b bd c1 e4 1d be
       0.08533492 0.050328884 -0.034075752 -0.15419294
000090 83 73 ab 3d 5f db 3e bd 7e fe 72 3d 89 5b 24 be
       0.083716415 -0.046595927 0.059324734 -0.16050543
0000a0 59 d6 10 3d be 2f b1 bd eb 45 17 3e c6 40 00 3e
       0.035360668 -0.08651684 0.14772765 0.12524709
0000b0 da ef 0e 3e ea b0 0a 3e df c6 7f bd 73 87 f7 3a
       0.13958684 0.1354405 -0.062445518 0.0018884972
0000c0 71 d2 c5 3d 8f 58 74 3a 65 a4 09 3e 07 18 25 be
       0.09659279 0.00093210576 0.13441618 -0.16122447
0000d0 d1 0a e9 bc 9c d6 39 bd c4 13 ec 3d 01 ab 66 bd
       -0.02844754 -0.045370683 0.115272075 -0.056315426
0000e0 ee 19 91 bb f8 5c 63 bc 4b 3b 01 bd 1b 75 2e 3c
       -0.00442814 -0.013877146 -0.031550687 0.010648037
0000f0 75 3e e9 3d f0 90 d7 bd ba 2f 8b bd 85 da 4d bd
       0.11388866 -0.105256915 -0.067962125 -0.050257225
000100 89 07 62 be 2c 4b 69 be d5 a1 ff bd 2d 1a f8 3d
       -0.22073187 -0.22782582 -0.12482039 0.12114368
000110 01 76 2d 3d 61 5f 1f 3c 8b fb aa 3d 95 8f 8a bd
       0.042348865 0.00972733 0.08348759 -0.06765667
000120 f3 9d c9 bd 62 99 61 bd aa 74 77 bd 21 e1 0e be
       -0.098445795 -0.055077918 -0.060413994 -0.13953067
000130 92 a6 86 bc 3b 86 14 bd 54 cc cd bc 06 38 2f be
       -0.016436849 -0.036260825 -0.025121845 -0.17111215
000140 72 ce 87 bd 43 ff 1d be 97 c1 bf bd 9e 18 24 bd
       -0.06631173 -0.15429406 -0.09363096 -0.04006254
000150 f6 69 25 3d 17 09 62 3d e2 2e 04 3e 3e 98 26 3e
       0.040384255 0.05518445 0.1290851 0.16269013
000160 06 fc ed bd d5 60 cb bd 3a 38 0e 3d 6f 26 c5 bc
       -0.11620335 -0.099305786 0.03472159 -0.024066178
000170 58 e8 24 be ae 66 0c 3e 99 33 66 3d a3 21 a7 bd
       -0.16104257 0.13711044 0.05620155 -0.081607126
000180 0c 41 90 bd 50 20 dc 3d 17 4e dc 39 52 cc 67 be
       -0.07043657 0.107483506 0.0004201985 -0.22636536
000190 e8 65 01 3e 64 8b b4 3d cb 8b 65 3d 8a 9d 55 bd
       0.1263653 0.08815649 0.05604152 -0.052152194
0001a0 85 04 59 3d f3 5f 79 3c 7a 88 99 bd e6 03 bc bd
       0.052982826 0.01522063 -0.07496734 -0.09180431
0001b0 9c 54 3e 3d 27 9d 4f 3e dd 10 0a 3d 10 dc 31 bc
       0.04646741 0.20274793 0.03370749 -0.01085569
0001c0 b0 62 86 bd 68 15 34 bd 4f 6c da 3d 3e 0a 72 3d
       -0.06561792 -0.043965727 0.106651895 0.0590918
0001d0 d9 70 64 bd 89 e6 80 bd 42 93 95 3d 22 8f 1f 3d
       -0.055771682 -0.06293971 0.07303478 0.03895486
0001e0 60 81 25 3e 11 ca 5f 3d 89 7c 1b bd 00 84 50 bd
       0.16162634 0.054636065 -0.037960563 -0.050907135
0001f0 69 b1 1f 3e 91 5c a0 3d a6 c6 73 3e 4d 38 7e 3c
       0.1559502 0.07830156 0.23806247 0.015516353
000200 8c f7 c1 3d 2b 5b d1 bd 09 1f 72 3e 2e 23 07 bd
       0.09471044 -0.10222467 0.23644651 -0.032992534
000210 fe b4 11 3d 3d 91 7d bb 41 dd ff bd 76 dd 3e 3d
       0.035573 -0.0038691305 -0.12493373 0.04659792
000220 2f 08 e2 bd 8a a5 94 3d 6e cd 7d 3d 7d ea a5 3d
       -0.11036717 0.072581366 0.06196349 0.08101366
000230 de 80 df bd be f4 1f 3e df c9 40 3d 0d d8 1a be
       -0.10913251 0.15620705 0.04706752 -0.1512148
000240 18 df 8c 3d 75 b7 ca bd ed 70 96 bc b1 c3 a6 bc
       0.06878489 -0.09898273 -0.018364394 -0.020356985
000250 54 9f e0 bd ac d1 d3 3d 3b a2 47 3e e3 ee 70 3c
       -0.109678894 0.10342726 0.1949548 0.0147053925
000260 25 a2 f7 3d b7 c5 cf 3c b5 c9 c1 3c 31 b2 42 be
       0.120914735 0.025362832 0.023655752 -0.19013287
000270 cf ef 4f bd 3e 8b b3 3d ad 01 f2 3d 7d 7f 90 3d
       -0.05076581 0.08766793 0.11816726 0.070555665
000280 dd 17 c5 3c 02 5a 8c bc 1a b2 33 3d 48 ed 74 bd
       0.02405923 -0.017132763 0.043871023 -0.0597966
000290 06 5d 3a be 16 44 b1 bb 09 b2 59 3d 24 55 9c 3b
       -0.18199548 -0.005409728 0.053148303 0.0047708917
0002a0 88 04 cb 3d d2 30 f3 3c b7 bd 4a 3e 36 9a e7 3d
       0.09912974 0.029686365 0.19798933 0.1130871
0002b0 6f 44 aa 3d ec 64 08 3e a2 17 18 bd 5c 8c 07 be
       0.08313834 0.13319749 -0.037131913 -0.13237137
0002c0 96 60 ce 3a f3 7d 42 bd cf d7 66 3d 38 96 ba bd
       0.0015745338 -0.047483396 0.056358155 -0.09110683
0002d0 9b e8 bf 3d b2 07 38 ba bb ea 97 3c 8f de fe 3d
       0.09370538 -0.00070201897 0.018544545 0.124447934
0002e0 73 be ec 3c 68 9d 68 bd c0 a3 d1 bd 10 c2 84 3d
       0.028899407 -0.05679074 -0.10236311 0.06482327
0002f0 cb 2d 3c bd ef eb 23 3e d6 36 0c 3d af fd 91 bd
       -0.04594211 0.1600797 0.034231983 -0.071284644
000300 4a 72 60 bd ba 46 47 bd b1 3a 30 bc 70 ac c1 3d
       -0.054796495 -0.048651434 -0.010756181 0.09456718
000310 4a 1d 35 bd 2c e8 3b bd 8d c2 c2 3d da 10 a4 ba
       -0.044217385 -0.045875713 0.09509764 -0.0012517229
000320 d4 ba 07 be bf 7a ee bd 8f 50 82 bd 1e f3 94 bd
       -0.13254863 -0.11644506 -0.063630216 -0.072729334
000330 3a 34 fc bc 82 e2 8a 3d 9f dc bb 3d 2c cd a2 bd
       -0.030786622 0.06781484 0.091729395 -0.0794929
000340 d5 24 4a 3d 3d ca ca bd 30 37 66 3c 6a 10 b2 bd
       0.049351532 -0.09901855 0.014051244 -0.08694537
000350 f8 85 d5 bd 50 51 e1 bc b9 aa 30 bd e3 d7 d4 3d
       -0.10425943 -0.027504593 -0.043131564 0.103927396
000360 42 4c 08 3e 96 11 35 bd cb 93 f6 bd 69 50 6e 3d
       0.1331034 -0.044206224 -0.12039908 0.058182154
000370 b1 3e ff bc 21 2b a9 bd d1 04 a1 bd b4 a2 a5 3d
       -0.031157823 -0.08260179 -0.07862247 0.08087674
000380 67 1c 09 3e 96 d8 42 3c db eb cd bc 7b 25 ad bd
       0.13389741 0.011892458 -0.025136879 -0.084544145
000390 54 6d 19 be bc b1 f9 3d e9 4b 07 bd a1 e5 c7 bd
       -0.14983112 0.12192103 -0.033031378 -0.09760595
0003a0 b5 d5 2b 3d 8a 1b c7 bd 60 08 0c 3e b3 75 03 3e
       0.041951854 -0.097220495 0.1367507 0.12837867
0003b0 cd cf 11 3d e1 e6 66 3d 52 4d 96 bd 53 1e 2c bd
       0.035598565 0.056372527 -0.073389664 -0.042021107
0003c0 c8 40 3a 3d f1 81 5c bc b7 90 cc 3d bb 00 17 be
       0.045471936 -0.013458715 0.0998854 -0.14746372
0003d0 ac 2a 08 bd 8a ab 88 3c 70 ff e3 bd 03 1a 77 bd
       -0.03324382 0.016683359 -0.11132705 -0.06032754
0003e0 5c dc 94 3d c5 cb 95 bd e0 2f 9e bd 85 f9 10 3e
       0.07268593 -0.073142566 -0.07723975 0.14157684
0003f0 41 93 dc bd 3e 61 e3 3c b8 61 95 3d ab a2 89 bc
       -0.10770274 0.02775633 0.07294029 -0.016801199

bias_ih_l0_reverse f4 [192]
000000 32 7b 4d bd f8 38 c0 3d 66 2f e5 bd a7 a8 5c 3d
       -0.050166316 0.09385866 -0.11190681 0.053871777
000010 4a 02 07 3d 10 62 b6 3d dd ad c5 3d a6 bd e2 bd
       0.032961167 0.08905423 0.096523024 -0.11071329
000020 d3 3d 3e bd d0 a2 fd bd 36 0e 3c bd 63 25 92 bd
       -0.04644568 -0.1238457 -0.04591199 -0.07136037
000030 76 72 b5 3d 1d 27 ab 3c 55 9b bb 3d dc 4b e7 3d
       0.08859722 0.020892674 0.091604866 0.11293766
000040 af 63 8b 3d 9b 76 c2 bd 43 20 9d bd c5 c0 fb 3d
       0.068061225 -0.094952784 -0.07672169 0.12292627
000050 5c bf f2 3b d7 58 4a 3d 68 46 91 3d 41 83 c3 bd
       0.0074080657 0.04940113 0.07093507 -0.09546519
000060 18 a3 86 3d 0b e7 10 be 89 41 dd bd 7c 20 08 3d
       0.065740764 -0.14150636 -0.108035155 0.033234105
000070 c6 91 52 bd 5a 69 f8 3d 87 f7 ba 3d d0 91 9e bc
       -0.05140855 0.12129469 0.09129243 -0.019356638
000080 a1 43 d2 3c 1d c8 11 bb 65 a5 8f 3d 5b 9d 05 3e
       0.025667014 -0.002224452 0.070139684 0.13048308
000090 30 4d c8 bd 4d 65 f3 3c f7 02 ef bc 58 38 10 3a
       -0.09780347 0.02971139 -0.029176218 0.000550156
0000a0 da 60 b8 3d 89 10 de 3d bd fc 30 3d 23 4e c4 ba
       0.09002848 0.108429976 0.04320978 -0.00149769
0000b0 a2 0a fb 3d ff 8b 9a 3d c9 e8 ca 3b ca e6 b2 3d
       0.122578874 0.075462334 0.006192301 0.08735426
0000c0 49 07 68 bd 56 da 99 bd 5d 28 18 3e b3 41 af 3c
       -0.056647573 -0.075123474 0.14859147 0.021393633
0000d0 2c b0 ec 3d 80 a7 b8 3d 9d a2 06 3e fc e4 5b 3d
       0.115570396 0.09016323 0.1314797 0.053685173
0000e0 28 dc 78 bc d0 db 96 3d b3 29 89 3d 30 9d 87 3c
       -0.015189208 0.07366145 0.066974066 0.016554445
0000f0 94 f7 4b bd 10 a5 17 3e 6f 4a 1e 3e 16 0d a5 3d
       -0.049796656 0.1480906 0.15458082 0.080591366
000100 cc 68 14 3e 51 0d b2 3d ea 18 51 bc 44 5e 11 3d
       0.14493102 0.08693946 -0.012762288 0.03549029
000110 9e b9 60 bd 83 4d 98 bd a7 6a 81 3c ff 12 97 3d
       -0.05486452 -0.07436659 0.015797926 0.0737667
000120 44 a2 a4 bd a6 c3 85 bd e3 81 0e be 73 6a 13 3a
       -0.08038762 -0.065314576 -0.13916735 0.0005623467
000130 09 78 3e 3d 57 f6 4d 3d e3 0d b3 bd 03 1e 2a bd
       0.046501193 0.050283756 -0.08742883 -0.041532528
000140 c4 47 9c 3d 3e 00 9f bd cf 6a 0c 3e 40 2f 87 3d
       0.07630876 -0.07763718 0.13712619 0.06600809
000150 1a 2c 69 bc 9a 35 87 3d 78 d3 17 be e4 21 40 3c
       -0.014231706 0.066020206 -0.14826763 0.01172683
000160 f9 91 9c bd c1 3d 14 3c 49 4e a9 3d 35 2b 26 bd
       -0.076450296 0.009047926 0.08266885 -0.04056855
000170 e4 20 a4 bd a8 f2 05 3e a3 d0 90 bd 07 00 b2 bd
       -0.08014086 0.13080847 -0.07071044 -0.086914115
000180 ca ea bb 3d 18 4c bc 3d 96 34 67 3d c0 68 3b 3d
       0.09175642 0.09194201 0.056446634 0.045754194
000190 98 1f 59 3d e5 f5 b2 3d 74 3d 1f bd 88 e7 90 3d
       0.053008646 0.08738307 -0.038876966 0.07075411
0001a0 c4 2e 2a 3d c4 3a 33 bd 0b 0b bc 3b 91 42 29 be
       0.041548505 -0.043757215 0.005738621 -0.165293
0001b0 d9 a2 07 be 54 5b 75 bd 77 b3 33 3d b3 70 7a 3d
       -0.13245715 -0.05990155 0.043872323 0.061142635
0001c0 82 da 5f 3c 5a 0e eb 3d 6c 2c e2 3d cc 92 b0 3d
       0.013662936 0.11477347 0.11043629 0.08621749
0001d0 11 07 91 3d ae 7b e0 3d 48 a2 46 3d 07 18 84 bd
       0.07081426 0.1096109 0.048494607 -0.06449895
0001e0 0c cc 14 3e 37 cf 06 3d af 9b 72 3d 4a 88 ce bb
       0.14530963 0.03291246 0.059230503 -0.006302868
0001f0 06 83 ad bd 95 8b ed 3d 75 ca 53 bc 47 48 53 3d
       -0.08472256 0.11598889 -0.0129266875 0.0515826
000200 a9 f2 56 bd d6 18 bc 3d 79 a6 90 bc 31 4d 42 3d
       -0.052477513 0.091844246 -0.017657505 0.047436897
000210 23 e8 89 bd 4e 28 9f 3d 33 f7 1a bd 9a 2b b8 bd
       -0.0673373 0.077713594 -0.037833404 -0.08992691
000220 49 75 0f bd 26 b3 22 3d 57 65 f0 3d 5c 00 b7 3d
       -0.03502396 0.03972163 0.11738079 0.089356154
000230 2e 51 c6 bd 2a 24 19 3e 1f 39 a0 3d a6 41 9b 3d
       -0.096834525 0.14955202 0.07823395 0.07580881
000240 c9 12 1a bb 65 4b 28 bd 99 dd e0 bd 71 76 39 be
       -0.0023509732 -0.041087527 -0.109797664 -0.18111588
000250 e9 6a cf bc d1 1a 02 3d 83 2e d5 bc fd 72 d1 bc
       -0.025319533 0.031763855 -0.026023155 -0.025567526
000260 54 db 0a 3e e3 1b a7 3d 48 6b 19 bc 54 82 9e bd
       0.1356023 0.08159616 -0.009363957 -0.07739702
000270 44 bc bf 3c d4 28 25 bd ba 4a d7 3d 5a c5 85 3d
       0.023405202 -0.04032214 0.105123 0.065317824
000280 d0 d0 0c be 9c 15 b8 bd 9d a1 da bd 8f 2b f7 3c
       -0.1375153 -0.08988497 -0.106753565 0.030172138
000290 bb 49 0c bc a0 55 b5 bb e3 58 ce 3d d0 d5 c7 bd
       -0.008562501 -0.005533889 0.100755475 -0.097575784
0002a0 dd ae be bd 7b 50 26 bd 2c fb 3c 3d 9c 66 cd 3d
       -0.09310696 -0.040604096 0.046137974 0.10029337
0002b0 02 bf 08 3d 70 eb a6 3d cf c6 5f bd 7a de f9 bd
       0.033385284 0.08150375 -0.054632958 -0.12200637
0002c0 fc 85 e7 3a 4b a8 07 bd 38 10 b9 3d c6 81 bb bd
       0.0017663832 -0.03311948 0.090362966 -0.09155612
0002d0 32 cb be 3d ab 76 b5 3d 6e bb 15 3d 32 15 b6 bd
       0.093161 0.08860525 0.0365557 -0.088907614
0002e0 b1 cd 80 3d f5 37 13 3e 4e 5d e9 bd 9d 21 d8 3d
       0.062892325 0.14376815 -0.113947496 0.10553286
0002f0 0d 46 8b 3d 82 60 94 3a ec b8 39 3c 5e 3e 9e bc
       0.068004705 0.0011320265 0.011335593 -0.019316848

bias_hh_l0_reverse f4 [192]
000000 49 3c d0 3d de 92 04 bc 25 67 d8 3d a3 dc 09 3c
       0.101677485 -0.0080916565 0.10566548 0.00841442
000010 16 d4 ca 3d 44 cb 2a 38 37 04 da bd f6 8f c5 bd
       0.099037334 4.0720464e-05 -0.10645335 -0.09646599
000020 79 3e 75 3d 6c c0 8e bc 2e c9 2c 3c aa 01 01 3e
       0.05987403 -0.017425738 0.010546012 0.12598291
000030 50 6a 46 bd d2 1b 8f bd 09 6b 2c bd 41 bf 3c 3e
       -0.04844123 -0.06987728 -0.042094264 0.18432333
000040 57 1c c0 bd 1c e6 a5 3c 1a 0c 0f 3e d2 75 56 3d
       -0.093804054 0.020251326 0.1396946 0.052358456
000050 ad 59 e2 3d 9b b1 a5 3b 3c 18 67 bd 18 17 16 bd
       0.110522605 0.0050565726 -0.056419596 -0.036643118
000060 b2 ca 97 3c 21 45 b4 3d 8b 98 90 3b ca 23 04 bd
       0.01852927 0.08802248 0.004412716 -0.032260694
000070 2a 98 9e 3d d7 0f 96 bd 18 dd 43 3d 2b ca a3 bd
       0.07743867 -0.0732724 0.047818273 -0.07997545
000080 96 d2 9c 3d 48 0d cb bd 46 ea 07 3b 00 d8 71 3d
       0.076573536 -0.099146426 0.0020739003 0.059043884
000090 e1 54 e6 3d c9 cc 05 bd 7a 99 bf bc 8d 7b dc bd
       0.11246658 -0.032666 -0.023388613 -0.10765753
0000a0 19 11 98 bb d6 95 95 bd 53 95 0a bc a9 1d 2d bd
       -0.00464071 -0.073039696 -0.008458453 -0.042264614
0000b0 a7 36 dc 3c 00 78 1b 3e 09 4e 89 bd 14 38 44 3d
       0.026881529 0.15182495 -0.06704337 0.047905043
0000c0 44 7e 65 bc cc 99 b8 3d cc e8 07 3d 09 81 b4 bb
       -0.014007155 0.090137094 0.033180997 -0.0055085463
0000d0 d8 d6 9a bd d8 2d 0b bd 58 02 e6 3d 3a d7 f3 3a
       -0.075605094 -0.033979267 0.11230916 0.0018603571
0000e0 bb b9 57 bc e5 0a f9 bd f0 b9 56 3a 88 ea 66 bc
       -0.01316684 -0.12160281 0.0008191159 -0.014094003
0000f0 9c a8 91 bd cc 05 24 3e c1 65 b3 3d d8 1d a1 3d
       -0.07112238 0.16017836 0.087596424 0.0786702
000100 4a 87 6d 3d 83 15 8c bd b4 8c 26 3d 90 86 78 bd
       0.05799035 -0.068400405 0.04066153 -0.060675204
000110 54 78 21 3e d6 be 96 3d e9 81 2a bd e2 45 b2 bb
       0.15768558 0.07360618 -0.0416278 -0.0054404596
000120 61 90 2f 3d 70 36 97 bd 58 eb a0 3d fd 71 cf 3d
       0.0428623 -0.0738343 0.07857388 0.101291634
000130 b4 fc 47 bd 65 3d 5d bd 12 81 e8 3d 49 5a dc 3c
       -0.04882498 -0.05401363 0.11352743 0.02689852
000140 2f 20 70 3d eb f9 26 bb 6c 3e 4b bd 0f 85 ac bd
       0.058624443 -0.0025478553 -0.049620077 -0.084238164
000150 2f c9 76 bd 07 d0 2d 3d af 4a a8 bc e0 e0 b7 bd
       -0.060250457 0.04243472 -0.020543424 -0.089784384
000160 50 85 31 3d a3 18 8d bd c0 77 2b 3e 71 5a 1a 3e
       0.043340027 -0.06889465 0.167449 0.15073563
000170 01 61 d8 bc 08 b8 e4 bd b3 16 58 bd dd e1 d7 3d
       -0.026413443 -0.11167914 -0.052756023 0.10541127
000180 31 fb 8a bc e8 92 e9 3d e4 c5 42 bd fb e0 0e 3d
       -0.01696548 0.11404973 -0.047552004 0.034882527
000190 65 97 98 bc e8 d0 e2 bd f4 2f e7 bd ad fa df 3d
       -0.018626878 -0.11075002 -0.11288443 0.109364845
0001a0 1e 09 7d bd bb 52 b5 3d f3 31 c6 bd 30 e6 2f bd
       -0.061776273 0.0885367 -0.09677496 -0.042944133
0001b0 ff a0 fc 3c 99 56 77 3d 5a a5 9e bc d6 36 26 3c
       0.030838488 0.06038532 -0.019365955 0.01014491
0001c0 57 54 4c bd d3 cf ac bb 8e 2a a8 bd f2 1e 92 3a
       -0.04988512 -0.005273798 -0.08211242 0.0011148138
0001d0 5e 47 a0 bd 43 20 e5 bd 2f a7 e8 3d 04 a8 c6 bc
       -0.07826112 -0.11187794 0.11360013 -0.024250038
0001e0 95 84 8a 3d d7 41 4e 3d e8 2d 02 bc d6 18 7c 3d
       0.06763569 0.05035576 -0.007945515 0.061547123
0001f0 93 96 8f 3d 61 4d de bd cc 41 b3 3c c2 4d 9a bd
       0.07011142 -0.108546026 0.02188196 -0.075343624
000200 57 93 cf 3c 70 2c 9e bd a4 b9 13 3d 5a d6 8e bc
       0.025338812 -0.077233195 0.036065713 -0.017436195
000210 4a 15 07 3d a5 74 e1 bd 1a 30 19 3d 9f 0e ed 3d
       0.032979287 -0.11008576 0.03739939 0.115750544
000220 ef b6 fd 3b 84 77 d0 3c f2 d6 dd 3d 91 bd e6 3c
       0.0077427546 0.025447614 0.10832013 0.028166564
000230 74 14 a9 bd e0 ca 56 3d 97 ed af 3d 87 27 b5 bc
       -0.08255854 0.05243957 0.085902385 -0.022113575
000240 78 a1 ea bb 36 a7 95 bd 02 ec 7e bc b3 1a 9f bc
       -0.007160362 -0.073072836 -0.015559198 -0.01942191
000250 c9 79 2f bd dc e6 15 3e 0a 87 3e 3c a5 84 33 3e
       -0.042840753 0.14638847 0.0116288755 0.17531069
000260 f3 5f 0c 3e 12 80 cb bc 5c 18 74 bd 2d fc 96 bc
       0.13708477 -0.024841342 -0.059593543 -0.018430794
000270 07 cb 9b bd 05 32 42 3e a5 cc 1c 3d 6f b2 34 be
       -0.07607084 0.18964393 0.0382811 -0.17646192
000280 09 7f 27 3c ca e9 2c bd 4b e9 ab bb f7 06 67 bd
       0.010223159 -0.042215146 -0.0052463165 -0.056403127
000290 f0 65 ab bc 02 d7 8d 3d b9 03 66 3c 66 0e 46 be
       -0.020922631 0.06925775 0.0140389735 -0.1934143
0002a0 6c 27 5c 3d 2f 5d 84 bc 84 00 b6 3d 73 13 1e 3d
       0.053748533 -0.016157715 0.08886817 0.038592767
0002b0 a4 f5 0b bd 3f fb 17 3a d4 c1 7b 3b d5 cd 90 bd
       -0.034169808 0.00057976315 0.003841509 -0.07070509
0002c0 2f e2 2e 3d 38 73 eb bd 42 78 66 3c 41 02 1b 3e
       0.042696174 -0.114965856 0.014066758 0.15137579
0002d0 3e 8a 94 bd 86 c7 06 3e 71 39 c7 3c df dd 3a bd
       -0.0725293 0.1316205 0.024319382 -0.04562175
0002e0 3c 46 a6 3d 1e aa c2 bd a0 42 27 3c ee d7 26 3d
       0.08118865 -0.095051035 0.010208756 0.04073327
0002f0 43 80 d7 bc f3 86 0d 3d c8 b0 0c 3e 66 a1 40 3d
       -0.026306277 0.034552526 0.13739312 0.04702892
