models/training_MERGE_VA_gain_shift_gain_reverb_lowpass_highpass_bandpass_pitch_shift_2026-01-11_12-45-00.pth (torch, 156380 bytes, 10 tensors)

weight_ih_l0 f4 [192, 32]
0	0x3db53ef7	0.088499
1	0x3dab5265	0.08365325
2	0xbde784e1	-0.113046415
3	0x3d978816	0.07399003
4	0xbde93b0e	-0.11388217
5	0x3cd7a777	0.02632497
6	0xbe00f09e	-0.12591788
7	0x3dc7f015	0.09762589
8	0x3dd4d698	0.10392493
9	0xbddbff61	-0.10742069
10	0xbc67aa19	-0.014139676
11	0xbc5b9e93	-0.013404506
12	0x3df07a35	0.11742059
13	0x3d2a26ad	0.04154079
14	0xbc1ecf79	-0.00969302
15	0xbca3fc07	-0.020017637
16	0x3d102422	0.03519071
17	0xbdcb37e1	-0.099227674
18	0xbe0a2bd4	-0.13493282
19	0x3c8db7a6	0.017299484
20	0xbd0f3d1a	-0.03497038
21	0x3d657248	0.05601719
22	0x3cd1e754	0.025623001
23	0x3e0c3c96	0.13694987
24	0xbd2cf34b	-0.04222421
25	0xbc57cd30	-0.013171479
26	0xb9b7a098	-0.00035024132
27	0xbd921789	-0.07133395
28	0x3d7f3fda	0.062316753
29	0xbd94fd4f	-0.07274877
30	0x3e28bd49	0.16478457
31	0xbd757221	-0.059923295
32	0x3d9c97c6	0.07646136
33	0x3d4a6f00	0.049422264
34	0xbbc8e0c2	-0.006130309
35	0x3ddc1feb	0.10748275
36	0xbd84be2b	-0.06481584
37	0x3e2d5469	0.16926731
38	0x3ca33d3c	0.01992666
39	0xbcd9d881	-0.026592495
40	0xbd01b2f8	-0.03166482
41	0xbddfb7c7	-0.109237246
42	0xbdfba709	-0.12287719
43	0x3d60be30	0.054868877
44	0x3d82c666	0.06385498
45	0x3c272f58	0.010204159
46	0x3d3d0ad7	0.046152916
47	0xbcbd1386	-0.023080599
48	0xbccf805d	-0.025329763
49	0xbe019c19	-0.12657203
50	0xbe19e39b	-0.15028231
51	0xbb9277e6	-0.0044698594
52	0xbcb2e293	-0.021836555
53	0x3e1575b8	0.14595687
54	0x3d7b2317	0.06131276
55	0x3e2b5647	0.16732131
56	0x3e115fbf	0.1419668
57	0x3d96d972	0.07365693
58	0x3e27e91c	0.16397518
59	0x3cca1130	0.024666399
60	0x3e028384	0.12745482
61	0x3c2f3349	0.01069338
62	0x3e1075a7	0.14107381
63	0x3d517d02	0.051144607
64	0x3b6c9d2f	0.003610443
65	0x3d3b84d8	0.045780987
66	0x3dfcc77b	0.123427354
67	0xbdb41d14	-0.08794609
68	0xbdd33b2e	-0.10314022
69	0x3d944b4c	0.07240924
70	0x3d4a5718	0.049399465
71	0x3dd0770c	0.101789564
72	0x3d9ccaec	0.07655892
73	0xbddc2a84	-0.10750297
74	0xbe311d3a	-0.17296305
75	0xbe15df23	-0.14635901
76	0xbe3d27b8	-0.18472183
77	0x3caa6f5d	0.020805055
78	0xbcb86f74	-0.022514082
79	0x3da80c02	0.08205415
80	0xbdae00b4	-0.08496228
81	0xbdb7377e	-0.08946131
82	0x3d9991a1	0.0749848
83	0xbdc9a361	-0.09845615
84	0x3de9ab47	0.11409622
85	0xbd0690e3	-0.03285302
86	0x3dc44724	0.095838815
87	0xbd11974c	-0.03554468
88	0xbcbf9d58	-0.023390457
89	0x3dae973b	0.08524939
90	0x3d914e5d	0.07095025
91	0x3c81bd10	0.015837222
92	0x3d995689	0.074872084
93	0x3df452ef	0.11929881
94	0xbd178dcf	-0.037000474
95	0xbc3a0c32	-0.011355447
96	0x3dfaa60a	0.12238701
97	0xbc3d17e9	-0.011541345
98	0xbd65ad2b	-0.05607335
99	0xbe3c5755	-0.1839269
100	0xbdb9a8c8	-0.090653956
101	0x3d5d5803	0.054039013
102	0xbb8f9a28	-0.0043823905
103	0xbdf26857	-0.118363075
104	0x3d85b8da	0.06529398
105	0xbd3cf264	-0.0461296
106	0xbe0167ca	-0.12637249
107	0xbd211f70	-0.03933662
108	0xbdf07a23	-0.11742046
109	0xbcbde8f3	-0.023182368
110	0x3e1ea305	0.15491875
111	0xbbcd0646	-0.0062568514
112	0x3bc2d057	0.005945246
113	0xbd2a3406	-0.04155352
114	0xbdad9338	-0.084753454
115	0x3d0ae0de	0.033905856
116	0x3d65c2fe	0.056094162
117	0xbd5bbb09	-0.053645167
118	0xbd0d9a17	-0.03457078
119	0xbddf6692	-0.109082356
120	0x3b5acb5a	0.0033385367
121	0xbc809222	-0.015694682
122	0x3cf7d77b	0.030254116
123	0xbdd5fc45	-0.10448507
124	0xbdc413dd	-0.09574101
125	0xbd42535a	-0.04744277
126	0x3afbd5f7	0.0019213547
127	0xbdbc70ea	-0.09201224
128	0x3d80c5f9	0.0628776
129	0xbc371674	-0.011174787
130	0x3df4ac55	0.11946932
131	0x3db15348	0.08658463
132	0xbd9ebcac	-0.0775083
133	0x3e0a33ba	0.13496295
134	0xbba22c34	-0.004949117
135	0xbd501f80	-0.05081129
136	0xbe2505c3	-0.16115479
137	0xbdbcbf65	-0.09216193
138	0x3d064953	0.03278477
139	0xbd0baff6	-0.034103356
140	0x3bf8553b	0.0075785196
141	0xbd8217d0	-0.06352198
142	0x3e2df034	0.16986161
143	0xbdc765dd	-0.09736226
144	0xbd85473a	-0.06507726
145	0x3c8db6a5	0.017299006
146	0x3d9f59cf	0.077808015
147	0x3de48193	0.11157527
148	0x3e1e72b7	0.15473448
149	0xbd75a584	-0.0599723
150	0x3d23998a	0.039941348
151	0x39c818ba	0.00038165395
152	0x3a87cc9f	0.0010360664
153	0xbd1864ad	-0.037205387
154	0x3e08a7d4	0.13345271
155	0xbcaa4b1c	-0.020787768
156	0x3dfc4788	0.12318331
157	0x3d81c75d	0.06336854
158	0x3d8fe776	0.070265695
159	0xbdcf84df	-0.10132765
160	0x3d348759	0.04407439
161	0x3d2ffa3d	0.042963255
162	0x3d38aef5	0.045088727
163	0xbdb33c1a	-0.08751698
164	0x3d05798a	0.03258661
165	0x3d238638	0.039922923
166	0xbdbf95f6	-0.09354775
167	0x3d9e03ba	0.077155545
168	0x3db0defd	0.08636282
169	0xbd8a2d1f	-0.067468874
170	0xbe215ec4	-0.15758806
171	0xbd131cbf	-0.035916086
172	0x3a56e1d7	0.0008197105
173	0xbca8473b	-0.020541778
174	0xbe5aab02	-0.21354297
175	0xbdaa1b28	-0.08305961
176	0xbe31db94	-0.17368919
177	0x3d335e80	0.043791294
178	0x3d32545b	0.04353748
179	0xbe2c3527	-0.16817151
180	0x3e01c805	0.12673958
181	0x3dcd148b	0.10013684
182	0x3d849595	0.06473843
183	0x3c0a31ce	0.008434726
184	0x3da091ac	0.07840285
185	0x3df525f6	0.11970131
186	0x3da348b4	0.079728514
187	0x3d816a3c	0.06319091
188	0x3d70d927	0.058800843
189	0x3d8dba8b	0.06920346
190	0x3db10b12	0.086446896
191	0x3ce15dba	0.027510513
192	0x3d736762	0.059424765
193	0x3de9c64c	0.11414775
194	0xbda1fc5f	-0.07909464
195	0xbc8b019b	-0.016968539
196	0x3d44c30b	0.04803757
197	0xbb45430a	-0.0030099773
198	0xbb8d0185	-0.0043031597
199	0x3d3f3e5f	0.04669034
200	0xbd7a263b	-0.061071616
201	0xbd6e647b	-0.058201294
202	0xbb2b06fe	-0.0026096697
203	0x3daff94a	0.0859247
204	0x3d5b8a13	0.053598475
205	0xbe0258eb	-0.12729232
206	0x3b580c57	0.003296634
207	0xbd868c35	-0.06569711
208	0xbcb0310b	-0.02150776
209	0x3d10827e	0.035280697
210	0x3ddef518	0.10886592
211	0x3d7a2ed2	0.061079808
212	0xbc07e42a	-0.008294145
213	0x3cab1d9a	0.020888139
214	0x3d8e4ff5	0.06948844
215	0x3e73dc50	0.23814511
216	0x3d8befa5	0.06832818
217	0x3d2cda3b	0.04220031
218	0x3e07a18d	0.1324522
219	0x3d969d58	0.0735423
220	0x3d4a0594	0.049321726
221	0x3e277269	0.16352238
222	0xbc18008b	-0.009277473
223	0xbc4c56d9	-0.012471878
224	0xbd9b6248	-0.07587105
225	0x3e16e75e	0.14736697
226	0x3d3c166a	0.045919813
227	0x3db7ac0f	0.089683644
228	0xbdbf3385	-0.093359984
229	0xbd1c245d	-0.038120616
230	0xbe02001a	-0.12695351
231	0x3e2e11e1	0.16999008
232	0x3dc1ca58	0.09462422
233	0x3d698285	0.05700924
234	0x3d2a1f61	0.04153383
235	0x3cc8af88	0.024497762
236	0xbd978e9a	-0.07400246
237	0xbb7018db	-0.0036635909
238	0xbe496e6a	-0.19671026
239	0x3d1e0c0d	0.03858571
240	0x3df5f5e7	0.12009793
241	0xbcd9a54d	-0.02656808
242	0xbd801ee8	-0.06255895
243	0xbdb80084	-0.08984473
244	0x3d993db8	0.07482475
245	0x3ab52bf6	0.0013822305
246	0x3cfcdb78	0.03086637
247	0x3e291eb9	0.16515626
248	0x3dc1d8f3	0.09465208
249	0x3e69bf3f	0.22826861
250	0x3dc963a0	0.09833455
251	0x3d3ff2e5	0.0468625
252	0x3de8cb46	0.11366896
253	0x3d97868d	0.073987104
254	0x3db328f0	0.087480426
255	0xbc8bf8e0	-0.017086446

weight_hh_l0 f4 [192, 64]
0	0xbd99bccc	-0.07506713
1	0x3d82ee8c	0.063931555
2	0xbddb6613	-0.107128285
3	0x3ded3a61	0.115834005
4	0xbe0e4b3a	-0.13895884
5	0x3cccb302	0.024987701
6	0x3d237a14	0.039911345
7	0x3d7a1680	0.061056614
8	0xbc8aae57	-0.016928835
9	0x3dc6b50d	0.097025014
10	0xbd93f4c1	-0.072244175
11	0x3de9bd51	0.11413062
12	0xbb2bbd76	-0.0026205457
13	0x3da97f22	0.08276202
14	0x3d59b85d	0.05315434
15	0x3d084711	0.0332709
16	0x3c523624	0.012830291
17	0x39a6ed95	0.00031839
18	0xbd7721ef	-0.060335096
19	0x3d7ab7d5	0.061210472
20	0x3db292aa	0.0871938
21	0x3d84dadd	0.06487057
22	0xbc84b000	-0.016197205
23	0xbe218a4b	-0.15775411
24	0xbd4badb7	-0.049726214
25	0x3c5cb5dd	0.013471094
26	0xbdd8c995	-0.10585324
27	0x3d910201	0.0708046
28	0x3c8b1c33	0.01698122
29	0x3d0f867b	0.03504036
30	0x3deeb78c	0.116561025
31	0x3c03b138	0.008037858
32	0xbde5ea98	-0.11226386
33	0xbd4bf930	-0.04979819
34	0x3dbc8bb4	0.09206334
35	0x3d66a849	0.056312833
36	0xbdef0d40	-0.11672449
37	0xbdb8dbcc	-0.09026298
38	0xbdf180da	-0.117921546
39	0xbd0e14c9	-0.03468779
40	0xbddd07c7	-0.10792499
41	0x3d62f75d	0.055411685
42	0x3e30ed4b	0.1727802
43	0xbdd81453	-0.105507515
44	0xbdb52458	-0.08844823
45	0xbda5c9cc	-0.0809513
46	0xbdaeb0bf	-0.085298054
47	0x3e1cefa2	0.15325788
48	0x3d0d1ebb	0.034453135
49	0xbca28343	-0.019837981
50	0xbd9dd3d0	-0.07706416
51	0xbc829578	-0.015940413
52	0xbe0125be	-0.12612054
53	0xbd6354d5	-0.055500824
54	0x3e11cf74	0.14239293
55	0x3d180883	0.037117492
56	0xbce9f374	-0.02855847
57	0x3debfaf3	0.11522474
58	0xbbc649e0	-0.006051287
59	0x3d5a7669	0.05333558
60	0x3cce0f99	0.025153922
61	0x3d9f122e	0.077671394
62	0xbdbddc6a	-0.09270556
63	0xbcbfa923	-0.02339608
64	0xbccf851a	-0.025332022
65	0xbe04a595	-0.1295379
66	0xbdb1652d	-0.08661876
67	0x3d602da0	0.05473101
68	0xbdadaf5b	-0.08480712
69	0xbd517a77	-0.051142182
70	0xbd8ce7e8	-0.0688017
71	0xbda1de1f	-0.07903694
72	0x3dd15b9a	0.1022255
73	0x3dd06a45	0.10176519
74	0xbe7d28b8	-0.24722564
75	0xbe2d38bf	-0.16916178
76	0xbe347918	-0.17624319
77	0x3d89130a	0.066930845
78	0x3d638613	0.055547785
79	0x3d0d4856	0.034492813
80	0x3dc9b4eb	0.098489605
81	0xbd7f28d4	-0.062294796
82	0x3e5d2f06	0.2159997
83	0xbceb22b3	-0.02870307
84	0xbe5a6601	-0.21327974
85	0x3dad26eb	0.08454689
86	0x3dc8b2d6	0.09799735
87	0x3e2183f8	0.15772998
88	0xbdb2eaea	-0.087362126
89	0xbdd639f0	-0.104602695
90	0xbd835d54	-0.06414285
91	0x3df8f29c	0.12155649
92	0x3d89282d	0.06697116
93	0xbde903ad	-0.11377654
94	0x3d9e12e8	0.0771845
95	0xbe523739	-0.20528878
96	0xbda17da1	-0.0788529
97	0xbdbe6c41	-0.092979915
98	0x3d70024d	0.058595944
99	0xbdb4c3ad	-0.08826385
100	0xbe5b5199	-0.21417846
101	0x3da9f89a	0.0829937
102	0xbc194b43	-0.009356323
103	0x3e29979e	0.16561744
104	0xbcc25a36	-0.023724657
105	0xbe033443	-0.12812905
106	0xbd900370	-0.07031906
107	0x3d98176f	0.074263446
108	0x3d8ff255	0.07028643
109	0xbd636afa	-0.055521943
110	0xbb276852	-0.0025544357
111	0x3c13f318	0.009030126
112	0x3d61ea7e	0.05515527
113	0xbc4a3ac4	-0.012343112
114	0x3d165477	0.036701646
115	0x3d171d64	0.036893263
116	0xbe31d8c0	-0.1736784
117	0x3d252a6e	0.040323667
118	0x3df1e5c5	0.11811403
119	0xbd404f84	-0.046950832
120	0xbd8a5d1a	-0.06756039
121	0x3e0ceba2	0.13761762
122	0x3d61e8a9	0.055153523
123	0xbda57015	-0.080780186
124	0xbbcc9293	-0.006243059
125	0x3e3c5859	0.18393077
126	0x3d4ca2a0	0.04995978
127	0xbd72fda9	-0.05932394
128	0xbd35e4f5	-0.044407804
129	0x3dff68d8	0.12471169
130	0xbab41c86	-0.0013741411
131	0x3e11603d	0.14196868
132	0xbc86dc8a	-0.016462583
133	0x3d374e5d	0.044752467
134	0xbdd132ea	-0.10214789
135	0x3da16f84	0.07882598
136	0xbc85828d	-0.016297603
137	0x3ddcce95	0.1078159
138	0xbbe87a02	-0.0070946226
139	0xbceb6d07	-0.028738512
140	0xbcd530bb	-0.026024213
141	0x3d2081da	0.039186336
142	0xbd2e16af	-0.0425021
143	0xbdafffc9	-0.08593709
144	0x3e568563	0.2094932
145	0x3d73df96	0.0595394
146	0xbdfff0fe	-0.124971375
147	0xbddacc09	-0.10683448
148	0xbe02c6d2	-0.12771156
149	0xbd1d346f	-0.038380083
150	0x3c41956c	0.01181541
151	0x3de3ca65	0.11122588
152	0x3d228d19	0.039685342
153	0x3cfb48ac	0.030674301
154	0xbdceef49	-0.10104234
155	0x3dbb252f	0.091379516
156	0x3c3d697e	0.011560796
157	0x3ce9c3ab	0.028535685
158	0xbc4b01ba	-0.012390548
159	0xbe0a8436	-0.13526997
160	0xbc928001	-0.017883303
161	0xbdccb98c	-0.09996328
162	0x3da168a8	0.0788129
163	0x3d6254f4	0.0552568
164	0xbc0d51aa	-0.008625427
165	0x3da9543a	0.08268018
166	0xbdaef4c8	-0.08542782
167	0x3e1b3cd1	0.15159918
168	0x3d8d2796	0.06892316
169	0x3d848f38	0.06472629
170	0xbc8e7130	-0.017387956
171	0xbd39bc1b	-0.045345407
172	0xbd915c93	-0.07097735
173	0xbe07933d	-0.1323976
174	0x3d5dfef1	0.05419821
175	0x3ddd7f5f	0.1081531
176	0xbddb323a	-0.10702939
177	0x3c5df419	0.013546967
178	0x3e11d571	0.14241578
179	0x3c230b43	0.0099514155
180	0xbe25b357	-0.16181694
181	0xbdaa631a	-0.083196834
182	0x3d7c6577	0.061620202
183	0x3d45a55a	0.048253395
184	0xbe70203b	-0.23449795
185	0xbe59712c	-0.21234578
186	0x3ddfdc08	0.109306395
187	0xbe030a0a	-0.12796798
188	0xbd9028b5	-0.07039014
189	0x3e1616e1	0.14657165
190	0x3d88344f	0.06650602
191	0x3dfb178c	0.122603506
192	0x3d980719	0.07423229
193	0x3c6db5d1	0.01450868
194	0x3dea1da3	0.11431434
195	0x3d25b81f	0.040458795
196	0xbd08ceb7	-0.033400264
197	0x3a0ec46b	0.00054461387
198	0x3e251edc	0.16125053
199	0x3c519aa9	0.0127932215
200	0x3e20456e	0.15651485
201	0x3bb1296b	0.0054065487
202	0xbdfce651	-0.12348617
203	0xbd70f5bb	-0.058828097
204	0xbe3fd81c	-0.18734783
205	0x3cc45da4	0.023970433
206	0xbc283c35	-0.010268261
207	0xbdecc501	-0.11561013
208	0xbe39b6e1	-0.18136169
209	0xbd4ce0b9	-0.050019
210	0x3cb2aa51	0.021809729
211	0x3b8fa1fe	0.0043833246
212	0xbd27069d	-0.04077779
213	0xbc029ac6	-0.007971471
214	0x3caa5975	0.02079461
215	0xbd821833	-0.06352272
216	0xbdc7c94a	-0.0975519
217	0xbd61b2c2	-0.055102117
218	0xbe04fc1b	-0.12986796
219	0xbe67f51f	-0.226521
220	0xbd210371	-0.039309923
221	0x3defecee	0.117151126
222	0x3e4673f2	0.19380167
223	0x3d707b9e	0.05871164
224	0x3d8d7b90	0.06908333
225	0x3c3d6927	0.011560715
226	0xbdbeee18	-0.093227565
227	0xbda0e830	-0.07856786
228	0xbd5414dc	-0.051777706
229	0xbdace760	-0.08442569
230	0xbde84816	-0.11341874
231	0x3d1a64c2	0.037693746
232	0xbd9429be	-0.07234524
233	0xbc3838b0	-0.011243984
234	0xbe170b86	-0.1475049
235	0x3dd5bb49	0.104361124
236	0x3da558cc	0.08073577
237	0xbd339243	-0.043840658
238	0x3e264438	0.16236961
239	0xbdea376b	-0.114363514
240	0x3e3f7d51	0.18700148
241	0xbd6da990	-0.058023036
242	0x3d82d307	0.063879065
243	0x3d15ab80	0.03654051
244	0x3d51effb	0.051254254
245	0xbd6a528a	-0.05720762
246	0x3cf5fd9b	0.030028155
247	0x3d280639	0.04102156
248	0x3e4c3f9f	0.19946145
249	0x3cc90b48	0.024541512
250	0xbe308405	-0.17237861
251	0x3b46cefc	0.0030335775
252	0xbd92081f	-0.07130455
253	0x3c9134d4	0.017725386
254	0xbb223567	-0.0024751069
255	0xbc885220	-0.016640723

bias_ih_l0 f4 [192]
0	0x3c33bde6	0.010970568
1	0x3daeba4f	0.08531629
2	0xbd46ae73	-0.04850621
3	0xbd378f9f	-0.044814702
4	0x3dad2ffe	0.084564194
5	0xbc905802	-0.01762009
6	0x3d4d46dc	0.050116405
7	0x3e068a88	0.13138783
8	0x3e105eaf	0.14098619
9	0xbc0016ad	-0.007817906
10	0x3e1ba661	0.15200187
11	0x3dc13492	0.09433855
12	0xbd9e0739	-0.07716221
13	0x3d6780b6	0.056519233
14	0xbd09496c	-0.033517286
15	0x3e085ada	0.13315907
16	0x3bd82100	0.006595731
17	0x3d080ea7	0.0332171
18	0xbd2a38d2	-0.041558094
19	0x3d4b35f7	0.04961201
20	0xbd8a30fa	-0.06747623
21	0xbd25dedc	-0.04049574
22	0x3df776a1	0.120831735
23	0x3d9532d1	0.07285083
24	0xbe08596e	-0.13315365
25	0x3d3c5a1d	0.045984376
26	0x3defbf71	0.117064364
27	0x3d967a8d	0.073475935
28	0x3da9f04a	0.082977846
29	0xbd52b1cb	-0.051439088
30	0x3d67a97e	0.056558125
31	0x3e0a9f9e	0.13537452
32	0x3e00c36d	0.12574549
33	0xbd6d90a1	-0.057999257
34	0xbbc588cf	-0.0060282717
35	0xbbfb5851	-0.0076704402
36	0xbde89a27	-0.11357527
37	0xbd08108d	-0.03321891
38	0x3e62f62d	0.22164221
39	0x3c91c241	0.017792823
40	0x3e413a36	0.18869862
41	0xbcfaefd9	-0.030631946
42	0x3e04f9d3	0.12985925
43	0x3d488c9d	0.048962224
44	0xbe0d9d14	-0.13829452
45	0xbc38d906	-0.011282211
46	0x3d95540f	0.072914235
47	0xbca655fb	-0.02030467
48	0x3e0b1146	0.13580808
49	0x3e2d4f00	0.16924667
50	0xbddf0375	-0.10889331
51	0x3c90255c	0.01759594
52	0x3ddcbb6a	0.10777934
53	0x3cc8d2e5	0.024514625
54	0xbd726fde	-0.059188716
55	0x3dbadeaf	0.09124505
56	0xbd9fb343	-0.07797863
57	0x3d91f6e0	0.07127166
58	0xbc93fca9	-0.018064814
59	0x3db63e34	0.08898583
60	0xbc10e8bb	-0.00884455
61	0xbd0bea1a	-0.034158804
62	0x3bcaf3d9	0.0061936197
63	0x3e18a703	0.1490746
64	0xbcb98d3d	-0.022650355
65	0x3de66675	0.11250011
66	0x3dfbcb7b	0.1229467
67	0xbddfba31	-0.10924185
68	0x3e00e183	0.12586026
69	0x3e1970fd	0.14984508
70	0x3a946814	0.0011322522
71	0x3ce3547b	0.027750244
72	0x3d122ef8	0.035689324
73	0x3ca48449	0.02008261
74	0x3de0d540	0.10978174
75	0xbc8dfb70	-0.017331809
76	0xbd36ff65	-0.044677157
77	0x3dba3a02	0.09093095
78	0x3dddf7bf	0.108382694
79	0x3db39c02	0.087699905
80	0xbcc573b3	-0.024103021
81	0xbda543ee	-0.08069597
82	0xbbb3963b	-0.0054805554
83	0xbd99355f	-0.07480883
84	0xbd8525ab	-0.06501325
85	0xbd881f6f	-0.066466205
86	0xbd1907b4	-0.037360862
87	0x3cc70177	0.02429269
88	0x3c53c315	0.012924929
89	0x3db538a8	0.08848697
90	0x3df7749e	0.1208279
91	0x3dad613e	0.08465813
92	0x3e22ea36	0.15909657
93	0x3d9e9d0d	0.07744799
94	0xbd2d792e	-0.042351894
95	0x3e288142	0.16455558
96	0x3d3a21bd	0.04544233
97	0x3dd91eec	0.10601601
98	0x3da260f1	0.07928646
99	0x3d0cfb7f	0.034419533
100	0x3dd5bf47	0.10436874
101	0xbe05dbc1	-0.1307211
102	0x3df1d995	0.118090786
103	0xbd772709	-0.06033996
104	0xbd63e0bb	-0.05563424
105	0xbd48df01	-0.049040798
106	0xbdb05dd1	-0.08611644
107	0xbcabeea1	-0.02098781
108	0x3d992a8e	0.0747882
109	0x3d37ae3c	0.044843897
110	0xbc07c569	-0.008286812
111	0x39f82d84	0.00047336158
112	0x3e058548	0.13039124
113	0x3d0ae94e	0.033913903
114	0xbc3f64e8	-0.011681773
115	0x3cf7110d	0.030159498
116	0xbd65d325	-0.056109566
117	0x3d4afa56	0.049555145
118	0xbd911371	-0.07083786
119	0x3e0a6cc5	0.13518055
120	0x3c1714ea	0.009221295
121	0xbe00082e	-0.1250312
122	0x3d81f021	0.06344629
123	0xbdb015a5	-0.08597878
124	0xbd69b05b	-0.05705295
125	0xbdb18fa4	-0.086699754
126	0x3bdfdf3e	0.0068320325
127	0x3dbf6eeb	0.09347328
128	0xbda33cf8	-0.07970613
129	0xbc86a2fb	-0.016435137
130	0xbcd0ddf1	-0.025496455
131	0xbd194c00	-0.037425995
132	0x3d49e73a	0.04929278
133	0x3dbe14a4	0.09281281
134	0x3b1e8577	0.0024188438
135	0xbd03d13c	-0.032181963
136	0x3d0eea3f	0.034891363
137	0xbd4549b5	-0.048165996
138	0xbd577837	-0.05260488
139	0x3d892b5a	0.06697722
140	0xbd880ebc	-0.06643435
141	0x3e1f2481	0.15541269
142	0x3e03305e	0.1281142
143	0x3d6024a2	0.054722436
144	0x3d839637	0.064251356
145	0xbd0c7359	-0.03428969
146	0x3d233121	0.039841775
147	0x3cb88ab0	0.022527069
148	0xbddba4b6	-0.107247755
149	0xbe002eea	-0.12517896
150	0xbc18a350	-0.0093162805
151	0x3c8f9341	0.01752627
152	0x3d8a6d8b	0.06759175
153	0x3dfc2848	0.123123705
154	0x3ceade89	0.028670566
155	0x3d70b2e7	0.058764365
156	0x3da0bea1	0.078488596
157	0xbdcaf732	-0.0991043
158	0x3e1172b4	0.14203912
159	0xbd08d91b	-0.033410173
160	0xbdd2152f	-0.10257947
161	0x3d89be72	0.06725778
162	0xbd5c21f0	-0.053743303
163	0xbc8d9dff	-0.017287252
164	0xbcbfb5cc	-0.023402117
165	0x3c5e0e6f	0.013553246
166	0xbdc2dad4	-0.095143944
167	0x3e1f668b	0.15566461
168	0x3df92c83	0.12166693
169	0xbd126b22	-0.0357467
170	0x3d0fd351	0.035113636
171	0xbd66e10c	-0.056366965
172	0x3dca9d8b	0.0989333
173	0xbd8a1190	-0.06741631
174	0xbd9fad43	-0.07796719
175	0xbaa502d4	-0.0012589344
176	0xbd1c6acb	-0.038187783
177	0x3d443e8b	0.047911208
178	0xbb42d3b9	-0.0029728247
179	0x3db8060e	0.0898553
180	0x3d334edc	0.043776378
181	0xbd827e9d	-0.06371806
182	0xbd02ca46	-0.031931184
183	0xbcc03dfe	-0.02346706
184	0xbe00ea9f	-0.12589501
185	0x3da8f7e0	0.082504034
186	0x3e0d56c7	0.13802634
187	0x3d20e599	0.03928146
188	0x3d9b0ab2	0.07570399
189	0x3e07e6de	0.13271663
190	0xbc33fb6e	-0.0109852385
191	0xbc9b58ba	-0.018963207

bias_hh_l0 f4 [192]
0	0xbc81e5f1	-0.015856715
1	0xbd10f7ca	-0.03539256
2	0xbd412d55	-0.047162373
3	0x3c91a0d7	0.01777689
4	0xbd6dceec	-0.058058664
5	0xbd010c46	-0.031505845
6	0x3d1287c9	0.035774026
7	0x3d983306	0.07431607
8	0xbd2b50a1	-0.04182494
9	0xbd81684d	-0.06318722
10	0x3de4e438	0.11176342
11	0x3deb2b6a	0.1148289
12	0xbe01900f	-0.1265261
13	0xbd8b25dc	-0.067943305
14	0x3dbef97d	0.0932493
15	0x3e61623f	0.22010134
16	0x3de1118f	0.10989677
17	0x3da5f865	0.08104018
18	0xbcc30aec	-0.023808919
19	0x3e0a12da	0.13483754
20	0x3dd47787	0.103743605
21	0xbd867714	-0.06565681
22	0x3da396a7	0.07987719
23	0xbd00f059	-0.031479213
24	0xbd153801	-0.036430363
25	0xbdb10f05	-0.08645443
26	0x3c93d866	0.018047523
27	0xbd9d110b	-0.07669266
28	0xbd58ecd3	-0.05296023
29	0x3e06e7c8	0.13174355
30	0x3ccb3c0b	0.024808904
31	0x3d86b81e	0.06578086
32	0x3dcfc2ef	0.101446025
33	0x3cfd9612	0.030955348
34	0x3a76f9d8	0.0009421385
35	0xbc93e736	-0.018054586
36	0xbdc76ca2	-0.09737517
37	0x3d792c18	0.060833067
38	0xbc8d9cdf	-0.017286716
39	0xbdaa2fec	-0.083099216
40	0x3e5e67e9	0.21719326
41	0x3e0cb621	0.13741352
42	0x3d4e6f5e	0.050399177
43	0xbd6b0654	-0.05737908
44	0x3db6cc36	0.08925669
45	0x3c5e6a3d	0.013575134
46	0xbd830693	-0.06397738
47	0x3e2b28e2	0.16714814
48	0x3e50fa0e	0.20407888
49	0x3df442ee	0.11926828
50	0x3dc20578	0.09473699
51	0xbd0d415b	-0.034486156
52	0x3cc10bf8	0.023565277
53	0x3e21fc53	0.1581891
54	0xbddf4c6a	-0.10903247
55	0xbd6f129a	-0.05836735
56	0x3d165c98	0.036709398
57	0x3d80cf88	0.062895834
58	0x3daf5c10	0.085624814
59	0x3c007f5f	0.007842868
60	0x3e25d838	0.16195762
61	0x3dbfd74f	0.09367239
62	0xbd72aae4	-0.059245005
63	0xbd0faa3d	-0.03507446
64	0x3e4ac00e	0.19799826
65	0xbc660313	-0.014038819
66	0x3da7e561	0.081980474
67	0x3cbbdc57	0.022932215
68	0x3d8fc9ed	0.07020936
69	0xbbf141d9	-0.007362586
70	0xbbae2342	-0.0053142617
71	0xbda48c53	-0.08034577
72	0x3d659a38	0.056055278
73	0x3caf085e	0.021366294
74	0xbd5ccce8	-0.05390635
75	0xbdb145a2	-0.086558595
76	0x3d868fd8	0.06570405
77	0x3d94c10d	0.07263384
78	0xbda0dfab	-0.07855161
79	0xbc925b35	-0.017865757
80	0x3d87c7e9	0.06629927
81	0xbd59c706	-0.05316832
82	0x3da56414	0.08075729
83	0x3c6ceb5b	0.01446041
84	0xbe18056d	-0.1484582
85	0x3cb52899	0.022114085
86	0x3dcef3c1	0.10105086
87	0x3d806459	0.0626914
88	0x3e46735d	0.19379945
89	0x3e253928	0.16135085
90	0x3db24348	0.08704239
91	0x3e85ea06	0.26155108
92	0x3dc11933	0.094286345
93	0xbd54c49b	-0.05194531
94	0x3e05c792	0.13064411
95	0x3d546146	0.05185058
96	0xbd62dfd8	-0.055389255
97	0xbde750f0	-0.112947345
98	0x3dcf4556	0.10120647
99	0x3e4a0c6f	0.19731306
100	0xbd12fbde	-0.03588473
101	0x3b897b07	0.004195574
102	0x3dd749e8	0.105121434
103	0x3dfdb542	0.12388088
104	0x3da38b3c	0.07985541
105	0x3cf43333	0.02980957
106	0xbc55731e	-0.013027934
107	0x3d37beee	0.04485982
108	0x3ba31cc5	0.004977795
109	0xbd0f19e8	-0.034936816
110	0xbdd0521a	-0.1017191
111	0x3e25b515	0.16182359
112	0x3d4c4eeb	0.04987995
113	0x3c6e2c51	0.014536933
114	0x3d62b232	0.05534572
115	0xbc1a136a	-0.009404043
116	0x3df1ccda	0.118066505
117	0x3e2d1a76	0.16904625
118	0xbd7d9de3	-0.06191815
119	0x3de819c0	0.113330364
120	0x3e0a7064	0.13519436
121	0xbcbe6cde	-0.023245271
122	0x3db84444	0.08997396
123	0xbda0ae2c	-0.07845721
124	0x3c2d7aaf	0.010588332
125	0xbd8f1f44	-0.06988385
126	0xbd7c5c3e	-0.061611407
127	0x3ce9bd5b	0.028532675
128	0xbd91da5d	-0.071217276
129	0xbd37daed	-0.04488652
130	0x3d876742	0.06611492
131	0xbe438cb9	-0.1909665
132	0xbe32a9f2	-0.17447641
133	0x3dc4c0e2	0.09607102
134	0xbe0adff6	-0.13561997
135	0x3cff3f85	0.031158218
136	0xbde44fd6	-0.1114804
137	0x3bc64091	0.0060501774
138	0x3d4991c2	0.04921127
139	0x3b7dc02f	0.0038719287
140	0x3e5a77a3	0.213347
141	0xbd83c05b	-0.06433173
142	0xbe6bd81a	-0.23031655
143	0xbe73b3ba	-0.23799029
144	0x3e038758	0.12844598
145	0xbd5f47eb	-0.054511946
146	0x3d0c93f3	0.034320783
147	0xbdc6dae7	-0.09709721
148	0xbb3d6be2	-0.0028903414
149	0xbe5e7967	-0.21725999
150	0xbe3aeb26	-0.18253765
151	0xbe488d01	-0.19585039
152	0xbd1850b6	-0.037186347
153	0x3e2b85ca	0.16750255
154	0x3d9fba8d	0.077992536
155	0xbdf7d504	-0.121011764
156	0x3e46e02c	0.19421452
157	0xbd5c55fb	-0.053792935
158	0x3cf1b05d	0.029503042
159	0xbdd0cbba	-0.10195108
160	0xbdc53b92	-0.09630503
161	0xbe121a08	-0.14267743
162	0xbd84e141	-0.06488276
163	0xbdb5048d	-0.088387586
164	0x3d18e523	0.037327897
165	0xbdcc559b	-0.099772654
166	0xbdccd3dd	-0.10001347
167	0x3dfa7922	0.122301355
168	0x3cca2f61	0.024680795
169	0xbe073c73	-0.13206653
170	0xbd286824	-0.04111494
171	0xbe4b70cb	-0.19867246
172	0xbe5e2c4f	-0.2169659
173	0xbd27ff1b	-0.041014772
174	0x3d3a15b3	0.04543085
175	0xbe1a7516	-0.15083727
176	0x3cb54cb8	0.022131309
177	0xbe3ba43d	-0.1832437
178	0xbdbbcfea	-0.09170516
179	0x3b651aab	0.0034958522
180	0xbe4ec6f0	-0.20193076
181	0x3dc8d028	0.09805328
182	0xbe93bd14	-0.28855193
183	0x3dfdbe40	0.12389803
184	0x3c84522c	0.016152464
185	0xbdf5fc7a	-0.12011047
186	0x3d2501bf	0.04028487
187	0x3dcde757	0.1005389
188	0xbe0d5920	-0.1380353
189	0xbe02c686	-0.12771043
190	0x3d900869	0.07032854
191	0xbdc63677	-0.09678357

weight_ih_l0_reverse f4 [192, 32]
0	0x3d66cffc	0.056350693
1	0x3dde7c30	0.10863531
2	0xbd912b18	-0.070882976
3	0xbda46706	-0.08027463
4	0xbd99fbc3	-0.07518723
5	0xbba4e40c	-0.005032068
6	0x3e02016b	0.12695853
7	0xbb9ca1de	-0.0047800383
8	0xbdf076e3	-0.11741426
9	0xbdca7b30	-0.098867774
10	0xbdfa66e9	-0.1222666
11	0xbdb198dd	-0.086717345
12	0x3c9b06c7	0.01892413
13	0xbc3307f2	-0.010927187
14	0xbd20c709	-0.039252315
15	0xbdcd4ca9	-0.100243874
16	0xbe0beb19	-0.13663901
17	0xbde6af3a	-0.112638906
18	0x3dafc379	0.08582205
19	0xbd5b52f6	-0.053545915
20	0xbe21c73c	-0.15798658
21	0xbda18d62	-0.07888295
22	0xbd1356fd	-0.03597163
23	0xbe037a9e	-0.12839743
24	0x3a41e016	0.0007395757
25	0xbd17f471	-0.037098352
26	0xbd5b9a8f	-0.053614195
27	0x3c9f5c63	0.019453233
28	0xbd72a9d2	-0.059243985
29	0xbe0ad86a	-0.13559118
30	0x3cedd650	0.029032856
31	0x3c266f70	0.010158405
32	0x3c5e2a3f	0.013559877
33	0x3e5a02f4	0.21290189
34	0x3d3048b0	0.04303807
35	0x3db84039	0.089966245
36	0xbe122179	-0.14270581
37	0xbc942a59	-0.0180866
38	0x3c0e016c	0.008667331
39	0xbdb15ff4	-0.0866088
40	0xbc79542c	-0.015217822
41	0xbd077ef1	-0.033080045
42	0xbd8d6290	-0.06903565
43	0x3e17f6c1	0.14840223
44	0xbd7ba9ba	-0.06144116
45	0x3cbb3dc3	0.022856599
46	0xbe2d408b	-0.16919152
47	0x3c026943	0.007959667
48	0x3ba21eb8	0.0049475096
49	0x3dac9963	0.08427694
50	0xbd9b6aaa	-0.07588704
51	0x3d499302	0.049212463
52	0x3d3d7e5c	0.046263084
53	0x3df78ffd	0.120880105
54	0x3e71c284	0.23609358
55	0x3e20ac5c	0.1569075
56	0x3e4fa01e	0.20275924
57	0x3db3f274	0.08786479
58	0x3e3a09f3	0.18167858
59	0x3b87ff3b	0.004150299
60	0xbbbd4591	-0.005776115
61	0xbd2bb945	-0.041924734
62	0xbc853384	-0.016259916
63	0x3e426a68	0.18985903
64	0x3d88a215	0.0667154
65	0x3dd871e0	0.10568595
66	0x3ba3f6a3	0.0050037666
67	0x3e11f378	0.14253032
68	0x3c93d752	0.018047009
69	0x3bb065c1	0.0053832238
70	0xbd5b4138	-0.053528994
71	0x3dad817a	0.08471961
72	0x3d9f5729	0.07780296
73	0x3cb905ef	0.022585837
74	0xbd538d11	-0.051648203
75	0x3e028c25	0.12748773
76	0xbc1b0ef4	-0.009464014
77	0xbe255228	-0.16144621
78	0xbd219865	-0.039451975
79	0xbd992fc1	-0.074798115
80	0xbd0ffa47	-0.035150792
81	0xbc87e8e9	-0.016590552
82	0xbc7535bc	-0.014966425
83	0x3dd041e5	0.101688184
84	0x3e052084	0.13000685
85	0x3c871d43	0.016493445
86	0x393596e6	0.00017317719
87	0x3df329da	0.11873217
88	0x3c05ccd2	0.008166509
89	0xbd39b184	-0.045335308
90	0xbc08cc33	-0.008349466
91	0x3e071678	0.13192165
92	0xbc43bb6b	-0.011946539
93	0x3bb5bb5e	0.0055460175
94	0x3dc4b384	0.096045524
95	0x3d354d3d	0.044263113
96	0x3c12fa46	0.008970803
97	0x37c4bf07	2.3453975e-05
98	0x3c07ae92	0.008281367
99	0xbd4d00f7	-0.05004975
100	0x3d13557c	0.035970196
101	0x3c120afb	0.008913751
102	0xbdd506de	-0.104017004
103	0xbd2dc8cd	-0.042427827
104	0xbe66aef2	-0.22527674
105	0xbdc0946e	-0.09403311
106	0xbe42b325	-0.1901365
107	0x3d055c03	0.032558452
108	0xbde563e2	-0.11200692
109	0xbd1920b5	-0.037384707
110	0x3d913cba	0.07091661
111	0xbc6c56da	-0.014425004
112	0xbdaab2a8	-0.08334857
113	0x3c8da24c	0.017289303
114	0xbda5c266	-0.08093719
115	0xbe01bf81	-0.12670709
116	0xbd33c666	-0.04389038
117	0x3e2961d3	0.16541223
118	0x3e31de44	0.17369944
119	0x3c245122	0.010029109
120	0xbd0d7bfd	-0.034542073
121	0x3e1cec0f	0.15324424
122	0xbc9c37e1	-0.019069614
123	0xbd91a962	-0.07112385
124	0xbdc81e92	-0.09771456
125	0x3dc60be2	0.09670235
126	0x3d936b8c	0.07198247
127	0x3e2f7248	0.17133439
128	0xbd7b4f6e	-0.061355047
129	0x3ceeb349	0.029138224
130	0x3e0171e5	0.12641104
131	0x3d503db2	0.050840087
132	0xbe30439b	-0.1721329
133	0xbdd622d0	-0.10455859
134	0x3d4dc4ec	0.050236627
135	0xbd973806	-0.073837325
136	0xbd17a49b	-0.037022214
137	0xbd6c89c9	-0.05774859
138	0xbe2c923c	-0.16852659
139	0x3d20fe75	0.03930517
140	0x3d897626	0.06711988
141	0x3d8db3b2	0.0691904
142	0xbd67a4c3	-0.056553613
143	0xbd2519ed	-0.040307928
144	0xbc43bf8b	-0.011947523
145	0xbc4bdc38	-0.012442641
146	0xbccdcf52	-0.025123272
147	0xbda5cb24	-0.080953866
148	0xbd890d2f	-0.06691968
149	0x3e0d9e29	0.13829865
150	0x3e00cacf	0.12577365
151	0x3d4b415c	0.04962288
152	0xbd915637	-0.07096522
153	0xbd3a599c	-0.045495614
154	0x3da3c707	0.07996946
155	0xbd8634c3	-0.06553032
156	0x3c6cb1cb	0.014446686
157	0x3de5b0ef	0.11215388
158	0x3d5e370a	0.054251708
159	0x3db701f8	0.089359224
160	0x3c217d2f	0.009856506
161	0x3dadd92d	0.084886886
162	0xbdfe46a3	-0.12415817
163	0xbd0b8c6d	-0.034069467
164	0xbd9da247	-0.076969676
165	0x3dedf45b	0.11618873
166	0xbe2a9984	-0.16660124
167	0x394c6768	0.00019493478
168	0xbdb3ce18	-0.08779544
169	0x3c8f76c6	0.01751269
170	0x3df5107b	0.11966034
171	0x3df89245	0.12137274
172	0xbd2e332b	-0.042529266
173	0xbc3fef55	-0.011714776
174	0x3d9cf5b5	0.076640524
175	0x3a4ae092	0.0007739152
176	0x3d8cd7ab	0.06877073
177	0x3e20b98b	0.15695779
178	0x3d9e59f4	0.07732001
179	0x3dd265e8	0.10273343
180	0x3d2a5d27	0.041592743
181	0x3d8b42be	0.067998394
182	0x3db2aff8	0.087249696
183	0x3d29d66a	0.041464247
184	0xbd352ad6	-0.044230305
185	0xbc92c5e3	-0.017916625
186	0xba6a34fb	-0.00089342863
187	0x3c346e88	0.011012681
188	0x3c804239	0.015656577
189	0x3dbca206	0.09210591
190	0x3dc9c61f	0.09852242
191	0x3d8c43c0	0.0684886
192	0x3dd9a56f	0.10627257
193	0xbda1a485	-0.07892708
194	0x3cd365c3	0.02580536
195	0x3db2a398	0.08722609
196	0x3d2d5505	0.04231741
197	0xbd01c3e0	-0.03168094
198	0x3e0e38c7	0.13888846
199	0xbdb2a3ec	-0.08722672
200	0x3e094d24	0.13408333
201	0x3dabf7c9	0.08396871
202	0xbde8e785	-0.11372284
203	0x3d3eea6b	0.046610277
204	0xbd6380ab	-0.05554263
205	0xbcb3879b	-0.021915248
206	0x3cf0e33f	0.029405234
207	0x3c9fda85	0.019513378
208	0xbc811410	-0.015756637
209	0xbe18df41	-0.14928915
210	0x3bf4cb68	0.007470537
211	0xbddb9aa9	-0.107228585
212	0x3ba20466	0.004944372
213	0x3dbfbc0a	0.093620375
214	0xbd3cb087	-0.046066787
215	0xbdf8b508	-0.12143904
216	0xbe0b04e5	-0.13576086
217	0xbd67ffd7	-0.056640472
218	0xbbfc0339	-0.007690814
219	0x3d63b5dd	0.05559336
220	0x3d127ccf	0.035763558
221	0x3bda5cd1	0.0066638966
222	0xbda1ede7	-0.079067044
223	0xbdf78ef5	-0.12087814
224	0xbca044fd	-0.019564146
225	0x3d3180f9	0.04333589
226	0x3d022431	0.031772796
227	0xbc745e1f	-0.014915018
228	0xbd817785	-0.06321625
229	0xbd924830	-0.07142675
230	0x3d49fbea	0.04931251
231	0x3bcca5ee	0.0062453663
232	0xbd4eaeab	-0.050459545
233	0xbe001432	-0.12507704
234	0xbc8087b8	-0.015689716
235	0x3cdd9c0e	0.027051952
236	0xbe069cab	-0.13145702
237	0xbbe35e96	-0.0069387658
238	0xbe420fef	-0.1895139
239	0xbd5a88da	-0.053353168
240	0x3c25c805	0.010118489
241	0xbd56c751	-0.052436177
242	0x3daa5216	0.08316438
243	0x3ccabf8d	0.024749542
244	0xbdf448de	-0.11927961
245	0x3d7aa979	0.061196778
246	0x3d74dda8	0.0597817
247	0x3db4f1f5	0.08835212
248	0x3e24ab9f	0.16081093
249	0xbcfd63ed	-0.030931437
250	0xbcda2e8c	-0.026633523
251	0x3df7aadf	0.12093138
252	0xbd963188	-0.07333666
253	0xbcb58911	-0.022160085
254	0x3dbf7a63	0.09349515
255	0x3ca0cf97	0.019630237

weight_hh_l0_reverse f4 [192, 64]
0	0x3daa0bb2	0.08303012
1	0xbca7a06b	-0.020462235
2	0x3bf77772	0.007552081
3	0xbcee5d6f	-0.029097287
4	0x3bc41dfe	0.0059850207
5	0xbe2ac21b	-0.16675608
6	0x3d38b786	0.045096897
7	0x3c38f4a1	0.011288793
8	0xbca9f0e3	-0.020744747
9	0x3cda7289	0.026665943
10	0xbdd9b5cf	-0.1063038
11	0xbdcebd46	-0.10094695
12	0x3e198cbb	0.1499509
13	0x3b673423	0.0035278879
14	0x3bfbc5c3	0.007683487
15	0xbe4a7d7d	-0.19774432
16	0x3c2c8241	0.010529102
17	0x3e39fa17	0.18161808
18	0x3de92234	0.11383477
19	0x3d7e42aa	0.062075295
20	0x3e451ed9	0.19250049
21	0xbdadfc31	-0.08495367
22	0xbd944104	-0.07238963
23	0xb9bc90b6	-0.00035965972
24	0x3de3dcfe	0.11126135
25	0xbd0e64e7	-0.034764197
26	0xbdbc1f01	-0.09185601
27	0x3dd7e807	0.105423026
28	0x3debf074	0.11520472
29	0xbd6e942b	-0.058246773
30	0x3e0609bc	0.13089651
31	0x3d800f84	0.06252959
32	0x3e209300	0.15681076
33	0x3ca691e6	0.020333242
34	0x3e61f23c	0.22065061
35	0xbd985799	-0.07438583
36	0x3da2725d	0.07931969
37	0xbdf76276	-0.12079327
38	0xbe2df64b	-0.16988485
39	0x3d8efb7a	0.06981559
40	0x3dd37808	0.103256285
41	0x3dc94005	0.09826664
42	0xbc457f53	-0.012054282
43	0xbdca0391	-0.098639615
44	0x3d858351	0.06519187
45	0x3d9920b0	0.07476938
46	0xbdea9bfd	-0.11455534
47	0x3de06a0b	0.10957726
48	0xbe31f8c1	-0.17380048
49	0x3e49fe86	0.19725999
50	0xbe00735c	-0.12544006
51	0x3d578435	0.052616317
52	0xbdf0a660	-0.117504835
53	0x3d5c01bc	0.05371259
54	0x3c3cec2c	0.011530917
55	0x3c4d4045	0.01252753
56	0x3c9c571a	0.019084502
57	0xbbb6e920	-0.00558199
58	0xbdee9196	-0.11648862
59	0x3b9c6db4	0.00477382
60	0xbe417f35	-0.18896182
61	0x3d84586e	0.06462179
62	0xbd0d8b45	-0.034556646
63	0xbda83320	-0.08212876
64	0x3add8597	0.0016900775
65	0xbe514513	-0.20436506
66	0xbe288dd1	-0.16460349
67	0x3e27bda9	0.16380943
68	0x3e8cc1dc	0.27491653
69	0xbcaffcbc	-0.021482818
70	0x3d2eae46	0.04264667
71	0xbda9598d	-0.082690336
72	0x3e3ab092	0.18231419
73	0xbe2bc58c	-0.16774577
74	0x3dbe533b	0.09293219
75	0xbd2b63e1	-0.0418433
76	0x3dde0118	0.10840052
77	0xbe5cc7f2	-0.21560648
78	0x3d62dd9e	0.055387132
79	0x3d9d7190	0.07687676
80	0x3c5771c5	0.013149683
81	0x3db3f002	0.08786012
82	0x3dc4218c	0.09576711
83	0x3b758d1e	0.0037468146
84	0x3e795c98	0.24351728
85	0xbdf6bf45	-0.120482005
86	0x3bd57854	0.0065145884
87	0x3d12b72f	0.03581923
88	0x3bdf5311	0.006815322
89	0x3dda22be	0.10651158
90	0x3de93fef	0.113891475
91	0x3c08b046	0.008342808
92	0xbe57a65d	-0.21059556
93	0xbdd1a602	-0.102367416
94	0xbdc44682	-0.09583761
95	0xbe3dceff	-0.18535994
96	0x3cfc3b9e	0.030790146
97	0x3c29ad05	0.0103561925
98	0x3dea02b1	0.114262946
99	0x3ccfbc77	0.025358422
100	0xbe4af0e0	-0.19818449
101	0xbe09c637	-0.13454519
102	0xbe4163b3	-0.18885688
103	0xbe177a24	-0.14792687
104	0x3d8a129f	0.06741833
105	0xbe3f464c	-0.1867916
106	0x3d7c0e4a	0.061537065
107	0xbe19cfd1	-0.15020682
108	0xbe621c54	-0.22081119
109	0xbcd8db8f	-0.026471881
110	0xbe058b5e	-0.13041446
111	0x3c51a2bf	0.012795149
112	0x3babe018	0.00524522
113	0x3d9862fd	0.074407555
114	0xbcb4c471	-0.022066327
115	0x3dd231df	0.102634184
116	0xbe333270	-0.17499709
117	0x3ca2da4b	0.01987948
118	0x3d03a0ef	0.0321359
119	0x3e0a7e20	0.13524675
120	0xbe3a5e4e	-0.18200037
121	0x3d4815d1	0.04884893
122	0xbdcdc71c	-0.10047743
123	0x3e8c69d2	0.27424484
124	0xbe8736bb	-0.26408944
125	0xbd16e59d	-0.03684007
126	0xbcee38a6	-0.029079746
127	0x3c7ac8b6	0.015306642
128	0x3c5a79cd	0.013334704
129	0xbd4c8acc	-0.049937055
130	0x3e31f6e0	0.17379332
131	0x3da10df3	0.07863989
132	0xbcc05943	-0.023480063
133	0x3cc2b184	0.023766287
134	0xbd331233	-0.043718528
135	0xbdacda27	-0.08440047
136	0x3e133fc2	0.1437979
137	0xbe6d1b79	-0.23155011
138	0x3c8fe524	0.017565317
139	0xbd2dc472	-0.042423673
140	0x3d36c4a2	0.044621117
141	0x3deb6447	0.11493736
142	0xbcd83299	-0.026391314
143	0x3bd90101	0.006622434
144	0xbe2f5861	-0.17123558
145	0x3d49da11	0.04928023
146	0x3da9d77b	0.08293053
147	0x3d55b056	0.05217012
148	0x3e5bbc03	0.2145844
149	0x3c08d964	0.008352611
150	0x3e23b8f1	0.15988518
151	0xbb635896	-0.0034690253
152	0x3e00580b	0.12533586
153	0x3e0c8d5a	0.13725796
154	0xbd512b90	-0.051066935
155	0x3e24ef6f	0.16106962
156	0xbc6d1c36	-0.014472058
157	0xbe1becae	-0.15227005
158	0xbdabb7e2	-0.08384682
159	0x3baa79da	0.005202514
160	0xbc8e4864	-0.017368503
161	0x3e2ba245	0.1676112
162	0x3e407e7c	0.1879825
163	0xbdaaa7cd	-0.08332787
164	0x3b7bbc43	0.0038411773
165	0xbdf7e4ef	-0.121042125
166	0x3b8f207c	0.004367886
167	0x3d65c7a6	0.056098603
168	0x3c77fea2	0.015136393
169	0xbd0fba24	-0.035089627
170	0xbb31c3a6	-0.0027124672
171	0xbd9fff46	-0.078123614
172	0xbd2008fd	-0.039071072
173	0xbbc137a8	-0.0058965273
174	0xbda69dea	-0.081355885
175	0x3dd4c1e1	0.10388542
176	0x3e717b56	0.23582205
177	0x3d0289c4	0.031869665
178	0xbdb07cd3	-0.08617558
179	0x3e565c93	0.20933752
180	0x3ba1eb4f	0.004941381
181	0xbdbc9a71	-0.09209145
182	0x3c258f81	0.010105015
183	0x3da4d697	0.08048742
184	0xbe1db2f2	-0.15400293
185	0x3d8ac742	0.06776287
186	0xbda6dab2	-0.081471816
187	0x3e193b9b	0.14964144
188	0xbe1bd53b	-0.1521806
189	0x3d86b5e5	0.065776624
190	0xbd6bf2e3	-0.05760468
191	0xbcdb76b9	-0.02679001
192	0x3e0f69a7	0.14005147
193	0xbdc440cd	-0.09582672
194	0xbbe30f33	-0.006929302
195	0xbc482eb3	-0.012218165
196	0xba39a54e	-0.0007081822
197	0x3bdb4c17	0.00669242
198	0x3e2c6690	0.16836
199	0xbe3f3a75	-0.18674643
200	0xbd148762	-0.036261924
201	0x3d1d5425	0.038410325
202	0x3ce4c931	0.027927967
203	0x3cc3b43c	0.023889653
204	0x3da81dc9	0.08208806
205	0xbd0776f7	-0.033072438
206	0xbc1c8703	-0.009553674
207	0xbd96871d	-0.073499896
208	0xbbb6f873	-0.0055838167
209	0x3c946006	0.018112194
210	0x3dc95e84	0.098324805
211	0xbdc41af2	-0.09575452
212	0x3d73f52f	0.059559997
213	0x3b07e90e	0.0020738277
214	0x3e4f65e8	0.20253718
215	0xbb1784bc	-0.0023119887
216	0x3e033aad	0.12815352
217	0x3dc34e2e	0.09536396
218	0x3d018e3c	0.031629786
219	0x3e2610ac	0.16217297
220	0xbd67250a	-0.056431808
221	0xbdc9b6e2	-0.09849335
222	0x3c9c4450	0.019075543
223	0xbe0b77ec	-0.13619965
224	0xbd16e4a9	-0.03683916
225	0x3e2aacc8	0.16667473
226	0x3e71563d	0.23568054
227	0xbdcaedbf	-0.09908628
228	0xbe04d7ce	-0.12972948
229	0x3a09602e	0.0005240467
230	0xbe24f55b	-0.1610922
231	0xbdb99097	-0.090607814
232	0xbe28bec1	-0.16479017
233	0xbd6d1d26	-0.057889126
234	0xbbbf45bc	-0.0058371704
235	0xbcc9abda	-0.024618078
236	0xbd8dca49	-0.069233485
237	0xbd230b58	-0.03980574
238	0x3ddf145e	0.108925566
239	0x3d2d257c	0.042272076
240	0xbc6eb905	-0.014570479
241	0x3e4f8b18	0.20267904
242	0x3cd50a25	0.026005814
243	0xbb959204	-0.0045645256
244	0xbdd20090	-0.102540135
245	0xbd51362d	-0.051077057
246	0x3d7475d1	0.05968267
247	0x3c388d4c	0.011264157
248	0xbe06ed3b	-0.13176434
249	0x3e0e080f	0.13870262
250	0xbd12e872	-0.03586621
251	0x3d149e71	0.036283914
252	0xbdb3d0f9	-0.08780093
253	0x3d11ad50	0.035565674
254	0xbe2ec15d	-0.1706595
255	0xbda33649	-0.079693384

bias_ih_l0_reverse f4 [192]
0	0x3cbfd41e	0.023416575
1	0x3dd48873	0.10377588
2	0x3d5d7608	0.05406764
3	0x3d2571e3	0.040391814
4	0x3cb6efe2	0.022331182
5	0x3dc032f6	0.0938472
6	0xbd7a4752	-0.061103173
7	0xbdabc6c6	-0.083875224
8	0x3d9434b2	0.07236613
9	0xbda4dd73	-0.080500506
10	0x3e1b33d4	0.1515649
11	0x3dcc1f53	0.09966912
12	0xbd4ac2d0	-0.049502194
13	0xbc8939ef	-0.016751258
14	0x3d6430d1	0.055710617
15	0x3d09a3c2	0.033603437
16	0x3d8dc997	0.06923216
17	0x3c99baa1	0.01876575
18	0x3deb65b2	0.11494006
19	0x3e05fd23	0.13084845
20	0x3c15c94d	0.009142232
21	0xbca6e69d	-0.020373637
22	0xbdc9d425	-0.098549165
23	0xbbf731cd	-0.0075437785
24	0x3c20a72d	0.009805483
25	0x3d2f9ff8	0.042877167
26	0xbd871166	-0.06595115
27	0x3d0354ec	0.03206341
28	0x3dcfd028	0.101471245
29	0xbd33b075	-0.043869454
30	0x3a318214	0.00067713973
31	0x3e13b24e	0.14423487
32	0x3dde80b5	0.10864393
33	0x3cbad013	0.022804296
34	0x3d8eca36	0.069721624
35	0x3e3e7a25	0.18601282
36	0x3e4647fb	0.19363396
37	0xbc7e7a2b	-0.015532057
38	0x3df3e819	0.119095035
39	0x3e15a056	0.14611945
40	0x3da6dc80	0.08147526
41	0x3e273c5f	0.16331623
42	0x3d92edce	0.07174264
43	0x3db25524	0.087076455
44	0xbc215957	-0.00984796
45	0xbc326474	-0.010888208
46	0x3e467d62	0.19383767
47	0xbd3b7762	-0.04576815
48	0xbd754331	-0.05987853
49	0x3d84609a	0.06463738
50	0xbd4e0638	-0.0502989
51	0x3d3569ae	0.044290237
52	0x3e6315c5	0.22176273
53	0x3de6f461	0.1127708
54	0x3e1b5c4f	0.15171932
55	0x3e1d5dad	0.15367766
56	0x3e0c4dd0	0.13701558
57	0xbdbe4f32	-0.09292449
58	0x3da4f62d	0.08054767
59	0xbd1f8113	-0.038941454
60	0xbcc1bf01	-0.023650648
61	0xbe0a686a	-0.13516393
62	0x3da7235b	0.081610404
63	0x3dd00b4c	0.10158405
64	0x3e284dea	0.16435972
65	0x3dffe91a	0.124956325
66	0x3ded77e4	0.11595133
67	0x3cc5412c	0.024078928
68	0x3ded3ee8	0.11584264
69	0x3dcb54b4	0.09928265
70	0xbc99441e	-0.018709239
71	0x3cedc8c5	0.029026398
72	0xbd3cc493	-0.046085905
73	0x3d249de7	0.04018965
74	0x3d7fb3fb	0.062427502
75	0xbd9f545c	-0.07779762
76	0x3db4faca	0.08836897
77	0x3ccd1172	0.025032733
78	0xbe02393e	-0.12717149
79	0x3c05a8ec	0.00815795
80	0xbd857714	-0.06516853
81	0xbd8352ee	-0.06412302
82	0xbd4e082e	-0.05030077
83	0x3e3c14ce	0.18367311
84	0x3d3dece7	0.046368506
85	0x3d175290	0.036943972
86	0x3cfe7a51	0.031064184
87	0x3e20de71	0.15709855
88	0x3daefbca	0.08544119
89	0x3dcf30b0	0.10116708
90	0x3d03e2cc	0.032198712
91	0xbdc78b54	-0.097433716
92	0xbd0d3ffb	-0.034484845
93	0x3d6d9bb8	0.058009833
94	0x3e0f0cf3	0.13969783
95	0x3dcf617f	0.10126018
96	0x3d526664	0.05136718
97	0xbdad2da8	-0.08455974
98	0xbd9f6a6b	-0.077839695
99	0x3d3c8071	0.04602093
100	0x3ccba112	0.024857078
101	0xbd2639be	-0.04058241
102	0xbca0f48b	-0.019647857
103	0x3d4b8be7	0.04969397
104	0x3c72bccb	0.01481552
105	0xbd6f82ba	-0.05847428
106	0x3d01b34d	0.031665135
107	0x3dbe5bbe	0.09294842
108	0xbd152759	-0.036414478
109	0xbd9ca190	-0.07648003
110	0x3daee169	0.08539087
111	0xbc659b07	-0.014014012
112	0xbd89187c	-0.06694123
113	0x3d81fc93	0.06347003
114	0x3dbc850b	0.092050634
115	0xbcf890cd	-0.030342484
116	0xbd93fd5a	-0.07226057
117	0x3cbf182a	0.023326952
118	0x3c8fd2d6	0.01755659
119	0xbd87dd6e	-0.06634031
120	0x3e1a8237	0.15088736
121	0xbdaec8d8	-0.08534402
122	0x3d5075ed	0.050893713
123	0x3dc8ea2c	0.0981029
124	0xbc99e27f	-0.01878476
125	0x3d64d0b7	0.05586311
126	0xbdd32c0a	-0.10311134
127	0xbd865f7b	-0.0656118
128	0x3da355ad	0.07975326
129	0x3da7c62c	0.08192095
130	0xbaf7e14f	-0.0018911752
131	0xbd650646	-0.055914186
132	0x3e1753eb	0.14778106
133	0x3cbf8eaf	0.023383467
134	0x3df01705	0.117231406
135	0xbe21f3bc	-0.15815634
136	0xbd09d8ec	-0.03365414
137	0x3d19f0b1	0.037583057
138	0x3e113856	0.14181647
139	0xbdc54624	-0.09632519
140	0x3d48a427	0.048984673
141	0xbdb17a76	-0.08665936
142	0x3db72a3e	0.08943604
143	0xbdef1d6d	-0.116755344
144	0x3acae76a	0.0015480344
145	0xbda6a361	-0.08136631
146	0x3cad2b1c	0.02113872
147	0xbd9cf861	-0.07664562
148	0xbd20510c	-0.039139792
149	0x3d9c92c8	0.07645184
150	0xbd22ec5e	-0.0397762
151	0x3dd84437	0.10559886
152	0xbe22fa23	-0.15915732
153	0xbd0440ef	-0.032288488
154	0x3daa2d36	0.083094046
155	0x3d80a962	0.06282307
156	0x3e124505	0.14284141
157	0xbcf22b5a	-0.029561687
158	0x3dca8e43	0.098904155
159	0xbde3218f	-0.11090385
160	0xbd076b90	-0.033061564
161	0xbe020782	-0.12698177
162	0x3cb8d217	0.022561116
163	0xbe08cf5d	-0.13360353
164	0x3e2f284d	0.17105217
165	0x3e1c66c7	0.15273581
166	0xbd8dbd0f	-0.06920826
167	0xbcc897a5	-0.024486372
168	0x3ce02249	0.027360098
169	0xbe38e97d	-0.18057819
170	0x3d859c22	0.065239206
171	0x3df69c25	0.12041501
172	0xbdfa4117	-0.12219446
173	0x3bbf3802	0.005835534
174	0xbde5be6f	-0.11217963
175	0xbd85b9ff	-0.065296166
176	0xbc903a66	-0.017605972
177	0x3deae04b	0.11468562
178	0x3cdd8573	0.027041173
179	0x3de4581a	0.111496165
180	0x3dfd3b69	0.12364847
181	0x3d671b0c	0.05642228
182	0x3ccc87ca	0.024967093
183	0x3dbb218b	0.09137257
184	0xbe20deb0	-0.15709949
185	0xbdf9439b	-0.12171098
186	0xbdcf6b2b	-0.101278625
187	0xbc38cbbf	-0.011279046
188	0xbd6bc53b	-0.05756114
189	0xbd37b902	-0.04485417
190	0x3df1d82b	0.11808809
191	0xbb9e5594	-0.004831979

bias_hh_l0_reverse f4 [192]
0	0xbdf5e9a7	-0.12007456
1	0x3e1cf8c1	0.15329267
2	0x3d1e29a2	0.038613923
3	0x3de186e3	0.11012056
4	0x3ce307d0	0.027713686
5	0x3c7e0f54	0.015506584
6	0xbc97d34e	-0.018533375
7	0xbdc66936	-0.09688036
8	0x3d1dd1d5	0.03853019
9	0xbca95a2e	-0.020672884
10	0x3da222f3	0.07916822
11	0xbd66e151	-0.056367222
12	0x3dc7cc1a	0.09755726
13	0x3ce6b059	0.028160261
14	0xbdf2b703	-0.11851313
15	0xbdf02926	-0.117265984
16	0xbe1e2419	-0.15443458
17	0x3d8e6813	0.06953444
18	0x3e160704	0.14651114
19	0x3da7b3b8	0.081885755
20	0x3e106ad2	0.14103249
21	0x3b5f9c4b	0.0034120257
22	0x3d8547f4	0.065078646
23	0x3d0782c5	0.033083696
24	0x3d2cad85	0.04215767
25	0x3e32d7af	0.1746509
26	0x3d37cd6c	0.04487364
27	0x3db9dea7	0.09075671
28	0xbdabfbf4	-0.083976656
29	0xbd451d4c	-0.048123643
30	0x3dc34e9c	0.09536478
31	0xbd8a69ab	-0.06758436
32	0xbca0aeac	-0.01961454
33	0x3dada7fb	0.08479305
34	0x3e1271b0	0.14301181
35	0xbc911f66	-0.017715167
36	0x3dda8f8a	0.10671909
37	0x3e2fb769	0.17159809
38	0x3d0ee716	0.03488835
39	0xbd8239f7	-0.06358712
40	0x3dbae47a	0.0912561
41	0x3d0e97d8	0.03481278
42	0xbb856006	-0.004070285
43	0x3c033f34	0.008010674
44	0x3e13720a	0.14398971
45	0x3d50116b	0.05079786
46	0x3e1f97d7	0.15585266
47	0xbd8c031a	-0.06836529
48	0xbbb0f126	-0.005399841
49	0x3dcc1dab	0.09966596
50	0x3cd26b84	0.025686033
51	0xbba555b7	-0.0050456184
52	0xbcd46dc3	-0.025931245
53	0x3e145560	0.14485693
54	0x3cf6e938	0.030140504
55	0x3d218aad	0.039438892
56	0xbd1e8c8a	-0.038708247
57	0xbe078bb9	-0.13236894
58	0x3da3ead0	0.08003771
59	0xbdd63c85	-0.10460762
60	0x3dbe7470	0.092995524
61	0xbe10d938	-0.14145362
62	0x3db1080b	0.08644112
63	0x3dc39489	0.09549815
64	0x3da91c50	0.08257353
65	0x3e233191	0.15936877
66	0x3dacf399	0.084449
67	0x3cc78618	0.024355933
68	0x3e4343ec	0.19068879
69	0x3d6da9db	0.058023315
70	0x3e0938c4	0.1340056
71	0x3d4cd80e	0.050010733
72	0x3be70558	0.0070501976
73	0xbb3cbb60	-0.0028798208
74	0x3d2818eb	0.04103939
75	0xbd4b6135	-0.04965325
76	0xbd4f43be	-0.050601713
77	0x3c6b1e32	0.014350461
78	0x3cc3e389	0.023912208
79	0xbdc3dd6a	-0.09563716
80	0xbd33e8ab	-0.04392306
81	0x3e3abbf3	0.1823576
82	0x3de65ba1	0.112479456
83	0xbd4813e1	-0.048847083
84	0x3c38a7e4	0.011270497
85	0x3d86c2fb	0.06580158
86	0x3e32e23e	0.17469117
87	0x3d503324	0.05083002
88	0x3c24a4a8	0.010049023
89	0xbdc06589	-0.09394366
90	0x3dc4e01b	0.09613057
91	0xbd9319d0	-0.07182658
92	0xbcc77349	-0.024346964
93	0xbdcf1767	-0.101118855
94	0x3daab6a0	0.08335614
95	0x3e01c121	0.12671329
96	0xbbcb47da	-0.0062036337
97	0x3cf7105e	0.030159172
98	0x3e1702b6	0.14747128
99	0x3ddc3c3f	0.107536785
100	0xb9fa2cf5	-0.0004771721
101	0xbc0da48b	-0.008645187
102	0x3d8020e3	0.06256273
103	0xbdd7de7a	-0.10540481
104	0x3e07f225	0.13275965
105	0x3dba917e	0.09109782
106	0x3c526aea	0.012842873
107	0x3dfccba3	0.12343528
108	0x3e3cb3ca	0.18427959
109	0x3e0a8903	0.13528828
110	0x3e82baf2	0.25533253
111	0x3d65271b	0.055945497
112	0x3e01c231	0.12671734
113	0x3dbb077c	0.09132287
114	0x3d30c4a9	0.0431563
115	0x3d752f19	0.05985937
116	0x3de8662d	0.113476135
117	0x3dd522b3	0.10407009
118	0x3cd10a0c	0.025517486
119	0xbd3e03f3	-0.046390485
120	0xbd98eaea	-0.07466681
121	0x3cfbfdfc	0.030760758
122	0xbd90d9ef	-0.070728175
123	0x3d78f151	0.060777012
124	0x3b9968b8	0.004681673
125	0xbd4384e7	-0.047734167
126	0xbdc838b4	-0.0977644
127	0x3d847683	0.06467917
128	0x3e39fbcb	0.18162458
129	0xbde6f818	-0.11277789
130	0x3d746a2d	0.05967157
131	0x3c42ebf7	0.011897079
132	0x3e23bde4	0.15990406
133	0xbde561ea	-0.11200316
134	0xbe4d3752	-0.20040634
135	0xbd2ed485	-0.042683143
136	0xbc125d8b	-0.008933435
137	0x3e0222b6	0.12708554
138	0x3e086efa	0.13323584
139	0xbd0a95cf	-0.033834275
140	0xbcb570c8	-0.022148505
141	0xbe1aba5e	-0.15110156
142	0x3e0ae128	0.13562453
143	0x3be47d11	0.006972917
144	0xbd31ceb7	-0.04341003
145	0x3d80698a	0.0627013
146	0x3d4a6e83	0.0494218
147	0x3df010df	0.11721968
148	0xbd92628d	-0.07147703
149	0x3c279f96	0.010230919
150	0xbdf97277	-0.121800356
151	0x3caf9234	0.02143202
152	0xbe21797b	-0.15768997
153	0x3d691222	0.05690206
154	0x3e130541	0.14357473
155	0x3df27e85	0.11840538
156	0x3da1cc01	0.07900239
157	0xbd0d1374	-0.03444238
158	0x3afc7c56	0.0019263129
159	0x3dd338bf	0.10313558
160	0xbdb8ae69	-0.09017641
161	0xbdb28c34	-0.08718148
162	0x3d52f1cc	0.051500127
163	0xbe11693a	-0.14200297
164	0x3d75e37b	0.060031395
165	0x3e0ca404	0.13734442
166	0xbd3ef5b3	-0.046621036
167	0x3b401888	0.0029311497
168	0x3e2464d1	0.16054083
169	0xbe6b84dd	-0.22999902
170	0xbe08470b	-0.1330835
171	0x3dff4ab8	0.12465423
172	0xbd87b1c6	-0.066257045
173	0x3e179d04	0.1480599
174	0xbdadf2b9	-0.08493561
175	0x3ddebd12	0.10875906
176	0xbb89cec6	-0.0042055575
177	0x3dae2a43	0.085041545
178	0x3d7bef43	0.061507475
179	0x3da25c64	0.07927778
180	0x3e345a2c	0.17612523
181	0xbe1c9a48	-0.15293229
182	0xbd69c711	-0.05707461
183	0xbde447e4	-0.111465245
184	0xbd460dc3	-0.048352968
185	0x3d5b35a6	0.05351796
186	0xbdde218d	-0.10846243
187	0x3de6ba4a	0.112660006
188	0xbe1b8a99	-0.1518959
189	0x3dc467ce	0.09590112
190	0x3e332f81	0.1749859
191	0x3d183abe	0.037165396
